results/notebooks/neural_process/Matern_Kernel/NP/run_0/params.pt (torch_old, 618787 bytes, 28 tensors)

x_encoder.to_hidden.weight f4 [32, 1]
00000000: 4c4a 4bbf d54d 8c3c 5098 29bf 1b82 453f
00000010: 0a26 59bf 9040 7e3f aaa8 7dbf ac8b 92bf
00000020: 0486 82bf 0154 0f3f 7afb e4be fccc 253f
00000030: 524c a0bf c1fe 29bf ef82 53bf 1aea b6be
00000040: 72ee 8dbf 688e 863f a428 15bf 79e3 cf3e
00000050: ca41 6f3f 8e2a 0e3f e50c fd3e df57 9d3f
00000060: a632 ccbe ce85 fd3e 8339 44bf 7c67 863f
00000070: d2d9 a53f 2c9a b3bf 61f8 943f 3276 573f
-0.79410243 0.017126957 -0.66248035 0.7715165 -0.8482367 0.99317265 -0.99085486 -1.1448874
-1.0197148 0.55987555 -0.4472311 0.64765906 -1.2523291 -0.6640435 -0.82621664 -0.3572548
-1.1088393 1.0512209 -0.5826514 0.40603235 0.9345976 0.55533683 0.494239 1.2292441
-0.39882392 0.49516147 -0.76650256 1.0500331 1.2957098 -1.4031425 1.1638299 0.84164727

x_encoder.to_hidden.bias f4 [32]
00000000: cc25 94be e454 a0bc 0247 293d 9596 87be
00000010: b2a4 813e a70a e93a 8ee8 2e3e 2c42 a8bb
00000020: dff6 13be 41a4 2e3f c3e3 10bd 7434 5abe
00000030: 3cad 77bd 6952 183f 86ad 51be 6370 c83e
00000040: 5a4d 28be 255c 40be 4448 24be 7940 e93e
00000050: 943d 173e 9c48 4fbe 8346 3e3d 162f 603e
00000060: e95a ce3e 65cf fc3d cf48 71be a4a7 be3e
00000070: 0414 e5bd 88fc 85be 842a c5bd f6ae 303d
-0.28935087 -0.019571729 0.041327484 -0.26482072 0.25320965 0.0017779664 0.170809 -0.0051348414
-0.14449643 0.6821938 -0.03537346 -0.21309072 -0.060467944 0.5950075 -0.2047635 0.39148244
-0.16435757 -0.1878515 -0.16043192 0.45557 0.14769584 -0.20242542 0.046453964 0.21892962
0.40303734 0.12344245 -0.2356293 0.37237275 -0.11185458 -0.2616923 -0.0962725 0.043135606

x_encoder.out.weight f4 [128, 32]
00000000: 2f66 24bf 74ca f3bd 5011 fcbd 19ba debe
00000010: c2d6 8dbe 2003 52be 16cd 1b3e dbf7 0abf
00000020: ef58 74be f2b6 e33e 6e31 06be 1be1 30be
00000030: e2e9 58be 651c 86bd f8ad 46bf 72f8 f83d
00000040: b6ba 3fbf 4ca8 aabe cdcf 3dbf 4b36 e63d
00000050: 3387 44bc afa5 7f3e 0c36 b53d bb2b 6cbd
00000060: d009 053d 7a62 96be 2b18 02bf 24b6 963e
00000070: ebf8 7e3e 348d 06bf 34ac c3be 601d 8d3e
00000080: b814 db3d 763f dc3c 6a6d 01be bae6 953c
00000090: 804a 273e e2a0 b43d 297d 22be a268 7f3b
000000a0: 6797 aabe dd5e a9bd c544 af3e 243a abbe
000000b0: 789b a7be 6443 193e 9749 edbe 5f08 673e
000000c0: 69cc ccbe 921f b63e 5e9a 26bd 251e 363e
000000d0: cd82 ddbe 5c02 d4be 0a5b b8be 5adf f4be
000000e0: 6e3d a1bd 0872 b4be b682 9dbe a651 3f3d
000000f0: 5d38 e0be ed33 143e c798 8c3e d591 4dbd
00000100: ea21 c83e 1946 283c 4f06 c4be cc8d 033f
00000110: 043b bbbe e1f9 0e3f 8888 3fbf 18a1 43be
00000120: 3176 913e f4c2 f8bd 8ac8 cd3c de53 ef3e
00000130: e0f9 c53d c53f 56bf d1d9 e6bd 11ff 3dbf
00000140: e334 d1be b45f 213f 1709 d53a 44cf 16bb
00000150: ad50 02be d927 2c3f e6b2 18bd c9d6 ad3e
00000160: 97b6 9cbf 7fd5 a4be aa3d 9d3e a1ee bf3e
00000170: 2552 ae3e 9981 9abe fe29 36be 75c7 033f
00000180: 1c86 b53e cb23 d03e 09dc ed3e 37bc 9b3d
00000190: b99b 75be d3ff 663d 7306 ab3d fc21 f13e
000001a0: 0485 5c3e cb8c 96bf d9c4 873e 730e 37bd
000001b0: fdef b3bd 4e51 b5bc c9d2 2d3f 214f c4be
000001c0: 34de 303f d4c1 da3d d007 483f 8994 c5bf
000001d0: 06ca c3bc b2e9 4c3d b1be e6be e2f1 0ebf
000001e0: a138 93be 0d41 94be c3e0 033f 4ced 08bf
000001f0: bc3b fabe 21eb 333f 3190 883e 8a88 9e3d
00000200: 453d 38bc 12d0 c4bd ec58 ac3e 8873 623e
00000210: 57ab 093e fff9 413e 272c 9e3e 8611 a23e
00000220: 1117 fdbe 19bb aa3d e616 59be b0f2 583d
00000230: 44bb 513e eaa6 09bf ed91 6dbe 349e f1be
00000240: f8fa f3be c30e b23e 12c2 20be 92f6 3f3e
00000250: 217f e73d b547 d63e a97e 93be 2502 80be
00000260: 6168 3cbe a2e7 203e cef1 623d ef33 a8be
00000270: 9ff0 2b3e bb71 bd3c c949 8d3e f53d 7a3e
00000280: 49a0 713e 7d6b 353e 6206 d4be bef3 fa3c
00000290: c124 e8be 7ccc ecbd d0f7 19bf 4eac e9be
000002a0: 4db2 afbc ec0c b1bd d6be 023e 08fb 9dbe
000002b0: 2d9d 10bf fee7 743d 039e 053e f29f 30be
000002c0: 14e0 9bbe 663b 1fbf c809 0b3e 0ef4 a8be
000002d0: d062 34bd 8868 293c 843b 53bd 6ebf f4be
000002e0: 4a26 e9bd 71a3 f6be 0f28 4abe b6ea a13e
000002f0: 7e8e 2abe 0079 9a3d 5695 15bf 62ba e13d
00000300: 1d77 22be bfdc 213e 5a28 c8be a1a0 e8be
00000310: 4ea1 c4be 7f81 20bd 923d 20bf 5fe4 fabe
00000320: cb26 23bf dd63 dc3e f3f2 1fbc 3e85 73be
00000330: 72db 6ebe ce3d 1cbf 80dd afbe 0e82 cbbd
00000340: 604f 0ebf b6fc 2bbe 8eeb 50be 0988 963e
00000350: 581a f83c 5ade 0e3e beaf 793e 9e4e 84bb
00000360: 1257 4fbe ef9f 893e 7cae 4bbe 6168 c2be
00000370: 5e16 813e ef73 e9be 63a0 0dbd 45f2 16be
00000380: f036 56bf 66cd 363e 0a9a 3d3e 830e f4be
00000390: b722 cfbe 9285 2cbf 3fe2 2dbd 40a9 b23e
000003a0: 4f2e 10bf c7b5 203e 0682 50be afca d6be
000003b0: 4929 f8bd caa2 673e 0338 b7bd a816 db3e
000003c0: f039 23bf 229d 67be 8309 ccbd 7482 9cbe
000003d0: 4aec 22bf b57b 4abf de3a cd3b bd4a 1cbf
000003e0: 6148 233e db8f 53bf cfd0 cabe f0b0 85be
000003f0: 41a3 1cbf a337 93be 6e73 a8be 2579 20bf
-0.6421842 -0.11903849 -0.123079896 -0.43501356 -0.2770291 -0.20509005 0.15214953 -0.5428445
-0.2386205 0.44475514 -0.13104793 -0.17273371 -0.21182969 -0.065483846 -0.77609205 0.12156762
-0.74894273 -0.33331525 -0.74145204 0.11240824 -0.011995125 0.24965547 0.08848199 -0.057658892
0.03248006 -0.29372007 -0.5081813 0.29435837 0.24899642 -0.5255921 -0.38217318 0.27561474
0.10697311 0.02688573 -0.12639394 0.018298496 0.16337013 0.088197485 -0.15868057 0.0038972278
-0.33318636 -0.08270047 0.34232154 -0.33442795 -0.327358 0.14967114 -0.46345207 0.22561787
-0.39999703 0.3557096 -0.04067456 0.17784937 -0.43263856 -0.4140805 -0.36006957 -0.47826654
-0.07873045 -0.3524325 -0.30763787 0.046708725 -0.43793002 0.14472933 0.2746031 -0.050187904
0.39088374 0.010270619 -0.38286063 0.5138824 -0.36568463 0.55850035 -0.74817705 -0.19104421
0.28410485 -0.12146559 0.025120039 0.46743673 0.096668005 -0.83691055 -0.11272014 -0.74217325
-0.40860662 0.63036656 0.0016253319 -0.0023011724 -0.12726088 0.672483 -0.037279986 0.3395293
-1.2243222 -0.32194135 0.30711108 0.37486747 0.34047046 -0.30177 -0.17789456 0.5147622
0.3545388 0.40652308 0.46456936 0.076042585 -0.23985185 0.056396317 0.083508395 0.4709624
0.21535116 -1.1761717 0.2651737 -0.044691514 -0.087860085 -0.022133496 0.6789976 -0.3834162
0.69089055 0.10681501 0.7813692 -1.5435954 -0.023900043 0.050027557 -0.4506736 -0.55837834
-0.28754142 -0.2895588 0.51514834 -0.53487086 -0.488737 0.70280653 0.2667251 0.077408865
-0.011245077 -0.09609999 0.33661592 0.22114384 0.13444267 0.18943022 0.3089306 0.31653994
-0.4943166 0.08336467 -0.21200141 0.05296582 0.20481592 -0.53770316 -0.23200198 -0.47191012
-0.4765241 0.34776887 -0.15699032 0.18746403 0.11303545 0.41851583 -0.28807572 -0.25001636
-0.18399192 0.15713361 0.055406384 -0.32852122 0.16791008 0.02312552 0.27595356 0.24437697
0.235963 0.17716785 -0.4141112 0.030633803 -0.4534054 -0.1156244 -0.60143757 -0.4563927
-0.021447325 -0.08645043 0.1276811 -0.30855584 -0.5648983 0.059791557 0.13048558 -0.17248514
-0.30444396 -0.6220001 0.1357795 -0.329987 -0.044039547 0.010339864 -0.05157043 -0.478023
-0.11384256 -0.4817157 -0.19741844 0.31624383 -0.16655919 0.0754261 -0.58430994 0.11021878
-0.1586575 0.15806864 -0.39093286 -0.4543505 -0.38404316 -0.039185997 -0.6259395 -0.49002358
-0.6373107 0.4304494 -0.009762513 -0.23781297 -0.23325899 -0.61031806 -0.3434868 -0.09936915
-0.55589867 -0.1679562 -0.20402357 0.29400662 0.030286 0.13952008 0.24383447 -0.004037692
-0.20248058 0.26879832 -0.1989078 -0.3797026 0.25212377 -0.45596263 -0.034576785 -0.14740856
-0.8367758 0.17851791 0.18515792 -0.47667322 -0.40456173 -0.6739131 -0.042452093 0.34894753
-0.5632066 0.15694343 -0.203621 -0.4195151 -0.121172495 0.22620693 -0.0894623 0.42790723
-0.6376028 -0.22618535 -0.09962752 -0.30568278 -0.636418 -0.7909501 0.006263121 -0.6105154
0.15945579 -0.8264138 -0.39612433 -0.26111555 -0.61186606 -0.28753385 -0.32900566 -0.6268485

x_encoder.out.bias f4 [128]
00000000: 6133 e03d 8b55 9bbd acf5 30be 1ef3 a0be
00000010: 9a24 f6bd 7331 d7bb 902e 3d3c 53d6 a73d
00000020: df72 433e 69b4 623d 72d0 81bd 949f 3bbe
00000030: d5df 87be 5948 09bd 4acc 9a3d 877e 2a3d
00000040: 2abd f6bb 47cf 07bd 0170 d0bb a993 e1bc
00000050: e80d 84bd 0437 e1bd ba67 cd3c 6eb5 afbc
00000060: a71d eabc 5cc6 8fbd 338d 03bd 216d 13bd
00000070: 45d2 7fbd 452f c03d 4d19 843d 7709 02bd
00000080: 4faa 1dbe 0604 aebb c7d9 a33d b460 3d3c
00000090: a4d4 f3bd 10fd 303d 8039 1fbe a79d 32bd
000000a0: cdc1 5bbd 13f4 a5be e63b 6bbb 230c 07be
000000b0: 5d17 32bd 6f44 113e f422 24be 853f 353d
000000c0: 6eab 5cbe b51f 623c a0ab 0d3e ffc4 7fbc
000000d0: c6e5 613d 0ea4 dbbd b424 12be 7f23 e53c
000000e0: 20a7 433e 5a22 6abd a39e 0dbe 05b6 5abe
000000f0: 9d75 fabd aeae 573c c9a6 103e 366e ca3c
00000100: 8948 2bbd b91e e6bd 07e4 95bd 1bc4 bebc
00000110: a0fd 383d 8c70 723d fdde 82be 5f01 e83d
00000120: 3093 23bd cc74 4cbe c2df b9bc 4f2e 10bc
00000130: 218d 23be 444b 48bd 998c d1bc c68a 4abd
00000140: 9572 bbbd cf32 90bd ec2f aebe 40a5 c1bd
00000150: e332 b9bd ff59 8fbe 459a c2bc ea15 6c3d
00000160: cb86 373d 02f0 1dbd 559e ab3c c032 aa3d
00000170: 7528 c6bc 8cad 08bd a6cb 09bd aeb6 11bb
00000180: 0f98 cf3c 8692 fcbd f1c8 65bd 69b0 27be
00000190: c859 093d e261 b03d 6f9a a63a 961b 47be
000001a0: 474e 8fba c1cb 2abd 419f 453d 2858 123e
000001b0: 69db c63c 3c7c 89bd 05b1 debd 932a 963d
000001c0: a979 5ebd 18e7 78be fb24 e3bd f3b6 42be
000001d0: 5a2d f9bc ee81 a5bb 7a8f 2fbd 2d51 85bc
000001e0: 3735 a7bd 2b1d eabc d68d 36bc 2d60 fb3d
000001f0: 7b86 55bd 3a1d 95bd faf0 7bbe 9953 70be
0.109473 -0.075846754 -0.17281216 -0.31435484 -0.120187 -0.006567174 0.011546746 0.08195176
0.19086789 0.055347834 -0.06338586 -0.18322593 -0.26537958 -0.03351626 0.07558496 0.041624572
-0.0075298743 -0.03315666 -0.006361008 -0.02753623 -0.06447965 -0.109968215 0.025073875 -0.021448817
-0.028578592 -0.07020256 -0.03211708 -0.035992745 -0.062456388 0.09384016 0.06450138 -0.031747308
-0.15396999 -0.005310538 0.08000522 0.0115587 -0.11905792 0.04321009 -0.15549278 -0.04360738
-0.05365162 -0.32412776 -0.0035893857 -0.13188224 -0.043479312 0.14186262 -0.16028959 0.04425003
-0.2154977 0.013801505 0.13835001 -0.015610932 0.05515077 -0.1072465 -0.14271814 0.027971027
0.19106722 -0.057161666 -0.13830046 -0.21358497 -0.12229464 0.0131642055 0.14126123 0.024710756
-0.04181722 -0.11236329 -0.073188834 -0.02328687 0.04516375 0.059189364 -0.25560752 0.113283865
-0.03993529 -0.1996643 -0.022689704 -0.008800103 -0.15971805 -0.048899904 -0.025579737 -0.04944875
-0.09152714 -0.07040941 -0.34020936 -0.09455347 -0.09042909 -0.2799835 -0.023755202 0.057638086
0.044806283 -0.038558967 0.020949522 0.08310461 -0.024189213 -0.033368632 -0.03364148 -0.002223413
0.025341062 -0.12332635 -0.056099836 -0.16375889 0.033532888 0.0861242 0.001271082 -0.19444117
-0.0010933363 -0.04169822 0.04824758 0.14291441 0.024274545 -0.06713149 -0.108736075 0.07332339
-0.054315243 -0.24306905 -0.11091038 -0.19015102 -0.030417133 -0.005050889 -0.04286144 -0.01627406
-0.08164447 -0.028578361 -0.011142215 0.122742034 -0.052130204 -0.07280965 -0.24603644 -0.2346939

xy_encoder.resizer.to_hidden.weight f4 [32, 1]
00000000: ac6c 863c 70c1 4fbf cbef 0e3f 6f1f b13e
00000010: 5a6b 283f b257 a43e dab2 3f3f e063 1c3f
00000020: 3915 c3be 2d10 0f3f be3d 6fbf 1a83 4c3e
00000030: ed3d 253f f1b1 423f 5fe0 f33e a5af 163f
00000040: d5a4 613f 00be 20bf 762d 503f ed94 94be
00000050: a92a 54bf 0696 3c3e 5def 293e 4260 48bd
00000060: f664 613e 317c 3d3f 5e52 933e d0f3 c1be
00000070: 2926 61bf ddd9 c5be 2546 4a3e 66a3 d13d
0.01640924 -0.8115454 0.55834645 0.34594294 0.65788805 0.32098156 0.7488228 0.610899
-0.3810213 0.5588406 -0.93453586 0.19971886 0.64547616 0.7605277 0.4763212 0.5886176
0.8814214 -0.62789917 0.8131937 -0.2901987 -0.82877594 0.18416604 0.16595216 -0.048919924
0.2201117 0.74017626 0.2877378 -0.37881327 -0.8794885 -0.3864278 0.1975332 0.10236244

xy_encoder.resizer.to_hidden.bias f4 [32]
00000000: 7e71 af3d 946d 23bc 0d29 3fbd ec4c 72be
00000010: de72 b1bc a969 6a3d d6e6 0abd d047 3cbd
00000020: c229 afbd f015 b7bd df2d 963c fbd2 6a3b
00000030: 3709 0bbd 1392 eb3c 867c d4bd 7943 d7bd
00000040: 51b2 53bd 6980 14bc abef eebc 979f 04be
00000050: 95eb 87bc e68d 31be a11a 84bd 3674 ecbc
00000060: c700 56be 2ab4 13bc 4774 23be 4f96 19be
00000070: 0abb ce3c e414 dcbd 986b 1b3e 4d8c 3abe
0.08566569 -0.009974856 -0.04667001 -0.23662156 -0.021661218 0.05722967 -0.03391155 -0.045966923
-0.085528865 -0.08939731 0.01833242 0.003583132 -0.033944335 0.028756177 -0.103753135 -0.10510916
-0.051683728 -0.0090638185 -0.029167017 -0.12951504 -0.016591826 -0.17339286 -0.064503916 -0.028864007
-0.20898734 -0.009015122 -0.15962325 -0.14998744 0.025235672 -0.10746172 0.15177763 -0.18217583

xy_encoder.resizer.out.weight f4 [128, 32]
00000000: 4543 36bd ea64 ccbe 318c e7bd 656b 2e3e
00000010: faad 21bf 5553 e3be ebf1 01bf 6d3e c6be
00000020: d1a1 2dbc dcf4 30be 9dfe 223e 504b d4bd
00000030: 6e14 403e e5ed 82be ddea 07bd 48b6 273e
00000040: 2139 17bf f99d ba3d f110 00bf e727 bc3e
00000050: 322b 9ebe 98cd c9bd ffc1 d0be b0dc 76be
00000060: 61e6 c83e 304f 86be b909 863c 1012 0d3e
00000070: cf1a 1d3d 3a16 b83e 0634 b4bd 882d 36be
00000080: f16d 163e c3aa 183d a33f cabe c395 933e
00000090: 5699 d6be bae1 9e3e 76d0 0f3e d3c9 a7bd
000000a0: cc9d 13bd d31a c43b 1108 d2be 0d98 f1be
000000b0: 234c e0bd 6c8d 76be 9f31 173e e18e 96be
000000c0: d5b1 ecbe 3f92 a8be 35dc c4be 10f8 bb3d
000000d0: adf3 9cbe 5ac9 663e e876 ad3e 6c56 bdbe
000000e0: 7d25 7cbe 91f3 523e 739d da3e faa2 d23d
000000f0: 425f 9b3e 84c2 bdbe 6582 b63d 5e7f 373e
00000100: 2758 9a3e 23d7 e33d 7fe2 0dbe 8596 07be
00000110: f526 0d3e e1c5 5e3e 771f d23d 379c e03e
00000120: 5a9d b83e 2715 3e3d f59e 073f fe29 c73e
00000130: cf39 083d 6bd4 55bd 1c03 b8bd 077c 6fbd
00000140: 6d07 893c 7c5c 523e eaff e03e 371b cbbd
00000150: 8cfa 62be 127e b4be 7c46 35be b046 ee3d
00000160: da2c 2ebe 05a3 9fbe 7174 6e3e 5b74 793d
00000170: f55c 4cbe 8dce 4fbe 0d21 e6bc edff 663e
00000180: cfbf b2be 4107 313e d1d6 a63d 36ea e6bc
00000190: 2de2 52bd 9417 7abe ae7c 063e 7570 e13e
000001a0: 4532 1c3e bfac b3be 17de 663e 92eb 853c
000001b0: 241c 133e 4394 473d 0f46 1a3e ae77 89be
000001c0: 35a9 7fbe 39da c3be ca4a 9d3e 930f 0cbe
000001d0: a0f7 90bc 5f82 8d3e cc4a 603e a51d ba3e
000001e0: ac54 883e 5c47 19be 56f3 1b3b 4f1e 963e
000001f0: 388b eebd fd1b f23e 08bb 6ebe b6f2 bf3e
00000200: a5a5 bebe b709 a2be 4929 ae3d 98a0 43bc
00000210: 9aae 6d3e 9d52 b2bd b5c2 e03e dd41 063e
00000220: a580 fd3e 993a 96bd 4f9e 8abe c1df a0bd
00000230: 6652 32be d48c 913e daf1 3fbe cfd6 8abe
00000240: adc0 7fbe 8142 bd3e 854b 8ebe 4bfd 213e
00000250: 187a 9d3e e6d6 09be 677f f0bb 6364 06be
00000260: 3357 1c3f 95e8 f0bd 24e4 2f3e ba7a 2d3e
00000270: 1987 c6be d2f7 813e 7078 72be 990d 1f3f
00000280: e59e 7d3e 340b 183e bf00 15be 1bc9 8abe
00000290: bf0c 9f3e 5b62 a43c 2312 c13e fb4f ddbd
000002a0: e8f3 a6be 54d0 b23e a48d 533e 629f ac3e
000002b0: 596a c1be fde5 2b3d 9917 c4be 439a d63d
000002c0: b3eb 9b3e e75d 313e e69d 3bbe 4f02 aabe
000002d0: 607d f63d 1af9 5b3e c367 34be 1880 b1be
000002e0: 99b3 203e a76e 0b3e e85d 2bbe b612 cdbe
000002f0: 3015 d2be 7bcc d93e 26a6 0bbd 0761 9c3e
00000300: 79ed 0b3e b3d7 10be 141e b6be aa2b dabe
00000310: 0def 8d3d 8384 d3bd 3462 e23d 84eb 13be
00000320: a57e acbe a46e cebe cc69 3e3e a838 55be
00000330: 2eb3 3d3e e0da 30be 5db2 55be f166 18be
00000340: 828a 423e 42ec 59be 5198 cfbe 2ce9 d8be
00000350: 2518 cc3d 8711 edbe 676d 04be 253e babe
00000360: eece 7dbe 200b f9be a2e3 7dbe 21a4 cabe
00000370: cd81 a7be 3642 eebe 4d5a 8e3d 7eb7 9dbe
00000380: befe 80be e4e5 f9be 9adf 0b3e b37f a7be
00000390: 178f adbe 5b06 20be f6a5 b3bc 9f00 90be
000003a0: b061 fcbe bbe8 8bbe 7d49 9c3e 07cf e9be
000003b0: b78d 0cbd bc08 aabd e875 ecbd 7902 fcbe
000003c0: f742 2dbd 3986 8e3e bdaf 023e f838 21be
000003d0: abbc c9be eab8 3b3d 795c a23e 9b16 3d3d
000003e0: 2ec5 fb3d 6599 0fbd 06b4 bdbe ed03 8dbe
000003f0: f882 893e 3006 ebbe c7b1 efbd 1af6 4c3e
-0.044497747 -0.3992074 -0.11306036 0.17033155 -0.6315609 -0.44399515 -0.5075976 -0.38719502
-0.010597662 -0.17280906 0.1591744 -0.10365927 0.18757793 -0.25572124 -0.033182967 0.16378129
-0.59071547 0.09112162 -0.5002585 0.36749193 -0.3089233 -0.09853667 -0.40773007 -0.24107623
0.39238265 -0.2623229 0.016362058 0.13776422 0.038355645 0.35954458 -0.08798985 -0.17790806
0.14690377 0.037272226 -0.39501676 0.28825197 -0.4191386 0.3103159 0.14044365 -0.08192792
-0.03603916 0.005984643 -0.4102178 -0.47186318 -0.10952022 -0.24077386 0.14765023 -0.29405883
-0.46229425 -0.32924077 -0.38449255 0.091781735 -0.3065466 0.22537747 0.3387978 -0.36979997
-0.24623676 0.20600726 0.4269825 0.102849916 0.30346113 -0.37062466 0.089115895 0.1791968
0.3014538 0.111250184 -0.13855933 -0.13241012 0.13784392 0.21755172 0.10259908 0.43869182
0.3605755 0.04640689 0.52976924 0.38899225 0.033258256 -0.05220453 -0.08984968 -0.05846789
0.016727174 0.20543092 0.43945247 -0.099173 -0.22165889 -0.35252434 -0.17702669 0.11634576
-0.17009297 -0.31179062 0.23286606 0.06090198 -0.19957335 -0.20293637 -0.028091932 0.22558565
-0.34911963 0.17287923 0.08146442 -0.028187852 -0.05148523 -0.24423057 0.13133499 0.4403111
0.15253551 -0.35092732 0.22545658 0.01634768 0.14366204 0.048725378 0.15065788 -0.2684912
-0.24966891 -0.38252428 0.30721122 -0.13677816 -0.017696202 0.27638528 0.21903533 0.36350742
0.266271 -0.14968628 0.0023796163 0.2932 -0.116476476 0.47286978 -0.23313534 0.3748986
-0.37235752 -0.31648037 0.08503968 -0.011940144 0.23211136 -0.087071635 0.4389855 0.13111062
0.4951221 -0.07335395 -0.27073905 -0.07855178 -0.17414245 0.28427756 -0.18744603 -0.2711701
-0.24975844 0.369648 -0.27791992 0.1581928 0.30757213 -0.13460883 -0.0073394063 -0.13124232
0.61070555 -0.117631115 0.17176872 0.16941348 -0.38774946 0.25384384 -0.23678756 0.62130123
0.24767645 0.14848024 -0.14551066 -0.27106556 0.31064412 0.02006643 0.3770915 -0.10806271
-0.3260796 0.34924567 0.206595 0.3371535 -0.3777645 0.04196738 -0.38299254 0.10478642
0.30453262 0.17320977 -0.18321952 -0.33204886 0.12035632 0.21481743 -0.17617707 -0.3466804
0.15693511 0.1361643 -0.16735041 -0.40053338 -0.4103179 0.4253882 -0.034094 0.30542776
0.13664807 -0.14144783 -0.35569823 -0.42611438 0.06930361 -0.10328009 0.11053887 -0.14445311
-0.33690372 -0.40318787 0.18595046 -0.20822394 0.18525383 -0.17270994 -0.20868821 -0.14883019
0.18998149 -0.21281531 -0.40545896 -0.42365396 0.09965543 -0.46302435 -0.12932359 -0.36375538
-0.24785969 -0.486413 -0.24793866 -0.39578345 -0.32716218 -0.4653489 0.06950817 -0.30804056
-0.25194353 -0.48808205 0.13659516 -0.32714614 -0.3389823 -0.15627424 -0.021929722 -0.28125474
-0.4929328 -0.27325997 0.30524817 -0.45665762 -0.034314837 -0.08302447 -0.11545926 -0.49220636
-0.04230019 0.2783678 0.12762351 -0.15744388 -0.39401755 0.045830645 0.31711176 0.046164136
0.122934684 -0.035058398 -0.3705141 -0.27542058 0.26857734 -0.45903158 -0.1170383 0.20015755

xy_encoder.resizer.out.bias f4 [128]
00000000: 52c2 86be 9ab6 f1bd 6f59 e33d 9713 76bd
00000010: e50c f7bd a965 b2bd 1d15 37bd 3db3 84bd
00000020: 5c73 b5bd 7485 513d 518f 08bd 92c2 fbbd
00000030: 3615 51be e127 debd 96ef c03c 4d89 913d
00000040: 8ee6 183c 775d 58bc 169e 79bd b7c9 86bd
00000050: 4e80 10be 5b43 0abe 4aee 04bc 41a0 b33b
00000060: 5ba4 16be 052f 83bc e70e 6dbc ec77 5bbc
00000070: 59de 77bd 913e 79bb cc41 a73d 1988 0dbd
00000080: 9063 e0ba 4c90 6ebb e71f a0bc b32b 59bd
00000090: 7b3b debd 3333 cf3c 44c0 e1bd d939 efbd
000000a0: fa85 9abd bca8 fabd 3c55 2b3c a17b 01be
000000b0: 2336 f9bc 5099 2dbe fe2c a0bd 6e1a ebbb
000000c0: a5df 23be 21ee 71bc e38b d53d 9931 ecbd
000000d0: 50cc c9bd 022d dcbd 174e 57bc 5c0a 37bd
000000e0: e2e1 403e 39ac 1bbd 4ec2 0cbe 8be6 94bd
000000f0: 651d 20bd 42f3 5dbc 5f0e 7c3d 9b91 993d
00000100: 48f8 10bd 084f c1bd c835 35bd 8e90 d1bc
00000110: cae0 3fbd bcab a6bc dfa4 33be c5e5 773d
00000120: 4b94 073c 637b 06be 025a 06bd 105e 633b
00000130: 7fe8 44be 22f2 34bd 5b6d 0ebc 86fd e63b
00000140: 6fee e0bd fad8 b1bd 1379 45be dd86 aabd
00000150: 8dfb a7bd 4449 53bd efe4 08be d24c e3bd
00000160: 577c 8abd e965 a1bd c4e3 1ebc c11a 163d
00000170: 4b66 d8bb c6d3 73bc ab06 93bc 18c5 983c
00000180: f422 2bbb d151 d8bd d4b7 44bd 1c50 59bd
00000190: b4fa d53b 2298 503d eec3 06be 51cc 47bd
000001a0: 5fd4 133c 0e65 023d 2e29 b2bd 1c48 c5bd
000001b0: d67d dc3c 86f8 4ebd 53fb 39bd ce32 06be
000001c0: 26c1 21bd 33b4 2abe f9c7 c8bd ff7f 7bbe
000001d0: 2d06 79bc 8bb4 b2bd 5a8e 06bd d6c7 9cbc
000001e0: 202a 35be d8f9 d8bc f377 13be 8e5e 6a3d
000001f0: 0000 0000 92a4 93bd dd8e 4dbe 523c 70be
-0.2632013 -0.118024066 0.111010425 -0.060077276 -0.12063006 -0.087107964 -0.04469787 -0.064794995
-0.08859894 0.05115266 -0.033339802 -0.12292971 -0.20418248 -0.1084745 0.023551743 0.07106266
0.009332312 -0.0132058775 -0.060941778 -0.06581443 -0.14111444 -0.13502257 -0.008113453 0.0054817502
-0.14711134 -0.016013632 -0.014468885 -0.013395291 -0.06051478 -0.0038031677 0.08166847 -0.03455362
-0.0017119516 -0.0036401926 -0.019546462 -0.05302019 -0.10851189 0.025292968 -0.11023 -0.116809554
-0.07545085 -0.12239215 0.010457333 -0.12644817 -0.030421322 -0.16953015 -0.078210816 -0.0071747815
-0.16003282 -0.014766247 0.10427072 -0.115328975 -0.09853423 -0.10750772 -0.013141177 -0.044687614
0.18836167 -0.03800604 -0.13745996 -0.07270535 -0.039090533 -0.013546767 0.061537143 0.07498475
-0.03539303 -0.09438902 -0.044240743 -0.025581624 -0.046845235 -0.020345561 -0.17543362 0.06052186
0.008275102 -0.13133006 -0.032800682 0.0034693517 -0.19229315 -0.04417623 -0.008693065 0.0070492653
-0.109829776 -0.08683963 -0.19284467 -0.083265044 -0.082022764 -0.051583543 -0.13368581 -0.11098637
-0.06761997 -0.07880766 -0.009697858 0.03664661 -0.006603991 -0.014882034 -0.017947515 0.01864867
-0.0026113363 -0.1056248 -0.048026875 -0.053054914 0.0065301303 0.050926335 -0.13160679 -0.048778836
0.009022801 0.031834655 -0.08699261 -0.096328944 0.026915472 -0.05052998 -0.045405697 -0.13105318
-0.03949084 -0.16670303 -0.09803767 -0.24560545 -0.015199226 -0.08725842 -0.0328506 -0.019138258
-0.1769185 -0.026486322 -0.14401226 0.05721908 0.0 -0.07209124 -0.2007403 -0.2346051

xy_encoder.flat_module.to_hidden.weight f4 [128, 128]
00000000: 2105 f43b 3b56 08bd 56db bcbd 4ffd 06be
00000010: b8bb a1bc 724f 21bd d3ba e1bc 7129 aebb
00000020: b27a d03d 76df c53d c3a9 183d 07ce 103c
00000030: 04db f2bd d616 d63c 2048 c83c 272c 463d
00000040: 9049 6dbd 7c6c cdbd e680 e7bd 9781 3ebd
00000050: 12b2 073e b91b a1bb 435b 083c f730 02bd
00000060: 6087 4e3d 1dcf 783c e98e 403d 6116 133d
00000070: f8ff 5d3b d053 c73d ef13 12bc 8dea 00bb
00000080: 704c 3dbe 4f24 8cbd a3b6 f93d 01b2 353e
00000090: de8c 3b3d 2f04 05bd 5224 8fbd e417 b2bd
000000a0: 1c15 3abc 8b84 1bbe 6b80 5cbd a6a9 e83d
000000b0: ae92 a63d e5fe 58bd 504a 32be 8d55 aabd
000000c0: 7489 29be dd6d 33bd 6f2a 71bd 7109 1d3d
000000d0: a107 90bb 931b 423a ac94 5dbd a6ba 793d
000000e0: 78d8 b33d add6 13bd f73b a73d 409f 67bd
000000f0: a30c 993d dc3d c93d a46a 383b ae51 4abc
00000100: 0cd1 3bbd 84f8 1cbd a6b3 bd3d 760d 6f3b
00000110: a8e6 2ebd c50f d93d 66a0 60bb 5464 f03d
00000120: 47bf 8ebd 563b 8bbd c461 debd 13f5 b6bd
00000130: 4879 f4bc 6728 893d b82d b1bd 98ce 75be
00000140: bafa 383d 4355 05be 06a7 6abc 8d94 ef3d
00000150: a3be 8b3d 89d1 04be a8ff 0abc 44cd 13be
00000160: a5ab d6bd 393f 81be 7910 3dbb 2820 0f3e
00000170: 9595 bdbd d51f b2bd c638 61bc 64d7 cd3c
00000180: dd07 ed3d 9485 06bc 5960 ae3c 47bc 9dbd
00000190: 4ee3 d63d 9591 a63d cd2e a6bd 358f a4bd
000001a0: facc 1bbd abf9 cabd a6b9 01bd a7ea 83bd
000001b0: 49ff 733d 287d c33d b80f 373d 434f febc
000001c0: c0f9 1b3d 78ac 1cbe 3509 943d 99e7 e2bd
000001d0: 07f7 19bd e7ba 963d 0948 b83c fa43 863c
000001e0: 8af9 253d bffe 2dbd 3a44 283d 7ceb 7fbd
000001f0: cac3 603d 4994 3bbd bba7 ffbc 904d 1dbe
00000200: 8fcc 723c bddb 0ebd bac5 553d 9e96 653d
00000210: 72e2 88bd d10e 623d 6c47 d53c 753b 1dbd
00000220: 7648 6dbc 5db1 833d 26bd 523d 1e92 a7bd
00000230: a290 a2bd bfd5 8d3d 1ade 4bbd 0041 a0bb
00000240: 13bb a8bd 8a42 9dbd d49b a237 6652 7d3d
00000250: 5a95 56bd db0c 593d a936 7cbd a352 a1bb
00000260: 6cec 0d3c f2cc 293d aab3 0abd 54c0 313d
00000270: b0d2 41bd ffb2 d73c c354 573d 00a4 253d
00000280: ff2d a4bd c78b f73c 24f1 c43a fa06 103d
00000290: 54bf 813d 1b4d 8f3d 8dbf 4f3c a2f3 92bd
000002a0: 5f72 493d afdc 013d 689b 2fbd 7b21 a53d
000002b0: 6ff4 ab3d 88c3 f83c 9fc3 97bd 1036 903d
000002c0: 36a9 aabc 6a1f afbd f9c3 c3bd e022 143d
000002d0: fe95 5a3c f155 aa3d a205 85bc 7c40 9fbd
000002e0: 25f8 973b b187 183d 4f5d a43c b53b 6d3c
000002f0: 540c 4a3d a70a a73d 9e44 a53d f89d 333c
00000300: 870d 9ebd c321 babd 7326 0bbd 680b 0e3d
00000310: 990c 50bd e3df 20bc 7b42 183d 74cb 95bd
00000320: c51d 8ebc 40a1 fb3c f28b 29bd 3b35 2b3d
00000330: 7d77 b6bd fa2c 6a3d 41c6 b2bd 3d10 87bc
00000340: f2ca 573d 9faf e1bb 5a1c 883c 370a 893d
00000350: 38eb adbd a437 29bc 1c9e 6c3d ef2c 0bbd
00000360: bb88 883d 8bba 37bd 8ef1 263d e0c3 b1bc
00000370: d5f4 9d3d fce1 96bd a81d 5cbd efb3 85bd
00000380: 9b3a 143c 0af4 5dbc 49e3 703d 4b71 acbd
00000390: 668f 9d3c de24 c1bd 38de 533d f708 b2bd
000003a0: 174b 9bbc 3957 ee3c 86c0 a23d 7e5e 6a3d
000003b0: c454 96bc c893 ec3c ad07 383d 7151 bd3a
000003c0: 7f5d 963d d34e 2abd 129e 42bd cc6f 143d
000003d0: 15c2 933d 22d8 f7bb 7e0c 27bd a02e 9cbd
000003e0: 74de 4dbd 72da a1bd c1da fabc 8bab cdbc
000003f0: 3e8d 53bd 2414 863c e757 3cbd 824a a73c
0.0074469005 -0.03328536 -0.092215225 -0.13182567 -0.019742832 -0.039382406 -0.027554905 -0.005314999
0.10179652 0.096617624 0.037271272 0.008838183 -0.1185818 0.026133936 0.024448454 0.04838195
-0.057931483 -0.100304574 -0.11303882 -0.046510305 0.13251522 -0.004916635 0.00832254 -0.031784978
0.050422072 0.015186098 0.04701129 0.035910014 0.0033874493 0.09732783 -0.008915885 -0.0019671053
-0.1848619 -0.06842863 0.12193038 0.17743684 0.04578864 -0.032474693 -0.069893494 -0.08695963
-0.011357572 -0.1518728 -0.053833406 0.11360483 0.08133446 -0.05297746 -0.1741116 -0.08317099
-0.1655634 -0.043805946 -0.05887836 0.038339082 -0.0043954407 0.00074046216 -0.054096863 0.060969017
0.087815225 -0.036093403 0.08165734 -0.056548357 0.074731134 0.09826252 0.0028139735 -0.0123485755
-0.04585366 -0.03832294 0.09262781 0.003647653 -0.04270044 0.10598711 -0.0034275292 0.11737886
-0.06970077 -0.06798427 -0.10858491 -0.08933463 -0.029842988 0.06697159 -0.08651298 -0.2400459
0.045160986 -0.13020806 -0.014322048 0.11698256 0.068234704 -0.12970556 -0.008483805 -0.14433771
-0.10481957 -0.25243548 -0.002884893 0.1397711 -0.09257046 -0.08697478 -0.013746446 0.02512712
0.115737654 -0.008210558 0.021286177 -0.07701927 0.10492574 0.08133236 -0.08114395 -0.08035127
-0.038037278 -0.09910902 -0.03167119 -0.06441241 0.05956963 0.09545356 0.044692725 -0.031043654
0.038079977 -0.15300167 0.072283186 -0.1107933 -0.0375891 0.073598675 0.022495287 0.016389836
0.040521182 -0.042479273 0.04108069 -0.062480435 0.05487422 -0.045795713 -0.03120791 -0.15361619
0.014819278 -0.034877528 0.05219052 0.056051843 -0.06683816 0.05518991 0.026035033 -0.03838678
-0.014482608 0.06430314 0.051449917 -0.081821665 -0.07937743 0.069255345 -0.04977236 -0.004890561
-0.082388066 -0.07678707 1.9384468e-05 0.06184616 -0.052388526 0.052990776 -0.061575565 -0.004923181
0.008662324 0.041455217 -0.033862747 0.04339631 -0.047320068 0.02633047 0.05257107 0.040439606
-0.080165856 0.030218018 0.0015025479 0.035162903 0.06335321 0.069971286 0.012679947 -0.071753755
0.04918134 0.0317046 -0.042872816 0.080630265 0.083962314 0.030366674 -0.07410359 0.070415616
-0.02083264 -0.08550914 -0.09558863 0.036166072 0.013341425 0.08317173 -0.016238037 -0.07775971
0.0046377354 0.03723878 0.020064024 0.014479567 0.049328163 0.08156329 0.08069728 0.010962956
-0.07717424 -0.09088471 -0.033972215 0.034678847 -0.050793264 -0.009819004 0.037172776 -0.07314196
-0.01734818 0.030716538 -0.041393228 0.04179881 -0.08909509 0.0571718 -0.0872922 -0.016487235
0.052683778 -0.0068873907 0.016615082 0.066914015 -0.0849213 -0.010328207 0.057767972 -0.0339784
0.06666704 -0.044855636 0.04075771 -0.021699846 0.07712714 -0.07367322 -0.05373922 -0.0652846
0.009047176 -0.013546953 0.058810506 -0.084200464 0.019233417 -0.0943086 0.051725596 -0.08693116
-0.018956704 0.029094325 0.07946877 0.05721902 -0.018350966 0.028879061 0.044929195 0.0014443827
0.07342052 -0.04157908 -0.04751403 0.03623943 0.072147526 -0.007563607 -0.040783398 -0.076260805
-0.050260976 -0.07902993 -0.030621888 -0.025106212 -0.05164837 0.016367026 -0.045982268 0.02042127

xy_encoder.flat_module.to_hidden.bias f4 [128]
00000000: 000b 8a3d 6a68 6cbc 03d6 653d 584b b3bc
00000010: 01b8 79bd 066b d93c b791 bd3c 6f4d 94bd
00000020: 697f 38bd 8a7b 883d a66f 31bd 971f 17be
00000030: 8429 14bd e736 8e3e b752 13bc 4415 36be
00000040: cc88 8a3c f28f 79bc bea0 973d c2dc 96bc
00000050: 27c3 bb3d ad70 f63c 7a60 b6bc 3339 f7bd
00000060: b574 d73b 177e a0bd c63e f5bc f96a f9bc
00000070: 432d 7e3d 43ad 013e 8c42 c43d a7fc 293d
00000080: 211e 68bc 8f37 9bbc badc 40bd 6746 debd
00000090: 0529 cdbc 6c61 32bd 88bf 5dbe 98ea 22bd
000000a0: 83ca 50bd 983d a7bb 521c a63c 22bf 85bd
000000b0: 733b 553d 1de9 12bd 0dd9 08bd d0c4 b4bc
000000c0: 91c2 1bbc 42a6 3d3d aa17 acbc 9ad1 163d
000000d0: e595 4bbd acb7 2a3d 01cd 40bd 02e2 5abc
000000e0: 5a05 363b bd35 0cbd 4615 ccbd f15d 1dbd
000000f0: c47f fdbc 43d1 b83d da72 5ebd 8783 013d
00000100: 9e11 05ba eb2e 253c 9442 97bc f824 0abc
00000110: bc56 7abc aacd 00bc 49d9 fe3d 4a06 ba3c
00000120: 4655 e9bb b2ea 38bd 6bba 29bd 98df 563d
00000130: 1d1f 933d efd0 fd3c 5f35 493c 1fbf 0abd
00000140: 22d3 19be 0ced 1d3d 932c 29bd 945e e7bc
00000150: 9f53 583c 5508 e7bb 4dda d7bc 3679 fd3d
00000160: d1ed 5ebc d66b 593a b1a8 213e 58ab cb3d
00000170: b6b1 32bc d4b1 ecbb 4b98 e4bc 04d6 83bd
00000180: 3bf7 4a3d 076e 89bd a6ec 0fbd c288 58bc
00000190: 20e4 873d acf1 7eba c681 9abd 66f2 fabc
000001a0: b411 9ebc e731 bdbd bb2a 93bd a86c 1939
000001b0: 6e54 a7bd c6f3 28bd a116 9abc 4cec 8abc
000001c0: 2839 eabc fec5 95bc 1d0a 123e 43b6 16be
000001d0: d306 953c 88d8 203d 775b 46bd e22c 5abd
000001e0: b3d1 bbbc edb3 08bd 5ce8 9cbd 73cd 2cbd
000001f0: ff12 35bd 0992 6cbc 28c4 443d fdbf 023d
0.06740379 -0.014429191 0.0561123 -0.021886513 -0.060966495 0.02654029 0.023140771 -0.07241332
-0.045043383 0.06664188 -0.043319367 -0.14758144 -0.036172405 0.27776262 -0.008991889 -0.1778155
0.016910933 -0.015232073 0.07403706 -0.018415812 0.09168082 0.030083025 -0.0222628 -0.12071457
0.006575192 -0.0783655 -0.02993716 -0.030446516 0.062054884 0.1266375 0.09583005 0.041500714
-0.01416734 -0.01894739 -0.0470855 -0.10853272 -0.025043974 -0.04354994 -0.21655095 -0.039774507
-0.05097438 -0.005103778 0.020277176 -0.06530596 0.05205865 -0.035866845 -0.03341012 -0.022066504
-0.009506837 0.046301134 -0.021007378 0.036820985 -0.049703497 0.04167907 -0.047070507 -0.0133595485
0.0027774186 -0.034230936 -0.09964995 -0.038419668 -0.030944712 0.090242885 -0.05430875 0.031619575
-0.00050761725 0.010081987 -0.018464364 -0.008431666 -0.015279468 -0.007861534 0.124437876 0.022708077
-0.007120761 -0.045145698 -0.041437548 0.05245933 0.07183669 0.030983416 0.012280791 -0.033873674
-0.15021947 0.038556144 -0.041302275 -0.02824334 0.013203531 -0.007050554 -0.026349211 0.12376635
-0.013606505 0.0008293962 0.15787007 0.099447906 -0.010906627 -0.007223347 -0.02790465 -0.064373046
0.049552184 -0.06710439 -0.035137795 -0.013216199 0.06635308 -0.0009725343 -0.075442836 -0.030633163
-0.01929555 -0.09238034 -0.071858846 0.00014631695 -0.081704006 -0.041248105 -0.018809618 -0.016958378
-0.028591707 -0.018282887 0.1426167 -0.14717965 0.01819173 0.039269 -0.04842707 -0.05326546
-0.02292714 -0.033374716 -0.076615065 -0.04218812 -0.04420757 -0.014439114 0.04803863 0.031921376

xy_encoder.flat_module.linears.0.weight f4 [128, 128]
00000000: f225 bbbd 6565 853d cd59 a7bd ef41 ff3c
00000010: 8e08 d4bd 967e 71bd 3362 07be 5037 533b
00000020: 3c41 59bd 1bba 753d 896e 923c d5f0 65bc
00000030: df33 b0bd f0b2 23bd 7244 0f3d 5984 66bd
00000040: 2a85 d83c 014c f8bc 13f8 7abd 4c67 e4bc
00000050: 2581 8d3d 52be e2bc 6024 6fbb e198 25bd
00000060: ebd0 34bb 8bdf 223d 87ed 82bc b31e a2bd
00000070: 4934 2fbd a423 82bd ea92 0c3d 34ec 89bd
00000080: 6a26 bdbd a03f 0abc 3307 b3bc 962a 8cbd
00000090: aa3b bbbc 9234 8abd 0927 4e3d 2019 393c
000000a0: 7adb 773d c316 3a3d 4e6f debc ceb1 9b3d
000000b0: febe bbbd 6de1 c4bc 718b a4bd 5212 63bd
000000c0: e75d c5bd 0eb2 4a3d 5af6 8ebd 994b 8dbc
000000d0: 332f 9dbb 1dcc 953c 47b0 593d f8a7 0cbd
000000e0: e04d 30bd c05f bfbd 1b6b 023d fc6d 973d
000000f0: faba 8dbd 2189 44bd 5297 543d 3085 fcbc
00000100: fa9c f13b a44c 7fbd 893e 833d 4998 81bd
00000110: edce 18bd ee63 2ebc 88c7 7f3d 845a 733d
00000120: 7627 8bbc 2d3f a23d 8595 783c 5529 cebc
00000130: c7c9 923c 7833 61bc 919b 7fbd 7fe0 dd3c
00000140: ad53 213d 374c ae39 aeb5 1cbd 7a4e a8bd
00000150: 8ef3 88bd 06eb 4f3d 2981 293d da8a 2d3d
00000160: d8c3 103d 693d 1fbd f41b babd 0ed9 8ebd
00000170: 5690 533d ed8f e83c 5658 e4bc c14e 8ebd
00000180: ae0e 7cbc 2763 32bd d40e 56bd 26d5 10bd
00000190: ff29 93bc 8650 a73c cabb 6bbd 2424 e23c
000001a0: 9ec8 1cbc f4e5 1bbd 0aed 193d 600c 393d
000001b0: af42 cebc bb1e 2cbc fb08 50bd bf7a 953d
000001c0: 7009 093d e054 78bd bdb5 cf3c af8a 8e3c
000001d0: ccf4 a23c 2e7d 983d e82e ce3c 0b42 3fbd
000001e0: 0ecb 543d 2bf0 adbd 3aac 99bd fab6 8abd
000001f0: 549e 56bd 2e38 4e3d 7d22 71bd 331f 57bd
00000200: 757c f73c 0767 0ebd 9847 993c 5342 af3c
00000210: f10f 9c3d 5687 96bd 52ab ef3c be7b 29bd
00000220: c6ab 55bd 661a 7cbb ac34 6a3b 2c1a 29bd
00000230: cfbf ad3c e6dc c7bd 6fe6 9c3d 6fac bcbd
00000240: 819f dc3a 9dc7 c93c 0799 973d 2646 9d3d
00000250: 3da4 48bd 9b87 b1bd f97d bd3a 765c 00bd
00000260: 5b34 183d 1f54 c63d b366 83bd bec1 513c
00000270: f394 c5bd b999 123c 63c0 e1bd 4baa 3bbd
00000280: ea0c 5cbd 417a 3f3d 45ac 48bd ea42 5e3d
00000290: 57f5 383c 7e7d e83b be57 9fbd e4cf a9bc
000002a0: b910 bf3c d7c3 163d bf42 0f3d c82b c63a
000002b0: 1f3f 613d a27b 60bd c2a3 91bd ae64 1ebd
000002c0: 2024 cf3c cb4a 313d 795d 18bd aa26 393d
000002d0: a71c 2f3d 2a43 233d 07a9 50bd e957 8cbd
000002e0: 20e9 26bd c0d2 57bd 4da0 c0bc ec8b 653d
000002f0: 61cb c73d 91f3 acbd 09d8 083d 7696 bc3c
00000300: b9ef b03d 055d 283d a3e2 dfbc e84b 8c3d
00000310: ed2c 703c 9402 913c f724 2dbe 9db8 ec3b
00000320: 6f78 a7bc bfe4 043d b50d 2a3e 6d15 33bd
00000330: 6cf1 233d e32c 9dbc 5301 a63c 03a4 57bd
00000340: 2169 f13d 6009 cbbd 692b 98bd 229d 7ebd
00000350: 0167 653d e919 9fbd d9d1 47bd 6199 cf3d
00000360: 8bd3 ae3c 3f6c 99bd 6baa 6a3d 03d9 2abe
00000370: 4054 443d 233e 933d b5f5 99bd 23b0 673d
00000380: 0efe c9bd 03e6 e23c c950 81bd eda2 5e3d
00000390: de32 a1bd b645 3f3d 5d84 a43d f4aa 713d
000003a0: 5d21 96bd 98e5 0abc efac 4a3d 5dc9 b3bd
000003b0: b8e4 aabc 8810 893c 780a 533d 774f 5d3d
000003c0: 3dc2 703d 79df 34bd 95f0 553b 02c6 16bc
000003d0: fbd4 e8bc 0aa8 05bc 17c0 883b 090d c3bd
000003e0: aba9 b6bd 53dd 53bd e31c 813d baa6 573d
000003f0: 8879 4ebd 4a52 a1bc e42b a4bd e86f af3c
-0.09138097 0.0651348 -0.08171425 0.03115937 -0.10353194 -0.058958612 -0.13221054 0.0032229014
-0.053040728 0.059991937 0.017874973 -0.01403447 -0.086036436 -0.03996557 0.034977384 -0.05627856
0.026430685 -0.030309679 -0.06127174 -0.027881287 0.06909398 -0.027678642 -0.0036490187 -0.040429
-0.0027590345 0.03976397 -0.015982402 -0.07916012 -0.042774472 -0.06354454 0.034319796 -0.06734505
-0.092358425 -0.008438021 -0.021854019 -0.0684406 -0.022855598 -0.06748308 0.050330196 0.011297494
0.060512044 0.045431864 -0.027152684 0.07602273 -0.09167288 -0.024033273 -0.08034409 -0.055437393
-0.09637051 0.049486212 -0.069805816 -0.017247962 -0.0047968864 0.018285805 0.053146627 -0.034339875
-0.043043017 -0.09344435 0.031840425 0.07394025 -0.069204286 -0.04798234 0.051902123 -0.030825227
0.0073734494 -0.06232895 0.06408412 -0.06327874 -0.037306715 -0.010643942 0.062446147 0.059412494
-0.01698659 0.07922206 0.015172367 -0.025166193 0.01791848 -0.013745181 -0.06240422 0.027084587
0.03938644 0.0003324465 -0.0382592 -0.08218093 -0.06687079 0.050761245 0.041382942 0.042368747
0.03534302 -0.038876925 -0.09087363 -0.06974994 0.05165132 0.028388942 -0.027874153 -0.06948615
-0.015384359 -0.04355159 -0.052260235 -0.035359524 -0.017964361 0.020424139 -0.057552136 0.027605124
-0.009569315 -0.038061097 0.037579574 0.045177817 -0.025178282 -0.010505374 -0.050789814 0.072988026
0.033456266 -0.060627818 0.025355214 0.017400114 0.019892119 0.07445751 0.025168851 -0.046693843
0.05195146 -0.08493074 -0.07503553 -0.06773181 -0.052397087 0.050346546 -0.05887078 -0.05251999
0.030210713 -0.034766223 0.018710896 0.02139393 0.07620228 -0.07350032 0.029256497 -0.041377775
-0.05216577 -0.0038467883 0.0035736961 -0.041284725 0.021209626 -0.0975893 0.07661139 -0.092125766
0.0016832204 0.024631316 0.074022345 0.076793954 -0.048984755 -0.08668443 0.0014457098 -0.031338178
0.037159305 0.096840136 -0.06416073 0.012802539 -0.096475504 0.008947783 -0.11023023 -0.0458167
-0.053723253 0.04674745 -0.048992414 0.054263033 0.011288962 0.007095038 -0.07780407 -0.020729013
0.023323404 0.03680786 0.034975763 0.0015119249 0.054991838 -0.054805405 -0.071113124 -0.038670234
0.02528578 0.04328422 -0.037198517 0.04520289 0.042751934 0.039858975 -0.050942447 -0.06852705
-0.04074967 -0.05269122 -0.023513937 0.056041643 0.09755588 -0.08444894 0.033409152 0.023020964
0.086394735 0.041104335 -0.027329748 0.068504155 0.014659149 0.017701425 -0.16908632 0.007224156
-0.02044317 0.03244471 0.16606791 -0.043721605 0.04002516 -0.019186443 0.020264303 -0.05264665
0.1178763 -0.099138975 -0.07430155 -0.062161572 0.056006435 -0.07768614 -0.04878411 0.101366766
0.021341106 -0.074913494 0.05729143 -0.16684346 0.04793191 0.07189586 -0.07517568 0.05656446
-0.0986291 0.027697569 -0.06314237 0.054354597 -0.0787103 0.04669734 0.08033059 0.059000924
-0.07330582 -0.008477591 0.04948133 -0.087786414 -0.020861015 0.016731516 0.051523656 0.05403086
0.05877899 -0.044158433 0.0032644619 -0.009202482 -0.02842187 -0.008157739 0.0041732895 -0.09523971
-0.0891908 -0.051724743 0.06304338 0.052649237 -0.05040887 -0.019692559 -0.08016184 0.021415666

xy_encoder.flat_module.linears.0.bias f4 [128]
00000000: 42b0 55bc a692 9abd 201e 07be 1629 60bd
00000010: 6c23 7c3d 0b92 e03d e6b4 97bd 2bee 88bc
00000020: 5db1 e8bc 15f4 e4bd 3f18 013d 24af 2abe
00000030: fb4e ae3d 1601 093d 2c0f 8d3d d6e5 363d
00000040: 593d e1bc afcd 113d 4d9a 0f3c 939a 1fbe
00000050: 12c5 f2bd 77bc 90bc 5f2f 083d d8e7 163d
00000060: a36f c93c 6c05 36bd 00cd be3d f612 213d
00000070: 7407 b0bd 9d20 5fbb e20f 76bd a9ca 863c
00000080: 1f05 70bd 78c8 d5bd 9964 143e c7e6 4dbd
00000090: 441e da3d 5856 0dbe d299 65bd cdd0 eb3d
000000a0: 2a2f e0bd 3d81 10bd 491a 76bc 9867 28bd
000000b0: 2265 8b3d d465 79ba d745 1cbd cf92 acbd
000000c0: 0126 873d 931e 813d ac4e 3cbd 54e8 a43c
000000d0: 2a84 9b3d 7790 52bd f767 83bd 14c0 263d
000000e0: da85 fdbc ad2d 10bd 6216 94bc 7081 11bd
000000f0: 23a4 febd e73a 34bd e4f5 643d bc80 09bd
00000100: 3815 4e3d b5ef 7fbd ba75 02bd 847b 08bd
00000110: 3af8 f0bb 77df 0c3d 70e2 383d 66ae b03d
00000120: c8b2 21bd b7fc 60bc 0171 d9bd 1e96 cf3c
00000130: 998d c23c 767e 09bc 71d3 863d feb0 99bd
00000140: fa80 a03d ad3c ebbc 0947 163c 6c68 293d
00000150: e43c c13d 358c 2abe 1e71 d6bd 4445 98bd
00000160: 7131 93bd 9a37 adbd cca7 023d 3edc 9ebd
00000170: f332 7e3d 4698 fa3c e058 263d 71d7 233c
00000180: 536c 95bc 8c16 0abc 24a6 f03d 3ea0 a5bd
00000190: b975 453d e7ef 2d3d f41d afbc 6ada f0bc
000001a0: 064c 1b3d 5602 e5bc 111d 29bd f2e9 65bd
000001b0: fad1 5f3d 01ac 83bd 4b48 b9bc 3a03 16bd
000001c0: fe96 8ebd d276 7a3d fc2d 5d3d 6ca4 ddbc
000001d0: ca6f a1bd e33c f53c a60b 0cbd 188a 483d
000001e0: fccf a7bc 17ee 32bd 4d46 73bd 8832 1cbd
000001f0: 8f98 aa3d 7e6a b2bc dafe a4bd 8523 993b
-0.013042511 -0.07547502 -0.13195086 -0.054726683 0.06155722 0.109653555 -0.074075505 -0.01671513
-0.028404886 -0.111793675 0.031517264 -0.16668373 0.08511158 0.0334483 0.068876594 0.044652782
-0.027495073 0.035596546 0.0087648155 -0.15586309 -0.118539944 -0.017667992 0.0332483 0.036842197
0.024589365 -0.044438764 0.093164444 0.039324723 -0.085951716 -0.0034046539 -0.06007374 0.016454058
-0.058598634 -0.10438627 0.144915 -0.050268915 0.10650304 -0.13802469 -0.056054898 0.11514435
-0.10946496 -0.0352795 -0.015020915 -0.04111442 0.06806399 -0.000951377 -0.038152542 -0.08426439
0.065990455 0.0630466 -0.045973465 0.020130314 0.07593568 -0.051407304 -0.06416314 0.040710524
-0.030947614 -0.03519981 -0.01807708 -0.03552383 -0.1243365 -0.044001486 0.055898562 -0.033570036
0.050313205 -0.06248446 -0.031850554 -0.03332092 -0.0073538097 0.0343928 0.045137823 0.08627014
-0.03947714 -0.013732127 -0.10617257 0.025340136 0.02374916 -0.008391967 0.06583298 -0.07504462
0.078371 -0.028715456 0.00917221 0.04135935 0.09435442 -0.16655047 -0.10470794 -0.07435086
-0.071871646 -0.08457871 0.031898305 -0.077568516 0.062060308 0.030590188 0.0406121 0.010000096
-0.01824013 -0.008428227 0.11750439 -0.080872044 0.048207972 0.042465117 -0.021376587 -0.029401023
0.0379143 -0.027955215 -0.041287486 -0.05613131 0.05464361 -0.064292915 -0.02261748 -0.03662417
-0.06962393 0.061148472 0.053998932 -0.027055942 -0.0788265 0.02993626 -0.034190796 0.04895982
-0.020484917 -0.04368409 -0.059393216 -0.038134128 0.083298795 -0.021779295 -0.080564216 0.0046734237

xy_encoder.flat_module.out.weight f4 [128, 128]
00000000: c7d3 37be 0c47 cabd 6b1b b63d e100 1dbe
00000010: 2bac 703d 8a1a 63be 6707 1dbd ac51 e13d
00000020: 78e4 13be 9a0d 4f3d 603d 3abd 8e1f 843c
00000030: 76c9 1539 fed0 ab3d 6351 633e 7357 f3bd
00000040: a4c5 2b3e 72a5 85be 6ed6 aabd a559 20be
00000050: 6ddf 96bd e92a 093e 2f9c 16be 50b9 1ebe
00000060: 55a5 453e e85d 40be b5ac 36be 3cb1 503e
00000070: 1c46 d6bd 2f1f 6cbd b424 10bb c45a bbbc
00000080: 4a33 573d 35ba 203e bbc0 113e d2aa 9d3d
00000090: c913 53be aabe 443e 8948 3a3d 364d 80be
000000a0: 460b de3c 8b72 f13d fd86 02be aba6 243e
000000b0: 0373 3dbe 15f2 de3d 692c fd3d 42b5 523e
000000c0: 5e53 4dbe 63e9 743e 3b32 4bbe b6d1 c3bc
000000d0: 44de 883e e4e2 f8bd 59a3 603e c658 1fbc
000000e0: 3ffb 54bd 1926 cf3d 89fc b3bd 68c6 4b3e
000000f0: 5e0d 3d3e e800 2a3e 2a33 903d 2d7a a73d
00000100: 009e acbd 2eba 4fbe 7eac 383e a430 e63d
00000110: 3259 a53d 65b5 4dbd cbeb 42be ed5d d53d
00000120: 8e70 ecbd 1c2f 34bd eb49 89bd 7342 2f3d
00000130: 0a57 0e3e 849a cbbd 519e 363e 35e8 2cbe
00000140: cc6f 333e 2a63 163e 2c50 c7bc 4908 53be
00000150: 4e5d bebd dcad c8bd 325c 883d 1bc0 15be
00000160: 65b2 823c 7c87 f13d 6f61 523d 4a66 443e
00000170: a217 4ebe c1fa 92bc 0dea 193e 5800 2fbd
00000180: 8cb3 a4bc d7b1 0cbd b4fa 23be 812b 763d
00000190: edd7 be3d d437 773d 4039 b83e 6774 fc3d
000001a0: 895e 4e3e 2e5f 373d eb0c 773e c1a1 dfbd
000001b0: 1101 e13d eeb1 633d 39fc e53d 86d4 613d
000001c0: 13a3 a6bb cddb 3e3d 9658 683e 5859 13be
000001d0: 20f0 053e 5867 bbbd 1786 433e ef78 f53d
000001e0: 2dce 533e 88a1 68bd 9a75 e8bb 4702 c13d
000001f0: a769 20be 5103 343e 64f4 0b3e 2244 a13c
00000200: 6eff dabd 6797 33be 3b0f 853e f082 32bd
00000210: a526 31be 80d9 7fbe 4a0c 8c3d 8b47 1f3e
00000220: 6d22 97bd 2a33 13be 713c 813d edfb 983e
00000230: 923d 50be d12d 84be ab25 34be 4aa9 003e
00000240: 66ee f4bd 4ffa e4bd ce51 d73d 00de 493e
00000250: f25f ab3a 0e95 e43c 46cb fe3c 3be7 bbbd
00000260: 76d9 5c3d 4d00 773d cf33 933d 087c aebe
00000270: 8e1c fabd 3591 5b3b 143c 693e 350e 50be
00000280: d1c4 1fbe fc5e afbc 010f 52bd ae36 2abe
00000290: e91b 82bd 7fa1 6fbe dae8 ce3b 687a 603e
000002a0: 3855 99bd 6ddd d1bc ab64 043e 9e0c bebd
000002b0: 1915 23be db2b 4abe d5ba 463e 23e0 07be
000002c0: c0df a23e 4e95 2cbe 2834 50be 02d0 6f3e
000002d0: 2193 2e3e 58c0 33be 0caa 2cbe 7d06 e73c
000002e0: 22c4 253e 2a50 7dbc 97c8 2dbe 9d4b 0f3e
000002f0: 0527 8f3d 2342 543d 0796 2dbe d1dd e83a
00000300: 7b15 2c3e e655 0d3e adce bcbd 23d9 413d
00000310: 1ca2 943d 9fe4 b03e 6728 c43d 8025 cebd
00000320: efc9 5e3d 710c d7bd a45a a83b c87f 573e
00000330: 585d 89bd dceb 0c3e 049a ecbd 75c3 a1bd
00000340: fdae 6fbd 9003 843c ae59 a93c d0f5 1abd
00000350: 1a7b 2a3e 6906 04be 51ca bfbc 76f9 dcbd
00000360: a72e eebc fab3 86bd 4d0f 413e 69c7 5bbe
00000370: 0c0b ebbb 1cde 1d3e 6558 063e cc51 403e
00000380: ec72 ba3d 261b b6bd b115 203e 02e6 ecbd
00000390: 86a4 993b e769 243d de41 e53d 44fa 86bd
000003a0: 7a77 393e 6faa a33c d974 60be 6584 47be
000003b0: 993c c93d 05fa c4bd 8dc2 cbbd c218 53be
000003c0: aa87 4bbc e28c 8b3d 990c 82be 3d5a 933d
000003d0: d4b3 95bd 97aa 8a3e 1be2 31bc b537 ed3d
000003e0: fa44 973d a520 b43d a461 163e 305d c6bd
000003f0: 0c58 4f3e 7dd1 0d3d 26e0 a1bb e090 9fbd
-0.1795188 -0.09876832 0.08891948 -0.15332367 0.058757942 -0.22178093 -0.038337138 0.11001906
-0.14442623 0.05055008 -0.045468688 0.016128328 0.00014284797 0.083894715 0.22199015 -0.11881914
0.16774613 -0.26102787 -0.083416805 -0.15659197 -0.07366834 0.13395275 -0.14708017 -0.15500379
0.1930135 -0.18785822 -0.1783932 0.2038011 -0.10462591 -0.057646926 -0.0021994533 -0.022870429
0.052539147 0.15696032 0.14233677 0.07698597 -0.20613016 0.19213358 0.04547933 -0.25058907
0.027104985 0.117894255 -0.12746806 0.16079204 -0.18500905 0.10886017 0.12361986 0.20576957
-0.20051333 0.23917155 -0.1984338 -0.023903709 0.26732075 -0.12152651 0.21937312 -0.009725755
-0.05199742 0.101146884 -0.08788402 0.19899905 0.1846213 0.16601908 0.07041009 0.081776
-0.084285736 -0.20285866 0.1803455 0.11239746 0.08073653 -0.05022182 -0.1903526 0.104183055
-0.115449056 -0.04399024 -0.06703552 0.04278798 0.1390039 -0.09941581 0.1783383 -0.16885455
0.17523116 0.14686266 -0.024330221 -0.2060863 -0.0929514 -0.09798786 0.0665821 -0.14624064
0.015954206 0.1179342 0.05136245 0.19179645 -0.20126203 -0.017941834 0.1503069 -0.042724937
-0.020105146 -0.03434929 -0.16013604 0.060100082 0.09318528 0.060355976 0.35981178 0.123268895
0.2015325 0.044768505 0.24126022 -0.10919524 0.109865315 0.05558961 0.11229748 0.05513432
-0.005085358 0.046596337 0.22690043 -0.1438955 0.13079882 -0.09150571 0.1909412 0.11985957
0.20684119 -0.056794673 -0.0070940973 0.094242625 -0.15665303 0.1757939 0.13667446 0.019685809
-0.106932506 -0.17538224 0.25988182 -0.043581903 -0.17299898 -0.24985313 0.068382815 0.15554635
-0.07379613 -0.14374986 0.063103564 0.29879704 -0.20335987 -0.25816205 -0.17592494 0.12564579
-0.119595334 -0.11180555 0.1051365 0.19713593 0.0013074859 0.027903106 0.031102788 -0.09174963
0.053918324 0.06030302 0.07187616 -0.34079003 -0.122124776 0.0033503298 0.22776824 -0.2031792
-0.15602423 -0.021407597 -0.05128384 -0.16622421 -0.0635298 -0.2340145 0.006314379 0.21921694
-0.07486957 -0.02561828 0.12929027 -0.0927975 -0.15926017 -0.19743292 0.19407208 -0.13269095
0.31811333 -0.1685383 -0.20332396 0.23419192 0.17048313 -0.17553842 -0.16861743 0.028201336
0.161881 -0.015461007 -0.1697105 0.13993688 0.06989864 0.051820885 -0.16951762 0.0017766302
0.16805069 0.13802299 -0.09219108 0.04732622 0.072574824 0.34549424 0.09578019 -0.10065746
0.054391798 -0.1050042 0.0051377583 0.21044838 -0.06707257 0.13761848 -0.11552814 -0.078986086
-0.05851649 0.01611498 0.020672645 -0.03783208 0.16648522 -0.1289307 -0.023411902 -0.107897684
-0.02907498 -0.065772966 0.18853493 -0.21462788 -0.0071729477 0.15416759 0.13119657 0.18781203
0.09103951 -0.08891897 0.15633275 -0.11567308 0.004688802 0.04014006 0.11194204 -0.06590703
0.18111983 0.01997873 -0.21919574 -0.19484098 0.09826011 -0.09618 -0.09949217 -0.20614913
-0.012422482 0.06813981 -0.25400236 0.07194946 -0.0730969 0.27083275 -0.01085713 0.11582891
0.07386203 0.08795289 0.14685684 -0.09685743 0.20248431 0.03462361 -0.0049400507 -0.077913046

xy_encoder.flat_module.out.bias f4 [128]
00000000: cadf 003c f927 3f3c ecdc bd3c d614 0b3d
00000010: 5b67 d13d f271 183d b3ea 813b e326 01bd
00000020: f953 ad3d 658d a53d 9447 46bd 93c9 153d
00000030: 1e9f 52bd cece 0e3b 3c4b 983c 9c8d bdbc
00000040: 766d 6f3c f571 5abd 2cd3 27bd f34e 0ebc
00000050: 2d30 47bd 3976 8bbc 2bf3 763c c91d 9dbd
00000060: 74d1 a0bc d8e5 90bd ba60 99bd 70f9 253c
00000070: d608 3ebd 6845 b23d ae34 5ebd b0de e43c
00000080: 49b2 be3b fea3 e5bb 87e4 45bd 3a41 99bc
00000090: dd50 543d bf4c 8b3c e668 87bb 0929 153c
000000a0: a1cb a33b da4e 52bd fc75 58bd eac4 29bd
000000b0: d0d5 42bd 01a0 87bd 833e bdbd b2ba c7bc
000000c0: ca29 053b d351 33bd 1504 7cbc 1e9a 9abd
000000d0: c43b 11bd 11f7 d43b 7928 72bd 8150 d03c
000000e0: d7e8 4abd 00e2 c2bd 5993 0abc dad2 303d
000000f0: 70f3 8b3d 5032 88bc d68e e0bc b886 8d3c
00000100: e90e 39bb 22fd e7bc 1ad5 77bd b04d 59bd
00000110: 1fb6 dcbc cdbd 2a3d 73d5 2abc 98cf 21bd
00000120: 61e2 11bc 3d6e 87bd 188b fabc b635 43bd
00000130: df34 47bc f909 9b3c a00c f63b 8722 ccbc
00000140: 24ef cbbc 8951 06bc 2a60 86bb d2d7 1bbc
00000150: acdb 8b3d 2c5d 0dbd 745c acbd 88dc 15bd
00000160: 3539 64bd 7d8d ee3d 764f 18bd c64b 693c
00000170: 6e54 b63d 5062 8dbd 1ccc 7abc 22be b4bd
00000180: 207d 10bd 49a5 5fbd f791 94bd 56fa 25bc
00000190: 754e 393d 92ae 86bd 4c22 0d3d 24dd db3d
000001a0: 2722 a53c 5e97 8b3d e6c3 6d3c d68d c73c
000001b0: 3d0d d4bb 9fff 603c fbef 10bc 9efe 8b3d
000001c0: 88c2 053d 3138 b5bc ff55 5cbd 7948 3dbd
000001d0: ee77 823c c0f6 8bbc 098f f6bc b50c 2fbd
000001e0: a0ad a53c 8f71 c1bb 0435 233c 6b76 89bd
000001f0: df73 69bc 4aaf 8f3c e614 6c3d 705d 643d
0.0078658555 0.011667245 0.023176633 0.033955418 0.102247916 0.03721804 0.003964746 -0.031531226
0.08463282 0.080836095 -0.048408106 0.03656919 -0.051421277 0.0021790746 0.018590562 -0.023138814
0.0146135 -0.053331334 -0.040972874 -0.008685815 -0.04862993 -0.017024146 0.015072624 -0.07671697
-0.019631125 -0.07075089 -0.07489152 0.010130271 -0.046395145 0.087046444 -0.054249458 0.027938217
0.005819593 -0.007008075 -0.048313644 -0.01870786 0.05183493 0.017004369 -0.004132378 0.009104022
0.0049986397 -0.05134473 -0.052846894 -0.041447558 -0.04756719 -0.06622315 -0.09240439 -0.024381015
0.0020319098 -0.043779206 -0.015381833 -0.07548927 -0.035457388 0.006499179 -0.05912063 0.025429012
-0.04953846 -0.09515762 -0.008457982 0.043169834 0.068335414 -0.016625553 -0.02741186 0.017276153
-0.0028237647 -0.028318945 -0.060505964 -0.053052604 -0.02694231 0.041684914 -0.010426867 -0.039504617
-0.008904071 -0.06612823 -0.030583903 -0.047658645 -0.012158602 0.018925654 0.0075088292 -0.024918808
-0.024894305 -0.00819815 -0.004100819 -0.009511905 0.068290085 -0.034512684 -0.084160715 -0.036587268
-0.05571862 0.116480805 -0.037185155 0.014239257 0.089028224 -0.06903517 -0.0153074525 -0.088253275
-0.03527558 -0.054600988 -0.07254403 -0.0101304855 0.045240838 -0.065762654 0.034456536 0.107355386
0.020157887 0.068159804 0.014512038 0.024359625 -0.0064713047 0.01373282 -0.008846278 0.06835674
0.032656223 -0.02212152 -0.05379295 -0.046211693 0.015926328 -0.017085433 -0.030097501 -0.042736728
0.020224392 -0.00590343 0.00996137 -0.067120396 -0.014248817 0.017539639 0.057637118 0.05575317
