results/notebooks/neural_process/Periodic_Kernel/CCP/run_0/params.pt (torch_old, 830866 bytes, 80 tensors)

decoder.destination.to_hidden.weight f4 [64, 128]
0.034177322 -0.013619867 -0.04279749 -0.008759168 -0.14272317 0.0888812 -0.04981011 -0.034093086
-0.051063783 0.008171714 -0.037883796 0.009695915 -0.06020956 -0.037823882 0.050822027 0.0037233082
-0.061443582 0.08876948 -0.05704298 0.021761376 0.10085227 0.00300807 0.0007630649 0.27228034
-0.0805426 0.031820226 -0.018507123 0.16142067 0.18301955 -0.17622048 0.06881084 -0.04007895
0.030131966 -0.0014443293 0.06194517 -0.0075534154 -0.06924296 -0.0021622106 -0.027075347 0.09604086
-0.070388496 -0.044696234 -0.092685394 0.06463059 -0.013566155 -0.021653628 -0.22089683 0.009002349
0.08393437 -0.034672853 0.007642345 0.025013875 0.037605133 0.06340051 -0.030444754 -0.07801356
-0.062791474 0.07544703 -0.01485598 -0.01982086 0.0078012925 0.0805944 -0.09003494 -0.028313877
-0.0076711066 0.0035333855 -0.027953252 0.086485416 -0.10730221 0.03624104 0.15052962 0.15760243
0.0009108118 -0.07252099 0.015538207 -0.020710953 0.009081806 -0.08250576 0.0040934593 0.19275999
0.033881813 0.11311041 -0.1576847 -4.7627633e-05 -0.10999575 -0.048719738 0.099618204 0.06733942
0.0866087 0.019457772 -0.16663344 0.065292604 0.049839936 -0.03031337 0.035883877 -0.02468154
0.05369183 0.07643798 0.1193997 -0.019604424 0.10645101 -0.0738731 0.025727756 0.0073901494
-0.049533665 -0.031554747 -0.014395118 0.09997933 -0.06459647 -0.08946108 0.10203752 -0.045609128
0.020919304 -0.01946641 -0.019811414 0.012710562 -0.24574879 -0.02966161 0.04019915 0.067372054
-0.040001795 -0.072763234 0.15923269 -0.052544426 0.122340105 -0.04660943 0.032975536 0.02095829
0.14550732 0.07021037 -0.057264615 -0.08262372 -0.030405277 -0.1312141 -0.039335717 -0.055984534
0.05976974 0.04024825 0.011194183 -0.04910154 0.020759404 -0.05134521 -0.012111231 0.055069316
-0.0011105171 -0.081086054 -0.015039326 0.0067563206 -0.06732961 -0.08906629 -0.13932793 0.008929088
0.023245146 0.060865246 0.0148069095 0.102237195 -0.046771977 -0.017530233 -0.0785667 0.050882936
0.029716805 -0.20123944 -0.10501218 0.070881255 0.07461978 0.051038403 0.014456021 0.0777336
0.08463757 0.065944724 -0.012244051 -0.08254328 -0.0010999069 -0.05071422 -0.08581768 -0.050703015
-0.078485966 -0.02442763 0.10824725 0.027363516 -0.005398765 0.071259916 0.0901476 -0.077143826
-0.06819953 -0.02938651 -0.11746768 0.04276184 0.062453754 -0.086855054 -0.06356212 -0.08478934
0.041029017 0.069128424 -0.10278715 -0.23361538 -0.033475745 -0.057716295 0.10231091 0.03698373
-0.07519989 -0.018075446 -0.0013582517 -0.07955167 -0.0038087976 -0.019828215 -0.07336776 0.014554057
-0.012160762 -0.1040746 -0.035721406 -0.03657988 0.055957243 -0.061276704 0.098689824 -0.03403547
0.057681162 -0.09773727 -0.010771802 0.0086469725 0.01975763 -0.061640624 0.044219326 -0.045554116
0.026798613 -0.11612779 -0.12878715 0.008437343 -0.051108696 0.006445047 0.017276356 0.028907629
-0.086961694 0.057698995 0.0022031516 -0.10563165 -0.025842452 -0.01800429 -0.07628829 0.04824127
0.06852412 -0.043066513 -0.09520385 0.012468018 0.047919486 0.07313541 -0.08472794 -0.02064446
0.11396956 0.087711334 -0.015781788 -0.09152657 0.13832465 -0.11777763 -0.004257567 -0.10908317
00000000: 85fd 0b3d dd25 5fbc 6c4c 2fbd 9d82 0fbc
00000010: 0626 12be 5907 b63d b005 4cbd 31a5 0bbd
00000020: 4228 51bd a7e2 053c 0a2c 1bbd 9ddb 1e3c
00000030: 4d9e 76bd 37ed 1abd c22a 503d bf02 743b
00000040: 44ac 7bbd c6cc b53d e6a5 69bd ea44 b23c
00000050: a38b ce3d 0a23 453b 6b08 483a 5468 8b3e
00000060: 85f3 a4bd ed55 023d 409c 97bc 764b 253e
00000070: 7a69 3b3e 2473 34be b3ec 8c3d d329 24bd
00000080: 50d7 f63c a64f bdba 38ba 7d3d a482 f7bb
00000090: 41cf 8dbd e0b3 0dbb 1ecd ddbc 12b1 c43d
000000a0: d827 90bd 6613 37bd d7d1 bdbd 0b5d 843d
000000b0: 9444 5ebc f362 b1bc c732 62be 977e 133c
000000c0: c8e5 ab3d 1f05 0ebd a36c fa3b e6e9 cc3c
000000d0: d707 1a3d 20d8 813d 4767 f9bc 93c5 9fbd
000000e0: d198 80bd f983 9a3d 7f66 73bc 5b5f a2bc
000000f0: fca1 ff3b ad0e a53d 3d64 b8bd 81f2 e7bc
00000100: e85d fbbb 5f90 673b 38fe e4bc 441f b13d
00000110: 43c1 dbbd 7c71 143d 7024 1a3e 8862 213e
00000120: 8cc3 6e3a e385 94bd f793 7e3c 04aa a9bc
00000130: dbcb 143c c8f8 a8bd 6d22 863b e062 453e
00000140: a8c7 0a3d 6ea6 e73d 1978 21be c8c3 47b8
00000150: 7445 e1bd 598e 47bd a104 cc3d 40e9 893d
00000160: e75f b13d e865 9f3c f5a1 2abe 21b8 853d
00000170: f624 4c3d bf53 f8bc f9fa 123d f130 cabc
00000180: f7eb 5b3d 848b 9c3d d487 f43d 7599 a0bc
00000190: fd02 da3d c84a 97bd 04c3 d23c 1129 f23b
000001a0: d0e3 4abd 8d3f 01bd 80d9 6bbc f7c1 cc3d
000001b0: 274b 84bd 5f37 b7bd 0cf9 d03d a3d0 3abd
000001c0: f65e ab3c 0578 9fbc 8c4b a2bc f63f 503c
000001d0: 92a5 7bbe e8fc f2bc dda7 243d 5cfa 893d
000001e0: ecd8 23bd e404 95bd e50d 233e d338 57bd
000001f0: 738d fa3d 88e9 3ebd 5b11 073d b8b0 ab3c
00000200: dfff 143e 74ca 8f3d 4d8e 6abd a036 a9bd
00000210: 7d14 f9bc fd5c 06be 7d1e 21bd 0a50 65bd
00000220: 1dd1 743d 59db 243d ce67 373c b21e 49bd
00000230: a00f aa3c 5b4f 52bd 2f6e 46bc 5d90 613d
00000240: c58e 91ba 7210 a6bd 8167 76bc 2064 dd3b
00000250: 1be4 89bd 6368 b6bd fbab 0ebe 4f4b 123c
00000260: 9b6c be3c d64d 793d ae98 723c bc61 d13d
00000270: f993 3fbd 909b 8fbc 94e7 a0bd a06a 503d
00000280: a870 f33c b611 4ebe a010 d7bd 312a 913d
00000290: 41d2 983d a50d 513d f2d8 6c3c cb32 9f3d
000002a0: 7656 ad3d 070e 873d 469b 48bc 740c a9bd
000002b0: c02a 90ba b7b9 4fbd 2ec1 afbd f7ad 4fbd
000002c0: 40bd a0bd 741c c8bc bcb0 dd3d 7429 e03c
000002d0: 20e8 b0bb b8f0 913d 4e9f b83d 95fd 9dbd
000002e0: 32ac 8bbd fabb f0bc e592 f0bd 0a27 2f3d
000002f0: 82cf 7f3d 10e1 b1bd db2c 82bd 09a6 adbd
00000300: 0b0e 283d 3493 8d3d 1282 d2bd df38 6fbe
00000310: dd1d 09bd ec67 6cbd 6288 d13d 407c 173d
00000320: 6602 9abd f512 94bc 5d07 b2ba fceb a2bd
00000330: 059d 79bb c86e a2bc d641 96bd 2474 6e3c
00000340: ef3d 47bc 1025 d5bd 9c50 12bd c9d4 15bd
00000350: 6c33 653d 48fd 7abd e41d ca3d c768 0bbd
00000360: 1543 6c3d 7a2a c8bd 367c 30bc 08ac 0d3c
00000370: c1da a13c e17a 7cbd 531f 353d f496 3abd
00000380: c488 db3c 68d4 edbd c7e0 03be c83c 0a3c
00000390: 5a57 51bd f930 d33b 2587 8d3c b1cf ec3c
000003a0: f918 b2bd c855 6c3d c062 103b 6855 d8bd
000003b0: 8db3 d3bc bc7d 93bc 093d 9cbd a398 453d
000003c0: 6056 8c3d 8366 30bd 3cfa c2bd a846 4c3c
000003d0: 3947 443d 05c8 953d d885 adbd 921e a9bc
000003e0: df68 e93d 00a2 b33d cf48 81bc 4872 bbbd
000003f0: faa4 0d3e 6635 f1bd 1083 8bbb ff66 dfbd

decoder.destination.to_hidden.bias f4 [64]
0.044014715 0.07207991 -0.017055016 0.08122235 0.067149445 -0.054569524 0.121429 0.023737036
-0.020890115 0.054022588 0.034132905 -0.0594974 -0.009519332 -0.01757395 -0.020141285 0.029687475
-0.03206934 -0.12971856 0.06586103 -0.012121181 0.053485505 0.12208904 0.02588457 0.01639702
0.008261066 0.031139165 -0.060238983 -0.23060954 -0.017711645 -0.064038344 0.015591753 0.040941637
0.07971842 -0.0386497 -0.051533494 -0.04286841 0.04672876 0.021676634 -0.12792297 0.06987592
-0.007775236 0.052582964 -0.021656439 0.076780096 -0.025364101 -0.07866245 -0.08236324 0.05020359
0.015963169 -0.26256892 0.08055702 -0.20048884 -0.049527157 0.03480628 0.024406368 -0.069958635
0.2006447 -0.050814755 -0.07360657 0.06183529 0.0670356 -0.13586219 -0.03249054 -0.013197082
00000000: c648 343d a29e 933d f6b6 8bbc e757 a63d
00000010: a685 893d 4b84 5fbd c4af f83d 2c74 c23c
00000020: bf21 abbc ca46 5d3d f2ce 0b3d 8cb3 73bd
00000030: f9f6 1bbc 3ff7 8fbc 56ff a4bc 2633 f33c
00000040: 245b 03bd f1d4 04be 26e2 863d eb97 46bc
00000050: 9e13 5b3d d209 fa3d e10b d43c 0b53 863c
00000060: 6c59 073c 9017 ff3c 27bd 76bd e824 6cbe
00000070: 0318 91bc 8926 83bd 8d74 7f3c 6bb2 273d
00000080: 6943 a33d 264f 1ebd c914 53bd c996 2fbd
00000090: a866 3f3d 3293 b13c 3dfe 02be 1b1b 8f3d
000000a0: 68c7 febb 3c61 573d d868 b1bc e23e 9d3d
000000b0: 60c8 cfbc c719 a1bd 0fae a8bd 48a2 4d3d
000000c0: 31c5 823c 6f6f 86be 14fb a43d f24c 4dbe
000000d0: fddc 4abd 0891 0e3d ddef c73c 7946 8fbd
000000e0: ce75 4d3e 2223 50bd 0bbf 96bd 0047 7d3d
000000f0: f649 893d 751f 0bbe cd14 05bd 9338 58bc

decoder.destination.linears.0.weight f4 [64, 64]
-0.062078167 -0.00898142 -0.00077233836 0.010578168 -0.11008321 -0.049811676 -0.005515274 -0.056336306
-0.1546556 -0.011639324 0.015827222 -0.055833224 0.073616706 -0.045626182 -0.02276649 -0.08545452
0.14213172 -0.053717077 -0.09785937 0.037873562 -0.04174703 0.22418655 0.12847863 -0.16071548
0.11178052 -0.13934445 -0.07055264 -0.19309475 0.023487594 -0.021003399 -0.112436764 0.039287075
0.12133841 0.0511661 -0.0058991574 -0.0626146 -0.0070674676 -0.06054353 -0.034097396 0.05713517
0.037868254 0.021910468 -0.10956651 0.020715343 0.109807394 0.15502362 0.11918723 -0.072719656
-0.087233864 -0.10966233 -0.17357653 -0.17263682 0.16722791 -0.06615306 -0.14312592 -0.07834492
0.107063405 -0.11702495 -0.00049379707 0.037595946 -0.0040003518 -0.19466664 -0.108507805 -0.10016224
0.006959388 0.029939963 0.00096140866 0.049994923 0.01722315 -0.06197956 0.053132817 0.106940046
-0.0007125121 0.012766195 -0.0060923193 0.1058776 0.015923899 0.10190706 -0.14163806 0.10406467
-0.072342575 -0.19829586 0.032106 -0.13272624 0.022914544 0.06093831 -0.09875225 0.027624877
-0.07407635 -0.2030769 -0.073597744 -0.041121244 0.015239953 -0.012696815 0.13132308 0.18714954
-0.061972354 0.09424518 0.05135203 0.08668284 0.012530135 0.054505143 0.07377617 -0.07844318
0.049114894 0.11564703 0.08319502 0.075207606 -0.013379284 -0.13208565 0.05923946 -0.03380201
-0.1294824 -0.2582858 0.08473097 0.023596888 -0.20792407 0.04430514 -0.08559451 -0.08249919
0.043467205 0.031242311 -0.008214208 -0.07068524 0.15989244 -0.043093227 -0.083842814 0.12826326
-0.054041184 -0.120269544 0.09001109 0.09530087 0.13681108 0.03729975 0.16040371 0.122548215
-0.084492624 0.23330446 -0.10120274 -0.0061788126 0.12157051 0.09244961 0.0840928 0.12238649
0.10902447 -0.13559334 0.18717244 -0.03417941 -0.13439089 0.10247926 0.018780064 -0.058375083
0.07293254 -0.21266325 0.07971963 -0.13879691 -0.1142057 0.008869966 0.050641112 -0.04299544
-0.06807035 0.1131356 0.06472143 0.038427155 0.039871868 0.09734304 -0.0624857 0.12854895
-0.012513727 0.004131455 -0.1058511 0.031975754 -0.0058089574 -0.13157392 0.09706751 0.050070647
0.017980492 -0.16779555 0.12975623 -0.11682008 0.09063987 0.112334505 -0.019285917 0.0052112723
-0.01537998 -0.07229998 -0.028889563 0.12611537 0.057427663 0.06749837 -0.014501976 -0.11978979
0.15271851 0.11087212 -0.10435479 -0.15036368 0.05538408 -0.20706955 -0.07050738 -0.09320744
-0.0009564525 0.058863267 0.07708477 -0.0070722327 -0.117690355 0.04191259 -0.061677825 0.032216355
0.01748125 -0.058149513 -0.033219993 -0.1419554 -0.11282607 -0.08965576 -0.047511987 0.14716172
-0.06796874 -0.041894168 -0.0012207644 -0.06881314 -0.009758542 0.055127837 -0.047510143 0.1424786
0.009515956 -0.05409374 -0.17392361 0.124262795 0.09195131 -0.1518095 -0.06488475 -0.3038259
-0.108368404 0.13776506 -0.034732196 -0.031119505 0.09712647 -0.03862353 0.10881946 0.040936902
-0.048707563 -0.05476058 0.0067279814 0.1311722 -0.057296492 -0.045112103 -0.12009806 -0.13197336
-0.09836113 0.05876634 -0.010068142 0.09082024 0.09708732 -0.10852503 0.062762186 -0.029802233
00000000: ad45 7ebd ce26 13bc c076 4aba 0d50 2d3c
00000010: 4e73 e1bd 5407 4cbd 79b9 b4bb e6c0 66bd
00000020: 0a5e 1ebe ddb2 3ebc 17a8 813c 61b1 64bd
00000030: 5bc4 963d 85e2 3abd ca80 babc c802 afbd
00000040: fa8a 113e 7006 5cbd 7e6a c8bd 4f21 1b3d
00000050: effe 2abd 2991 653e e78f 033e 9992 24be
00000060: 2fed e43d 50b0 0ebe e77d 90bd a1ba 45be
00000070: 0e69 c03c 520f acbc 3f45 e6bd 7ceb 203d
00000080: 4680 f83d 8b93 513d b84d c1bb 153c 80bd
00000090: 3796 e7bb 7efc 77bd b6a9 0bbd 9106 6a3d
000000a0: be1b 1b3d 957d b33c 6864 e0bd 39b3 a93c
000000b0: b3e2 e03d 83be 1e3e 6f18 f43d 0bee 94bd
000000c0: aba7 b2bd a596 e0bd 0cbe 31be b5c7 30be
000000d0: cb3d 2b3e 417b 87bd 9a8f 12be 4d73 a0bd
000000e0: 0f44 db3d c7aa efbd 2972 01ba 35fe 193d
000000f0: 6215 83bb b156 47be 5739 debd dc21 cdbd
00000100: 940b e43b a744 f53c 0b07 7c3a 7ac7 4c3d
00000110: 9017 8d3c 47de 7dbd cca1 593d 6203 db3d
00000120: e1c7 3aba 4e29 513c 14a2 c7bb 5bd6 d83d
00000130: d672 823c a6b4 d03d 9109 11be dc1f d53d
00000140: 5828 94bd 120e 4bbe 9581 033d 63e9 07be
00000150: 48b7 bb3c 739a 793d 9f3e cabd 914d e23c
00000160: 57b5 97bd 64f3 4fbe 6aba 96bd c06e 28bd
00000170: ffb0 793c 4d06 50bc 8f79 063e 21a4 3f3e
00000180: b9d6 7dbd 9e03 c13d 8256 523d c686 b13d
00000190: 324b 4d3c c940 5f3d f617 973d d1a6 a0bd
000001a0: b32c 493d 5ad8 ec3d 2762 aa3d 7206 9a3d
000001b0: c934 5bbc 7641 07be 13a5 723d fa73 0abd
000001c0: 0997 04be 093e 84be 6e87 ad3d 434e c13c
000001d0: 0cea 54be 4e79 353d 2d4c afbd 56f5 a8bd
000001e0: ab0a 323d e0ef ff3c e394 06bc 6cc3 90bd
000001f0: d8ba 233e 8682 30bd c8b5 abbd 7257 033e
00000200: 4a5a 5dbd e14f f6bd bc57 b83d 1a2d c33d
00000210: 3418 0c3e 9fc7 183d df40 243e 8ffa fa3d
00000220: 780a adbd 5de7 6e3e 6243 cfbd a377 cabb
00000230: f6f9 f83d 3956 bd3d d938 ac3d c5a5 fa3d
00000240: 3948 df3d fbd8 0abe 22aa 3f3e b6ff 0bbd
00000250: c49d 09be a5e0 d13d a6d8 993c b61a 6fbd
00000260: a85d 953d 65c4 59be 0c44 a33d c720 0ebe
00000270: aee4 e9bd 5553 113c 0e6d 4f3d fd1b 30bd
00000280: 7868 8bbd a3b3 e73d ab8c 843d cb65 1d3d
00000290: af50 233d ca5b c73d 01f1 7fbd 56a2 033e
000002a0: 6006 4dbc 2861 873b 76c8 d8bd 02f9 023d
000002b0: 1159 bebb 50bb 06be 55cb c63d e116 4d3d
000002c0: d34b 933c 99d2 2bbe d1de 043e 5e3f efbd
000002d0: 65a1 b93d a20f e63d 80fd 9dbc 52c3 aa3b
000002e0: 50fc 7bbc 0312 94bd cea9 ecbc 6324 013e
000002f0: 4539 6b3d 963c 8a3d b299 6dbc 5954 f5bd
00000300: 3e62 1c3e ec10 e33d f7b7 d5bd f0f8 19be
00000310: 6bda 623d 0a0a 54be 2c66 90bd 8be3 bebd
00000320: 71ba 7aba 9c1a 713d 9fde 9d3d 30be e7bb
00000330: a407 f1bd 89ac 2b3d e3a1 7cbd 4cf5 033d
00000340: d734 8f3c 2f2e 6ebd b011 08bd c25c 11be
00000350: 5b11 e7bd 709d b7bd ee9b 42bd 90b1 163e
00000360: 3233 8bbd 3899 2bbd 0e02 a0ba e7ed 8cbd
00000370: 4be2 1fbc bacd 613d ff99 42bd e9e5 113e
00000380: d0e8 1b3c 6691 5dbd 0819 32be 7e7d fe3d
00000390: f850 bc3d f373 1bbe 4ce2 84bd 128f 9bbe
000003a0: 41f0 ddbd 4912 0d3e 5943 0ebd 55ee febc
000003b0: 3eea c63d b533 1ebd bddc de3d 74ad 273d
000003c0: 9581 47bd a14c 60bd 6676 dc3b 0152 063e
000003d0: baaf 6abd 78c7 38bd f9f5 f5bd 0624 07be
000003e0: 8f71 c9bd f9b4 703d d9f4 24bc f6ff b93d
000003f0: b8d5 c63d 5f42 debd 7689 803d d023 f4bc

decoder.destination.linears.0.bias f4 [64]
0.066398785 0.058128152 0.08744284 0.060168922 0.015945038 0.06596976 0.015365321 -0.015468767
0.032442994 0.014251321 -0.120292425 0.08370809 -0.08054023 0.067092314 0.10278185 0.05043268
-0.08261032 0.047998667 0.03324955 0.15745157 0.050704334 0.092369094 -0.12534487 -0.080546685
0.06292975 -0.011527721 0.089572966 0.041197002 -0.077825725 -0.113269836 0.026712663 0.041196566
0.010972606 -0.037018403 -0.07525296 -0.07173335 -0.12114186 -0.041519634 0.071459055 0.029580405
-0.04852194 0.041195013 0.054222822 -0.048909027 0.03792176 -0.018197473 0.0536424 0.03885272
0.0043644197 0.06976078 -0.050246503 -0.1162577 -0.04143452 -0.048873153 -0.026016489 0.12796827
0.09197779 0.08505414 -0.106780864 0.08333344 -0.09950207 -0.010247315 0.012859169 -0.008634311
00000000: 16fc 873d c917 6e3d 3b15 b33d b073 763d
00000010: 2b9f 823c 271b 873d d4be 7b3c b670 7dbc
00000020: f2e2 043d 5f7e 693c e05b f6bd 266f ab3d
00000030: 47f2 a4bd b267 893d 4a7f d23d 7f92 4e3d
00000040: 992f a9bd 409a 443d ae30 083d fc3a 213e
00000050: 59af 4f3d 022c bd3d 685a 00be a9f5 a4bd
00000060: 50e1 803d c4de 3cbc 0872 b73d 30be 283d
00000070: 1863 9fbd 04fa e7bd 84d4 da3c bbbd 283d
00000080: 72c6 333c 9ca0 17bd 391e 9abd efe8 92bd
00000090: 3919 f8bd 7e10 2abd 2059 923d 9b52 f23c
000000a0: f1be 46bd 1abc 283d c018 5e3d d554 48bd
000000b0: d953 1b3d de12 95bc 22b8 5b3d 0824 1f3d
000000c0: 6803 8f3b bdde 8e3d 47cf 4dbd 8418 eebd
000000d0: 3eb7 29bd 372f 48bd 8820 d5bc 1d0a 033e
000000e0: da5e bc3d dd30 ae3d edaf dabd b9aa aa3d
000000f0: bec7 cbbd 5be4 27bc 44af 523c ed76 0dbc

decoder.destination.linears.1.weight f4 [64, 64]
0.05569032 -0.024643697 0.03205313 -0.120849125 -0.059168346 0.03525681 0.021909876 0.025844539
-0.12738876 -0.038391937 -0.010203167 -0.13865764 0.018095784 -0.062813915 -0.10969235 0.06692098
-0.120243594 0.09852938 -0.002310466 0.0046274327 0.004374846 -0.011885418 -0.02756875 0.03693468
0.047925327 -0.012659108 -0.0013233782 -0.008147275 0.030592358 0.045363996 -0.06378655 -0.0073657758
0.043303184 0.020244136 0.0071221194 -0.028631497 -0.09593701 0.0690014 -0.077061504 -0.15687804
0.05179334 -0.09884946 -0.050502017 0.06997968 -0.047557253 -0.010107966 0.0261024 0.06509192
-0.07113337 0.087900914 -0.028300697 -0.008782846 -0.11256976 0.028962245 0.046942297 -0.077327065
-0.020616766 -0.12264145 -0.004054387 -0.17533079 -0.035052106 0.07990658 0.024451314 0.0040182522
-0.09277131 -0.049113724 -0.052316476 -0.13986248 -0.12295042 0.012314291 -0.012161327 -0.10692127
-0.08753833 -0.08923729 -0.110736385 0.042932004 0.0866918 -0.11001572 -0.026507871 0.08165337
0.032510817 0.049990278 0.08035784 -0.21352012 0.074206725 -0.13864005 -0.06219293 -0.09226862
-0.07731382 -0.05110909 0.0172027 -0.15293737 -0.079367995 0.077341646 -0.07730483 -0.03100092
0.066450484 -0.050536066 -0.085529685 0.03982625 0.09949444 0.043494325 0.07630751 -0.12081021
0.09288316 0.09452955 -0.070774265 0.047958393 -0.04316942 -0.11786241 -0.020741776 -0.08054249
-0.055017997 -0.037303828 0.13170595 -0.03527553 -0.07135679 -0.09173061 0.06820381 0.07943188
-0.048590094 0.042810652 0.026491411 -0.1551947 -0.008774467 0.11716971 0.0021689383 -0.13297477
-0.10262566 0.028388118 -0.116662234 -0.10560814 0.07120022 -0.006869372 -0.14379925 0.067081526
-0.10437056 0.07254311 -0.06399359 -0.14762793 -0.11908153 -0.049955778 0.075523496 0.008887425
0.013410464 0.031674773 -0.116318196 0.052620895 0.025575569 -0.08088602 -0.06362046 0.123681724
-0.022140123 -0.13854073 0.022821201 0.019141788 0.0818204 0.100400165 -0.111747265 -0.024383014
0.06525649 0.044233307 -0.004160078 -0.083832085 -0.113981344 0.042219374 -0.073122874 -0.10013547
0.10348065 -0.038675632 0.0131432265 0.10903677 -0.10943896 -0.10499167 -0.03022413 -0.1406606
0.09357004 -0.08059509 0.0014908612 0.03648603 0.05448607 -0.06870714 0.102326214 0.11195779
-0.07982689 0.09196629 0.009580556 -0.07617847 -0.09854901 0.045872897 -0.07183979 -0.075106874
0.025637392 -0.09018629 0.007233462 -0.007963477 0.025090171 -0.016403984 0.040405273 -0.069975175
0.13706914 0.09400391 -0.14806883 -0.058239613 0.10170525 0.13199334 0.039840765 -0.129613
-0.01042351 -0.04544756 -0.0009895323 0.08700032 -0.11423764 -0.07982234 -0.108018175 0.09095681
0.029030325 -0.032827526 0.021902401 -0.21673146 -0.039445266 0.012792424 -0.21393043 -0.05556763
-0.11707009 -0.09734377 -0.08764254 0.11662431 -0.18488242 0.14300016 0.06779312 0.1737976
-0.08170048 -0.035269044 0.17798169 -0.039651766 0.051804617 0.056069765 -0.062455535 -0.10376476
0.028887933 -0.20097628 0.008549561 0.00835496 -0.057791937 0.04474175 0.057485096 0.05240882
0.036743194 0.009833823 -0.066397846 0.04500738 -0.020164939 -0.06508792 -0.051075958 -0.005876252
00000000: 881b 643d 94e1 c9bc 254a 033d bf7f f7bd
00000010: 825a 72bd 7269 103d 577c b33c edb7 d33c
00000020: 3372 02be dd40 1dbd 2f2b 27bc 45fc 0dbe
00000030: 9c3d 943c 95a4 80bd 62a6 e0bd de0d 893d
00000040: 4642 f6bd c6c9 c93d 306b 17bb b8a1 973b
00000050: de5a 8f3b 0ebb 42bc dcd7 e1bc d248 173d
00000060: 594d 443d 2668 4fbc 3475 adba 267c 05bc
00000070: d39c fa3c 99cf 393d 86a2 82bd 9b5c f1bb
00000080: ae5e 313d 08d7 a53c ab60 e93b 9a8c eabc
00000090: a07a c4bd 9b50 8d3d 6cd2 9dbd a3a4 20be
000000a0: 4125 543d 9671 cabd 34db 4ebd 8251 8f3d
000000b0: 65cb 42bd e29b 25bc b3d4 d53c ea4e 853d
000000c0: 5fae 91bd 6505 b43d ddd6 e7bc ede5 0fbc
000000d0: f98a e6bd 3b42 ed3c 9146 403d a75d 9ebd
000000e0: 7ee4 a8bc 712b fbbd aada 84bb ea89 33be
000000f0: cc92 0fbd 10a6 a33d 1f4e c83c 8bab 833b
00000100: e2fe bdbd 792b 49bd cd49 56bd 1c38 0fbe
00000110: 6ecd fbbd e1c1 493c 4d40 47bc 8af9 dabd
00000120: 4c47 b3bd 0ac2 b6bd c2c9 e2bd 78d9 2f3d
00000130: 788b b13d ec4f e1bd 0927 d9bc e239 a73d
00000140: 102a 053d 9bc2 4c3d a792 a43d 05a5 5abe
00000150: b2f9 973d a8f7 0dbe 04be 7ebd 55f7 bcbd
00000160: b556 9ebd c457 51bd adec 8c3c 9d9b 1cbe
00000170: b08b a2bd 4c65 9e3d ff51 9ebd a4f5 fdbc
00000180: 3117 883d e8fe 4ebd 302a afbd da20 233d
00000190: bec3 cb3d 1b27 323d 1d47 9c3d 586b f7bd
000001a0: 8739 be3d b598 c13d 19f2 90bd 0570 443d
000001b0: 6bd2 30bd d961 f1bd a8ea a9bc 76f3 a4bd
000001c0: 8d5a 61bd e6cb 18bd eddd 063e 137d 10bd
000001d0: 8223 92bd 42dd bbbd 70ae 8b3d 2ead a23d
000001e0: 6806 47bd 395a 2f3d 8404 d93c 5ceb 1ebe
000001f0: c8c2 0fbc acf6 ef3d bf24 0e3b 8a2a 08be
00000200: 672d d2bd 338e e83c 9cec eebd 1549 d8bd
00000210: 6cd1 913d 7818 e1bb 1c40 13be 0a62 893d
00000220: 3bc0 d5bd 7b91 943d 120f 83bd c72b 17be
00000230: 04e1 f3bd 6e9e 4cbd 10ac 9a3d 909c 113c
00000240: 90b7 5b3c 68bd 013d 3c38 eebd 0289 573d
00000250: db83 d13c 92a7 a5bd 724b 82bd d84c fd3d
00000260: 345f b5bc 9fdd 0dbe 87f3 ba3c 3dcf 9c3c
00000270: 7491 a73d 9a9e cd3d c0db e4bd e3be c7bc
00000280: 32a5 853d fc2d 353d 4351 88bb 28b0 abbd
00000290: 0d6f e9bd 39ee 2c3d 72c1 95bd d313 cdbd
000002a0: aaed d33d 576a 1ebd b056 573c ac4e df3d
000002b0: 8921 e0bd df05 d7bd 9898 f7bc 5509 10be
000002c0: a6a1 bf3d 0a0f a5bd 0069 c33a 6072 153d
000002d0: c92c 5f3d 54b6 8cbd 6890 d13d 204a e53d
000002e0: 487c a3bd d258 bc3d c4f7 1c3c 7503 9cbd
000002f0: 10d4 c9bd 38e5 3b3d bd20 93bd a2d1 99bd
00000300: 8205 d23c 97b3 b8bd ad06 ed3b 3e79 02bc
00000310: e789 cd3c a661 86bc 0080 253d 254f 8fbd
00000320: da5b 0c3e 1f85 c03d 5b9f 17be a98c 6ebd
00000330: d84a d03d 4329 073e 1230 233d 45b9 04be
00000340: 5fc7 2abc 3827 3abd 32b3 81ba 392d b23d
00000350: 6cf5 e9bd e579 a3bd a238 ddbd 9047 ba3d
00000360: 01d1 ed3c 2876 06bd aa6c b33c daee 5dbe
00000370: 5c91 21bd 5197 513c 9410 5bbe e29a 63bd
00000380: 71c2 efbd 2c5c c7bd ef7d b3bd bad8 ee3d
00000390: d151 3dbe a26e 123e 1fd7 8a3d 00f8 313e
000003a0: 9552 a7bd 4676 10bd d540 363e e469 22bd
000003b0: 1431 543d 69a9 653d 60d1 7fbd 9e82 d4bd
000003c0: 63a6 ec3c bacc 4dbe 7513 0c3c 3ee3 083c
000003d0: 3db7 6cbd 2043 373d 7e75 6b3d a1aa 563d
000003e0: 0880 163d 0b1e 213c 98fb 87bd a959 383d
000003f0: f130 a5bc d14c 85bd 0635 51bd 938d c0bb

decoder.destination.linears.1.bias f4 [64]
-0.09382588 -0.021449 -0.028346738 0.013658507 0.07640373 -0.050331924 0.11175059 -0.031338025
-0.06129192 -0.04688838 0.06792577 0.039778687 -0.0023816552 0.18262097 0.028526211 0.00406457
-0.029065948 0.067637354 0.05560557 -0.053059816 -0.017670628 0.0970784 -0.11870988 -0.09033369
-0.07313831 -0.007152976 -0.020584034 0.021972956 -0.023118673 -0.15180819 0.07727786 0.08436642
0.039746836 -0.031901494 -0.08487083 -0.011069535 0.08159778 0.08529868 0.10112052 -0.030899487
0.067845054 0.08920421 0.03309761 -0.13144968 0.10470086 0.024233982 0.020012641 -0.045796216
-0.05358554 -0.012882055 -0.06152684 0.032732006 0.04084661 -0.128594 0.037761305 0.035295498
-0.005220761 0.088223 -0.02688565 0.048145656 0.123415455 0.027706472 -0.043937284 -0.05569812
00000000: c827 c0bd d0b5 afbc 6b37 e8bc eec7 5f3c
00000010: 8f79 9c3d d928 4ebd 7edd e43d 4d5c 00bd
00000020: 3c0d 7bbd 080e 40bd ab1c 8b3d faee 223d
00000030: 8b15 1cbb fe00 3b3e cdaf e93c 1630 853b
00000040: b61b eebc 7485 8a3d abc2 633d 4055 59bd
00000050: fec1 90bc 0ad1 c63d 2a1e f3bd df00 b9bd
00000060: 8ac9 95bd 8363 eabb d99f a8bc a100 b43c
00000070: 5f63 bdbc 9b73 1bbe db43 9e3d 4dc8 ac3d
00000080: 94cd 223d 24ab 02bd c2d0 adbd ff5c 35bc
00000090: bd1c a73d 13b1 ae3d 4618 cf3d ec20 fdbc
000000a0: 59f2 8a3d b2b0 b63d 5c91 073d bf9a 06be
000000b0: 686d d63d 5886 c63c 8df1 a33c d094 3bbd
000000c0: 837c 5bbd 410f 53bc 9103 7cbd ff11 063d
000000d0: c64e 273d 25ae 03be 99ab 1a3d 0392 103d
000000e0: eb12 abbb 43ae b43d 4b3f dcbc 6134 453d
000000f0: 3ec1 fc3d aff8 e23c 95f7 33bd b623 64bd

decoder.destination.linears.2.weight f4 [64, 64]
-0.08106022 -0.073809996 0.04316818 0.0495545 0.13114157 -0.07493527 0.29403463 0.05494369
0.070833184 0.13707769 0.021820564 0.02281299 -0.08649147 0.22011346 0.012686847 -0.077611804
-0.10416436 -0.09150633 0.01957419 -0.030133108 0.027078133 0.08814625 0.1162596 -0.20629881
-0.103154235 -0.094298266 0.051205885 -0.020833328 -0.005885614 -0.06360172 -0.07025846 0.15379828
-0.039692644 0.055539016 -0.01599459 0.116191566 0.11255886 0.13545515 -0.07392738 -0.09901943
0.21886055 -0.012476146 -0.06317218 -0.012236155 -0.05355727 -0.03496516 0.18621962 0.059894454
0.0022995574 0.0483346 -0.034078076 -0.029029235 -0.050556652 0.038028114 0.05936307 0.050085343
-0.050815947 0.12525424 -0.11057924 -0.20344491 0.067138806 -0.012325139 0.05139288 -0.059673585
0.029805573 -0.086478375 -0.08125354 0.031000584 -0.0066558933 -0.04174662 -0.09040432 0.050471872
0.11909506 0.040700354 -0.042079706 -0.1302197 0.079275966 0.029956978 -0.06047834 -0.12238974
-0.03542137 0.019103002 0.022875015 -0.088532336 -0.12182574 -0.003652701 0.03571469 0.056131966
0.028391894 -0.1250023 0.11677331 -0.11252408 0.014114198 0.0455011 -0.09686354 -0.034876965
-0.04396686 -0.056740545 -0.08574561 0.001830708 -0.1350183 0.094570056 0.007650938 0.0037063386
0.055550907 -0.036476526 0.056345556 -0.08754769 0.01630382 0.014531179 -0.024238763 -0.06365402
0.048721552 0.08707551 -0.08186599 -0.006706326 -0.00056911964 0.037570953 0.10561878 -0.10812682
0.0019790567 0.06170538 0.03970352 0.0026196062 -0.084294334 0.0477354 -0.057343677 -0.03493115
0.011179149 0.011822447 -0.0021046838 0.0734161 -0.04965931 0.12319152 -0.0405849 -0.08636893
0.067500964 -0.14831522 0.099732205 0.101332575 0.008094391 -0.20063466 -0.13222703 -0.08179852
-0.007838145 -0.068076864 -0.06990351 -0.10279798 0.029217288 -0.04090691 -0.1331409 -0.06583496
0.00374202 0.041921187 -0.07347894 0.027187392 -0.10569528 -0.19709949 -0.030698799 -0.053336028
0.0034539546 0.01220652 0.09085425 0.0352281 0.052566048 -0.11470624 0.014176987 0.031812742
0.06342605 0.027738173 -0.11965445 0.0393941 -0.0954346 -0.10154038 0.027073182 0.046616297
-0.012145535 0.10236733 0.009093258 -0.09500086 -0.034499828 -0.20265114 0.018998465 -0.08145397
0.12105562 -0.082101084 -0.00809975 -0.12790857 0.035995625 0.074410826 0.06908308 0.114356935
-0.008869066 -0.05373519 -0.029500052 -0.08065412 -0.1096987 -0.026702063 -0.058807235 -0.04939176
0.033193596 0.087014996 -0.058944665 -0.0117903715 -0.124058165 -0.15576808 -0.020709286 0.12315738
-0.050547436 -0.23320384 -0.1745346 -0.15897748 -0.020265622 -0.0025291694 -0.09938114 0.061659887
0.06680249 0.133929 0.052571714 0.11685608 0.006158746 -0.05335585 -0.025699925 0.11949729
0.05444654 -0.118661664 -0.0041324734 0.07520555 0.032739956 -0.19354072 0.13107856 -0.09830334
0.023036761 -0.20604366 0.11157721 0.11385259 -0.034504924 -0.099039994 -0.06130167 -0.10103913
-0.112297 -0.088614985 -0.02967782 0.015371836 -0.08412623 0.0957384 -0.083801694 -0.07789975
0.013129904 -0.110784724 0.036904477 -0.16647093 -0.096082374 0.09521369 -0.007935792 0.035253935
00000000: e702 a6bd b229 97bd 1ed1 303d a9f9 4a3d
00000010: fa49 063e aa77 99bd b58b 963e a20c 613d
00000020: fd10 913d 185e 0c3e 0ac1 b23c 4fe2 ba3c
00000030: 7122 b1bd 6c65 613e 7edc 4f3c f0f2 9ebd
00000040: 2054 d5bd ac67 bbbd 0d5a a03c b5d9 f6bc
00000050: f6d2 dd3c 0586 b43d 8319 ee3d ff3f 53be
00000060: 8742 d3bd 731f c1bd 43bd 513d a8aa aabc
00000070: 1cdc c0bb 9e41 82bd abe3 8fbd 4c7d 1d3e
00000080: c194 22bd e17c 633d 1607 83bc d8f5 ed3d
00000090: 4285 e63d c1b4 0a3e 3d67 97bd b3ca cabd
000000a0: fb1c 603e c068 4cbc 6a60 81bd 277a 48bc
000000b0: de5e 5bbd a137 0fbd 5bb0 3e3e e353 753d
000000c0: 2cb4 163b 80fa 453d 7495 0bbd b8ce edbc
000000d0: 7e14 4fbd 5ec3 1b3d b126 733d 4a26 4d3d
000000e0: 6224 50bd a642 003e 5e77 e2bd dd53 50be
000000f0: 1280 893d 61ef 49bc 5781 523d 4a6c 74bd
00000100: d12a f43c 931b b1bd 4268 a6bd f0f4 fd3c
00000110: ae19 dabb 81fe 2abd e625 b9bd 98bb 4e3d
00000120: 1ce8 f33d 6ab5 263d c55b 2cbd 5058 05be
00000130: 705b a23d 5668 f53c 23b8 77bd 79a7 fabd
00000140: 0016 11bd e67d 9c3c 6264 bb3c 7150 b5bd
00000150: c67f f9bd 2762 6fbb 9149 123d a2ea 653d
00000160: 1e96 e83c 9a00 00be d826 ef3d 0673 e6bd
00000170: 3d3f 673c 5d5f 3a3d 6460 c6bd 26db 0ebd
00000180: 9816 34bd c668 68bd 659b afbd 5ef4 ef3a
00000190: 3d42 0abe f2ad c13d b8b4 fa3b 0be6 723b
000001a0: 5989 633d 6968 15bd 99ca 663d 344c b3bd
000001b0: 978f 853c 2f14 6e3c 5f90 c6bc 0a5d 82bd
000001c0: 4090 473d a554 b23d 5ba9 a7bd bdc0 dbbb
000001d0: f930 15ba 00e4 193d a94e d83d 9871 ddbd
000001e0: 10b3 013b c8be 7c3d 28a0 223d b3ad 2b3b
000001f0: 82a2 acbd 3286 433d 34e1 6abd f713 0fbd
00000200: c028 373c f0b2 413c bcee 09bb 2e5b 963d
00000210: 9067 4bbd d64b fc3d 5a3c 26bd 32e2 b0bd
00000220: f23d 8a3d f2df 17be 6640 cc3d 7487 cf3d
00000230: 569e 043c 2c73 4dbe 8666 07be fc85 a7bd
00000240: 906b 00bc e26b 8bbd 9229 8fbd bf87 d2bd
00000250: 1859 ef3c 018e 27bd 1756 08be 7bd4 86bd
00000260: ae3c 753b 8db5 2b3d 207c 96bd 18b8 de3c
00000270: c476 d8bd 73d4 49be 0c7c fbbc e176 5abd
00000280: be5b 623b dbfd 473c cb11 ba3d 574b 103d
00000290: 7f4f 573d 1beb eabd 9846 683c 144e 023d
000002a0: 84e5 813d 2a3b e33c 640d f5bd b55b 213d
000002b0: 3773 c3bd 67f4 cfbd 94c8 dd3c bbf0 3e3d
000002c0: 11fe 46bc f6a5 d13d e3fb 143c d08f c2bd
000002d0: b14f 0dbd c883 4fbe aba2 9b3c 57d1 a6bd
000002e0: 02ec f73d 9d24 a8bd d0b4 04bc 77fa 02be
000002f0: 2670 133d b464 983d 6e7b 8d3d f833 ea3d
00000300: 8f4f 11bc 6e19 5cbd 18aa f1bc fd2d a5bd
00000310: b6a9 e0bd 49be dabc dbdf 70bd 044f 4abd
00000320: 02f6 073d eb34 b23d f66f 71bd 672c 41bc
00000330: 3512 febd ab81 1fbe 85a6 a9bc f039 fc3d
00000340: d40a 4fbd fdcc 6ebe 33b9 32be feca 22be
00000350: 1704 a6bc 6cc0 25bb 5788 cbbd 148f 7c3d
00000360: becf 883d af24 093e 7055 573d 3e52 ef3d
00000370: 4ecf c93b aa8b 5abd a688 d2bc ffba f43d
00000380: 5603 5f3d e304 f3bd b369 87bb 5e05 9a3d
00000390: 551a 063d 8a2f 46be 7539 063e 4353 c9bd
000003a0: 97b7 bc3c 1cfd 52be 9882 e43d 8c2b e93d
000003b0: 0955 0dbd 7bd5 cabd 7617 7bbd 9aed cebd
000003c0: f8fb e5bd c67b b5bd e61e f3bc 27da 7b3c
000003d0: 5f4a acbd 7f12 c43d 39a0 abbd e789 9fbd
000003e0: cf1e 573c 1ae3 e2bd 2629 173d 5b77 2abe
000003f0: d6c6 c4bd 65ff c23d 2005 02bc 6e66 103d

decoder.destination.linears.2.bias f4 [64]
0.13575515 -0.008946319 -0.025906507 -0.28718004 0.102664314 0.04929597 -0.038756873 -0.03981454
-0.03216645 0.094993696 0.120945975 -0.045349386 0.221259 0.06752321 0.005180624 0.06051059
0.06803574 -0.3055985 0.06601446 -0.033665523 0.15415642 0.06421204 -0.074175276 -0.06246959
0.0760804 0.11203598 -0.021552373 0.12351349 -0.05115951 -0.02739746 0.02111272 0.16012739
0.0 -0.016620284 -0.030757938 -0.032101598 -0.095592745 0.06518981 -0.045753244 0.12345453
-0.08657969 -0.023357706 0.1792815 0.0571594 0.0827589 0.16461098 0.06785463 -0.02424406
0.13055606 -0.12639657 0.09336949 0.14845948 0.07891933 0.07766678 -0.00601589 0.026845887
0.111528136 0.12397873 -0.02507156 0.058969244 -0.06888572 -0.022220923 0.15996212 0.07301794
00000000: 6603 0b3e 9593 12bc e239 d4bc 4309 93be
00000010: ab41 d23d 92ea 493d 87bf 1ebd 9214 23bd
00000020: f8c0 03bd 0e8c c23d 86b2 f73d 47c0 39bd
00000030: b891 623e 9c49 8a3d 39c2 a93b f4d9 773d
00000040: 5256 8b3d 6877 9cbe 9732 873d dce4 09bd
00000050: 2edb 1d3e 9a81 833d 35e9 97bd 1de0 7fbd
00000060: 0ad0 9b3d 1f73 e53d 9a8e b0bc a4f4 fc3d
00000070: a28c 51bd a370 e0bc 95f4 ac3c 6ff8 233e
00000080: 0000 0000 4327 88bc 12f8 fbbc f77c 03bd
00000090: 21c6 c3bd 3c82 853d c167 3bbd bbd5 fc3d
000000a0: b150 b1bd a958 bfbc 9295 373e fa1f 6a3d
000000b0: 807d a93d c88f 283e 5ef7 8a3d 7b9b c6bc
000000c0: 7db0 053e 1a6e 01be 8138 bf3d c305 183e
000000d0: 75a0 a13d c30f 9f3d f120 c5bb e8eb db3c
000000e0: dd68 e43d 8fe8 fd3d df62 cdbc bc89 713d
000000f0: f513 8dbd a708 b6bc 1ccd 233e 6e8a 953d

decoder.destination.out.weight f4 [2, 64]
0.04066307 -0.16032444 0.13404553 0.059786983 0.028673384 -0.25180095 -0.031805597 0.11992634
0.01566183 0.25450847 0.24437407 -0.24408555 -0.07706483 -0.25307754 0.1887028 -0.17038187
0.16370459 -0.07257911 -0.13287263 -0.07520409 0.07322983 -0.079970285 0.2487748 0.054366495
-0.04018344 0.103795886 0.023774594 0.1982041 0.004031452 0.09988538 -0.11823072 0.030954385
0.28103688 0.012073252 -0.19278887 -0.07821497 -0.003457959 -0.050317198 -0.0060956976 0.19877777
0.05404527 -0.12493579 -0.08274912 0.11572742 0.11020297 0.051158197 0.15760903 0.23462157
-0.017552372 0.18264097 0.031650063 -0.029115679 0.066821866 0.011084415 -0.08374466 0.15482816
-0.1947109 0.11079918 0.28216344 -0.15336877 0.2187274 -0.02445772 0.0061565447 0.22793949
-0.7470178 -0.20371886 0.14919218 -0.45818764 -0.78658706 0.040372204 -0.086056605 0.18045375
-0.26015705 -0.3519238 0.13984126 -0.12691787 0.33583334 -0.45136487 -1.2791265 -0.21597795
-0.08063243 -0.4459413 0.19389333 -0.07646586 0.26966557 -0.0067710686 -0.037358116 0.0997455
0.07285867 0.09405811 0.06395635 -0.33448994 -0.017189544 0.18822855 -0.13592625 -0.7574287
-0.15126358 0.021125851 0.18419494 0.23645394 0.17497386 0.009658539 -0.23981428 0.06534917
0.05922319 0.2179137 0.2850889 -0.30441853 0.21971734 0.25134975 0.1850297 0.14273632
-1.2695388 0.083054006 -0.7598327 -0.8312773 -1.035741 0.088407725 0.0998024 0.20539626
0.18999815 0.20842578 -0.112516984 -0.476071 -0.04096513 0.05651261 -0.5877817 -0.61424625
00000000: 528e 263d 172c 24be 3b43 093e 32e3 743d
00000010: 72e4 ea3c 0eec 80be 9646 02bd f19b f53d
00000020: 3d4d 803c ef4e 823e 323d 7a3e 90f1 79be
00000030: 2ad4 9dbd 6193 81be 4f3b 413e 9678 2ebe
00000040: 2da2 273e 5ba4 94bd c30f 08be 9a04 9abd
00000050: 85f9 953d 76c7 a3bd d2be 7e3e 67af 5e3d
00000060: 6497 24bd f092 d43d f0c2 c23c 04f6 4a3e
00000070: 451a 843b b590 cc3d f322 f2bd 0d94 fd3c
00000080: 11e4 8f3e e4ce 453c 726a 45be 2c2f a0bd
00000090: ed9e 62bb 6819 4ebd 6bbe c7bb 668c 4b3e
000000a0: 935e 5d3d 56de ffbd 5f78 a9bd 7f02 ed3d
000000b0: 18b2 e13d 428b 513d 4364 213e a340 703e
000000c0: fec9 8fbc 3c06 3b3e 7fa3 013d 0184 eebc
000000d0: e7d9 883d 689b 353c 5282 abbd 468b 1e3e
000000e0: 4b62 47be aeea e23d ba77 903e b40c 1dbe
000000f0: 13fa 5f3e 8e5b c8bc d7bc c93b f868 693e
00000100: 8f3c 3fbf ad9b 50be d6c5 183e 9297 eabe
00000110: c55d 49bf 535d 253d 723e b0bd dec8 383e
00000120: 4e33 85be 5b2f b4be 8c32 0f3e c2f6 01be
00000130: 59f2 ab3e 4c19 e7be 6bba a3bf 5329 5dbe
00000140: 9e22 a5bd 6b52 e4be f98b 463e 229a 9cbd
00000150: 9b11 8a3e d7df ddbb d304 19bd 5e47 cc3d
00000160: ed36 953d 8aa1 c03d 8cfb 823d 4442 abbe
00000170: 16d1 8cbc fcbe 403e 4030 0bbe d9e6 41bf
00000180: d7e4 1abe 1f10 ad3c 999d 3c3e fb20 723e
00000190: 592c 333e d93e 1e3c e091 75be c9d5 853d
000001a0: 0494 723d c524 5f3e 2cf7 913e bfdc 9bbe
000001b0: 95fd 603e eab0 803e 6d78 3d3e 7829 123e
000001c0: 3f80 a2bf 3818 aa3d 6584 42bf 97ce 54bf
000001d0: 2993 84bf 1c0f b53d 3365 cc3d 6653 523e
000001e0: e08e 423e 916d 553e 4e6f e6bd 94bf f3be
000001f0: 0dcb 27bd c479 673d dd78 16bf 3e3f 1dbf

decoder.destination.out.bias f4 [2]
-0.0029195687 -0.15471432
00000000: 3c56 3fbb 6e6d 1ebe

keys_to_pseudo.resizer.weight f4 [128, 2]
0.20785837 0.5533408 -0.25351256 0.07711648 -0.0067896815 -0.92956287 0.23204899 -0.098411895
-0.4762627 0.52043283 0.33130938 -0.2652417 -0.16953988 -0.53035474 -0.28247145 -0.1992149
-0.53696865 -0.1014781 -0.46865264 -0.13704558 0.62036663 -0.012587391 0.054414283 0.32396066
-0.21298334 -0.06559616 -0.35148013 -0.09018552 0.37051806 0.14499499 0.15500548 0.15042171
0.6871157 0.49449465 -0.6642813 0.38410366 0.06861449 0.16785905 0.35850734 0.058597095
0.28869492 -0.48692498 -0.5683562 0.3647909 0.46811187 -0.31000113 0.084399365 -0.55929846
-0.14536709 -0.22210751 0.060179234 0.18752009 -0.55329794 0.5907009 -0.4632482 0.10315941
-0.12559725 0.04059605 -0.040128548 0.2568353 0.3098908 0.50008553 0.58380824 -0.37841463
0.63363105 -0.29426837 -0.00047814703 -0.5980561 0.018272936 -0.44620016 0.2336407 -0.58032393
0.10850911 -0.561555 0.058978744 -0.15983127 -0.00044501785 0.62574744 0.66052395 -0.27332714
-0.5126109 -0.22025733 -0.6289254 -0.5471069 -0.63582575 0.5181751 0.62766355 -0.1614909
0.14446189 -0.024929417 -0.17892556 0.45949408 -0.16851905 0.21378018 -0.1613102 0.4193817
-0.094979346 -0.009717047 0.6975531 -0.2676108 0.51191896 -0.069611795 -0.16893804 0.24137166
-0.4187016 -0.48437467 0.6242474 -0.356896 0.02417636 0.5200549 -0.65218407 0.054408293
0.03253609 -0.34387755 0.14494808 0.15725468 -0.17486167 -0.50373167 -0.62366027 0.25707838
0.13717733 -0.31960833 -0.013786382 1.6468811 -0.42086318 -0.029226026 -0.14318323 -0.41522914
-0.12699898 -0.634566 0.65140885 0.6236083 0.6966067 -0.44044143 0.037534714 -0.69084376
0.07829403 -0.11324879 0.58002436 -0.6902837 0.5883582 -0.18329482 0.12694018 0.25677985
0.10559958 -0.27649435 0.7242669 -0.1886405 0.5616663 0.5600743 -0.0038319568 0.42379835
0.37866986 -0.28107244 0.0014626109 0.29403657 -0.6073167 -0.5816881 0.19451593 -0.23376846
-0.07092454 -0.50244075 0.010467768 -0.08345717 -0.1615915 0.36935586 -0.62409645 0.0005442493
0.3297248 0.22145826 0.5136227 -0.028616501 0.29939994 -0.16855517 0.5342376 0.48730573
-0.38380384 -0.51654434 -0.5554129 0.44079223 0.48086208 0.29519826 0.7044349 0.1723577
0.002515324 -0.5257585 0.44122338 0.00034474954 -0.33567327 -0.41587728 -0.6248061 0.6115423
0.1553614 -0.020846955 0.012129188 0.5559216 0.20493218 0.10054025 0.46556407 0.061945304
-0.45171508 -0.10672079 -0.045648977 -0.16795859 -0.49946383 -0.10399205 0.63840985 0.35112944
-0.06119923 0.18923014 -0.18250819 0.16101602 -0.08318389 0.52645123 -0.41705745 -0.2247644
0.46255422 0.07481118 0.01126178 -0.50387293 -0.6919289 -0.18324497 0.36046773 0.2757341
0.42703074 0.21644628 0.004842308 0.9261862 0.31286702 0.15974908 0.18974876 -0.2707476
-0.17890738 0.14391312 0.26780015 -0.08595249 0.13246696 -0.4869784 0.16882093 0.21619269
0.35328576 -0.5024156 -0.15390038 -0.21623993 0.0028548802 0.6734772 0.23470952 -0.124599025
0.016562002 0.20120513 0.48217633 0.07916299 -0.06651965 -0.37944487 -0.70501596 0.599959
00000000: d3d8 543e bea7 0d3f 66cc 81be 3fef 9d3d
00000010: fa7b debb d5f7 6dbf 409e 6d3e 2d8c c9bd
00000020: b4d8 f3be 163b 053f 62a1 a93e c3cd 87be
00000030: dd9b 2dbe 54c5 07bf 19a0 90be fefe 4bbe
00000040: c776 09bf c0d3 cfbd 3df3 efbe ad55 0cbe
00000050: 59d0 1e3f 583b 4ebc 83e1 5e3d 2cde a53e
00000060: 4e18 5abe 4857 86bd 34f5 b3be 30b3 b8bd
00000070: 8bb4 bd3e 9179 143e c2b9 1e3e 2608 1a3e
00000080: d1e6 2f3f 672e fd3e 570e 2abf 3ca9 c43e
00000090: c185 8c3d 3ee3 2b3e 468e b73e 8203 703d
000000a0: d2cf 933e 3b4e f9be cb7f 11bf dfc5 ba3e
000000b0: 5cac ef3e 78b8 9ebe 93d9 ac3d 2f2e 0fbf
000000c0: 1cdb 14be 2770 63be 807e 763d 4405 403e
000000d0: efa4 0dbf 2d38 173f de2e edbe 3e45 d33d
000000e0: 919c 00be 0b48 263d d55d 24bd eb7f 833e
000000f0: 02aa 9e3e 9b05 003f 7574 153f 90bf c1be
00000100: a535 223f 58aa 96be cfaf fab9 341a 19bf
00000110: 20b1 953c 5974 e4be 823f 6f3e 1c90 14bf
00000120: 063a de3d 12c2 0fbf b293 713d cfaa 23be
00000130: 4951 e9b9 fc30 203f 1918 293f 89f1 8bbe
00000140: 783a 03bf 238b 61be 4101 21bf 330f 0cbf
00000150: 7ac5 22bf 20a7 043f 8fae 203f df5d 25be
00000160: d1ed 133e c738 ccbc 4338 37be cf42 eb3e
00000170: 4290 2cbe 31e9 5a3e 802e 25be 33b9 d63e
00000180: 8884 c2bd 4034 1fbc d792 323f 4804 89be
00000190: 1f0d 033f a190 8ebd 18fe 2cbe 222a 773e
000001a0: 0e60 d6be f5ff f7be adce 1f3f 13bb b6be
000001b0: 800d c63c 5122 053f 89f5 26bf 3bdb 5e3d
000001c0: 9044 053d b810 b0be 456d 143e 5f07 213e
000001d0: f00e 33be 8ff4 00bf 33a8 1fbf c79f 833e
000001e0: 3778 0c3e b4a3 a3be 47e0 61bc 00cd d23f
000001f0: 617b d7be 6b6b efbc a09e 12be ea98 d4be
00000200: 050c 02be eb72 22bf bbc2 263f cba4 1f3f
00000210: d154 323f 8a81 e1be 00be 193d 23db 30bf
00000220: 9f58 a03d fbee e7bd 7a7c 143f 6fb6 30bf
00000230: a59e 163f a3b1 3bbe 9bfc 013e a678 833e
00000240: 9844 d83d ab90 8dbe 8e69 393f fa2a 41be
00000250: 5dc9 0f3f 0861 0f3f 9121 7bbb 19fc d83e
00000260: 04e1 c13e bae8 8fbe 14b5 bf3a f68b 963e
00000270: 1b79 1bbf 83e9 14bf 2f2f 473e 0061 6fbe
00000280: e340 91bd f59f 00bf 0081 2b3c 98eb aabd
00000290: 3e78 25be 361c bd3e c9c4 1fbf f4ab 0e3a
000002a0: b0d1 a83e f4c5 623e c77c 033f 276d eabc
000002b0: f34a 993e ba99 2cbe ccc3 083f 2380 f93e
000002c0: f081 c4be 403c 04bf 8a2f 0ebf 85af e13e
000002d0: 8e33 f63e 3a24 973e d855 343f 897e 303e
000002e0: 22d8 243b 1c98 06bf 08e8 e13e 80bf b439
000002f0: 5edd abbe deed d4be 4bf3 1fbf 098e 1c3f
00000300: 0f17 1f3e 3cc7 aabc 80b9 463c e150 0e3f
00000310: bed9 513e 0ce8 cd3d 6a5e ee3e 5cba 7d3d
00000320: 3347 e7be 6e90 dabd 6cfa 3abd 56fd 2bbe
00000330: b9b9 ffbe c9f9 d4bd d46e 233f 3dc7 b33e
00000340: 0bac 7abd 8cc5 413e 6de3 3abe 62e1 243e
00000350: 515c aabd 82c5 063f 8e88 d5be a428 66be
00000360: e8d3 ec3e 9b36 993d 5483 383c d1fd 00bf
00000370: 4122 31bf 92a4 3bbe 3a8f b83e 052d 8d3e
00000380: c6a3 da3e 18a4 5d3e 39ac 9e3b 8a1a 6d3f
00000390: 1b30 a03e 4395 233e 804d 423e 6e9f 8abe
000003a0: 7f33 37be f65d 133e 1a1d 893e dc07 b0bd
000003b0: 6ba5 073e 3c55 f9be 65df 2c3e 9e61 5d3e
000003c0: dfe1 b43e 4f9e 00bf 1098 1dbe 006e 5dbe
000003d0: f118 3b3b 0069 2c3f b157 703e c62d ffbd
000003e0: 09ad 873c b808 4e3e d1df f63e 3520 a23d
000003f0: 743b 88bd 9946 c2be ed7b 34bf ea96 193f

keys_to_pseudo.resizer.bias f4 [128]
-0.45998022 -0.063090436 0.5644226 0.51980066 0.37172127 -0.51672375 -0.7588889 0.13642517
0.12388904 -0.02115439 -0.3802794 0.10554913 0.18354861 0.49100053 -0.24799658 0.35047993
-0.44100302 -0.36895835 0.07268268 -0.42860082 -0.45600486 -0.28442854 -0.0125750955 0.49729335
0.16470166 -0.6894325 -0.23865238 0.35181 -0.2687017 0.27339104 0.29431492 -0.5747596
0.11102075 0.32257733 -0.3817353 -0.57498205 -0.30786425 0.33467436 0.037009567 -0.30680954
-0.050012153 -0.29158923 0.05631781 0.052655503 0.4416866 0.04406423 0.25746885 -0.27277324
-0.53294444 0.0572201 0.56077033 0.35717446 0.29879037 -0.36955512 -0.6004569 0.022794377
-0.43190557 0.15218894 -0.80331403 -0.35066345 -0.7102134 -0.14317109 0.103218846 -0.6035311
-0.40171593 -0.23249546 0.5097279 -0.117976785 0.37333074 0.3497679 -0.28873858 -0.14948727
-0.47469026 -0.2504641 -0.24428101 0.23626378 -0.015666632 0.0919663 0.039178133 0.1709997
0.64366615 -0.48770174 0.13155046 -0.58874184 -0.23227957 0.054477695 0.60742086 -0.33747151
-0.085798286 0.028058888 -0.3860348 0.26431766 0.3148505 -0.06674132 -0.006487641 -0.035777353
-0.76337135 -0.6373812 0.39536154 -0.072163984 0.36744076 0.20520113 -0.15423118 0.32130578
0.022099499 0.3351433 -0.45077825 0.2038774 -0.033268347 0.3450548 -0.31828392 0.6376816
0.29955274 0.21975192 0.46811435 0.17814489 0.30577627 0.31903142 0.3567082 0.330289
0.094247304 0.54442763 -0.20698307 0.3430849 -0.068606146 0.09229763 0.24294357 -0.27129143
00000000: 8782 ebbe 8f35 81bd 007e 103f a811 053f
00000010: 4052 be3e 0248 04bf 8b46 42bf 0ab3 0b3e
00000020: 89b9 fd3d f94b adbc fbb3 c2be 242a d83d
00000030: 2bf4 3b3e 6c64 fb3e d1f2 7dbe 1b72 b33e
00000040: 26cb e1be 1ce8 bcbe a8da 943d 9171 dbbe
00000050: 7879 e9be 9ea0 91be c607 4ebc 3c9d fe3e
00000060: 8da7 283e a67e 30bf 4a61 74be 7120 b43e
00000070: 4593 89be e9f9 8b3e 72b0 963e 7223 13bf
00000080: d95e e33d db28 a53e cf72 c3be 0632 13bf
00000090: 62a0 9dbe 705a ab3e 5897 173d 2416 9dbe
000000a0: 8bd9 4cbd 2f4b 95be 81ad 663d 4cad 573d
000000b0: bf24 e23e b27c 343d f5d2 833e efa8 8bbe
000000c0: 0c6f 08bf a05f 6a3d a58e 0f3f 92df b63e
000000d0: 0dfb 983e 5436 bdbe 8bb7 19bf 46bb ba3c
000000e0: ba22 ddbe 6bd7 1b3e fda5 4dbf 298a b3be
000000f0: 8cd0 35bf 719b 12be 6764 d33d 0481 1abf
00000100: b6ad cdbe 4a13 6ebe 877d 023f d09d f1bd
00000110: 3525 bf3e c714 b33e 8bd5 93be 3113 19be
00000120: 9a0a f3be d53c 80be cd24 7abe 22ef 713e
00000130: 4f57 80bc d458 bc3d 4079 203d 8c1a 2f3e
00000140: 4ec7 243f 0bb4 f9be 2ab5 063e c9b7 16bf
00000150: b2da 6dbe 0124 5f3d ef7f 1b3f 11c9 acbe
00000160: 03b7 afbd c1db e53c 5aa6 c5be a554 873e
00000170: 1634 a13e acaf 88bd 4796 d4bb 468b 12bd
00000180: 4e6c 43bf 6a2b 23bf d46c ca3e b6ca 93bd
00000190: 3221 bc3e 3f20 523e c7ee 1dbe 3182 a43e
000001a0: 020a b53c e797 ab3e 68cc e6be 3dc5 503e
000001b0: 6444 08bd 06ab b03e 1cf6 a2be 1a3f 233f
000001c0: fa5e 993e a606 613e afac ef3e 9d6b 363e
000001d0: b58e 9c3e 1658 a33e 75a2 b63e a41b a93e
000001e0: bb04 c13d 9c5f 0b3f 5ff3 53be d3a8 af3e
000001f0: 6181 8cbd 8a06 bd3d 33c6 783e b6e6 8abe

pseudo_self_attn.conv_blocks.0.norm1.weight f4 [128]
0.7211995 0.86064255 0.2915097 0.4638353 0.33443272 0.9865309 0.89533174 0.5973438
0.82326347 0.8811767 0.12214619 0.16576904 0.523467 0.70062995 0.7571406 0.7794239
0.07846248 0.9813933 0.3055631 0.9728814 0.83940417 0.8597068 0.7094699 0.09819889
0.18845493 0.8518469 0.53182334 0.34658974 0.404957 0.2942282 0.6978949 0.6963914
0.71357495 0.80721706 0.8280427 0.7459687 0.46836537 0.14333051 0.41643143 0.758145
0.15441382 0.48606515 0.15758073 0.8678692 0.2109021 0.88583124 0.8925951 0.1508221
0.97814155 0.07722801 0.8612998 0.15183276 0.61850876 0.45845026 0.20410538 0.96567255
0.42024213 0.14121789 0.95367914 0.18830705 0.09823674 0.7390426 0.36799812 0.81354415
0.3816989 0.33832395 0.072600365 0.44535393 0.21919113 0.34806246 0.94183785 0.84971464
0.1285674 0.14497322 0.40825105 0.6914835 0.92428654 0.9893149 0.7200823 0.028472424
0.48246765 0.7253029 0.7508575 0.91223973 0.90283334 0.48503482 4.708767e-05 0.34149992
0.38194865 0.7262324 0.85269815 0.43630797 0.3536815 0.6855067 0.7287842 0.9595885
0.267649 0.75236565 0.21815145 0.181436 0.3985384 0.07262504 0.27001828 0.23616052
0.15989488 0.20002234 0.37159306 0.3727705 0.17705601 0.037013173 0.81002057 0.68607116
0.7868624 0.6317938 0.8472692 0.11538923 0.28702325 0.91859436 0.8156606 0.67788655
0.54449123 0.4577703 0.07276571 0.9781188 0.15184522 0.4538353 0.31827855 0.17142838
00000000: 88a0 383f 1253 5c3f c240 953e d27b ed3e
00000010: c43a ab3e 4a8d 7c3f 7634 653f 86eb 183f
00000020: 65c1 523f cc94 613f c827 fa3d 5cbf 293e
00000030: ef01 063f 7c5c 333f f7d3 413f 5388 473f
00000040: f0b0 a03d 973c 7b3f c472 9c3e c10e 793f
00000050: 31e3 563f bf15 5c3f d29f 353f 801c c93d
00000060: 54fa 403e a312 5a3f 9325 083f 3674 b13e
00000070: 8656 cf3e 14a5 963e 3da9 323f b546 323f
00000080: d9ac 363f c7a5 4e3f 9bfa 533f cef7 3e3f
00000090: 96cd ef3e 3cc5 123e 8036 d53e ca15 423f
000000a0: a81e 1e3e 88dd f83e d85c 213e ad2c 5e3f
000000b0: b8f6 573e d6c5 623f 1d81 643f 1c71 1a3e
000000c0: 7c67 7a3f b829 9e3d 257e 5c3f 0c7a 1b3e
000000d0: 9756 1e3f feb9 ea3e 0001 513e 5136 773f
000000e0: fa29 d73e 6c9b 103e 5124 743f 90d3 403e
000000f0: 5830 c93d e531 3d3f 406a bc3e 6e44 503f
00000100: 0a6e c33e cc38 ad3e 80af 943d 6e05 e43e
00000110: a473 603e 3e35 b23e 491c 713f e686 593f
00000120: 2ca7 033e dc73 143e 4806 d13e 1005 313f
00000130: 0b9e 6c3f be43 7d3f 5057 383f 003f e93c
00000140: 0006 f73e 73ad 393f 3238 403f 8b88 693f
00000150: 1620 673f 7c56 f83e 0080 4538 14d9 ae3e
00000160: c68e c33e 5eea 393f 6d4a 5a3f c263 df3e
00000170: be15 b53e 5e7d 2f3f 9a91 3a3f 98a7 753f
00000180: 4a09 893e 099b 403f 1863 5f3e 5cca 393e
00000190: 3a0d cc3e 70bc 943d d63f 8a3e 10d4 713e
000001a0: 7cbb 233e a8d2 4c3e 7241 be3e c6db be3e
000001b0: 2c4e 353e 209b 173d 825d 4f3f 5ca2 2f3f
000001c0: d06f 493f 3dbd 213f a2e6 583f 3051 ec3d
000001d0: b6f4 923e 0029 6b3f 22cf 503f f989 2d3f
000001e0: c763 0b3f de60 ea3e 3006 953d fe65 7a3f
000001f0: 507d 1b3e 1a5d e83e 68f5 a23e ec8a 2f3e

pseudo_self_attn.conv_blocks.0.norm1.bias f4 [128]
0.0 0.0 0.0 0.0 0.0 0.0 0.0 0.0
0.0 0.0 0.0 0.0 0.0 0.0 0.0 0.0
0.0 0.0 0.0 0.0 0.0 0.0 0.0 0.0
0.0 0.0 0.0 0.0 0.0 0.0 0.0 0.0
0.0 0.0 0.0 0.0 0.0 0.0 0.0 0.0
0.0 0.0 0.0 0.0 0.0 0.0 0.0 0.0
0.0 0.0 0.0 0.0 0.0 0.0 0.0 0.0
0.0 0.0 0.0 0.0 0.0 0.0 0.0 0.0
0.0 0.0 0.0 0.0 0.0 0.0 0.0 0.0
0.0 0.0 0.0 0.0 0.0 0.0 0.0 0.0
0.0 0.0 0.0 0.0 0.0 0.0 0.0 0.0
0.0 0.0 0.0 0.0 0.0 0.0 0.0 0.0
0.0 0.0 0.0 0.0 0.0 0.0 0.0 0.0
0.0 0.0 0.0 0.0 0.0 0.0 0.0 0.0
0.0 0.0 0.0 0.0 0.0 0.0 0.0 0.0
0.0 0.0 0.0 0.0 0.0 0.0 0.0 0.0
00000000: 0000 0000 0000 0000 0000 0000 0000 0000
00000010: 0000 0000 0000 0000 0000 0000 0000 0000
00000020: 0000 0000 0000 0000 0000 0000 0000 0000
00000030: 0000 0000 0000 0000 0000 0000 0000 0000
00000040: 0000 0000 0000 0000 0000 0000 0000 0000
00000050: 0000 0000 0000 0000 0000 0000 0000 0000
00000060: 0000 0000 0000 0000 0000 0000 0000 0000
00000070: 0000 0000 0000 0000 0000 0000 0000 0000
00000080: 0000 0000 0000 0000 0000 0000 0000 0000
00000090: 0000 0000 0000 0000 0000 0000 0000 0000
000000a0: 0000 0000 0000 0000 0000 0000 0000 0000
000000b0: 0000 0000 0000 0000 0000 0000 0000 0000
000000c0: 0000 0000 0000 0000 0000 0000 0000 0000
000000d0: 0000 0000 0000 0000 0000 0000 0000 0000
000000e0: 0000 0000 0000 0000 0000 0000 0000 0000
000000f0: 0000 0000 0000 0000 0000 0000 0000 0000
00000100: 0000 0000 0000 0000 0000 0000 0000 0000
00000110: 0000 0000 0000 0000 0000 0000 0000 0000
00000120: 0000 0000 0000 0000 0000 0000 0000 0000
00000130: 0000 0000 0000 0000 0000 0000 0000 0000
00000140: 0000 0000 0000 0000 0000 0000 0000 0000
00000150: 0000 0000 0000 0000 0000 0000 0000 0000
00000160: 0000 0000 0000 0000 0000 0000 0000 0000
00000170: 0000 0000 0000 0000 0000 0000 0000 0000
00000180: 0000 0000 0000 0000 0000 0000 0000 0000
00000190: 0000 0000 0000 0000 0000 0000 0000 0000
000001a0: 0000 0000 0000 0000 0000 0000 0000 0000
000001b0: 0000 0000 0000 0000 0000 0000 0000 0000
000001c0: 0000 0000 0000 0000 0000 0000 0000 0000
000001d0: 0000 0000 0000 0000 0000 0000 0000 0000
000001e0: 0000 0000 0000 0000 0000 0000 0000 0000
000001f0: 0000 0000 0000 0000 0000 0000 0000 0000
