results/notebooks/neural_process/Periodic_Kernel/AttnCNP/run_0/params.pt (torch_old, 753515 bytes, 36 tensors)

x_encoder.to_hidden.weight f4 [32, 1]
-0.52431095 0.04888213 -0.7532074 0.48337674 -0.9874766 0.94274044 -0.7898666 -1.0894126
-1.0897938 0.64710957 -0.49707964 0.47799397 -1.0548145 -0.55518603 -0.7699231 -0.385924
-0.91971916 0.7262543 -0.43490034 0.7421161 0.9513493 0.37665352 0.46046734 1.1843258
-0.50447917 0.8523769 -0.71110696 0.77123404 1.106971 -1.0801982 0.90752375 1.0063834
00000000: 3e39 06bf a138 483d 33d2 40bf 287d f73e
00000010: 44cb 7cbf 7057 713f b334 4abf df71 8bbf
00000020: 5d7e 8bbf f9a8 253f 3981 febe a0bb f43e
00000030: 2904 87bf ac20 0ebf ae19 45bf d597 c5be
00000040: b772 6bbf cdeb 393f 42ab debe 52fb 3d3f
00000050: a18b 733f bbd8 c03e 60c2 eb3e fd97 973f
00000060: 8c25 01bf 5f35 5a3f 1b0b 36bf 986f 453f
00000070: 3ab1 8d3f ef43 8abf 7a53 683f 2cd1 803f

x_encoder.to_hidden.bias f4 [32]
0.41802335 0.09243325 0.2994794 -0.32093135 0.45393783 0.399555 -0.42822963 -0.14606348
-0.0089332145 0.5123027 0.44766164 -0.35223973 -0.07652623 -0.51154274 -0.18981048 -0.25225127
-0.34394032 -0.43000332 0.37113827 -0.04042947 -0.33669454 0.3241154 0.27407852 -0.27811128
-0.37492353 -0.09204123 0.2073102 -0.40636998 -0.1880499 -0.33304822 0.43340242 0.19100042
00000000: 2807 d63e a54d bd3d 5d55 993e 1d51 a4be
00000010: 8a6a e83e 7992 cc3e ea40 dbbe aa91 15be
00000020: 9e5c 12bc 4526 033f e833 e53e c458 b4be
00000030: c9b9 9cbd 77f4 02bf ae5d 42be 1427 81be
00000040: f218 b0be 6529 dcbe d605 be3e 5f99 25bd
00000050: 3a63 acbe 74f2 a53e 0554 8c3e 9a64 8ebe
00000060: faf5 bfbe 1d80 bcbd 2049 543e ba0f d0be
00000070: 2790 40be 4c85 aabe ece6 dd3e 9d95 433e

x_encoder.out.weight f4 [128, 32]
-0.4475467 -0.01527786 -0.15767787 -0.32776693 -0.33037928 0.06650172 0.21288247 -0.45872462
-0.09238881 0.54249 -0.15204325 -0.1141616 -0.113084376 -0.15346794 -0.4083095 0.14569102
-0.5112802 -0.129726 -0.49513358 0.14946052 0.15621778 0.65172243 0.40235528 0.10718919
0.07640257 -0.16084303 -0.2482038 0.38946006 0.4807007 -0.2794105 -0.10779665 0.5593338
0.37680796 0.043204833 -0.09545586 -0.052692015 0.30394283 -0.021200204 -0.3675303 -0.18656424
-0.49385232 -0.004329182 0.6479107 -0.29899108 -0.46181878 -0.13741079 -0.8693829 -0.38110068
-0.67216843 0.23146348 0.27112 -0.009164649 -0.5737237 -0.40784335 -0.40364814 -0.58043945
-0.5267188 -0.5836379 -0.3930427 -0.09161694 -0.6397982 -0.09965053 0.23344801 -0.23873468
0.57652754 -0.0383031 0.1075426 0.57257557 -0.09682142 0.4053068 -0.5813071 -0.009140907
0.49648958 -0.17800339 0.31312507 0.5736336 0.28654987 -0.28878233 0.009870436 -0.20034178
-0.37124848 0.61952317 0.2426661 0.09469402 -0.1479442 0.26089057 -0.23338495 0.2890867
-0.6661384 -0.32564318 0.6320433 0.42820352 0.23429075 -0.23095018 -0.38309154 0.39206725
-0.020300122 0.2950257 0.44012648 -0.17782465 -0.22009943 0.07425708 0.51259965 0.5446672
0.19340007 -0.2503003 0.074392825 -0.3289014 -0.056894723 1.1382678 0.64827615 0.4733565
0.8174414 -0.069687694 0.3898063 -0.55541223 0.017920366 0.02276386 -0.40819925 -0.48877057
0.5598482 -0.27147004 0.30472696 -0.34084147 -0.49683848 0.73801875 0.22403005 0.052048787
0.07169425 -0.08276548 0.5975086 0.53013426 0.26203108 0.26367968 0.54037523 0.55227345
-0.2104254 0.15057482 -0.10114701 0.4114153 0.42198285 0.35762915 0.12042076 0.36875007
-0.20724086 0.5544575 -0.048881143 0.44442844 0.3036924 0.2775132 -0.24300024 -0.11442498
0.49017176 0.38665003 0.341083 -0.097626 0.309679 0.27260175 0.2596516 0.35572982
0.5632152 0.19033086 -0.2082797 -0.011351903 -0.1563636 -0.07923521 -0.53020895 -0.35031697
0.047952216 -0.005763716 0.42548156 -0.37169594 -0.46587476 -0.9704286 0.060038015 -0.6162158
-0.33174548 -0.6774982 0.51594144 -0.5390187 -0.18659194 0.46752903 0.033539366 -0.5493509
-0.472058 -0.64265114 -0.10621998 0.059772372 -0.1678199 0.068635836 -0.43375954 0.058898892
0.04690167 0.26052096 -0.2676274 -0.76037174 -0.21700516 0.13037688 -0.6594221 -0.4034751
-0.5132464 0.6136851 0.19586094 -0.6667023 -0.12145096 -1.0194833 -0.24137065 -0.23968858
-0.48589057 -0.26783836 0.051231273 0.3011724 0.019020192 0.5156987 0.4673661 0.020145573
-0.3808067 0.28887123 -0.094409555 -0.49193472 0.31495887 -0.36043328 0.16750322 -0.0016702806
-0.6695139 0.276457 -0.22149701 -0.37377682 -0.51373374 -0.24910972 0.027271518 0.23861109
-0.65558434 0.25497177 -0.33067274 -0.30919498 -0.20267873 0.4612692 0.051276445 0.5871375
-0.494656 0.03267769 -0.00795502 -0.539181 -0.40853038 -0.08743406 0.5167437 -0.33660936
0.34993783 -0.6028699 -0.43506554 -0.16957381 -0.26930457 -0.13095498 0.14822148 -0.22378632
00000000: d724 e5be fd4f 7abc 4f76 21be 11d1 a7be
00000010: 7927 a9be 0e32 883d ddfd 593e f4dd eabe
00000020: 5836 bdbd a0e0 0a3f 3ab1 1bbe 8fcd e9bd
00000030: c898 e7bd b326 1dbe f10d d1be 0730 153e
00000040: 42e3 02bf e4d6 04be 2682 fdbe 2e0c 193e
00000050: 8ef7 1f3e 48d7 263f 8301 ce3e 0286 db3d
00000060: f378 9c3d 09b4 24be 2329 7ebe 4f67 c73e
00000070: 671e f63e e50e 8fbe 7dc4 dcbd 8030 0f3f
00000080: f9ec c03e 8df7 303d 5d7e c3bd 95d3 57bd
00000090: 659e 9b3e 0dac adbc ee2c bcbe b20a 3fbe
000000a0: 36da fcbe d0db 8dbb 7add 253f 5c15 99be
000000b0: 8373 ecbe 6ab5 0cbe e18f 5ebf a11f c3be
000000c0: 3b13 2cbf c304 6d3e 3ed0 8a3e 5327 16bc
000000d0: 8edf 12bf d8d0 d0be f8aa cebe ae97 14bf
000000e0: 0bd7 06bf 4b69 15bf e53c c9be aaa1 bbbd
000000f0: d1c9 23bf 9415 ccbd ff0c 6f3e dd76 74be
00000100: 4f97 133f b6e3 1cbd 4b3f dc3d 5094 123f
00000110: 4f4a c6bd 5f84 cf3e 8bd0 14bf bec3 15bc
00000120: e233 fe3e 8546 36be ee51 a03e a7d9 123f
00000130: aab6 923e 47db 93be 9cb7 213c 6526 4dbe
00000140: 4814 bebe 1299 1e3f 767d 783e f0ee c13d
00000150: af7e 17be 7393 853e 77fc 6ebe 2c03 943e
00000160: 0c88 2abf b4ba a6be 97cd 213f 7e3d db3e
00000170: eae9 6f3e 347e 6cbe 9324 c4be 0abd c83e
00000180: 714c a6bc 9c0d 973e 4258 e13e aa17 36be
00000190: bf61 61be 1914 983d bb39 033f 4f6f 0b3f
000001a0: ab0a 463e 5c27 80be 445b 983d c465 a8be
000001b0: 710a 69bd c2b2 913f 6df5 253f c85b f23e
000001c0: d743 513f 6cb8 8ebd b194 c73e 7f2f 0ebf
000001d0: bbcd 923c 467b ba3c 7eff d0be 2340 fabe
000001e0: 3652 0f3f 1ffe 8abe 2c05 9c3e c682 aebe
000001f0: 9d61 febe ccee 3c3f 2268 653e 1c31 553d
00000200: 6fd4 923d f380 a9bd 53f6 183f e1b6 073f
00000210: f028 863e 0601 873e 0856 0a3f cb61 0d3f
00000220: c279 57be 4930 1a3e 2a26 cfbd 07a5 d23e
00000230: 230e d83e 2b1b b73e 299f f63d cfcc bc3e
00000240: f336 54be edf0 0d3f 9837 48bd 208c e33e
00000250: 927d 9b3e 3616 8e3e 0ed5 78be a557 eabd
00000260: cbf7 fa3e fef6 c53e 6ea2 ae3e 24f0 c7bd
00000270: 3f8e 9e3e 7592 8b3e 0ef1 843e 3822 b63e
00000280: df2e 103f 18e6 423e 4647 55be 55fd 39bc
00000290: c81d 20be 1246 a2bd c6bb 07bf bf5c b3be
000002a0: 8b69 443d 8edd bcbb b8d8 d93e ee4e bebe
000002b0: 2387 eebe 026e 78bf 6cea 753d 52c0 1dbf
000002c0: 8bda a9be 8670 2dbf bd14 043f 21fd 09bf
000002d0: f511 3fbe f75f ef3e 9360 093d 43a2 0cbf
000002e0: 96b1 f1be c984 24bf dc89 d9bd e0d3 743d
000002f0: fbd8 2bbe f290 8c3d bb15 debe f73f 713d
00000300: f71b 403d 0163 853e 7506 89be b9a7 42bf
00000310: 9a36 5ebe 8481 053e e3cf 28bf 4a94 cebe
00000320: 1e64 03bf 771a 1d3f c58f 483e 00ad 2abf
00000330: 48bb f8bd 6e7e 82bf de29 77be ec70 75be
00000340: a6c6 f8be 1c22 89be e2d7 513d 4533 9a3e
00000350: 3cd0 9b3c d404 043f 9c4a ef3e 5408 a53c
00000360: 19f9 c2be eee6 933e cc59 c1bd dede fbbe
00000370: 4a42 a13e b68a b8be f785 2b3e 51ed daba
00000380: 4365 2bbf c68b 8d3e 1dd0 62be ad5f bfbe
00000390: 0e84 03bf 9e16 7fbe 8568 df3c 7756 743e
000003a0: 60d4 27bf a98b 823e f04d a9be ce4e 9ebe
000003b0: 038b 4fbe 7a2b ec3e 4007 523d a54e 163f
000003c0: 8d43 fdbe 0bd9 053d c655 02bc c407 0abf
000003d0: e52a d1be a110 b3bd 5149 043f 1058 acbe
000003e0: 0d2b b33e af55 1abf e9c0 debe c2a4 2dbe
000003f0: 4ae2 89be 1019 06be 5fc7 173e 3e28 65be

x_encoder.out.bias f4 [128]
-0.06474724 0.19306338 -0.036354408 -0.0957751 -0.040028825 0.23211452 0.13111065 -0.015405076
0.16030367 0.038425073 -0.019492641 -0.16195625 -0.20139354 0.1820872 0.015180081 -0.24291106
-0.3128515 0.049372394 0.12197834 0.0217813 0.13366999 -0.21820736 -0.027987147 0.2440408
0.14140011 -0.15924472 -0.014082905 -0.29938555 -0.093148746 0.1287819 0.17171429 -0.33611178
-0.13391627 -0.27186593 -0.04756454 -0.29855734 0.018318532 0.22682916 -0.13687229 -0.1473694
0.09498957 -0.2704858 -0.14452168 0.04840518 0.15241507 0.22908142 -0.34027216 -0.3448153
-0.06948424 -0.18518093 -0.03566578 -0.22574525 0.058042232 -0.027611393 -0.20502493 0.21322782
-0.3735468 -0.09986054 -0.103056625 -0.021771464 -0.042543218 0.12323574 0.0159851 -0.021934368
0.024450982 -0.3067708 -0.25131354 0.12634712 -0.10207288 0.22065823 -0.08663793 0.17102765
-0.22169553 -0.09211436 -0.23125398 -0.22097121 0.24917881 -0.12979765 0.11497064 0.056756545
0.093766935 0.0801094 -0.22562557 -0.04853224 -0.1643872 -0.30668277 0.15069252 0.22763354
0.3004132 -0.110012345 0.23486535 0.059893936 0.050246894 -0.2852655 -0.062832266 0.085858256
-0.03634854 0.24159695 -0.02832222 -0.30959198 0.08177551 -0.12577052 -0.14442328 -0.20815745
-0.04492732 -0.2071143 0.001698388 -0.088378645 -0.08391865 -0.18504918 -0.09082038 -0.042447314
0.034335893 -0.19589326 -0.22167961 0.023850834 -0.2210072 0.14212106 -0.13813289 -0.040849328
-0.031346325 0.016195573 -0.06306714 0.038235087 0.24372247 0.09662665 -0.082393385 0.24356504
00000000: 339a 84bd 68b2 453e 5ce8 14bd bc25 c4bd
00000010: 44f5 23bd 6eaf 6d3e df41 063e 9265 7cbc
00000020: a526 243e 9c63 1d3d 08af 9fbc dcd7 25be
00000030: 1c3a 4ebe 1175 3a3e e0b5 783c adbd 78be
00000040: 122e a0be b53a 4a3d c8cf f93d b26e b23c
00000050: c9e0 083e c071 5fbe 4d45 e5bc d5e5 793e
00000060: 31cb 103e 0c11 23be fcbb 66bc 1049 99be
00000070: c5c4 bebd 67df 033e dfd5 2f3e d816 acbe
00000080: 5921 09be 0332 8bbe 09d3 42bd 82dc 98be
00000090: bf10 963c e745 683e 4028 0cbe 01e8 16be
000000a0: e489 c23d 1d7d 8abe 7efd 13be 8344 463d
000000b0: b212 1c3e 5294 6a3e 2738 aebe a28b b0be
000000c0: c14d 8ebd 12a0 3dbe 4816 12bd c329 67be
000000d0: b1bd 6d3d 4a31 e2bc 0ef2 51be 6558 5a3e
000000e0: 8741 bfbe af83 ccbd 5a0f d3bd 125a b2bc
000000f0: cc41 2ebd 0563 fc3d 2ff3 823c b4af b3bc
00000100: 6d4d c83c 1011 9dbe 2bac 80be 2461 013e
00000110: 960b d1bd 3bf4 613e 3a6f b1bd df21 2f3e
00000120: 2704 63be 74a6 bcbd d8cd 6cbe 4746 62be
00000130: bb28 7f3e ade9 04be ba75 eb3d 8d79 683d
00000140: e108 c03d 6610 a43d 640a 67be bec9 46bd
00000150: 1e55 28be 8605 9dbe 244f 1a3e c418 693e
00000160: c2cf 993e 274e e1bd 8b80 703e 5853 753d
00000170: b0cf 4d3d 520e 92be 34ae 80bd 74d6 af3d
00000180: 35e2 14bd 3165 773e 0004 e8bc d782 9ebe
00000190: eb79 a73d fdc9 00be b2e3 13be 3a27 55be
000001a0: b605 38bd c515 54be 729c de3a ddff b4bd
000001b0: 8bdd abbd 887d 3dbe 0900 babd 3cdd 2dbd
000001c0: cba3 0c3d 3e98 48be fbff 62be d362 c33c
000001d0: b64f 62be 2f88 113e b572 0dbe a051 27bd
000001e0: 0165 00bd 94ac 843c 5829 81bd 659c 1c3d
000001f0: 6292 793e 31e4 c53d ddbd a8bd 1d69 793e

xy_encoder.resizer.to_hidden.weight f4 [32, 1]
-0.0005765022 -0.74680907 0.50681996 0.32430226 0.58616775 0.28173342 0.66621953 0.5814486
-0.25098833 0.5465356 -0.78756744 0.16239023 0.6768066 0.67527366 0.38738856 0.5345832
0.7787485 -0.5685248 0.71099854 -0.2455066 -0.6952511 0.16767055 0.066878706 -0.089353114
0.16500033 0.6917489 0.29134732 -0.38395095 -0.7626988 -0.2757622 0.051885806 0.0026668562
00000000: 6820 17ba e12e 3fbf f4be 013f f20a a63e
00000010: 170f 163f 5d3f 903e 5d8d 2a3f d1d9 143f
00000020: 8b81 80be c2e9 0b3f 059e 49bf a049 263e
00000030: 3343 2d3f bcde 2c3f cb57 c63e 72da 083f
00000040: 105c 473f d78a 11bf 0004 363f 1566 7bbe
00000050: fafb 31bf d4b1 2b3e b4f7 883d c4fe b6bd
00000060: d9f5 283e 7516 313f 7a2b 953e 3895 c4be
00000070: 3b40 43bf b430 8dbe 3686 543d 6cc6 2e3b

xy_encoder.resizer.to_hidden.bias f4 [32]
-0.0038007065 0.013814304 -0.00784499 -0.014035691 -0.10552909 -0.0961551 0.010701522 -0.04793212
-0.14372413 -0.021954082 0.0049521816 -0.20467329 0.028908506 -0.05996375 -0.19404154 -0.11892772
-0.13444947 -0.01074998 -0.14371349 -0.13352987 -0.15722258 -0.15934908 -0.027123278 0.10521813
0.10825369 -0.0081589 -0.0034115168 0.15223505 -0.0029318125 -0.1590688 0.054227144 -0.028170751
00000000: 4615 79bb 6455 623c 4688 00bc f4f5 65bc
00000010: a31f d8bd f7ec c4bd 7055 2f3c 7854 44bd
00000020: 6b2c 13be 0cd9 b3bc e945 a23b e095 51be
00000030: 88d1 ec3c 8d9c 75bd d3b2 46be 6090 f3bd
00000040: 1fad 09be af20 30bc a129 13be 0ebc 08be
00000050: f5fe 20be 682c 23be a331 debc 9a7c d73d
00000060: 1cb4 dd3d e8ac 05bc c193 5fbb 81e3 1b3e
00000070: a723 40bb eee2 22be 481d 5e3d 59c6 e6bc

xy_encoder.resizer.out.weight f4 [128, 32]
0.09624815 -0.33989742 -0.046507 0.1316577 -0.42353943 -0.25668147 -0.3315519 -0.23318435
0.033086736 -0.16155954 0.22205853 -0.037362248 0.3418788 -0.03770416 0.015630689 0.25276077
-0.37614816 0.15078832 -0.27964333 0.42291784 -0.23818275 -0.21990864 -0.47471663 -0.18978038
0.28456014 -0.06742662 -0.0045630336 0.18031536 0.105367154 0.42718318 -0.16689734 -0.24184811
0.22944252 0.11189427 -0.38814205 0.25998223 -0.3510678 0.32051182 0.18573794 -0.015516076
-0.04709769 -0.0011095767 -0.34482512 -0.5503409 -0.039187286 -0.14702666 0.17084345 -0.2738581
-0.38187116 -0.24931444 -0.3014681 0.08903198 -0.22675847 0.06497964 0.31373522 -0.2911719
-0.25761348 0.29966745 0.4195823 0.14747101 0.38484186 -0.35269007 0.17648998 0.19659926
0.16140991 -0.057284627 -0.3223235 -0.29564613 -0.033159114 0.06503282 -0.08192871 0.2610693
0.1952377 -0.13656196 0.3677052 0.09473588 -0.14859861 -0.22658822 -0.23703885 -0.22800998
-0.15353043 0.032911446 0.27744463 -0.2762213 -0.37405068 -0.6241018 -0.34129176 -0.072322324
-0.35506728 -0.48968914 0.057771537 -0.1341615 -0.3603426 -0.36674806 -0.20030093 0.18919002
-0.3868391 0.09926913 0.038295254 -0.1255294 -0.07674413 -0.27719742 0.09453991 0.4159931
0.060761373 -0.3901236 0.15221404 0.017276675 0.113914125 0.013829436 0.11678354 -0.2982338
-0.27908096 -0.45939162 0.2765431 -0.2515307 -0.11114511 0.20597199 0.16769433 0.30271375
0.16211313 -0.17982106 -0.054993104 0.20728397 -0.18806525 0.35384247 -0.2299202 0.1321893
-0.21780118 -0.37999198 0.049035918 -0.17906857 0.20904472 -0.1145351 0.4103987 0.099952444
0.38249215 -0.11002359 -0.32732442 -0.10021366 -0.20462634 0.25496665 -0.21632716 -0.301502
-0.27389988 0.29988757 -0.30253798 0.01171094 0.2509252 -0.32965508 -0.055807494 -0.27169514
0.4001621 -0.14374118 0.09489718 0.028810035 -0.43627673 0.16311389 -0.20151246 0.35789502
0.30864212 0.08568629 -0.16228044 -0.30422366 0.29639214 0.019417176 0.35768947 -0.12233727
-0.34230256 0.3319457 0.15016039 0.3625965 -0.40123552 0.029429153 -0.3886046 0.09452164
0.28587353 0.118065074 -0.19893976 -0.34570795 0.05437665 0.26716554 -0.187579 -0.47234735
0.079287544 0.115711115 -0.19460489 -0.49800453 -0.47350264 0.40748444 -0.082926415 0.24600343
0.16742231 -0.1753366 -0.43692145 -0.58075976 -0.0031968039 -0.23561049 0.00019715291 -0.23555945
-0.34166798 -0.480504 0.15002525 -0.18339248 0.06257697 -0.27201787 -0.2992242 -0.20418826
0.12235424 -0.24409203 -0.4758758 -0.4376174 0.098840415 -0.3291562 -0.24912272 -0.5069561
-0.43249252 -0.59762996 -0.3874135 -0.4872943 -0.358681 -0.44299215 -0.15180439 -0.4197641
-0.13401872 -0.41643128 0.24682048 -0.32445946 -0.25862527 -0.13920194 0.07096967 -0.17921352
-0.39062703 -0.16604796 0.37294456 -0.4328995 0.07109442 -0.03114435 0.002621591 -0.39827508
0.054411978 0.350086 0.22372082 0.011442095 -0.32152832 0.08616206 0.34458056 0.11613271
0.123355836 0.029551297 -0.3558758 -0.119639575 0.33962235 -0.3451693 -0.037625045 0.20015755
00000000: c01d c53d 0907 aebe 207e 3ebd 47d1 063e
00000010: 29da d8be c16b 83be 2cc1 a9be e1c7 6ebe
00000020: f585 073d dd6f 25be 5063 633e 2809 19bd
00000030: bd0a af3e ad6f 1abd ee0b 803c dc69 813e
00000040: 7e96 c0be 4168 1a3e 692d 8fbe b088 d83e
00000050: 2ee6 73be bb2f 61be 0f0e f3be ca55 42be
00000060: deb1 913e f816 8abd 8085 95bb 97a4 383e
00000070: bcca d73d c1b7 da3e 23e7 2abe 08a7 77be
00000080: fbf2 6a3e d328 e53d 8eba c6be 641c 853e
00000090: 29bf b3be 201a a43e 1632 3e3e 2437 7ebc
000000a0: 82e9 40bd 376f 91ba eb8c b0be 24e3 0cbf
000000b0: d982 20bd 288e 16be 96f1 2e3e 2137 8cbe
000000c0: 9e84 c3be 494c 7fbe 075a 9abe 6656 b63d
000000d0: 5f33 68be 0c14 853d e7a1 a03e 7c14 95be
000000e0: eae5 83be 036e 993e 7ed3 d63e a402 173e
000000f0: fe09 c53e cb93 b4be cab9 343e 5151 493e
00000100: a448 253e 49a3 6abd 9607 a5be ee5e 97be
00000110: dad1 07bd ed2f 853d 3dca a7bd e0aa 853e
00000120: 64ec 473e e6d6 0bbe db43 bc3e e304 c23d
00000130: 3c2a 18be be06 68be 50ba 72be 737b 69be
00000140: 1537 1dbe 27ce 063d 390d 8e3e e16c 8dbe
00000150: 9283 bfbe 23c5 1fbf cbbd aebe ba1d 94bd
00000160: 61cb b5be 89b8 fabe d9a1 6c3d a261 09be
00000170: d37e b8be 67c6 bbbe b01b 4dbe 07bb 413e
00000180: c60f c6be 9d4d cb3d 7cdb 1c3d c78a 00be
00000190: 072c 9dbd d2ec 8dbe 249e c13d 0cfd d43e
000001a0: ebe0 783d 48be c7be ffdd 1b3e d087 8d3c
000001b0: cf4b e93d dc94 623c 352c ef3d 1ab2 98be
000001c0: b3e3 8ebe 6135 ebbe 0f97 8d3e a2c8 80be
000001d0: 0ca0 e3bd 52ea 523e 10b8 2b3e 4cfd 9a3e
000001e0: fc00 263e 0323 38be 7340 61bd 4042 543e
000001f0: 2d94 40be d72a b53e 3370 6bbe a25c 073e
00000200: 4607 5fbe 4f8e c2be e3d9 483d c05d 37be
00000210: d20f 563e 6191 eabd c71f d23e deb3 cc3d
00000220: 03d6 c33e 0c54 e1bd 1197 a7be d23c cdbd
00000230: 9189 51be fd8a 823e de84 5dbe 785e 9abe
00000240: 9b3c 8cbe dd8a 993e 42e6 9abe 3edf 3f3c
00000250: 4579 803e 8dc8 a8be 6696 64bd a01b 8bbe
00000260: 0ce2 cc3e e330 13be 7459 c23d 0603 ec3c
00000270: aa5f dfbe 5407 273e 4859 4ebe 043e b73e
00000280: 5706 9e3e 4b7c af3d d82c 26be 34c3 9bbe
00000290: b6c0 973e c510 9f3c 1323 b73e f68b fabd
000002a0: 4842 afbe c9f4 a93e a5c3 193e 40a6 b93e
000002b0: be6e cdbe 6815 f13c 2ff7 c6be 9094 c13d
000002c0: 045e 923e 1acc f13d ddb6 4bbe a200 b1be
000002d0: 0dba 5e3d ecc9 883e b614 40be 83d7 f1be
000002e0: 8261 a23d f3f9 ec3d 8146 47be 73fa febe
000002f0: f06e f2be cda1 d03e 53d5 a9bd 53e8 7b3e
00000300: c170 2b3e 708b 33be 2bb4 dfbe acac 14bf
00000310: 7881 51bb e043 71be d5ba 4e39 7f36 71be
00000320: 1bef aebe 9f04 f6be 38a0 193e 3dcb 3bbe
00000330: 5b28 803d ed45 8bbe ea33 99be ba16 51be
00000340: dc94 fa3d 43f3 79be fea5 f3be 630f e0be
00000350: d86c ca3d 2987 a8be 071a 7fbe e0c7 01bf
00000360: a96f ddbe 47fe 18bf 105b c6be a37e f9be
00000370: 09a5 b7be decf e2be 9c72 1bbe 52eb d6be
00000380: 343c 09be 7b36 d5be 82be 7c3e 8d1f a6be
00000390: 886a 84be f48a 0ebe 8c58 913d c083 37be
000003a0: 4400 c8be 7a08 2abe 97f2 be3e 01a5 ddbe
000003b0: f499 913d 7022 ffbc 00cf 2b3b b6ea cbbe
000003c0: 18df 5e3d 793e b33e 1217 653e a077 3b3c
000003d0: 5c9f a4be bc75 b03d dd6c b03e fcd6 ed3d
000003e0: fca1 fc3d 9015 f23c 5a35 b6be 9805 f5bd
000003f0: fbe2 ad3e 08ba b0be b81c 1abd 1af6 4c3e

xy_encoder.resizer.out.bias f4 [128]
-0.1545422 0.025906324 -0.11735726 -0.031764157 -0.010389922 -0.16529398 -0.1896431 0.0
-0.19148465 -0.056233414 -0.039014217 0.015374143 0.00054431555 -0.10073658 0.08007972 -0.056160912
-0.092957675 -0.09341326 -0.0815236 -0.0064235707 -0.08386545 -0.14931048 -0.12472772 -0.16159879
-0.1376097 0.032574568 -0.14938168 -0.012220504 -0.0044443756 0.0006791883 -0.10181044 -0.03337126
0.047954228 -0.052954398 0.0040330235 -0.019145763 -0.094091386 -0.05254994 -0.011232752 -0.005294323
-0.026117243 -0.11422207 0.07636402 -0.08797491 -0.035907283 -0.09940823 -0.042294685 0.02369593
0.009099846 -0.11410385 -0.07785489 -0.01824695 -0.1909261 -0.07231546 -0.071593456 0.0010967852
-0.019171972 -0.056880333 -0.112580776 -0.029552577 -0.20504472 -0.1049985 0.05695791 -0.10549409
-0.23199575 0.10453792 0.016254703 -0.13240983 -0.050283186 -0.14368147 -0.03524351 0.092983104
-0.085881874 -0.05675237 -0.02659361 -0.031860095 -0.32010877 -0.098013826 0.0 -0.015080396
-0.1078812 -0.14189637 -0.1367356 -0.0913216 -0.17843232 -0.050551943 0.11689635 -0.012701394
-0.06386295 -0.024427755 -0.07459764 -0.04944462 -0.03732616 0.009368379 -0.11641038 -0.07856858
-0.16969098 -0.010143771 -0.08977274 -0.066573516 -0.07319487 -0.047540423 -0.09953387 0.039403625
-0.108982846 -0.046321306 -0.08149528 -0.09901677 0.010281857 -0.07788173 -0.08954115 -0.0825642
-0.16604193 -0.025143603 -0.091869235 -0.15748093 -0.10502888 -0.068367116 -0.10427982 -0.07780243
-0.024042843 -0.19832347 -0.048059717 -0.19364189 0.00984899 0.02288279 -0.26427287 -0.08251066
00000000: 4f40 1ebe 8039 d43c 0159 f0bd 221b 02bd
00000010: 7e3a 2abc d342 29be cd31 42be 0000 0000
00000020: 8d14 44be 0255 66bd 5fcd 1fbd d4e3 7b3c
00000030: 66b0 0e3a fb4e cebd d600 a43d fc08 66bd
00000040: 9860 bebd 744f bfbd d8f5 a6bd d17c d2bb
00000050: a6c1 abbd d9e4 18be 3f71 ffbd 277a 25be
00000060: 8fe9 0cbe e96c 053d 83f7 18be 8238 48bc
00000070: 20a2 91bb 8e0b 323a fe81 d0bd 4db0 08bd
00000080: a76b 443d b6e6 58bd 7427 843b 93d7 9cbc
00000090: fcb2 c0bd 9b3e 57bd 9409 38bc 007c adbb
000000a0: d4f3 d5bc 43ed e9bd bd64 9c3d 312c b4bd
000000b0: 8413 13bd 8b96 cbbd 313d 2dbd f81d c23c
000000c0: 8517 153c 48af e9bd 6272 9fbd a17a 95bc
000000d0: 2282 43be 211a 94bd 979f 92bd 01c2 8f3a
000000e0: 8a0e 9dbc 5afb 68bd c090 e6bd 3f18 f2bc
000000f0: 3ef7 51be 7409 d7bd b34c 693d 490d d8bd
00000100: 4b90 6dbe fa17 d63d 9528 853c 7196 07be
00000110: bef5 4dbd 3c21 13be 805b 10bd ed6d be3d
00000120: d6e2 afbd 2c75 68bd d8da d9bc bb7f 02bd
00000130: 4ce5 a3be 79bb c8bd 0000 0000 c413 77bc
00000140: d2f0 dcbd 484d 11be 6b04 0cbe d206 bbbd
00000150: f6b6 36be 8e0f 4fbd 5b67 ef3d 8219 50bc
00000160: 94ca 82bd b71c c8bc a6c6 98bd 7186 4abd
00000170: 51e3 18bd d47d 193c 9168 eebd 90e8 a0bd
00000180: 79c3 2dbe 0f32 26bc c5da b7bd b257 88bd
00000190: 31e7 95bd bfb9 42bd 6ad8 cbbd b265 213d
000001a0: 6632 dfbd 69bb 3dbd ffe6 a6bd 4ec9 cabd
000001b0: 3c75 283c 7580 9fbd 5a61 b7bd 6b17 a9bd
000001c0: e506 2abe f5f9 cdbc f025 bcbd ae42 21be
000001d0: 6219 d7bd 0f04 8cbd a990 d5bd e156 9fbd
000001e0: 7ff5 c4bc 4f15 4bbe 44da 44bd 0f4a 46be
000001f0: a85d 213c b074 bb3c c64e 87be 59fb a8bd

xy_encoder.flat_module.to_hidden.weight f4 [128, 128]
0.0052182814 -0.10204796 -0.12621994 -0.0674401 -0.09896584 -0.10299696 -0.091409825 -0.03492525
0.03413198 0.0338807 -0.10480412 -0.026308497 -0.10487688 0.018826606 -0.031612393 0.097113185
-0.037785478 -0.029291036 -0.0731042 -0.07669077 -0.010056576 -0.005174645 -0.06149324 -0.093658715
-0.00882306 0.018554192 0.026301019 0.013961303 -0.053559072 -0.010344627 -0.026282994 0.00041840153
0.057569806 0.12600127 0.08064248 0.06257859 0.04578129 -0.04492747 -0.11050393 -0.076439455
-0.10586322 -0.061696246 -0.039536532 0.07491531 -0.0031455334 -0.008099547 -0.18303134 -0.0012542133
-0.08034318 -0.06550123 -0.04600085 0.005933203 -0.04826536 0.00623682 -0.015829712 -0.063114025
-0.0094553465 -0.3969347 0.011479139 -0.12547255 0.014270217 0.031797614 -0.053830676 -0.0016048304
0.07118259 -0.032597266 0.18951179 -0.063958995 -0.11835789 0.023179162 -0.09644755 -0.04826908
-0.023732243 -0.025896436 -0.14497073 -0.09387223 -0.023318503 0.08805837 -0.08379571 -0.066463485
0.02349611 -0.12211431 0.010695944 0.06777819 0.029884016 -0.023314744 -0.050542 -0.099328615
0.015158758 -0.0351481 0.08724045 0.070747636 0.010767486 -0.047139954 -0.08891542 0.018945301
0.056705266 -0.060443487 0.049799178 0.09162679 0.035889637 0.041506667 -0.08330032 -0.14455782
-0.10332095 -0.014286331 -0.06843872 -0.072335705 -0.009024861 0.16010812 0.03994318 -0.065407224
-0.01114628 -0.039798565 0.014032617 -0.07238477 -0.026587676 -0.0061203875 0.037358414 0.017567901
0.034618802 0.02622402 -0.051366694 -0.07914068 0.0147164725 -0.10058429 0.035100676 -0.087033235
0.05898599 -0.07185945 0.003276881 0.034485523 -0.12203876 0.045130704 0.015083682 -0.03897001
0.00836573 0.05030709 0.00032743387 -0.12030812 -0.11890644 0.046258908 -0.091452256 -0.004890561
-0.1160709 -0.08972146 -5.6251884e-05 0.061907776 -0.10499172 0.028773136 -0.08229315 -0.015419063
-0.034535695 0.008979193 -0.076633036 0.04809213 -0.07523425 -0.0064154225 0.015886169 -0.0021922356
-0.080165856 0.012196011 -0.05117525 -0.004304313 0.06574317 0.05534822 -0.027538514 -0.089285456
0.007397618 0.01153886 -0.09870317 0.02885901 0.03848608 -0.03079964 -0.07319601 0.10410904
-0.042476896 -0.11721807 -0.116776176 -0.0283869 -0.0032499894 0.05478292 -0.02490337 -0.1276466
-0.017369652 0.026343713 0.024403881 -0.015401091 -0.0031598012 0.031682774 0.028864095 -0.047242712
-0.09412802 -0.12200168 -0.040027075 0.02628803 -0.0659039 -0.05374346 -0.014301189 -0.037601218
-0.018642988 0.030796329 -0.062078394 0.02783886 -0.107863985 0.017975727 -0.0872922 -0.047793705
0.008561906 -0.018427918 -0.005384714 0.066914015 -0.09879418 -0.034447435 0.054962218 -0.062251844
0.06911086 -0.06849977 -0.014449621 -0.034691617 0.06721051 -0.073274545 -0.06930321 -0.08943755
0.040351838 -0.06234427 0.0850637 -0.11312339 -0.01793041 -0.13198248 0.037442826 -0.09252228
-0.049344726 0.017557308 0.04705704 0.024772078 -0.05246475 0.013977841 0.05490586 -0.054573074
0.05880398 -0.062513635 -0.06365488 0.035728242 0.04547246 -0.061005905 -0.0521468 -0.097778276
-0.07914998 -0.0956501 -0.06300044 -0.0211666 -0.0747994 -0.030449213 -0.012067271 -0.0050227395
00000000: 1efe aa3b 85fe d0bd cd3f 01be 091e 8abd
00000010: 9aae cabd 12f0 d2bd 1335 bbbd c70d 0fbd
00000020: facd 0b3d 7dc6 0a3d 8ba3 d6bd eb84 d7bc
00000030: b1c9 d6bd 413a 9a3c ff7b 01bd 47e3 c63d
00000040: f2c4 1abd c1f3 efbc a8b7 95bd 0d10 9dbd
00000050: 56c4 24bc 1290 a9bb 56e0 7bbd 24d0 bfbd
00000060: 998e 10bc f6fe 973c 3c75 d73c f3bd 643c
00000070: c260 5bbd 837c 29bc 6f4f d7bc e75c db39
00000080: 51ce 6b3d 7a06 013e e227 a53d 3429 803d
00000090: 2985 3b3d de05 38bd e24f e2bd 4a8c 9cbd
000000a0: d1ce d8bd 34b5 7cbd 0ff1 21bd 336d 993d
000000b0: 4b25 4ebb f6b3 04bc 916c 3bbe 6a64 a4ba
000000c0: f78a a4bd 8225 86bd 636b 3cbd 506b c23b
000000d0: e6b1 45bd 3d5e cc3b 50ad 81bc ed41 81bd
000000e0: 99ea 1abc 063b cbbe 0013 3c3c e07b 00be
000000f0: a1cd 693c 373e 023d 8e7d 5cbd 2c59 d2ba
00000100: 2ec8 913d b684 05bd 610f 423e effc 82bd
00000110: 9f65 f2bd 3ae2 bd3c 4b86 c5bd cdb5 45bd
00000120: 1f6a c2bc c324 d4bc 3573 14be 1540 c0bd
00000130: 7206 bfbc f257 b43d 169d abbd 021e 88bd
00000140: ea7a c03c 1117 fabd 0a3e 2f3c 4bcf 8a3d
00000150: 53cf f43c 90fe bebc 2105 4fbd cd6c cbbd
00000160: 705c 783c 74f7 0fbd 1fab b23d 23e4 903d
00000170: 1c6a 303c d315 41bd 4a19 b6bd 2d33 9b3c
00000180: c843 683d 9793 77bd 39fa 4b3d d4a6 bb3d
00000190: 0301 133d e502 2a3d 5c99 aabd f706 14be
000001a0: ef99 d3bd 3711 6abc 9a29 8cbd be24 94bd
000001b0: 03dd 13bc 62f3 233e 769b 233d 39f4 85bd
000001c0: e39e 36bc d203 23bd 10e9 653c 773e 94bd
000001d0: 66ce d9bc 888d c8bb 2305 193d 8fea 8f3c
000001e0: 72cc 0d3d c2d3 d63c e265 52bd 8214 a2bd
000001f0: 5c1d 713c 23ff cdbd bac5 0f3d 7b3e b2bd
00000200: 4b9b 713d 0c2b 93bd f1c0 563b b140 0d3d
00000210: 75ef f9bd f9da 383d 8c21 773c 049f 1fbd
00000220: 6a10 093c cf0e 4e3d 6eab ab39 1b64 f6bd
00000230: 3885 f3bd fb79 3d3d 524b bbbd 0041 a0bb
00000240: 94b6 edbd e3bf b7bd 00f0 6bb8 0293 7d3d
00000250: e605 d7bd a4b5 eb3c 5089 a8bd 3da0 7cbc
00000260: 4d75 0dbd 771d 133c c8f1 9cbd 41fc 443d
00000270: 6a14 9abd 7738 d2bb b623 823c 9cab 0fbb
00000280: ff2d a4bd c7d1 473c 249d 51bd 320b 8dbb
00000290: 5ba4 863d d1b4 623d 7398 e1bc 4bdb b6bd
000002a0: b867 f23b 7d0d 3d3c e324 cabd bb69 ec3c
000002b0: 94a3 1d3d 874f fcbc cae7 95bd 1f37 d53d
000002c0: 41fc 2dbd 0710 f0bd 5928 efbd a58b e8bc
000002d0: c6fd 54bb 0e64 603d 2702 ccbc cab5 02be
000002e0: cd4a 8ebc c5ce d73c a6ea c73c dc54 7cbc
000002f0: ab14 4fbb ccc5 013d 6574 ec3c 9381 41bd
00000300: 31c6 c0bd 04dc f9bd 6ef3 23bd ff59 d73c
00000310: a0f8 86bd 1a22 5cbd 894f 6abc bc03 1abd
00000320: 2eb9 98bc 9548 fc3c ea45 7ebd 520e e43c
00000330: cbe7 dcbd d541 933c 41c6 b2bd 55c3 43bd
00000340: 3d47 0c3c 25f6 96bc 4172 b0bb 370a 893d
00000350: 9a54 cabd c118 0dbd 1020 613d cafb 7ebd
00000360: ff89 8d3d 9b49 8cbd 1abe 6cbc cc18 0ebd
00000370: aaa5 893d f710 96bd d7ee 8dbd 092b b7bd
00000380: f847 253d b55c 7fbd e135 ae3d 3cad e7bd
00000390: cce2 92bc 6a26 07be a65d 193d 527c bdbd
000003a0: b21d 4abd 58d4 8f3c e2be 403d d0ee ca3c
000003b0: 47e5 56bd 5003 653c f8e4 603d 0488 5fbd
000003c0: 71dc 703d 2607 80bd 7d5d 82bd c757 123d
000003d0: 5541 3a3d 54e1 79bd e297 55bd fa3f c8bd
000003e0: 6219 a2bd 33e4 c3bd 6006 81bd 9465 adbc
000003f0: 6e30 99bd a170 f9bc ceb5 45bc cb95 a4bb

xy_encoder.flat_module.to_hidden.bias f4 [128]
-0.092750736 -0.04986693 -0.052171193 0.010227632 -0.0006238747 -0.04278161 -0.012252056 -0.035482682
0.0014602971 0.049650297 -0.07639698 -0.0072114887 -0.016639221 -0.04227156 -0.023840215 -0.10677787
-0.036393415 -0.11367937 -0.0013580263 -0.030702265 -0.034203023 0.0010733779 -0.017775424 -0.06128537
-0.0069362153 -0.013176305 -0.058975868 0.021206338 -0.05136279 -0.011150259 -0.011604105 -0.0132365385
-0.007951275 0.049533498 -0.065719776 0.024903418 -0.08007578 -0.040989257 -0.05656435 -0.060591236
-0.028244125 -0.036089476 -0.00749794 -0.09807314 0.0085211005 -0.027870065 -0.06692371 0.051894356
-0.037991285 -0.013899186 -0.03722741 0.0018737881 0.023482423 -0.03194133 -0.02865266 -0.05798124
-0.15387507 -0.117084146 -0.022781745 -0.04109258 -0.03671067 -0.012259904 0.05164144 0.04068935
-0.030650562 0.011299574 -0.018204087 -0.00039348647 -0.049041685 -0.0078549 0.03884778 0.022294268
-0.0854206 -0.09297251 -0.06631785 0.00022578979 -0.011665804 -0.014577258 -0.0206327 0.011413548
-0.074159205 -0.05602319 -0.0076525602 -0.0028474904 -0.04748276 0.005593955 -0.06274788 -0.049703293
0.08231036 -0.11994245 -0.026111001 -0.035607133 0.09617114 -0.011114201 -0.010445954 -0.03862678
-0.045088373 -0.016913677 -0.03311464 -0.11659193 -0.03585302 -0.027610233 -0.11515062 -0.043029755
-0.11560865 -0.0124191465 -0.02822507 -0.012332372 -0.0048105298 -0.06968552 -0.08332434 -0.107334435
-0.04399845 -0.051740773 0.046614245 -0.084189914 0.03131273 -0.104344316 -0.025325458 -0.03936573
0.0006778764 -0.09057157 -0.015532006 0.009526252 0.02406423 -0.040272675 0.007686435 -0.018279534
00000000: 19f4 bdbd 4441 4cbd 76b1 55bd cc91 273c
00000010: 868b 23ba c53b 2fbd d9bc 48bc 4a56 11bd
00000020: 7167 bf3a 1c5e 4b3d 0576 9cbd 5a4e ecbb
00000030: fa4e 88bc f124 2dbd 8e4c c3bc 5bae dabd
00000040: 4311 15bd bbd0 e8bd cdff b1ba 5183 fbbc
00000050: 7818 0cbd 96b0 8c3a c49d 91bc 5e06 7bbd
00000060: 3149 e3bb 6ee1 57bc ae90 71bd eab8 ad3c
00000070: ca61 52bd 93af 36bc 251f 3ebc 11de 58bc
00000080: 1146 02bc a3e3 4a3d 1798 86bd 4102 cc3c
00000090: c5fe a3bd 5ae4 27bd 05b0 67bd 842e 78bd
000000a0: 3960 e7bc 8fd2 13bd 48b1 f5bb 92da c8bd
000000b0: 169c 0b3c c34f e4bc 4c0f 89bd 2d8f 543d
000000c0: c09c 1bbd 69b9 63bc c57b 18bd e599 f53a
000000d0: 365e c03c e9d4 02bd fcb8 eabc bd7d 6dbd
000000e0: 6d91 1dbe d0c9 efbd c8a0 babc b150 28bd
000000f0: ed5d 16bd c4dd 48bc f985 533d e0a9 263d
00000100: e316 fbbc d921 393c bd20 95bc dc4c ceb9
00000110: efdf 48bd d7b1 00bc da1e 1f3d 78a2 b63c
00000120: fff0 aebd 5f68 bebd a7d1 87bd fcc1 6c39
00000130: ee21 3fbc 74d5 6ebc e805 a9bc e4ff 3a3c
00000140: c8e0 97bd 9378 65bd 54c2 fabb f69c 3abb
00000150: 487d 42bd 7f4d b73b f681 80bd ae95 4bbd
00000160: 5692 a83d 63a4 f5bd bde6 d5bc c9d8 11bd
00000170: 60f5 c43d 5618 36bc 8225 2bbc 1d37 1ebd
00000180: 96ae 38bd 8d8e 8abc 37a3 07bd c0c7 eebd
00000190: 9eda 12bd db2e e2bc 17d4 ebbd f83f 30bd
000001a0: 3ac4 ecbd ad79 4bbc 4338 e7bc b80d 4abc
000001b0: a6a1 9dbb 48b7 8ebd f4a5 aabd 28d2 dbbd
000001c0: b837 34bd 22ee 53bd 94ee 3e3d c36b acbd
000001d0: c741 003d 79b2 d5bd 5677 cfbc f63d 21bd
000001e0: 84b3 313a 967d b9bd f479 7ebc ff13 1c3c
000001f0: 5922 c53c f6f4 24bd 7dde fb3b f6be 95bc

xy_encoder.flat_module.linears.0.weight f4 [128, 128]
-0.10915892 0.07546083 -0.114656754 0.004704146 -0.097890146 -0.053036492 -0.10173795 -0.037724406
-0.10171781 0.0027168617 0.014624738 0.025334941 -0.086211205 -0.024720818 0.038789984 -0.07503639
0.025223793 -0.022012345 -0.04329446 -0.030695802 0.08590002 -0.040863816 -0.0036490187 -0.042161047
-0.03901547 0.015048546 -0.0026893641 -0.11578469 -0.029908553 -0.05879504 0.034319796 -0.059015274
-0.136505 -0.057610277 -0.011256541 -0.11898421 -0.008978088 -0.15143314 0.076320134 -0.024749639
0.052073758 0.048760448 -0.07491534 0.04402239 -0.11278317 -0.011420928 -0.08702834 -0.067200705
-0.08650364 0.038814645 -0.068380155 -0.053381454 -0.016732765 -0.02225347 0.051656205 -0.05941155
-0.04047915 -0.080276154 0.034591187 0.081737585 -0.100656345 -0.014862223 0.04493752 -0.050113384
-0.020669749 -0.04237163 -0.012735655 -0.0661735 -0.040302627 0.0035316336 0.007206301 -0.00077863724
-0.017862473 0.08520147 0.004327476 -0.015151594 -0.017316602 0.0608818 -0.050947137 -0.008818693
0.0069962395 -0.0006252874 -0.0382592 -0.12366731 -0.06380676 0.040340118 0.020838536 0.0058294986
-0.029996503 -0.06003306 -0.1267223 -0.058744382 0.001955622 -0.008114755 -0.027874153 -0.06948615
-0.055877015 -0.055980794 -0.062115386 -0.060226645 0.0010592394 0.031236831 -0.045877703 0.031151861
-0.00452157 -0.038302228 0.037579574 0.05739962 -0.09337014 -0.0019008724 -0.039789155 0.06526733
0.033499185 -0.058925543 -0.0028259687 -0.009478214 -0.008587329 0.03601893 0.029427579 -0.02867905
0.036129933 -0.1455818 -0.06607791 -0.09652736 -0.07229759 0.050346546 -0.040770013 -0.095105976
0.017075073 -0.03466371 0.02971578 -0.09311862 0.077596076 -0.022411996 -0.01752229 -0.08298926
-0.1552316 -0.08358999 0.0316078 -0.06917008 0.021891575 -0.02557583 0.057310093 0.08042243
-0.023383303 0.0059334855 0.073590614 0.051867183 -0.022865126 -0.092057094 -0.0012732773 -0.022168048
0.051983036 0.017330311 -0.01800165 0.0029534837 -0.03229848 -0.06188567 -0.05568265 -0.011326104
0.018530665 -0.10929401 -0.0741692 -0.027436057 0.0733217 0.02992398 -0.09051945 -0.007926378
-0.022466576 -0.057367664 0.009210201 0.022235155 0.059745 -0.059587967 -0.06829463 -0.10271359
0.0070367637 0.05469818 -0.037920553 -0.0065539503 0.027659103 0.046877027 -0.024570232 -0.029943552
0.061445147 0.06020167 -0.022091579 0.049777366 -0.027334355 -0.015543433 -0.028516179 0.027231798
0.013855314 0.06562708 -0.08840924 0.08060294 0.024578098 0.008485417 0.015523298 -0.01758875
0.028156856 0.035971187 0.093990915 -0.05289662 0.01034672 0.03583566 0.041081656 -0.0896389
0.049868744 -0.06092623 -0.072329454 -0.080679156 0.081099965 -0.18589231 0.009502086 0.04201638
-0.08189627 0.03861604 0.062256876 -0.01183272 -0.04489214 0.012252297 -0.060996078 0.049916837
-0.07023713 0.0032454676 -0.06567124 0.08375031 -0.024822775 0.08364654 -0.04169658 0.05941757
-0.067701 0.0032762324 0.07699702 -0.06489028 -0.048083864 -0.0019832805 0.18247399 0.12367603
0.13117218 0.0042780163 -0.03967305 -0.15589039 -0.032563612 0.039815616 0.0024358772 -0.07344367
-0.07602047 0.06199453 0.06462421 0.031863917 -0.11730561 -0.009903436 -0.06833313 0.031251267
00000000: b68e dfbd 358b 9a3d 29d1 eabd 3d25 9a3b
00000010: a17a c8bd cb3c 59bd fd5b d0bd e884 1abd
00000020: 6d51 d0bd 600d 323b 999c 6f3c 398b cf3c
00000030: 808f b0bd 5083 cabc 3fe2 1e3d aeac 99bd
00000040: 21a2 ce3c 3c53 b4bc 8855 31bd c375 fbbc
00000050: 5aec af3d d160 27bd 6024 6fbb 10b1 2cbd
00000060: afce 1fbd 2d8e 763c 0b40 30bb 8620 edbd
00000070: c802 f5bc 11d3 70bd ea92 0c3d 00ba 71bd
00000080: f7c7 0bbe c1f8 6bbd 5b6d 38bc fead f3bd
00000090: d518 13bc 4a11 1bbe bb4d 9c3d c1bf cabc
000000a0: 4b4b 553d 09b9 473d 376d 99bd d250 343d
000000b0: ddfa e6bd d81e 3bbc ea3b b2bd 86a0 89bd
000000c0: d228 b1bd 1bfc 1e3d e50a 8cbd 83a6 5abd
000000d0: 2713 89bc e94c b6bc 7595 533d 8759 73bd
000000e0: 77cd 25bd d367 a4bd 7daf 0d3d 0966 a73d
000000f0: ea24 cebd ae80 73bc 6810 383d b143 4dbd
00000100: 9b53 a9bc e08d 2dbd 35a9 50bc f985 87bd
00000110: 5e14 25bd fb72 673b d622 ec3b 761d 4cba
00000120: 5254 92bc 1c7e ae3d 80cd 8d3b 643e 78bc
00000130: 8cdb 8dbc 325f 793d f2ad 50bd 487c 10bc
00000140: b640 e53b 54ea 23ba aeb5 1cbd 4945 fdbd
00000150: 1ead 82bd ae3b 253d 94b5 aa3c 6105 bf3b
00000160: 3abb f5bc 3ae5 75bd 7ec3 01be f39d 70bd
00000170: e529 003b c0f3 04bc 5658 e4bc c14e 8ebd
00000180: 4cdf 64bd 1e4c 65bd b46c 7ebd 37b0 76bd
00000190: 2dd6 8a3a 62e4 ff3c 42ea 3bbd 3032 ff3c
000001a0: ae29 94bb cce2 1cbd 0aed 193d dd1b 6b3d
000001b0: d838 bfbd b226 f9ba f4f9 22bd e1aa 853d
000001c0: 7136 093d e95b 71bd e333 39bb 834a 1bbc
000001d0: deb1 0cbc 9688 133d 1b12 f13c 54f0 eabc
000001e0: fbfc 133d 6513 15be db53 87bd 23b0 c5bd
000001f0: c210 94bd 2e38 4e3d 75fe 26bd ecc6 c2bd
00000200: 06e1 8b3c 89fb 0dbd 826e f33c fab4 bebd
00000210: b1ea 9e3d 5d99 b7bc e88a 8fbc 46f6 a9bd
00000220: 08f5 1ebe 3b31 abbd 2e77 013d 0ba9 8dbd
00000230: f655 b33c 6784 d1bc fdbd 6a3d 84b4 a43d
00000240: 578e bfbc af6d c23b adb6 963d af72 543d
00000250: a54f bbbc 6e88 bcbd 19e4 a6ba c499 b5bc
00000260: 2aec 543d 4cf8 8d3c 3278 93bc 3c8f 413b
00000270: 694b 04bd d47b 7dbd 7e13 64bd 2091 39bc
00000280: 9fcd 973c 8ad5 dfbd 06e6 97bd 95c1 e0bc
00000290: b029 963d 2223 f53c 4362 b9bd a4dd 01bc
000002a0: d30b b8bc 5bfa 6abd 62e6 163c 8026 b63c
000002b0: 2cb7 743d 8312 74bd 0ede 8bbd 815b d2bd
000002c0: a794 e63b 330b 603d 9552 1bbd 85c2 d6bb
000002d0: 5895 e23c 2002 403d 8347 c9bc 2e4c f5bc
000002e0: e8ad 7b3d 0796 763d 66f9 b4bc 5ae3 4b3d
000002f0: 4cec dfbc e2a9 7ebc c39a e9bc 3815 df3c
00000300: 6601 633c 7e67 863d e70f b5bd 2713 a53d
00000310: 0258 c93c 6b06 0b3c 6e55 7e3c 4816 90bc
00000320: 35a9 e63c 8656 133d 4f7e c03d 20aa 58bd
00000330: 4a85 293c 6ac8 123d 3d45 283d 9994 b7bd
00000340: 2b43 4c3d c88d 79bd 7721 94bd 1d3b a5bd
00000350: bd17 a63d 8e5a 3ebe a3ae 1b3c 5e19 2c3d
00000360: 3bb9 a7bd da2b 1e3d 1101 7f3d 06de 41bc
00000370: d2e0 37bd dcbd 483c 06d7 79bd 9975 4c3d
00000380: 7cd8 8fbd e9b1 543b a57e 86bd 4885 ab3d
00000390: 2259 cbbc e14e ab3d 08ca 2abd d65f 733d
000003a0: d2a6 8abd 0fb6 563b 9db0 9d3d 32e5 84bd
000003b0: 96f3 44bd edf9 01bb 76da 3a3e dc49 fd3d
000003c0: 0052 063e 9a2e 8c3b 3580 22bd bba1 1fbe
000003d0: 6c61 05bd b315 233d 3da3 1f3b a369 96bd
000003e0: 9fb0 9bbd faed 7d3d b359 843d bd83 023d
000003f0: ec3d f0bd 0542 22bc 3df2 8bbd 5401 003d

xy_encoder.flat_module.linears.0.bias f4 [128]
-0.049608346 -0.08330286 -0.042299215 -0.018774198 0.038796198 -0.0048464984 -0.026843676 -0.072356656
-0.1446711 -0.09581237 -0.03470904 0.020503076 -0.15900488 -0.010105636 0.05108544 0.039627533
-0.047676884 -0.032241132 -0.042160016 0.010222776 -0.02784099 -0.1046157 0.024706034 -0.055387843
-0.077282734 0.047676858 -0.06827086 -0.018363038 0.045204252 -0.007874696 -0.03869449 -0.014644307
-0.104286015 -0.05888441 -0.052046176 0.046265583 0.021292867 -0.028410407 0.06776177 -0.035024986
-0.08131983 -0.02470255 0.0050453204 -0.032788187 -0.045846287 -0.016478445 0.015135587 -0.00078632636
-0.10695419 -0.026476376 -0.039011426 -0.088871345 -0.042675763 -0.068475425 0.08289137 -0.05425006
-0.035027944 -0.029892705 -0.038704257 0.0 -0.07117528 -0.032314382 0.034996703 -0.033213098
-0.0036824674 0.037527505 -0.05393263 -0.019441634 -0.043033235 -0.029363897 0.03149163 -0.03369645
-0.029767357 -0.15239881 -0.040571984 -0.09731933 -0.019526614 -0.045188874 -0.16672435 -0.031839434
-0.008150818 0.05410526 -0.054603003 0.011968664 -0.08263285 -0.026209021 -0.02904906 -0.020484777
-0.063148014 -0.046668272 -0.025437154 -0.07485066 0.06418859 0.025107121 -0.0123360185 -0.09607306
-0.016319364 0.028381178 -0.0064751036 -0.0043267915 -0.049305536 0.035372604 -0.004619566 -0.12033938
0.057875838 0.04778095 0.025131047 -0.06989826 0.0074789375 -0.100403875 0.044453565 -0.012721849
-0.06651044 -0.011471005 -0.015371538 -0.06819066 -0.11823388 -0.02430625 -0.029211607 -0.00415081
-0.031634077 -0.036186084 0.07253289 -0.00794939 0.01461828 -0.019320523 0.0060742637 -0.021318046
00000000: 1f32 4bbd b19a aabd f141 2dbd 59cc 99bc
00000010: c3e8 1e3d 60cf 9ebb 45e7 dbbc ba2f 94bd
00000020: a924 14be 4739 c4bd 112b 0ebd 11f6 a73c
00000030: 2dd2 22be 1c92 25bc f73e 513d 7b50 223d
00000040: d648 43bd 470f 04bd fbaf 2cbd 6e7d 273c
00000050: ca12 e4bc c240 d6bd 4f64 ca3c 5dde 62bd
00000060: 6946 9ebd cf48 433d 98d1 8bbd 156e 96bc
00000070: 1828 393d de04 01bc 1d7e 1ebd adee 6fbc
00000080: e893 d5bd c730 71bd 5f2e 55bd fb80 3d3d
00000090: 616e ae3c f1bc e8bc afc6 8a3d 5c76 0fbd
000000a0: 038b a6bd 015d cabc 3753 a53b e84c 06bd
000000b0: 51c9 3bbd cefd 86bc 41fb 773c 7821 4eba
000000c0: cc0a dbbd fce4 d8bc 72ca 1fbd 2e02 b6bd
000000d0: c8cc 2ebd d83c 8cbd f3c2 a93d 5035 5ebd
000000e0: 7679 0fbd 8ce1 f4bc 5b88 1ebd 0000 0000
000000f0: 58c4 91bd 165c 04bd b458 0f3d 750a 08bd
00000100: 8d55 71bb 71b6 193d 76e8 5cbd 1044 9fbc
00000110: 9e43 30bd 8e8c f0bc 5efd 003d 4a05 0abd
00000120: acda f3bc 6f0e 1cbe cf2e 26bd 5b4f c7bd
00000130: 47f6 9fbc f817 39bd cab9 2abe 116a 02bd
00000140: 028b 05bc 7a9d 5d3d 66a7 5fbd 3718 443c
00000150: 693b a9bd 4db4 d6bc 4bf8 edbc b1cf a7bc
00000160: bf53 81bd 3b27 3fbd 9461 d0bc 4e4b 99bd
00000170: 4f75 833d 73ad cd3c 031d 4abc f4c1 c4bd
00000180: 30b0 85bc a57f e83c 1b2d d4bb c2c7 8dbb
00000190: 9af4 49bd dde2 103d ba5f 97bb 7e74 f6bd
000001a0: 370f 6d3d f5b5 433d a0df cd3c d226 8fbd
000001b0: e011 f53b 8ca0 cdbd f114 363d 4d6f 50bc
000001c0: a036 88bd e2f0 3bbc e7d8 7bbc 8ba7 8bbd
000001d0: 9b24 f2bd e71d c7bc 2e4d efbc 8503 88bb
000001e0: bc92 01bd dc37 14bd 208c 943d 293e 02bc
000001f0: 8381 6f3c 1346 9ebc 9e0a c73b 2fa3 aebc

xy_encoder.flat_module.out.weight f4 [128, 128]
-0.1558897 -0.15735187 0.15045102 -0.13522682 0.006139562 -0.21978818 -0.0107169505 0.020867713
-0.16958372 -0.13288718 -0.032436777 -0.011104605 0.017917711 0.015287387 0.12855034 -0.24435627
0.08744003 -0.2609242 -0.017643817 -0.25877526 -0.07576409 0.09635556 -0.17867506 -0.1990938
0.026054297 -0.25174913 -0.19254921 0.09488861 -0.22592019 -0.09094859 0.024925644 -0.13516001
0.028569663 0.21363199 0.14525802 0.039059926 -0.22950761 0.08166397 -0.079651944 -0.12887809
0.016163899 0.14338358 -0.18557084 0.17247073 -0.1938279 0.10091335 0.025408609 0.15667278
-0.17692745 0.21678716 -0.18825452 -0.10866522 0.21718569 -0.17805915 0.16888557 0.013737374
-0.13408725 0.120664336 -0.14754137 0.16141261 0.098654754 0.13754673 0.100622974 0.07965572
-0.13290614 -0.16738117 0.15509522 0.12747657 0.0489892 -0.009715397 -0.18329775 0.011025163
-0.1353997 -0.18783322 -0.017465034 0.08880092 -0.0060721226 -0.13032252 0.24929349 -0.066237986
0.17885019 0.12702623 -0.06644236 -0.2082228 -0.1241695 -0.034151662 -0.06173908 -0.22648504
-0.043150764 -0.00020915897 0.043389637 0.09063623 -0.20390032 -0.015042001 0.030828275 -0.06571384
-0.01604688 0.030913102 -0.16483907 -0.18329719 0.14713083 -0.0701749 0.18027063 0.11344817
0.18122174 0.07792385 0.2658541 -0.14928748 0.012190292 0.023826914 0.15820721 0.058434147
-0.071060665 0.052006837 0.12677553 -0.1042363 0.09186484 -0.03378659 0.15770712 0.03435951
0.17925575 -0.018518232 0.016222432 0.075048424 -0.13095863 0.10493116 -0.060455486 -0.021812366
-0.12990463 -0.19843218 0.20996514 0.03091904 -0.24173437 -0.13212523 0.05442117 0.13013434
-0.21984108 -0.21437827 0.07217969 0.16359548 -0.15817499 -0.16267164 -0.15947576 0.09593564
-0.13109185 -0.13127382 0.005867195 0.09261328 -0.08369434 -0.055083133 0.057194043 -0.09497245
-0.098052196 0.06496171 -0.04308086 -0.16454506 -0.2237185 -0.05289597 0.18342708 -0.1570504
-0.20320576 -0.11828254 -0.067252055 -0.23084956 0.009026053 -0.23299909 0.02496231 0.22584404
-0.024118915 -0.05301457 0.085269116 -0.039673325 -0.099923216 -0.14032172 0.06538612 -0.23284046
0.1272649 -0.2088336 -0.22389174 0.0061425297 0.105025485 -0.19917972 -0.15618291 0.07208607
0.05796851 -0.030697338 -0.31332573 0.14036818 0.05320141 0.023910433 -0.034324083 -0.057999216
0.042301696 0.0031622385 -0.115170315 0.03143137 0.0034633914 0.14714219 -0.06593687 -0.12197743
0.060853746 -0.17426516 -0.0067032846 0.07526264 -0.02876424 0.1324383 -0.18024269 -0.11520348
-0.091288276 0.008465504 -0.040906828 -0.10359361 0.11637941 -0.11399886 -0.17374122 -0.005456669
-0.027250765 -0.092664294 0.13816515 -0.21595202 -0.13897347 0.10624295 0.14726892 0.0927889
0.07592975 -0.097898245 0.21428667 -0.12916823 0.03997047 0.02998012 0.09451755 -0.12863493
0.20646493 -0.028895816 -0.12300816 -0.18081082 -0.023749663 -0.22396351 -0.11771209 -0.19859101
-0.124658644 0.029477546 -0.23806636 0.13280831 -0.107622944 0.097652726 -0.036037847 0.066727445
-0.022984486 0.034559734 0.12655295 -0.11039562 0.009324716 0.021898016 0.04102066 -0.042503964
00000000: 8da1 1fbe d920 21be d50f 1a3e e678 0abe
00000010: 612e c93b 2710 61be 2696 2fbc c4f2 aa3c
00000020: 5ba7 2dbe 9413 08be 6ddc 04bd 17f0 35bc
00000030: 2ac8 923c f377 7a3c b3a2 033e 8838 7abe
00000040: c213 b33d db97 85be c489 90bc 317e 84be
00000050: 342a 9bbd 1056 c53d 98f6 36be 3fdf 4bbe
00000060: d26f d53c 43e5 80be 9f2b 45be f654 c23d
00000070: 9f57 67be 4143 babd dd30 cc3c 6367 0abe
00000080: ed0a ea3c 58c2 5a3e 85be 143e 4dfd 1f3d
00000090: 0b04 6bbe 713f a73d 8f20 a3bd 9ef8 03be
000000a0: 276a 843c 25d3 123e 4806 3ebe 2b9c 303e
000000b0: d27a 46be a9ab ce3d b725 d03c d46e 203e
000000c0: 782c 35be 74fd 5d3e cbc5 40be df8b debd
000000d0: ed65 5e3e 2355 36be 57f0 2c3e b912 613c
000000e0: 2b4e 09be dd1e f73d 1615 17be 5949 253e
000000f0: 810b ca3d 0dd9 0c3e 6b13 ce3d 8a22 a33d
00000100: 8c18 08be f865 2bbe 48d1 1e3e 3889 023e
00000110: e6a8 483d 542d 1fbc 68b2 3bbe e3a2 343c
00000120: 38a6 0abe 5a57 40be d512 8fbc 42dd b53d
00000130: a8f8 c6bb 4473 05be cb46 7f3e c8a7 87bd
00000140: 8124 373e 2a13 023e ef12 88bd 5c38 55be
00000150: 944c febd 9de2 0bbd 1ee2 7cbd b2eb 67be
00000160: dbbe 30bd af51 5bb9 55b9 313d 7d9f b93d
00000170: 3fcb 50be ba72 76bc 948b fc3c fa94 86bd
00000180: bf74 83bc 793d fd3c 93cb 28be 42b2 3bbe
00000190: 77a9 163e dcb7 8fbd dd98 383e 8457 e83d
000001a0: 3192 393e 8a96 9f3d 071e 883e d1de 18be
000001b0: cab9 473c a930 c33c 1201 223e a558 6f3d
000001c0: 4188 91bd 1f05 553d 72d1 013e d779 d5bd
000001d0: a223 bc3d cf63 0abd fa7d 213e 8fbc 0c3d
000001e0: d28e 373e 8cb3 97bc e8e4 843c fdb2 993d
000001f0: 051a 06be 26e6 d63d 2ca0 77bd d9af b2bc
00000200: b805 05be ce31 4bbe 1a01 573e ed49 fd3c
00000210: 3789 77be d64b 07be bce8 5e3d f041 053e
00000220: 051e 61be fa85 5bbe f2d2 933d 9385 273e
00000230: a0f8 21be 6593 26be 9d4d 23be e879 c43d
00000240: f13c 06be a56c 06be 9941 c03b 08ac bd3d
00000250: f067 abbd da9e 61bd 4d44 6a3d ea80 c2bd
00000260: 97cf c8bd a50a 853d 8e75 30bd 807e 28be
00000270: 7616 65be 72a9 58bd 4fd4 3b3e d2d1 20be
00000280: 2c15 50be 1e3e f2bd 72bb 89bd d463 6cbe
00000290: 03e2 133c 5097 6ebe c27d cc3c a943 673e
000002a0: 0895 c5bc ce25 59bd 93a1 ae3d 7f80 22bd
000002b0: 8ba4 ccbd 7fb0 0fbe 28e9 853d bb6d 6ebe
000002c0: bb51 023e 7ad8 55be e043 65be 4647 c93b
000002d0: 9a17 d73d c5f5 4bbe 6aee 1fbe dda1 933d
000002e0: 6370 6d3d fc78 fbbc 3b6c a0be adbc 0f3e
000002f0: b9e9 593d d0df c33c 6997 0cbd 9690 6dbd
00000300: 8b44 2d3d 8f3d 4f3b 6ade ebbd 2ebe 003d
00000310: 11fa 623b 71ac 163e e909 87bd 4ecf f9bd
00000320: c741 793d 9172 32be 3aa7 dbbb 4d23 9a3d
00000330: fca2 ebbc e89d 073e 8a91 38be cdef ebbd
00000340: 59f5 babd e6b2 0a3c eb8d 27bd e328 d4bd
00000350: 5458 ee3d 3c78 e9bd 38e9 31be dbcd b2bb
00000360: ff3c dfbc c7c6 bdbd 2a7b 0d3e 8722 5dbe
00000370: 104f 0ebe e795 d93d aacd 163e 1b08 be3d
00000380: 0f81 9b3d e07e c8bd f76d 5b3e ad44 04be
00000390: 13b8 233d de98 f53c 6b92 c13d e0b8 03be
000003a0: 8b6b 533e ebb6 ecbc b4eb fbbd 7926 39be
000003b0: a78e c2bc b156 65be 0913 f1bd 715b 4bbe
000003c0: 084d ffbd e57a f13c abc7 73be e7fe 073e
000003d0: 6b69 dcbd 27fe c73d 6c9c 13bd 66a8 883d
000003e0: f649 bcbc 828e 0d3d 1997 013e 1917 e2bd
000003f0: b2c6 183c 7863 b33c 4805 283d a318 2ebd
