results/notebooks/neural_process/Noisy_Matern_Kernel/np/run_0/params.pt (torch_old, 589599 bytes, 28 tensors)

x_encoder.to_hidden.weight f4 [32, 1]
000000 b3 66 c6 be b3 3e e4 3c eb 00 01 bf fd d6 b6 3e
       -0.38750228 0.027861929 -0.50392026 0.35710898
000010 15 cd 59 bf 0a 4b 3b 3f 9f cf 39 bf 70 46 45 bf
       -0.85078555 0.73161376 -0.7258243 -0.77060604
000020 7a c1 1d bf a6 a4 d5 3e aa 56 bd be 46 cf a7 3e
       -0.61623347 0.4172718 -0.36980182 0.32775325
000030 53 87 58 bf c7 76 1a bf 5e c4 b3 be 08 92 3d be
       -0.8458149 -0.6033749 -0.35110754 -0.18512738
000040 f0 79 3c bf d1 bc 27 3f 13 fe 5a be c8 c9 9a 3e
       -0.7362356 0.65522486 -0.21385984 0.30232072
000050 bd 62 33 3f 0f 1e 18 3e 94 da 99 3e 4e 50 71 3f
       0.7007254 0.14855216 0.30049574 0.9426316
000060 c0 74 dc be 2d 8b 9e 3e 4d 1e dc be 82 ce 36 3f
       -0.43057823 0.30965558 -0.42991868 0.71408856
000070 73 bb 48 3f 36 df 67 bf 12 92 5f 3f ed fb ef 3e
       0.78411025 -0.9057497 0.8733226 0.46871892

x_encoder.to_hidden.bias f4 [32]
000000 6b cb a6 bc 82 fc f5 bb a2 e2 33 3c 92 24 47 3b
       -0.02036067 -0.007506908 0.010979326 0.0030386788
000010 26 70 85 3c 2a c5 d1 3b 78 7a d8 bc ec 15 9c bc
       0.016288828 0.0064016776 -0.026425585 -0.019053422
000020 94 e1 70 3c 88 3b 35 bc 61 99 67 bc 93 00 9c bc
       0.0147022195 -0.011061557 -0.0141356895 -0.019043243
000030 e1 55 2c bc 55 0c 57 3c af ad 28 bc 8c 48 82 bc
       -0.010518522 0.013125499 -0.010295316 -0.015903734
000040 ac 80 6e bc 9f 4d 93 ba 5a ad a1 bc ae 11 6a 3b
       -0.014557045 -0.0011238343 -0.01973598 0.0035716104
000050 9a e1 04 3c db 86 57 bb f2 5b 98 3c 29 d4 14 bc
       0.008110428 -0.0032886777 0.01859853 -0.009083786
000060 4d e4 15 3c 27 b3 66 3b 99 4a 1c 3c d2 2d f6 3b
       0.009148669 0.0035201998 0.00953927 0.0075127864
000070 31 b7 20 b9 78 a4 80 bc 21 f5 a2 3c de 04 e2 3b
       -0.00015327033 -0.015703425 0.019892277 0.006897553

x_encoder.out.weight f4 [128, 32]
000000 32 87 3c be 2e af e8 bd d9 af 9f 3d cc 7b 93 be
       -0.18410948 -0.11361538 0.07797212 -0.28805387
000010 ee 8d 08 be 7f 60 10 be 71 5a 9d 3e 1a 92 a6 be
       -0.13335392 -0.1409931 0.30733064 -0.32533342
000020 c3 15 b3 3d 68 e4 a7 3e c4 42 05 3e 54 0e c9 bc
       0.08744385 0.32791448 0.1301375 -0.024542965
000030 99 80 1f 3d 44 21 cd bd 90 5d 97 be 7c d9 6a 3d
       0.038941 -0.100161105 -0.2956357 0.057336316
000040 e9 9b cd be fe 2e 5c be 78 f9 52 be f3 bc b0 3a
       -0.40158013 -0.21502301 -0.20602977 0.0013484046
000050 73 cb af 3c 8a 37 d2 3e 8b d3 16 3e d0 20 de bc
       0.021459317 0.41057998 0.14729135 -0.027115256
000060 03 17 09 3d 05 1e 95 be 99 a9 c6 bc 98 55 8a 3e
       0.03346921 -0.29124466 -0.024250792 0.27018428
000070 08 99 ae 3e 84 b9 27 be 58 4f 94 be b8 68 af 3e
       0.3410113 -0.16379362 -0.28966784 0.34259582
000080 75 db 01 3e b7 9c 05 3d 19 62 9c bd fe 70 99 3c
       0.12681372 0.032620158 -0.07635898 0.018730637
000090 cc f3 5d 3e 4a c7 e7 3d 3e 9c c9 bd d4 ae 5c 3d
       0.21675032 0.11317308 -0.09844254 0.053877667
0000a0 2b c3 92 be c4 50 98 3b 8c e8 c9 3e 8f 00 ab be
       -0.28664526 0.0046483 0.39435232 -0.33398864
0000b0 a5 c5 8e be 2e 8d 61 3e 41 14 dd be 73 c0 9a 3e
       -0.27885166 0.22026512 -0.43179515 0.30224952
0000c0 ca fc b1 be bf 3c b6 3e bb 50 3c bc 61 e4 83 3e
       -0.34763175 0.3559322 -0.011493857 0.25760177
0000d0 22 e4 bd be 97 a7 d2 be e9 47 a0 be 07 ac d5 be
       -0.37088114 -0.41143486 -0.31304863 -0.4173281
0000e0 c6 fe 8f bc 0a 24 a2 be 54 80 91 be fe 16 ce 3d
       -0.01757754 -0.3166812 -0.2841822 0.10062979
0000f0 03 52 e0 be 43 be 48 3e 96 18 8d 3e e3 9c 8b bc
       -0.4381257 0.19603829 0.2755782 -0.017042583
000100 48 4e d0 3e f4 04 c4 bc c6 86 5d be ca d8 75 3e
       0.40684724 -0.023928143 -0.21633443 0.2400848
000110 b1 91 03 be 17 b6 d4 3e 3a 9e e0 be ce 3b 7f bc
       -0.12848546 0.41545174 -0.43870717 -0.015578223
000120 3e e4 b7 3e 8d f7 ee bd c1 4f e0 3d 65 1d 49 3e
       0.35916322 -0.1166831 0.10952712 0.1964012
000130 8c 2e 80 3e c3 ea 08 3d 85 b4 b2 bd af e2 f2 3d
       0.25035512 0.03342701 -0.087258376 0.11859643
000140 6b 3f b4 be f0 64 d6 3e e5 be 3f 3c 4c b0 e5 bb
       -0.35204634 0.41873884 0.011703228 -0.0070095416
000150 7f 17 72 be 1a f1 c6 3e 3c 0d 36 be bb fd 6b 3e
       -0.23641776 0.3885582 -0.17778486 0.23046009
000160 e4 98 be be ef 6e e0 be 8a a8 a4 3e 71 e0 9a 3e
       -0.3722602 -0.43834636 0.32159835 0.3024936
000170 38 a0 1f 3e 2d 26 81 be 1a be ba be b7 0a b8 3e
       0.15588462 -0.25224438 -0.3647316 0.35945675
000180 a0 13 76 bd 99 95 d1 3e a9 5b 9c 3e 94 d5 38 3e
       -0.06007731 0.40934446 0.3053868 0.18050224
000190 9b b7 ab be 52 42 35 3e 61 ae 9a bc b4 1c 9b 3e
       -0.33538517 0.1770108 -0.018881978 0.30295336
0001a0 b8 af 2d bd a2 e2 e5 bd 4c 9a 0b 3d d2 83 4c 3d
       -0.042403907 -0.112248674 0.034082696 0.0499304
0001b0 38 19 92 be e9 a6 a2 bc fc 0a 9a 3e 5d 49 b7 be
       -0.28534865 -0.01985498 0.30086505 -0.3579816
0001c0 f1 30 d7 3e 6f c8 57 3e d9 a5 ba 3e d4 4e d8 be
       0.42029527 0.21072553 0.36454657 -0.4224764
0001d0 71 e8 31 3e f2 f5 16 3e ac 34 99 be db 94 bb be
       0.17373826 0.14742258 -0.29922998 -0.36637005
0001e0 bc d4 96 be 2b c2 20 be c1 69 e5 3d ef a0 cb bd
       -0.29459178 -0.15699069 0.112018116 -0.09942805
0001f0 48 20 c5 be 36 da d2 3e a2 59 bd 3e fa 8a 47 3e
       -0.3850119 0.41182107 0.36982447 0.19486609
000200 0a 3a 67 3d ec 87 90 bd c2 14 cf 3e ee f7 0f 3e
       0.056451835 -0.07057175 0.40445524 0.14059421
000210 d8 86 6f 3e c8 de 35 3e ae 1b ca 3e 9f 13 c4 3e
       0.23391283 0.17760766 0.39474243 0.3829622
000220 e6 56 db be 12 57 1d 3e 84 4c 1b be 8b 93 ed bc
       -0.42839736 0.15365246 -0.15165907 -0.029001018
000230 1b 87 89 3e d3 3e 74 be b7 7d 29 be 28 ae 84 bd
       0.2686089 -0.2385209 -0.16551863 -0.0647853
000240 3a ce d3 be 38 41 99 3e 55 b8 b3 bd ea 10 81 3e
       -0.41368276 0.2993257 -0.08775393 0.25208217
000250 7e 7c f4 3d 81 f9 a5 3e 29 11 96 be fc ec 7a be
       0.119378075 0.3241692 -0.29309967 -0.24504465
000260 f2 cb 14 3e e6 b2 2f 3e cb 9d f3 3d 80 85 9c be
       0.14530924 0.17158088 0.11895331 -0.30570602
000270 80 94 0a 3e 98 6a b2 3d 02 38 7a 3e 6b 11 69 3e
       0.13533211 0.087117374 0.24435428 0.2276055
000280 84 aa c6 3e 6a 64 23 3e b8 a9 47 be 65 c4 bf 3e
       0.38801968 0.15956274 -0.19498336 0.37454525
000290 b7 20 65 be 90 73 1e 3c c2 24 b9 be 42 8a 80 be
       -0.22375761 0.009671107 -0.36160856 -0.25105482
0002a0 72 03 04 3e 1e fc 49 bd 87 b4 81 3e ce 5e 12 3d
       0.1289194 -0.049312703 0.25333044 0.035734944
0002b0 b5 1d c7 be ab 5a ef 3d 2e 17 97 3e 3c 4d 09 be
       -0.38889852 0.116872154 0.29509872 -0.13408369
0002c0 63 03 24 be 95 89 b9 be 6a ff a4 3e d3 cd 95 be
       -0.16016917 -0.3623778 0.32226115 -0.29258594
0002d0 56 91 5f 3d c3 b7 b6 3e bd d7 72 3d 03 3c c3 be
       0.054581963 0.35687074 0.059287775 -0.38131723
0002e0 f9 88 50 bd 56 74 c9 be 74 8f 2d bd 09 8d c9 3e
       -0.050911877 -0.3934657 -0.042373136 0.39365414
0002f0 e4 a1 aa 3c 1d 5d 5e 3e 5d 63 cd be 66 e2 76 3e
       0.020829149 0.21715207 -0.4011487 0.24109802
000300 1c 78 c6 3d c4 e1 1f 3e 62 fc 09 be 6a 5f b8 be
       0.09690878 0.15613467 -0.13475183 -0.36010295
000310 50 fe fa bd 61 34 a8 bb ce 3e c4 be e1 65 72 be
       -0.122555375 -0.005133197 -0.38329166 -0.23671676
000320 61 3a b2 be 13 49 cf 3e 26 4c 7e 3e db 65 0e be
       -0.34810165 0.4048544 0.24833736 -0.13906042
000330 f3 0a 1c 3d 8c 9f cf be 20 67 12 bd 45 24 ad 3d
       0.03809638 -0.40551412 -0.03574288 0.084541835
000340 65 93 88 be a7 f2 d8 bd 82 17 b9 3d 9c bd 89 3e
       -0.26674953 -0.10593157 0.09037687 0.26902473
000350 6c a9 48 3d 4e 0d 82 3e f1 d4 88 3e 0d da 51 3c
       0.0489897 0.25400776 0.2672496 0.012808335
000360 4e e3 2b bc 9d 83 95 3e 00 a5 88 3d 83 ec c1 be
       -0.010491205 0.29201975 0.06672096 -0.37875757
000370 95 bc 9b 3e 5d fc 28 be d1 01 28 3c 20 72 e0 bd
       0.30417314 -0.16502519 0.010254339 -0.109592676
000380 1b ef d2 be ce 84 44 3e 86 e8 80 3e c5 1c bf bd
       -0.41198048 0.19191286 0.251774 -0.09331659
000390 dd 66 ca be 26 2d 98 be 2e 90 4d bd 10 63 d6 3e
       -0.39531603 -0.29721946 -0.05018633 0.41872454
0003a0 da c6 b6 be 18 64 b2 3d 48 75 97 bc 28 7f 9d bc
       -0.35698587 0.087104976 -0.018488541 -0.019225672
0003b0 4a c4 01 bc a1 f4 1d 3e ee f9 9d 3e 97 ad ac 3e
       -0.007920334 0.1542535 0.30854744 0.3372619
0003c0 a7 21 d1 be d4 56 37 3e 8c fb aa 3e a9 e0 b7 be
       -0.40845987 0.17904216 0.3339504 -0.3591359
0003d0 14 dc ac be a3 74 bd be 08 69 bb 3e ed 9f 9a be
       -0.33761656 -0.3700305 0.3660357 -0.3020014
0003e0 9a 97 db 3d 11 b5 e0 be b3 73 07 3d 4e 30 b9 bd
       0.10722275 -0.43888143 0.033069324 -0.090424165
0003f0 3b e7 45 be 2e 98 a2 bc 19 64 90 3d 09 b2 2f be
       -0.19326489 -0.019847956 0.07050342 -0.17157759

x_encoder.out.bias f4 [128]
000000 97 72 44 3a 42 4f 1e bb 9b 2b 32 bc 52 18 08 3c
       0.0007493882 -0.0024156128 -0.010874654 0.00830658
000010 f6 b4 01 bc 92 a7 30 bc 39 2e 31 39 83 92 64 bc
       -0.00791668 -0.010782139 0.00016897255 -0.013950947
000020 9b 17 1b bd 3d 2a 27 bb a2 9c 60 3b 8c 79 da ba
       -0.03786431 -0.0025507354 0.0034273048 -0.0016668304
000030 e9 87 a3 ba 81 16 3d bc ae 82 e2 3b 1b f6 e5 3c
       -0.0012476417 -0.01154101 0.006912551 0.028071454
000040 8f 6c e0 b8 8f d9 b5 bc 90 ba 25 bc 2c 0a 58 ba
       -0.00010701373 -0.022198467 -0.010115281 -0.0008241262
000050 c0 9f 3e bc 6f 60 6f 3b 4f 7d 4d 3b 07 8f a3 bc
       -0.011634767 0.0036525985 0.0031355207 -0.019965662
000060 50 06 12 bc a2 1c cf bb b6 f3 dc bb c4 39 b0 3c
       -0.008912638 -0.006320552 -0.00674292 0.02151192
000070 4b 43 e4 3b 51 12 99 bc a1 dd a2 3b 48 6d 1e bc
       0.0069660298 -0.018685492 0.004970268 -0.009669609
000080 2b 47 2a 3c 42 1c 9a bc ff 6b 39 3c fc b0 54 3c
       0.010392944 -0.018812303 0.011317252 0.0129816495
000090 09 cf 0b 3b 89 d6 10 3c 02 e9 56 3c df b6 86 bc
       0.002133312 0.008840212 0.013117077 -0.016444622
0000a0 f1 16 a7 ba 67 59 3b bb 13 4b c1 ba 26 c8 20 bc
       -0.0012747926 -0.0028587223 -0.0014747105 -0.009813344
0000b0 f0 ea 09 bd 3f b8 60 bc bf 5c 92 bc bf 1e c0 bc
       -0.03367132 -0.013715803 -0.01786649 -0.02345216
0000c0 0b 72 92 bc 69 f9 9c bc b8 3d 76 bc d1 1b 2b bc
       -0.017876646 -0.019161897 -0.015029363 -0.010443644
0000d0 1e 05 2a bd d0 e4 25 bd 38 53 96 bc d2 7f 97 3c
       -0.041508786 -0.040501416 -0.018350229 0.018493567
0000e0 62 ec c4 bc a9 af 70 bc aa c7 85 3b 0b 8c f4 3b
       -0.024038497 -0.014690318 0.0040826397 0.0074629835
0000f0 4e 34 a8 bc 07 3b ea 3b 52 cd af bc b3 95 c8 3a
       -0.020532753 0.00714815 -0.021460209 0.0015303403
000100 66 9a 87 b9 c5 4b e4 3a d4 41 be bc ce 46 0a bc
       -0.00025864242 0.0017417601 -0.023224749 -0.008439733
000110 47 87 69 3b c2 47 e7 bb 0c 6e 81 bc 7f 4b d6 bb
       0.003563361 -0.0070581147 -0.015799545 -0.0065397616
000120 80 80 65 bc a3 9e 54 bb f8 8e 51 bc d2 fd d3 bb
       -0.014007688 -0.0032443188 -0.012790434 -0.0064694667
000130 20 d0 04 bd d9 ce ad 3b 02 ce 07 3c 35 02 7b 3b
       -0.032425046 0.005304199 0.008288862 0.0038300876
000140 45 11 54 bc c0 67 de bc aa 47 22 bd 96 15 ff bc
       -0.0129435705 -0.027149081 -0.039619125 -0.031138223
000150 22 ec cd bc 7b 54 74 3c 60 6a a9 bc eb 68 a7 bc
       -0.025137011 0.01491272 -0.020680606 -0.020435771
000160 94 22 00 bc 7c 0e 7b 3c 8a c0 29 3c da f6 dc bc
       -0.007820744 0.015323278 0.010360846 -0.026973177
000170 80 5e 12 bd f0 31 45 3a f6 da 73 bc 42 33 5c bb
       -0.035734653 0.0007522395 -0.014883747 -0.0033599888
000180 84 34 08 bd 37 96 06 bd b3 e4 09 3c 98 9d 23 bc
       -0.033253208 -0.0328581 0.008416343 -0.009986304
000190 bf bd ff 3b ab 0b 53 3c 5b 6a ee bc e9 c0 89 3c
       0.007804602 0.0128812 -0.029103449 0.01681562
0001a0 5b 8a bd 3c 04 59 52 3a 6b 39 a4 bc c6 9f c1 bb
       0.023137262 0.00080241286 -0.02004691 -0.005908939
0001b0 bd 1d ed bc 5b 08 0a bd a0 7e b4 bc 9a 6c 9b 39
       -0.028944844 -0.033699375 -0.022033036 0.00029644818
0001c0 ff 24 2a bb f6 9a 9f bc c2 57 ee bc f8 c6 a9 bc
       -0.0025961993 -0.01948307 -0.02909458 -0.020724759
0001d0 6c 8a 96 3b 29 c6 aa bb de c6 2e 3b 25 a4 a4 bb
       0.004594138 -0.005211611 0.0026668827 -0.0050244504
0001e0 91 72 18 3c 31 44 e6 bb 25 d8 21 bc 00 13 c8 bc
       0.0093046585 -0.007027172 -0.009878193 -0.024423122
0001f0 98 03 8a bb bf ef 63 bc 4e f3 cc bb 16 57 1c bd
       -0.004211854 -0.01391214 -0.00625459 -0.03816899

xy_encoder.resizer.to_hidden.weight f4 [32, 1]
000000 98 90 8b 3b 84 3f 55 bf d0 7f 1b 3f 6c 9e b6 3e
       0.0042591803 -0.8330004 0.607419 0.3566774
000010 f5 49 32 3f 3a 22 ac 3e d2 1a 4c 3f c8 2d 22 3f
       0.696441 0.33619863 0.79728425 0.63351107
000020 db 6e bf be 05 e8 26 3f 7b be 77 bf df 44 5a 3e
       -0.37389264 0.65197784 -0.96775025 0.21315335
000030 5b 45 2e 3f 48 87 47 3f 35 3f 07 3f d9 27 25 3f
       0.6807458 0.779408 0.5283082 0.6451393
000040 2a fb 6c 3f 90 4c 29 bf 89 4e 54 3f ca 71 b1 be
       0.92570746 -0.6613245 0.82932335 -0.34657127
000050 62 4a 5a bf 0e 00 6b 3e 15 a1 5a 3e ab 7a ff bd
       -0.8526975 0.2294924 0.2135051 -0.12474569
000060 d8 92 73 3e c1 5d 4f 3f 8f 84 b4 3e eb 9e d3 be
       0.23786485 0.8100243 0.35257384 -0.41332182
000070 0f 0d 6c bf d6 00 e8 be b0 4f 65 3e c1 27 01 3e
       -0.92207426 -0.45313138 0.2239368 0.12612821

xy_encoder.resizer.to_hidden.bias f4 [32]
000000 39 2d 99 bc 61 1f 12 bd 42 b1 5f bc 79 7d bb 3b
       -0.018698322 -0.035674457 -0.013653101 0.0057217446
000010 7e 8f 71 bc 08 27 c9 bc 87 62 89 bc ac c8 69 bc
       -0.014743684 -0.024554744 -0.016770614 -0.014269035
000020 31 b5 8d bc 0b 71 72 bc 9d 37 54 bc e8 ed 0f bd
       -0.017298313 -0.014797459 -0.012952712 -0.035138994
000030 59 c0 8f 3c db e3 96 bc 5b 66 8f bc a3 c7 4e bc
       0.017547773 -0.018419197 -0.017504862 -0.012620839
000040 b7 ca a3 bc d6 d8 86 bc 7f 9a 03 bd ae 79 0b bc
       -0.019994123 -0.016460817 -0.03212976 -0.008512897
000050 14 b3 d5 bc d9 3e d8 bc 07 8c 97 bc b4 d1 5a bd
       -0.026086368 -0.026397156 -0.018499387 -0.053422645
000060 5d 82 1b 3c 1d 0f 60 bc 40 00 e5 3b 53 67 a7 bc
       0.00949153 -0.013675478 0.006988555 -0.020435011
000070 dd 44 c5 bc a9 15 88 bc ca 66 8e b9 bf 66 1c bc
       -0.024080688 -0.01661189 -0.00027160934 -0.009545981

xy_encoder.resizer.out.weight f4 [128, 32]
000000 b3 9a d0 3d e5 ac cb be e9 6a f2 3c c8 4d 38 3e
       0.101857565 -0.39780346 0.029591994 0.17998421
000010 37 a8 c3 be 5b 4f 57 be fc 88 82 be 5a 43 3d be
       -0.38214275 -0.21026365 -0.25495136 -0.18482724
000020 02 2e 90 bc 77 2d bf bd 6b 94 26 3e 68 ab c8 3d
       -0.017600063 -0.093348436 0.16267554 0.09798318
000030 ad a5 cf 3e 16 9c 09 3c db a6 dd 3c 61 b9 97 3e
       0.40556088 0.00839903 0.027057102 0.2963362
000040 21 bb ae be 2a b2 be 3d 59 b6 7f be 2b d8 ba 3e
       -0.34127143 0.09311326 -0.24971904 0.36493048
000050 97 4e 9d be f8 74 ac bd 5e 1a c3 be a3 dc 7c be
       -0.30724022 -0.084207475 -0.38106054 -0.24693541
000060 62 de d0 3e fe 12 7e bc 40 91 14 3d a7 57 f8 3d
       0.40794665 -0.015507458 0.036271334 0.12126093
000070 2e 1a 2f 3d 06 6b b5 3e 92 c6 00 bd 26 82 32 be
       0.042749576 0.35433215 -0.03143937 -0.1743246
000080 bc 6d 6a 3e be f5 a3 3d 68 d7 b2 be e7 2a 93 3e
       0.22893423 0.08005856 -0.34929967 0.2874367
000090 44 82 a9 be 39 6d c7 3e 28 3c 6a 3e ad 99 0c bb
       -0.33107197 0.38950518 0.2287451 -0.0021453903
0000a0 6f a3 98 3c 85 09 33 3d 0c 5f c1 be 6e 7a ca be
       0.018632619 0.04371025 -0.37767828 -0.3954653
0000b0 3d 8e 2e bd de c9 17 be 9c 74 40 3e a5 9f 81 be
       -0.042616118 -0.148231 0.18794483 -0.25317112
0000c0 79 d9 c3 be 7b 4d 93 be 7c a7 99 be cd 93 0f 3e
       -0.38251856 -0.2877005 -0.30010593 0.14021225
0000d0 ca 24 88 be e2 ab 66 3e fe 01 b0 3e 80 42 af be
       -0.26590568 0.22526506 0.3437652 -0.34230423
0000e0 47 f0 7c be e3 5d 9a 3e d2 63 da 3e f4 b4 16 3e
       -0.24701034 0.30149755 0.42654282 0.14717466
0000f0 ad e4 b7 3e 5a df a2 be 0c 07 42 3e 36 71 37 3e
       0.35916653 -0.3181103 0.18948 0.1791428
000100 7c 60 21 3e e8 c2 6e bd 19 71 56 be 7d bd 4c be
       0.15759462 -0.058291346 -0.20941581 -0.19994159
000110 35 29 82 3d b7 90 12 3e 2b 68 fa 3c cd fd ba 3e
       0.06355516 0.14313017 0.03056725 0.3652176
000120 9d 4f 3f 3e 89 e1 d1 bc 54 e1 b8 3e 16 46 9d 3e
       0.18682714 -0.025620239 0.36109412 0.30717534
000130 aa ee 22 bd 10 7f 01 be d0 82 23 be 89 a5 07 be
       -0.03977839 -0.12646127 -0.1596787 -0.1324674
000140 a9 c5 6c bd a2 d1 15 3d bf cf bb 3e 8f 20 8b be
       -0.05780569 0.036576875 0.36681935 -0.27173278
000150 1b 75 c8 be 76 22 dc be b4 22 7b be 9b 5a 54 bd
       -0.39151844 -0.42995042 -0.24524957 -0.05184422
000160 37 0a 73 be e4 4f c6 be 5e 76 1c 3e 56 06 01 be
       -0.23734365 -0.38732827 0.15279528 -0.12600073
000170 6c 57 bc be bf e7 c0 be db fb d1 bd 29 90 58 3e
       -0.36785448 -0.37676808 -0.10253116 0.21148743
000180 ef 1b cc be a3 74 be 3d 4c f1 23 3a 90 62 23 be
       -0.39865062 0.092995904 0.00062539126 -0.15955567
000190 67 19 02 be e2 94 a3 be 7a ef 60 3d 5f 97 bb 3e
       -0.12705003 -0.31949526 0.054915883 0.36638924
0001a0 e1 f4 93 3d 85 00 dd be be 25 14 3e 80 38 52 bd
       0.07224441 -0.4316446 0.14467523 -0.051323414
0001b0 31 f0 9b 3d c5 bd be bc cb 3b 8c 3d 3e a6 b0 be
       0.07614172 -0.023283849 0.06847342 -0.34501833
0001c0 2e fd a7 be 22 f6 ec be ae c6 6c 3e cc 60 60 be
       -0.32810348 -0.46281534 0.23122665 -0.21911925
0001d0 96 1b c8 bd 5b 84 28 3e fa d4 06 3e 99 ea 93 3e
       -0.097708866 0.1645674 0.13167182 0.2888992
0001e0 1f f4 0f 3e db c2 64 be 7a 26 bc bd dd 1b 4d 3e
       0.14057969 -0.22339956 -0.09187026 0.2003016
0001f0 ae af 48 be 1b 27 c9 3e 8a f0 82 be 27 70 f1 3d
       -0.19598266 0.39287648 -0.25574142 0.117889695
000200 2c c1 5d be 56 ea ad be bc 8e 94 3d 82 9f 19 be
       -0.2165572 -0.33967847 0.07253787 -0.15002254
000210 90 52 66 3e 73 71 bc bd d7 c2 dc 3e 80 ba f6 3d
       0.22492433 -0.09201326 0.431174 0.12047291
000220 e9 8b d8 3e a8 e5 b2 bd 9e 8d 95 be f6 f7 af bd
       0.42294243 -0.0873521 -0.29209608 -0.08592217
000230 6f f8 34 be 43 58 8f 3e fe f4 55 be dd 08 90 be
       -0.17672895 0.27997026 -0.20894238 -0.28131762
000240 ef 66 83 be 90 db ae 3e 60 81 92 be 30 3a 80 3d
       -0.2566447 0.34151888 -0.2861433 0.062610984
000250 c4 2d 91 3e 2f a9 87 be 84 b1 3f bd dc b1 59 be
       0.2835523 -0.26496264 -0.04680015 -0.21259254
000260 ac 3f d9 3e 6b 8d fb bd c9 11 f1 3d 8c 93 a0 3d
       0.4243139 -0.12282833 0.117709704 0.07840642
000270 e9 57 ce be 12 48 46 3e 62 ca 41 be 63 6a c1 3e
       -0.40301445 0.1936343 -0.18924859 0.3777648
000280 7a 05 b8 3e 16 3c 1a 3e 6d df c1 bd b0 61 76 be
       0.35941678 0.15061983 -0.09466443 -0.24060702
000290 50 cc b9 3e 64 1f 9d 3d b0 63 db 3e d9 00 67 bd
       0.3628869 0.07672003 0.42849493 -0.056397293
0002a0 c5 94 a5 be 20 7d cc 3e 0f 3c 57 3e f6 8d c7 3e
       -0.32340065 0.39939213 0.21019004 0.38975495
0002b0 87 c6 a8 be 48 7a c2 3d 27 d6 aa be b7 de 1e 3e
       -0.32963964 0.094959795 -0.3336651 0.15514646
0002c0 74 fc b5 3e f9 44 34 3e e9 8f 06 be da 8b a9 be
       0.3554417 0.17604436 -0.13140835 -0.3311451
0002d0 55 48 fd 3d 61 12 83 3e 7c 94 fd bd 6f 06 b6 be
       0.12367312 0.2559996 -0.12381837 -0.35551783
0002e0 15 1b 39 3e a5 13 40 3e a4 25 03 be 92 43 cd be
       0.18076737 0.18757494 -0.12807328 -0.40090615
0002f0 84 e9 d0 be 36 11 db 3e 6e 22 ea 3c 25 ac 91 3e
       -0.40803158 0.42786568 0.02858087 0.28451648
000300 95 1b 1b 3e 04 80 d3 bd 61 11 8d be bf 98 d4 be
       0.1514724 -0.103271514 -0.27552322 -0.41522786
000310 d6 5d 09 3e 00 6c 94 bd 54 b7 36 3e f3 c7 9f bd
       0.13414702 -0.07247162 0.17843372 -0.07801809
000320 34 10 a0 be 08 36 a5 be 18 b9 65 3e a2 e4 28 be
       -0.31262362 -0.32267785 0.22433889 -0.16493466
000330 7b 83 84 3e 40 68 f4 bd a3 40 0e be d7 a0 97 bd
       0.25881562 -0.119339466 -0.13891844 -0.07403725
000340 4a c1 86 3e 50 d6 32 be f9 38 ab be 32 38 d7 be
       0.26319343 -0.17464566 -0.33441904 -0.4203506
000350 3e 00 0d 3e 44 87 e2 be 22 3a d7 bd e0 0c bb be
       0.13769624 -0.44243824 -0.10509135 -0.3653326
000360 1b 72 66 be 50 84 dc be fa 2f 51 be dc 0e c8 be
       -0.22504465 -0.43069696 -0.20428458 -0.39073837
000370 59 4b 94 be 5b 66 e1 be c7 3d 96 3d c9 c2 a5 be
       -0.28963736 -0.44023404 0.07336002 -0.32375172
000380 34 3c 09 be 7b 36 d5 be 82 be 7c 3e 8d 1f a6 be
       -0.13401872 -0.41643128 0.24682048 -0.32445946
000390 88 6a 84 be f4 8a 0e be 8c 58 91 3d c0 83 37 be
       -0.25862527 -0.13920194 0.07096967 -0.17921352
0003a0 44 00 c8 be 7a 08 2a be 97 f2 be 3e 01 a5 dd be
       -0.39062703 -0.16604796 0.37294456 -0.4328995
0003b0 f4 99 91 3d 70 22 ff bc 00 cf 2b 3b b6 ea cb be
       0.07109442 -0.03114435 0.002621591 -0.39827508
0003c0 18 df 5e 3d 79 3e b3 3e 12 17 65 3e a0 77 3b 3c
       0.054411978 0.350086 0.22372082 0.011442095
0003d0 5c 9f a4 be bc 75 b0 3d dd 6c b0 3e fc d6 ed 3d
       -0.32152832 0.08616206 0.34458056 0.11613271
0003e0 fc a1 fc 3d 90 15 f2 3c 5a 35 b6 be 98 05 f5 bd
       0.123355836 0.029551297 -0.3558758 -0.119639575
0003f0 fb e2 ad 3e 08 ba b0 be b8 1c 1a bd 1a f6 4c 3e
       0.33962235 -0.3451693 -0.037625045 0.20015755

xy_encoder.resizer.out.bias f4 [128]
000000 c7 8f c7 3c 3e c0 9a bc d0 de 4d bc bc 25 d4 bc
       0.02436055 -0.018890496 -0.01256533 -0.0258969
000010 e4 08 eb 3b 4f a8 8f bc c9 3f 98 bc 00 00 00 00
       0.0071726907 -0.01753631 -0.018585103 0.0
000020 62 a5 6b bc a4 3e 1e bd e2 7b c8 bc 31 49 b8 bc
       -0.014382692 -0.038633958 -0.024473134 -0.022495838
000030 88 8f bf bc 00 00 00 00 d9 f9 25 3c 81 0b 8f 3d
       -0.02338387 0.0 0.010130369 0.06984616
000040 7d 44 11 bd e5 23 33 bc c7 9a 89 bb fa 54 2c ba
       -0.035465706 -0.010933851 -0.004199359 -0.0006573942
000050 78 15 31 bd 33 5c 37 bd c8 4f d6 bc 1b 7e 14 bc
       -0.043233365 -0.044765662 -0.02616109 -0.009063269
000060 cc 77 a1 bc d8 53 97 3b b3 d9 fb bb cc 18 c9 3c
       -0.019710444 0.0046181493 -0.007685864 0.024547957
000070 f9 b1 d4 bb 1c 90 08 bd d4 39 c2 bb f6 68 d1 bc
       -0.0064909426 -0.03334056 -0.005927304 -0.025562745
000080 b6 68 96 bc d7 24 d3 bc 54 7e 3f 3c 40 74 f8 3c
       -0.018360477 -0.025774403 0.011687834 0.03032887
000090 0d a4 07 bd 38 ed 56 3b c7 77 03 bc 30 38 9c bc
       -0.033115435 0.0032795202 -0.008024163 -0.019069761
0000a0 8b 38 21 bc d0 ec 81 bd 89 93 ae 3c 26 a8 29 bc
       -0.009840141 -0.063439965 0.021310585 -0.010355031
0000b0 0d e4 9d bc 20 34 94 bc 0a a1 39 bc a5 58 d0 bc
       -0.019273782 -0.018091261 -0.011329899 -0.025432894
0000c0 63 a8 7c bc a1 99 99 bc 3b 4a 8b 3b 40 30 8f bb
       -0.015421006 -0.018750014 0.0042507923 -0.0043697655
0000d0 2d 90 31 bd 92 9b 0d bd 9f 22 3b bc 8d 6c 9f bc
       -0.043350387 -0.03457219 -0.0114218285 -0.01946094
0000e0 f2 c7 8f bc a4 30 7e bc 6b 52 e6 bc 5f b6 d5 bc
       -0.017551396 -0.0155145265 -0.028115472 -0.026087938
0000f0 8d 9d 8a bc d6 99 e1 bc c4 a3 9d bc 2d 33 21 3d
       -0.01692083 -0.027539175 -0.019243129 0.039355446
000100 7c d2 1f bd 99 97 39 bb f8 e2 a9 bc c4 c0 83 bc
       -0.039019093 -0.002831912 -0.02073811 -0.016083129
000110 e9 30 a4 3b 70 07 92 bc 16 4d 22 bd 5e 3c 5a bc
       0.0050107134 -0.017825812 -0.039624296 -0.013320057
000120 8f fc 40 bb e8 84 83 bc ce a3 a5 bc 3c 2c 5d bc
       -0.0029447412 -0.016054586 -0.02021971 -0.013499316
000130 e4 a3 ff bc 9f 74 fe bb 53 5a 82 3d 3d 6b 1f 3c
       -0.031206079 -0.007765367 0.06364884 0.009730157
000140 70 a3 e1 bc 11 7d cf bc 18 b8 3b bd f6 8f 53 bc
       -0.027543753 -0.025328191 -0.045829862 -0.012912741
000150 3e c1 62 bd 66 a6 53 3c c5 55 40 b9 b3 9b 97 bc
       -0.05536007 0.01291809 -0.00018342499 -0.01850686
000160 c0 53 d9 bc 9e 7d ee bb 12 22 14 bc 73 3d 86 bc
       -0.026529193 -0.0072781583 -0.009041326 -0.016386723
000170 dd 36 b6 bc 8a 49 3a bc 3f da c6 bb 34 94 e6 bc
       -0.022242958 -0.011370072 -0.0060684974 -0.02814684
000180 dc d2 1c bd b8 bc 9f bc 51 02 a0 bc bc c6 9e 3c
       -0.03828703 -0.019499168 -0.019532355 0.019381873
000190 7e b7 ba bc b5 84 3a bc df 90 05 bd b4 5d 18 3d
       -0.022792574 -0.011384179 -0.032608863 0.037198737
0001a0 77 eb 19 3c 53 53 9d 3c d8 17 e7 bc f5 6f 1a bb
       0.009394518 0.019204771 -0.028209612 -0.0023565267
0001b0 c6 b3 0b bd bd 38 15 bd a8 80 6f bc cb a6 05 3b
       -0.034106992 -0.036431063 -0.014618076 0.0020393606
0001c0 c9 c8 bb bc 0d 80 b9 bb 3d 47 f9 bc e7 87 2e bd
       -0.02292289 -0.005661017 -0.030429477 -0.042610075
0001d0 40 11 fb bb 36 36 97 bc 69 9c 7d bb e9 cd 8b bc
       -0.0076619685 -0.018458467 -0.0038697964 -0.017065959
0001e0 b6 be 8a 3a ff 5a 04 bc f5 bd 25 bc 84 c0 9f bc
       0.0010585401 -0.008078336 -0.01011609 -0.019500978
0001f0 84 a5 86 bc 27 25 8f bc bd 70 f2 3b 5c 2b 30 bd
       -0.016436346 -0.01747377 0.0073986934 -0.0430101

xy_encoder.flat_module.to_hidden.weight f4 [128, 128]
000000 17 06 75 3c ec 27 dc bc ef ae df bc e2 66 25 bd
       0.014955065 -0.026874505 -0.027305095 -0.04038132
000010 47 21 d1 ba eb c3 15 bd 07 89 21 bd c7 0d 0f bd
       -0.0015955352 -0.036563795 -0.03943732 -0.03492525
000020 54 25 8b 3d bf f4 57 3d d1 79 6e bc 49 bd ec 3c
       0.06794229 0.052723642 -0.0145554105 0.028898852
000030 73 90 af bd 70 eb 51 3c cc 4b 61 3c 26 f8 9d 3d
       -0.085724734 0.01281248 0.013750982 0.07713346
000040 34 76 fa bc e4 ed 06 bd 1c 31 82 bd 2d 0f 91 bd
       -0.030573942 -0.032941714 -0.06357023 -0.07082973
000050 d1 95 ac 3c f6 e2 81 3b d8 f1 23 bd 38 35 78 bc
       0.021067532 0.0039638234 -0.040025562 -0.015149407
000060 90 e8 4e 3d 47 ff 59 3d b8 86 44 3d 4e 63 da 3c
       0.050514758 0.053221967 0.04798004 0.02665868
000070 d2 d6 f9 3b 27 78 84 3d bd 5d c1 bb 42 fc a0 3b
       0.0076244855 0.0646823 -0.005901067 0.004912884
000080 ac 09 6d 3d be 82 4d bd 28 03 81 3d b1 3e 73 3d
       0.057870552 -0.050173514 0.0629943 0.05938596
000090 d8 c2 3f 3d 88 b7 88 bd d5 69 90 bd 28 ed 89 bd
       0.046816677 -0.06675631 -0.07051436 -0.06734687
0000a0 52 05 e3 3c 07 40 80 bd 4d 6d a0 bb 22 38 b6 3d
       0.027712498 -0.06262212 -0.004895842 0.08897425
0000b0 d2 c7 8a 3d 15 24 ef bb 92 78 70 bd 8d ed b2 bd
       0.06776394 -0.0072980025 -0.058708735 -0.087367155
0000c0 5b 0d 85 bd 44 3f 41 bd a8 bb 7d bc 3c 7e 8b 3d
       -0.06496688 -0.047179475 -0.015486635 0.06811187
0000d0 1d f1 4d bb 43 d7 f6 3c 4e e7 01 bc 89 f4 eb 3b
       -0.0031424232 0.030131942 -0.0079286825 0.0072007817
0000e0 69 de 98 3c 4a cd a4 bd da 23 30 3d 9c 74 67 bd
       0.01866074 -0.08046968 0.04300294 -0.05650769
0000f0 12 7e 8a 3d c9 34 a5 3d 6c b2 f2 bb 8f 62 11 3c
       0.06762327 0.080667086 -0.0074065235 0.008873596
000100 29 4b 6d 3d 3b c3 88 3d 3f d3 c2 3d 1a 6c 90 3b
       0.057933006 0.06677862 0.09512948 0.004407418
000110 4c 81 89 bd f3 1d a2 3d 8d 10 24 3d ce a5 35 3d
       -0.067141145 0.079158686 0.040054847 0.044347577
000120 5b a4 88 bb 5a 6d 9d bc 13 ea 92 bd 98 02 8a bd
       -0.0041699833 -0.019217182 -0.07173552 -0.06738776
000130 7f 99 d5 bc 85 90 a4 3d 16 9d ab bd 7a 8c 71 bd
       -0.02607417 0.080353774 -0.08379571 -0.05897186
000140 ba fd 0d 3d 20 e3 a6 bd a4 df ad 3d 77 80 1d 3d
       0.0346658 -0.081487894 0.08489922 0.03845259
000150 8f 14 92 3d df 87 9e bd b1 28 e9 3c 16 d3 3a bd
       0.071328275 -0.07740759 0.028461786 -0.045611463
000160 54 f7 11 3c 3c 99 91 bd 6b fc 00 bc d5 64 d1 3d
       0.008909065 -0.07109305 -0.007872681 0.1022431
000170 06 0b 2d 3d 3c f4 6e bd 33 76 07 bc 51 82 c5 3c
       0.04224684 -0.05833839 -0.008267927 0.024109991
000180 57 d1 dc 3d d7 7d 9f bb 18 60 cd 3c 6d f5 0d bc
       0.10782116 -0.004867296 0.025070235 -0.008664471
000190 0d 59 b8 3d fd c8 28 3d d7 86 94 bd 10 d3 45 bd
       0.0900136 0.041207302 -0.07252281 -0.048296988
0001a0 d0 97 8e bc a4 8f 68 bc 08 be a9 bc 48 94 7f bc
       -0.017406374 -0.014194403 -0.020720497 -0.015599318
0001b0 54 9b 30 3d d9 47 cc 3d 3f a4 29 3d 6b 52 61 bd
       0.043116882 0.09974641 0.041416403 -0.05501024
0001c0 26 2c 7e 3d 9e de c9 bc 3f 16 a1 3d f1 a3 0f bd
       0.062053822 -0.024642285 0.07865571 -0.035068456
0001d0 20 fc 27 bd 34 36 97 3c ca 21 94 3c 21 fe 1b 3d
       -0.04101193 0.018458463 0.018082518 0.038084153
0001e0 f2 81 49 3d ff c2 8b 3d 05 37 4c 3c 65 8a 04 bd
       0.04919619 0.06824302 0.01246429 -0.032358546
0001f0 ca c3 60 3d 7e 1a 5e bd 40 93 78 3d ba 7b 90 bd
       0.05487422 -0.054224484 0.060687304 -0.07054849
000200 ae 79 58 3c 2e e5 0e bd 0e 46 76 3d 23 9f 64 3d
       0.013212604 -0.03488653 0.060125403 0.055815827
000210 b0 95 88 bd ae 4c 5b 3d f0 7b fd 3c 04 9f 1f bd
       -0.066691756 0.053539924 0.030942887 -0.03897001
000220 b7 ed 8b bc 93 6e 94 3d da d0 54 3d 4c f6 bf bd
       -0.017081125 0.07247653 0.05195699 -0.09373149
000230 a3 1b a7 bd bf d5 8d 3d 8a b0 5a bd 00 41 a0 bb
       -0.08159568 0.069255345 -0.053391017 -0.004890561
000240 63 5f c3 bd bd bd a0 bd 00 f0 6b b8 02 93 7d 3d
       -0.09539678 -0.0784869 -5.6251884e-05 0.061907776
000250 04 fa 5a bd 6c 44 4b 3d 5f 22 77 bd 06 78 d6 bb
       -0.05346109 0.0496258 -0.060335513 -0.0065450696
000260 b9 1b da 3b 82 c1 32 3d aa b3 0a bd d5 02 32 3d
       0.006656137 0.043641575 -0.033862747 0.043459732
000270 5a fe 4b bd 02 08 21 3d 9b 70 55 3d 8b e5 12 3d
       -0.049803115 0.039314277 0.052109342 0.03586344
000280 94 38 a4 bd ec 50 f3 3c 25 77 8e 3b 3f 7c 10 3d
       -0.08018604 0.029701672 0.004347699 0.03527474
000290 80 46 7e 3d 33 da 76 3d a6 c8 82 3c f3 46 96 bd
       0.062078953 0.060266685 0.015964817 -0.07337751
0002a0 20 44 47 3d 0d 4a ef 3c 3d 71 46 bd 2d 70 a1 3d
       0.048648953 0.029210115 -0.048447836 0.07882724
0002b0 28 3e a8 3d da d9 f3 3c ca e7 95 bd a1 f8 97 3d
       0.0821498 0.029766966 -0.07319601 0.07420469
0002c0 3c 1a fb bc 73 fd bb bd de 61 ce bd be 68 13 3d
       -0.030652158 -0.09179201 -0.100772604 0.03598856
0002d0 41 16 4d 3c 6a 37 a9 3d 5a 7c 93 bc 03 55 9b bd
       0.012517513 0.082625225 -0.018003631 -0.07584574
0002e0 f0 42 42 3c b2 4b 12 3d 3b c3 af 3c c9 b1 38 3c
       0.011856779 0.03571672 0.021455398 0.011272856
0002f0 f6 be 4e 3d 05 92 a5 3d 38 13 9e 3d 31 2c 32 3c
       0.050475083 0.08084492 0.077185094 0.010874794
000300 9e c1 a0 bd 7f 5e bd bd 4f 9e 01 bd b3 43 07 3d
       -0.078494295 -0.09246539 -0.031645115 0.033023547
000310 0e 3d 5a bd d6 6c 99 bc 0b 20 00 3d 52 eb 96 bd
       -0.053280883 -0.018728655 0.03128056 -0.073691025
000320 56 8a 42 bc 58 d6 ec 3c 6c f5 33 bd 5b 05 26 3d
       -0.011873802 0.0289108 -0.043935224 0.04053245
000330 78 83 b9 bd 75 bc 70 3d 41 c6 b2 bd d4 97 9e bc
       -0.09058279 0.058773477 -0.0872922 -0.019359507
000340 53 51 51 3d 60 b7 0c bc 4a 09 69 3c f9 6d 85 3d
       0.051102947 -0.008588642 0.014223406 0.06515116
000350 1d 0a b2 bd 4f 25 26 bc 3e 6a 6f 3d e4 8f 11 bd
       -0.08693335 -0.010140731 0.05845093 -0.035537615
000360 e8 c2 8f 3d 91 b4 3c bd 9e 3d 26 3d ce 13 a5 bc
       0.07019597 -0.04607064 0.040586106 -0.020151045
000370 e8 2b 9a 3d 7b d6 77 bd 83 2d 64 bd ac 25 88 bd
       0.07527906 -0.06050728 -0.055707466 -0.0664781
000380 1a f8 d5 3c 0e 7c 03 bc 79 a9 9b 3d 40 fe 9d bd
       0.02611928 -0.008025182 0.07600684 -0.0771451
000390 e7 05 94 3c d4 b7 a9 bd 4b 68 4b 3d 5a 77 a0 bd
       0.01806922 -0.082870156 0.04966001 -0.078352645
0003a0 41 70 ac bc 00 9b ed 3c cc aa 9d 3d 19 d4 6a 3d
       -0.02104962 0.029004574 0.076985925 0.05733118
0003b0 6e 90 d2 bc a4 e8 de 3c 59 e7 33 3d 86 f3 d9 38
       -0.025703635 0.027210541 0.043921802 0.00010392726
0003c0 67 43 92 3d 40 20 2b bd 35 17 4b bd 27 eb 10 3d
       0.07141762 -0.041778803 -0.04958268 0.03538051
0003d0 4a 76 90 3d db e6 d3 bb a8 1b 30 bd c3 00 9d bd
       0.07053812 -0.006466729 -0.042995125 -0.07666161
0003e0 0a 35 4f bd 8c eb a5 bd 13 e1 08 bd 94 d5 c4 bc
       -0.05058769 -0.081015676 -0.033417773 -0.024027623
0003f0 3e 8d 53 bd ff e4 22 3c 72 0a 37 bd 8a a7 95 3c
       -0.05164837 0.009942292 -0.044687696 0.018268365

xy_encoder.flat_module.to_hidden.bias f4 [128]
000000 27 b5 b5 bc 03 c9 33 bc 39 2e 4f bb 06 4c d5 3c
       -0.022181107 -0.010973218 -0.0031613244 0.026037227
000010 ec 26 2b bc 7a d2 94 3b 43 a0 bf bc 3d e2 7d bc
       -0.010446291 0.0045416923 -0.023391848 -0.015495834
000020 13 36 85 bc dd ac 93 bc 7d 4a ab b9 59 9f 3a 3d
       -0.016261136 -0.018026764 -0.0003267116 0.045562122
000030 96 e1 3c bc 29 78 08 bc 0d 8a af bb ce 89 90 bc
       -0.011528393 -0.00832943 -0.005357033 -0.017643835
000040 c7 3a 6b bc b2 97 a7 bc 42 be ad bc 95 53 40 bc
       -0.014357275 -0.020458076 -0.021208886 -0.0117386775
000050 fb fb 04 3a 82 c8 8f bc 3f 4f 3d bc 26 fc 70 bc
       0.00050729484 -0.017551664 -0.011554538 -0.014708554
000060 20 a2 f0 bb 12 33 a2 bc d2 08 9c 3a cb 16 5b bb
       -0.0073435456 -0.019799743 0.0011904484 -0.0033430334
000070 24 0f 56 3d 19 c5 a0 bb 7c 96 87 bc 36 85 01 bc
       0.052260533 -0.0049063084 -0.016551249 -0.007905295
000080 1c b2 1e bc d3 4e a0 bb 53 14 ed bc 94 ca 65 bc
       -0.009686019 -0.004892209 -0.028940355 -0.014025349
000090 16 40 f8 bc 5d 5c 36 bc 19 e9 a3 bc 3c 4e 4b bc
       -0.030303996 -0.01113042 -0.02000861 -0.012408789
0000a0 de 8e 02 3d 06 f0 0e bd 2f 8c 93 bc eb 71 73 3c
       0.03187453 -0.034896873 -0.01801118 0.014858703
0000b0 13 1d fe 3a c2 75 49 bc 34 22 1c bc 5a 73 19 ba
       0.0019387327 -0.012296142 -0.009529639 -0.00058536755
0000c0 67 37 91 bc 75 be 21 bc dd 91 e0 bb 18 db e9 3b
       -0.017726613 -0.009872069 -0.0068533258 0.0071367137
0000d0 62 d1 6e bc ff 18 6a bc 8d 76 02 bc a5 21 08 bd
       -0.014576288 -0.014288186 -0.007962835 -0.03323521
0000e0 80 dc 49 bc f0 2d 76 bb c5 a4 39 bc 52 70 a0 3c
       -0.012320638 -0.0037564002 -0.011330788 0.019584808
0000f0 a7 8e 20 ba c2 05 a6 3c c2 1b 94 bb 9f 0c 55 bc
       -0.00061247725 0.020266417 -0.0045199106 -0.013003497
000100 78 27 7f bc 0e 24 b5 3c 77 4d 86 3c 29 ea 17 bc
       -0.015573375 0.022111919 0.01639436 -0.009272137
000110 a9 71 10 bd be 23 c0 bc 28 04 c4 bc 02 e0 13 bd
       -0.035264645 -0.023454543 -0.023927763 -0.036102302
000120 ad 67 e2 bc b3 4c e3 bc fe ad 5c bc a2 01 89 bb
       -0.027637327 -0.027746534 -0.013469217 -0.004181103
000130 19 e6 f6 ba 82 64 2e bc 5e 30 e3 bc 33 37 db bb
       -0.0018836885 -0.01064408 -0.027733024 -0.00668993
000140 36 13 b4 bc ba 3c bb bc be 44 0a bc 4b 3d ed bc
       -0.021981817 -0.022856105 -0.008439241 -0.02895989
000150 11 f7 35 bd b9 b4 a5 b8 1a cd 97 3c d5 cd ae 3b
       -0.044425074 -7.901475e-05 0.018530417 0.0053345957
000160 6d a0 34 bc 5b 11 3a bd 40 a6 98 3d 91 17 f4 3c
       -0.011024577 -0.045426708 0.07453585 0.029796394
000170 2a 15 bd bb 77 aa a2 3a 96 38 6c bc 3d 74 44 bc
       -0.005770345 0.0012410422 -0.014417788 -0.011990604
000180 26 c3 94 3c 42 f6 4b bc 12 55 09 bc f2 b3 1c bc
       0.01815946 -0.012448849 -0.008382099 -0.009564387
000190 20 32 1a 3b 94 47 90 3b 61 7a 22 bd af d2 c0 bb
       0.0023528412 0.004403064 -0.03966749 -0.0058844904
0001a0 a3 55 7a bc 8e 0c 14 bc ab 5e e6 bb 11 9c 70 bc
       -0.015279206 -0.009036196 -0.0070303283 -0.014685647
0001b0 1e 85 8d 3a d1 14 f8 bb 98 81 20 bc 3a e9 2a 3b
       0.0010797118 -0.007570841 -0.009796523 0.0026078955
0001c0 65 bb dc bb fd 66 a6 bc cd a6 62 bc 08 92 05 bd
       -0.0067362064 -0.02031278 -0.013833714 -0.03260997
0001d0 80 9f 80 bc 41 49 32 bd 4d 71 2f 3d a0 19 ab bc
       -0.015701056 -0.04352689 0.04283266 -0.020886242
0001e0 25 e3 f0 bb 2e cd 5f bc 1c aa 80 bc 5e 3f 9e bc
       -0.0073512965 -0.0136597585 -0.015706114 -0.019317325
0001f0 25 02 de 3c e0 65 1d 3c a4 41 bb 3c d9 13 16 bd
       0.027100632 0.009606808 0.022858448 -0.036640022

xy_encoder.flat_module.linears.0.weight f4 [128, 128]
000000 62 53 d7 bd 96 92 9b 3d 0f f9 87 bd fb d1 05 3d
       -0.10513951 0.075963184 -0.06639301 0.032670956
000010 2d e3 98 bd 63 01 4c bd ed a3 9b bd 46 a2 b6 3c
       -0.07465205 -0.04980601 -0.07599626 0.022294175
000020 ff af 36 bd c9 08 88 3d 41 a8 09 3d 41 07 f2 bc
       -0.044601437 0.06642301 0.033607725 -0.029544475
000030 c8 96 fd bd d5 16 d2 bc d8 c5 1e 3d 22 3a 4b bd
       -0.12382275 -0.025645653 0.038762897 -0.049615987
000040 4e 5b f5 3c 9c cf 5c bc 2c 9c f9 bc 4c 67 e4 bc
       0.029950764 -0.013477232 -0.030469976 -0.027881287
000050 9c ac ab 3d c2 4e c0 bc 60 24 6f bb 6a 2b 02 bd
       0.08382532 -0.023475055 -0.0036490187 -0.031779684
000060 65 a9 31 3c c7 54 6e 3d 9e 40 13 bd 83 c8 ce bd
       0.010843609 0.05818632 -0.035950296 -0.10096838
000070 ef 55 54 bd 0d b0 50 bd fc 27 d0 3c c7 b1 8e bd
       -0.051839765 -0.050949145 0.025409691 -0.06967502
000080 5d 5d a8 bd 94 bc fc bc 28 3d 1f bc 83 ad 7b bd
       -0.08220933 -0.03085164 -0.009719171 -0.06144477
000090 d4 0d e5 bc 75 77 75 bd 9e 3c a8 3d 34 5e 8c 3c
       -0.027960695 -0.059928376 0.08214687 0.017134763
0000a0 a4 31 7f 3d bc 0a 86 3d bc 05 f9 bc 76 98 b9 3d
       0.0623032 0.06545016 -0.030398242 0.09062283
0000b0 3b 70 c6 bd 25 28 9d bc 78 a1 93 bd fd cd 7e bd
       -0.09689375 -0.019184181 -0.07208532 -0.062208164
0000c0 fe a2 b1 bd 0b 44 8e 3c 27 ee 9a bd 9c 30 90 3a
       -0.086736664 0.01736643 -0.07564955 0.0011000815
0000d0 1f 98 40 3b 4c 54 dd 3c 8c bf 87 3d e3 d7 8b bc
       0.0029387546 0.027017735 0.066283315 -0.017070716
0000e0 4c 70 73 bd c5 3a b0 bd c4 5a 3f 3d 9a 6d 9c 3d
       -0.059433267 -0.086049594 0.04671742 0.07638092
0000f0 69 49 4c bd e9 f6 11 bd 57 08 73 3d 85 9d d4 bc
       -0.049874697 -0.035635862 0.059334125 -0.025954017
000100 e8 19 7e 3c 51 73 1d bd 86 41 9b 39 16 6c 79 bd
       0.015509106 -0.038440052 0.00029612723 -0.060894094
000110 ed ce 18 bd 07 7f 2a bb dd dd 53 3d 1b 5f 67 3d
       -0.037306715 -0.0026015656 0.051725257 0.056487184
000120 0e 6b 3e bc a1 21 9c 3d 86 6e 0f 3d 06 c8 52 bb
       -0.0116222035 0.07623602 0.035017513 -0.003216268
000130 5c 2e 03 3d 26 fd 87 3d e4 91 ab bd f4 3d 18 3d
       0.032026634 0.06640081 -0.08377436 0.037168458
000140 d8 b5 63 3d eb 22 f9 3b ae b5 1c bd ec 66 8a bd
       0.05559334 0.0076030395 -0.0382592 -0.06757912
000150 4e 94 5c bd 85 4e 76 3d 01 6b 13 3d 55 6d 30 3d
       -0.053852372 0.060133476 0.03599072 0.043073017
000160 b0 9b 32 3d d6 89 de bc 23 42 9c bd 25 47 e3 bd
       0.043605506 -0.027165335 -0.07629802 -0.11097554
000170 e9 bf 13 3d 41 70 3c 3d 56 58 e4 bc c1 4e 8e bd
       0.03607169 0.04600549 -0.027874153 -0.06948615
000180 0b 37 e6 bc 81 b4 08 bd 96 14 56 bd 75 ee ee bc
       -0.028102418 -0.033375267 -0.052265726 -0.02916644
000190 e0 fa 23 bc 92 d4 0e 3b 86 35 1b bd 24 24 e2 3c
       -0.010008544 0.0021794182 -0.03789284 0.027605124
0001a0 01 81 87 3a b1 e2 db bc 7d e6 19 3d 3e 50 29 3d
       0.0010338129 -0.026841493 0.037573326 0.04133629
0001b0 18 d6 4c bc e9 35 79 3c 24 07 36 bd ca d3 99 3d
       -0.012502216 0.015210607 -0.044440404 0.07511099
0001c0 07 77 09 3d e0 54 78 bd de ad 06 3d e0 10 09 3d
       0.03356078 -0.060627818 0.032880656 0.03346336
0001d0 cc f4 a2 3c 52 2f 9b 3d 43 17 c4 3b 36 cd 2f bd
       0.019892119 0.07577385 0.0059842183 -0.042920314
0001e0 0e cb 54 3d 34 48 b2 bd 3a ac 99 bd 82 b1 5b bd
       0.05195146 -0.08705178 -0.07503553 -0.05363608
0001f0 34 59 8d bd 9b 9f 1e 3d a1 c0 91 bb 33 1f 57 bd
       -0.0690178 0.03872643 -0.004448012 -0.05251999
000200 df 94 d0 3c e3 f5 4a bd 13 5a d5 3c 31 68 bd 3a
       0.025461612 -0.049550902 0.026043927 0.0014450607
000210 f6 24 a1 3d ea 63 ff bc 8b 73 76 3d e8 07 b3 bd
       0.07868378 -0.031175572 0.060168784 -0.08741742
000220 49 a9 8b bd ff 34 83 3c 23 c7 45 3c 4e 04 d2 bd
       -0.06819398 0.016016481 0.012071404 -0.10254727
000230 a7 0e 48 bc 17 77 4e bd 68 62 90 3d 2b 8a 44 3d
       -0.012210525 -0.05040654 0.070500195 0.04798333
000240 f3 ac bf bb cd bd 7a 3c 92 26 bc 3d e7 2e 95 3d
       -0.0058494746 0.015304041 0.09187044 0.072843365
000250 68 f7 3b bd 05 a2 af bd 40 fb bb ba fe 60 a5 bd
       -0.04589024 -0.08575825 -0.0014341846 -0.080751404
000260 b1 b0 ab 3d a2 59 3b 3d ef 05 76 bd e5 20 74 bc
       0.083833106 0.045739777 -0.060064252 -0.014900421
000270 43 e5 55 bd 32 8b 65 bd df 09 9d bd e1 31 04 bd
       -0.052220594 -0.05604095 -0.076678984 -0.03227413
000280 25 11 7a 3d 08 20 33 3d 90 c5 85 bd 9d e1 ed 3c
       0.061051507 0.04373172 -0.06531823 0.029038245
000290 d6 67 9c 3b 5b 1f 36 bd cc e6 82 bd f0 6f fe bc
       0.0047731204 -0.044463497 -0.06391677 -0.031059235
0002a0 c9 b0 d1 3b 74 a6 bb 3c f9 0d 1b 3d c0 52 ff bb
       0.0063992483 0.02290652 0.037855122 -0.007791847
0002b0 95 9e 74 3d 99 f7 a8 bd 35 2e a8 bd 84 b6 50 bd
       0.059721548 -0.082503505 -0.08211938 -0.05095531
0002c0 b6 8d 63 3c 52 16 dd 3c 0b f6 fb bc 7f 7c 2b 3d
       0.013888767 0.026988182 -0.03075697 0.041866776
0002d0 b4 cb 2d 3d 56 e2 44 3d cb 68 50 bd ac e2 e8 bc
       0.042430595 0.048067413 -0.05088119 -0.028428398
0002e0 69 d2 35 bd 7d 51 19 3c ca 4d a1 bc 25 38 8e 3c
       -0.044390116 0.009357807 -0.019690413 0.017360756
0002f0 85 10 f5 3b 59 a5 18 bd 24 dd 38 3d 8d 9f 0a 3d
       0.007478776 -0.037267063 0.04513277 0.033843566
000300 4b 70 a4 3d 55 79 9e 3d ad 67 3f bd 92 12 89 3d
       0.08029231 0.07737986 -0.046729732 0.06692995
000310 10 79 70 3c ed d2 c5 3a 2d 62 96 3d b3 61 3d 38
       0.014677301 0.0015092768 0.07342944 4.51521e-05
000320 39 cc 97 3c 7a fa 4c 3d cc 10 bc 3d 5a 95 2e bd
       0.018529998 0.05004356 0.09182891 -0.0426229
000330 14 4e b8 3d 2b 9d 77 3c 88 a1 54 3c 57 21 9a bd
       0.08999267 0.015113155 0.012977965 -0.0752589
000340 8e 88 90 3d 74 59 ae bd 0c f8 b0 bd 80 d8 8c bd
       0.07057296 -0.085131556 -0.08641061 -0.068772316
000350 89 50 9d 3d a9 48 b8 bd ad 9e 99 bd 84 12 c7 3c
       0.076813765 -0.08998234 -0.07500968 0.024300821
000360 26 65 31 3b 30 7a 16 bc cb 34 94 3d 62 9d 83 bd
       0.0027068346 -0.009184405 0.07236632 -0.06426503
000370 68 c7 f9 3c c8 d0 40 3d c9 6d 18 bd 40 85 00 3d
       0.030490592 0.04707411 -0.037214074 0.031377077
000380 99 69 d8 bd ed e6 e4 3c 3d cb ad bd 10 c4 7f 3d
       -0.10567016 0.027942145 -0.0848603 0.06244284
000390 eb 49 68 bd b4 e9 74 3d d5 31 5c 3c 61 84 63 3d
       -0.05671112 0.05979319 0.013439615 0.05554617
0003a0 d3 79 a2 bd f0 ad a8 bc ce c8 6c 3d 8a 20 9b bd
       -0.079333924 -0.020590752 0.05780869 -0.07574566
0003b0 b4 35 36 bd d8 4a c8 3b 5d bb 33 3d 00 70 06 3d
       -0.04448481 0.0061124377 0.043879855 0.032821655
0003c0 b4 d7 5c 3d 12 f3 45 bd e9 a3 b0 bc 8e 14 8e bd
       0.053916648 -0.048327513 -0.021562533 -0.06937514
0003d0 86 0a 03 bd 48 cc 75 bc bc f6 1f bd d8 4d da bd
       -0.031992458 -0.015002318 -0.039053664 -0.10659379
0003e0 b9 c6 a9 bd 12 4a 92 bd 8b ed 80 3d 85 23 46 3d
       -0.082898565 -0.07143034 0.06295308 0.048373718
0003f0 99 46 ae bd 90 b2 bf bc 72 d2 3e bd 70 63 f8 3c
       -0.08509559 -0.023400575 -0.046587415 0.030320853

xy_encoder.flat_module.linears.0.bias f4 [128]
000000 01 5e ff 3a c9 13 03 3c ba 4c 8a 3c 9e d3 cf ba
       0.0019482971 0.008000323 0.01688229 -0.0015855914
000010 00 3a 07 3d da 72 02 3d 4b 67 f8 bb 76 0c f2 bc
       0.033014297 0.031847812 -0.007580673 -0.029546957
000020 03 94 c4 bb 71 a8 26 bc 94 32 fd 3c 77 c2 42 bc
       -0.0059990897 -0.0101719955 0.030907907 -0.011887184
000030 d3 60 13 bd 00 98 1a bc 2f b3 fd bb cd b1 95 3c
       -0.03598101 -0.009435654 -0.0077423076 0.018273259
000040 5b 27 68 bb 18 2e 69 bd db c7 5d bc 84 be 9d 3c
       -0.0035423848 -0.056928724 -0.013536419 0.019255884
000050 8f cb 3a bd f6 38 9c bb 6d 17 1a 3d 67 25 19 bd
       -0.045604285 -0.0047675325 0.037619997 -0.037389185
000060 71 b3 28 3d 90 ef 36 bd cf 61 4c 3c cf 9a 72 bc
       0.041186754 -0.04466206 0.012474491 -0.014807417
000070 15 0c 0c bd a5 a2 4f bc 09 fd ad ba 35 58 2a bc
       -0.03419121 -0.012673055 -0.0013274263 -0.010397007
000080 0b 2a da bc ea ed 00 3d c1 cf 55 bc 5f e5 69 bc
       -0.026631376 0.031476893 -0.013050021 -0.014275878
000090 75 48 86 bb 23 46 2f bc aa af 48 bd 54 0e 96 3b
       -0.004097993 -0.010697874 -0.04899565 0.0045793448
0000a0 de 77 08 bd 00 00 00 00 e9 71 3f bd 09 b8 a2 3d
       -0.03331744 0.0 -0.046739493 0.07945258
0000b0 d8 f8 7e bc 0b f8 56 bd 9c b3 19 bd 91 22 b5 3a
       -0.015562259 -0.052482646 -0.037524804 0.0013819506
0000c0 76 76 91 bb d1 2f d5 3c 69 9f fc bc 4e dd 46 bc
       -0.0044391705 0.026023777 -0.030837731 -0.012137724
0000d0 23 67 81 3d a5 d5 a5 bc 75 67 ce 39 5f 4b e3 bb
       0.063185 -0.020243475 0.00039368463 -0.006936475
0000e0 64 6b ca bc df 35 ac bc 86 8b c4 bb 5e 1b b2 bc
       -0.024709411 -0.021021781 -0.005998078 -0.021741565
0000f0 5d 09 1c bc de ee 9c bc 7c 6f 95 bc a6 21 c2 bc
       -0.009523717 -0.01915687 -0.018241636 -0.023697685
000100 f2 b9 87 bb 9a d4 69 bc 00 00 56 bc 52 b2 96 bc
       -0.0041420395 -0.01427188 -0.013061523 -0.018395577
000110 32 d6 61 bc e9 03 5c 3c 30 f6 f3 bb 8e f3 89 3d
       -0.013783978 0.013428667 -0.0074451193 0.067359075
000120 72 2f b7 bb 9f 4c 3b bd 48 ad c1 bc fe 4d 22 bd
       -0.0055903727 -0.04572737 -0.023642197 -0.03962516
000130 2b a5 32 3c b7 f2 21 bc 5b ab 42 3d 93 63 23 bc
       0.010903637 -0.009884528 0.0475267 -0.009972471
000140 5b 69 d4 bc 79 a4 6d 3c d9 ac 3f bc d5 86 05 bb
       -0.025929144 0.014504545 -0.011698925 -0.0020374556
000150 44 8b d7 3d 1e fa 87 b9 22 74 02 bd 72 14 67 3c
       0.1052461 -0.00025935558 -0.031849034 0.014103996
000160 05 f0 06 bd f1 3e d0 bb f9 18 21 bc 28 7a 53 3c
       -0.032943744 -0.0063551595 -0.009832614 0.012907542
000170 7f 36 02 3c 0a 62 81 bc 4a 89 02 bc 07 1e d6 bc
       0.007947563 -0.015793819 -0.007967303 -0.026137365
000180 bd 35 4a bd ed cb ab bc 4a c1 13 bc 74 f0 17 bd
       -0.049367655 -0.020971263 -0.009018252 -0.03709455
000190 4c a6 c2 bc 4e 17 8f bb 48 0f 4e bc 7d f6 af bc
       -0.023760937 -0.004366792 -0.0125768855 -0.02147984
0001a0 79 ad 1f 3d f6 84 c4 bb a6 8e e5 bc a8 32 67 bb
       0.038983796 -0.0059972955 -0.028022122 -0.0035277996
0001b0 ad 4e 28 bc f0 d5 63 bc 70 29 96 bb c1 42 eb bc
       -0.010272664 -0.013905987 -0.0045825765 -0.028718354
0001c0 5b ce a7 3b 9d 89 ce bb 54 a7 f7 ba d5 77 94 bc
       0.005121035 -0.006303026 -0.0018894472 -0.018123547
0001d0 42 8e 3f 3c 74 e9 0c bc 2b 6f c3 bc cf 38 4f 3c
       0.011691632 -0.008600581 -0.02385672 0.012647822
0001e0 d5 04 28 3a ee 3c 05 3c 45 72 0f bc 3c fc 18 bc
       0.00064094114 0.008132203 -0.008755271 -0.009337481
0001f0 6c 8c 18 3d 9d 6d 4f bc 6d 1f 1e bc 0a fc 9e bc
       0.03724329 -0.012660411 -0.009651047 -0.019407291
