results/notebooks/neural_process/cnp_noisy-matern/params.pt (torch_old, 399464 bytes, 28 tensors)

x_encoder.to_hidden.weight f4 [32, 1]
000000 86 62 af bf fb 35 d3 bf 65 57 2e 3f 9a 4f 23 3e
       -1.3701942 -1.6500849 0.68102103 0.15948334
000010 83 93 9c 3f 40 12 03 c0 19 55 08 40 98 66 b1 3e
       1.2232517 -2.047989 2.130194 0.34648585
000020 f8 5b f9 3f 8d 87 86 bf 78 24 1d c0 1c 3c 29 c0
       1.9481192 -1.0510117 -2.4553509 -2.6442938
000030 1a b0 fe 3f 5e 14 99 3f bc ad 10 c0 68 f6 01 c0
       1.9897492 1.195934 -2.260604 -2.0306644
000040 5b 3f 07 40 57 97 82 3f f5 93 94 3f f8 ec 96 bf
       2.113242 1.0202435 1.1607653 -1.1791067
000050 22 78 f2 3e a6 46 df 3f 56 52 59 3f 1f 71 80 3f
       0.4735728 1.7443435 0.8489126 1.0034522
000060 9b 3d cc bf 92 06 e7 3f 0d f1 ad bf 33 80 1b 40
       -1.59563 1.804888 -1.3589188 2.4296997
000070 3e 79 d4 3e ca 2c 88 3f ef 0f 85 bf 65 00 04 c0
       0.4149875 1.0638669 -1.0395488 -2.062524

x_encoder.to_hidden.bias f4 [32]
000000 6c 63 c3 be 93 cc 82 be 14 51 80 be 6a b3 b0 bd
       -0.3816179 -0.25546703 -0.25061858 -0.086279705
000010 46 d6 da bd ce 55 48 bf 87 6c 6f be 95 bf 03 3f
       -0.10685401 -0.7825593 -0.23381244 0.51464206
000020 20 1c c4 3d cf 7e 5d be 13 4e 3a bf 72 02 0d bf
       0.09575677 -0.21630405 -0.7277538 -0.55081856
000030 bb 6a 8f be db ef e1 be b7 b7 53 be 55 f0 18 3e
       -0.28011116 -0.44128308 -0.2067555 0.1493543
000040 7e 81 99 be 67 4f f9 be ff 57 0e bf de 91 d9 bd
       -0.29981607 -0.48693392 -0.5560302 -0.10623525
000050 1c e6 46 bd ce 85 28 be 32 77 80 be b0 17 e9 bc
       -0.048559293 -0.16457292 -0.2509094 -0.028453678
000060 b3 de 13 be 4b 67 2a bf 29 25 3c 3e 1e 36 1e bf
       -0.14440422 -0.6656386 0.1837355 -0.61801326
000070 09 ba 4d 3d 27 29 6a bd f2 0f 06 bd 0b 91 68 bd
       0.050226245 -0.057168152 -0.03273005 -0.05677895

x_encoder.out.weight f4 [128, 32]
000000 94 2a ed 3e f5 18 d9 3e 98 bd 9b 3e 88 05 f5 be
       0.46321547 0.42401853 0.30418086 -0.47855783
000010 36 56 43 bf 7e 2a cb 3e 0c da f8 be c4 21 5f bf
       -0.7630342 0.39680856 -0.48603857 -0.871609
000020 eb 76 d7 be 33 aa 13 3e 08 eb 10 3f d4 1d 0a 3f
       -0.42082915 0.14420395 0.5660863 0.53951764
000030 09 c8 58 be d1 76 b7 3d 19 c1 12 bd 1c cd 96 3e
       -0.21170057 0.08958209 -0.035828684 0.2945336
000040 1b 41 47 bf 0a 44 b4 be 2e 8b 68 be e9 84 02 be
       -0.7783372 -0.3520816 -0.22709343 -0.12746014
000050 bf 3e b5 be 1f cf 47 bf 9d 49 d5 bd 3e 7f c3 be
       -0.35399434 -0.78050417 -0.10414431 -0.38183016
000060 1e 6b 98 3e a2 7b 49 bd 4b 86 af be 18 55 bd 3c
       0.29769224 -0.04919017 -0.34282145 0.023111865
000070 6d 96 5a 3e 97 bf 26 be 02 e0 ae 3d 0a b5 6b 3e
       0.21346445 -0.16284023 0.0853882 0.2301828
000080 2c 80 15 3d 00 f0 8a 3d 87 7f 12 be fa ae 7b be
       0.036499187 0.067840576 -0.1430646 -0.24578467
000090 54 54 06 bf 52 12 eb 3e 07 bc 75 bf 63 2f 17 be
       -0.52472425 0.45912415 -0.9599003 -0.1476417
0000a0 44 c1 95 bb 11 90 dc 3b 3e 08 a5 3e 00 6b 30 3e
       -0.004570158 0.0067310412 0.3223285 0.17228317
0000b0 16 92 30 bf 68 9c f2 3d ec 87 36 3e b2 42 fe be
       -0.6897291 0.118462384 0.17825288 -0.4966026
0000c0 d6 11 29 bf c3 5c 7f 3d 7d 5b bf 3e 78 e7 2f 3d
       -0.6604284 0.062344324 0.37374488 0.042945355
0000d0 cf f2 29 bf 77 6c 22 bf c1 67 6e be 3d 28 e8 bd
       -0.6638612 -0.63446754 -0.23281766 -0.113358
0000e0 31 ac 44 be ba b5 51 3d e9 2f 83 be 75 df eb 3c
       -0.19206311 0.0511987 -0.2562249 0.028793076
0000f0 58 67 0b 3f 62 62 23 bf 6c 57 22 bf 6f 10 27 bf
       0.54454565 -0.63821995 -0.63414645 -0.6525945
000100 c9 62 f7 be f8 44 c2 3d 6e c1 a4 bc 56 17 7f 3e
       -0.48317555 0.09485811 -0.020111766 0.24911246
000110 a9 3b 94 be 0a 92 94 be d1 ab fa be 3e bd 3c bd
       -0.28951767 -0.2901767 -0.4895921 -0.046078913
000120 75 6d 03 be bc 79 ca bd 4f dd 1f bf 96 7e 2d be
       -0.12834723 -0.098865 -0.62447065 -0.1694282
000130 a6 34 b9 3e 85 70 32 be 83 5e 9c 3e 23 e4 ea bd
       0.3617298 -0.17425735 0.30540857 -0.11469295
000140 d5 86 27 3e d6 04 4b be 85 7d 3a bd 50 cb a6 be
       0.16360028 -0.19826064 -0.04552986 -0.3257699
000150 2c 46 9d 3e 25 b2 9a be 3b d1 09 bf 9f e9 9c be
       0.307176 -0.30214038 -0.53834885 -0.3064699
000160 78 d1 9a 3d ab db bf 3e 0e 82 45 3e 2a d7 04 bf
       0.07559484 0.3747228 0.19287893 -0.51890814
000170 95 cf 00 bf e9 42 15 3e 36 b3 65 be 82 7e 94 be
       -0.50316745 0.14576305 -0.22431645 -0.29002768
000180 83 79 2a 3d 40 49 e6 3e ff 37 4b 3e 4f 28 21 3e
       0.04161979 0.4497776 0.1984558 0.15738033
000190 e9 b7 6f be 62 a9 2b 3d 75 aa 8d 3e ca c4 2a 3d
       -0.2341 0.041909583 0.2766911 0.04169158
0001a0 66 03 97 3e 20 4b 66 3e 8a 66 93 3e fc 24 2e bc
       0.2949478 0.22489595 0.2878917 -0.010628935
0001b0 f4 d8 37 3c da fe d9 3e 07 49 a5 3e ae 44 cb 3d
       0.011221159 0.4257725 0.32282278 0.09925209
0001c0 e5 e9 03 3e 96 a9 37 3e cd e6 0c bc 9a 19 53 be
       0.12882192 0.17935786 -0.008599949 -0.20615235
0001d0 78 c8 41 3d 5b 19 bd 3c 07 28 fe 3d 57 96 46 3d
       0.047310323 0.02308338 0.12409978 0.04848322
0001e0 d6 0f e5 3e 3f 03 0d 3e 21 71 b4 be a6 28 cd 3d
       0.44738644 0.1377077 -0.3524256 0.10017519
0001f0 84 6b c5 be aa 12 a2 3e d3 99 cb 3e 5d ae 45 3e
       -0.3855859 0.31654865 0.39765796 0.19304796
000200 79 f0 9f bd b5 29 b1 bb 3c 43 3f be 47 e6 8e 3c
       -0.078095384 -0.005406583 -0.18677992 0.01744379
000210 2e 4a 2c 3d 0e 05 c8 3e ed d8 9b 3c 4d f5 5b bf
       0.04206293 0.39066356 0.019024337 -0.85921174
000220 35 c6 83 3c e3 cb 50 bd 72 c2 97 3d 06 38 db 3e
       0.016085723 -0.05097569 0.074101344 0.4281618
000230 34 0f c3 3e 4e 68 3e be 24 b4 e0 3e 3d c3 9e 3e
       0.38097537 -0.18594477 0.43887436 0.3100833
000240 4d ee 60 be 9c 31 c2 3e 00 85 56 be 17 83 9b 3e
       -0.21965905 0.37928474 -0.20949173 0.3037345
000250 a3 4c 88 be ed b1 20 bd 06 d4 cc be a0 7b c4 be
       -0.2662097 -0.039232183 -0.4000551 -0.38375568
000260 c4 d4 81 be 50 27 dd be be db 8d 3e d1 7c 99 3e
       -0.2535764 -0.43194056 0.27706712 0.2997804
000270 dc d3 dd 3e fb 9b cb bd e6 d6 3f 3d e0 e8 bc 3e
       0.43325698 -0.0994186 0.046835802 0.3689642
000280 6f d3 eb be a7 ea d2 be 47 cf 0c bf 64 9b 8c be
       -0.4605975 -0.4119465 -0.5500378 -0.27462304
000290 23 e4 cb 3d 20 75 bc be c6 2f c5 3d cc ba ba 3e
       0.09955623 -0.3680811 0.09628253 0.3647064
0002a0 b4 e6 8e 3e fe fb 5b bf a3 9d 34 bf 52 2a 51 bf
       0.27910388 -0.85931385 -0.70553035 -0.817052
0002b0 8c 65 7f 3e c8 21 ad be c3 98 0a be 4e fc 7b bd
       0.24941081 -0.33814836 -0.13534836 -0.061519913
0002c0 37 06 29 be 81 4b 80 bf 5e 74 99 bf c0 5b 99 3b
       -0.16506277 -1.0023042 -1.1988637 0.004680127
0002d0 a7 e5 a5 be 89 4a 71 be 4b 41 f0 be cc 33 91 be
       -0.32401773 -0.23563589 -0.46924815 -0.2835983
0002e0 f8 f3 db 3d b8 8d 19 bf 8e 39 ff be 92 bb 9e be
       0.10739893 -0.5998187 -0.49848598 -0.3100248
0002f0 07 eb bf be dc d1 a6 be 10 b2 12 be 8f ca 71 be
       -0.37484 -0.32581985 -0.14325738 -0.23612426
000300 01 27 99 bd f4 a3 ff bd 3a f1 d6 3e b8 85 28 3e
       -0.074781425 -0.124824435 0.41980916 0.1645726
000310 ac 27 01 be 50 7a 6a 3e 74 7b a7 3e 31 aa dd bd
       -0.1261279 0.22898221 0.32711375 -0.10823477
000320 15 f0 23 be 2b 40 6a be 53 f0 b7 be 9f c7 84 3e
       -0.16009553 -0.2287604 -0.3592554 0.2593355
000330 b9 aa ce 3e a3 e7 c6 3e ff 58 98 3e 3d 75 5f 3d
       0.40364626 0.388486 0.297554 0.054555167
000340 2d 1c e8 3e 7c b1 cd 3e 6b e6 8b 3b cc 09 89 be
       0.45333996 0.40174472 0.0042694113 -0.26765287
000350 37 45 9d 3e 61 dc 88 3d 37 0e 10 be 71 bd 70 3d
       0.3071687 0.06682659 -0.14067923 0.058774415
000360 a4 f9 4a 3e 88 76 8a 3e 64 a5 22 c0 66 7c 92 3e
       0.19821793 0.27043557 -2.5413446 0.28610533
000370 b8 34 42 be 20 fb d1 3e 4c 13 98 3b 00 b6 ff bd
       -0.18965423 0.41011906 0.0046409722 -0.124858856
000380 f9 85 8b be f2 a1 ac 3d 6a ac 3f be 7a c5 8b 3e
       -0.2725065 0.08429326 -0.18718114 0.272991
000390 10 75 4f be 3a 2e 95 3c c8 c5 00 be d8 dd cd 3e
       -0.202595 0.01821052 -0.12575448 0.40208316
0003a0 50 58 f2 bd 81 80 e0 3e 3d 71 b6 be f3 f9 da 3d
       -0.118332505 0.4384804 -0.3563327 0.10692205
0003b0 e4 15 4a be ae bb 5a bf 1b 3f 67 be 6c 98 b5 3d
       -0.19734913 -0.85442626 -0.22582667 0.08866963
0003c0 5d cd d6 be 6d 30 83 bf a6 d1 9d bf 8d 42 a0 3e
       -0.41953555 -1.0249153 -1.2329605 0.31300774
0003d0 bd 0a 71 be 0e b1 c8 be 25 2a a0 be 8c cc a5 3e
       -0.23539253 -0.39197582 -0.31282154 0.3238262
0003e0 46 2c 79 be d4 86 0b bf 01 b7 65 be e1 b7 49 3e
       -0.24333295 -0.54502606 -0.22433092 0.1969905
0003f0 f1 be 51 3e f9 b7 d1 bb e5 ab 85 bd e3 4f 78 be
       0.20482995 -0.006400105 -0.06526927 -0.24249224

x_encoder.out.bias f4 [128]
000000 b0 cc 8f be 74 a9 94 3d 6b 5e 44 3d fc b4 0d be
       -0.28085852 0.07258883 0.047941606 -0.13838571
000010 85 e6 b4 be 72 ab 85 3d ac ce 4c be 7e 1d c0 3c
       -0.35332122 0.06526841 -0.20000714 0.023451563
000020 20 c8 f5 3d 89 65 e4 3d 21 28 b3 3d dc 5a e8 bc
       0.120010614 0.11152179 0.08747888 -0.028363638
000030 ec 27 03 3f d6 a8 74 be e2 40 81 3d 34 47 7b bd
       0.5123279 -0.23892531 0.063112035 -0.0613472
000040 ba bd 87 be f1 f2 65 be 7e af 1e 3e 42 86 8b 3b
       -0.26511937 -0.22455956 0.15496632 0.004257948
000050 01 36 d5 be 85 b3 6b 3d 2d d0 03 be e9 7a 8c 3b
       -0.41642764 0.05754425 -0.12872382 0.004287113
000060 41 d7 63 bb 18 b7 bc 3d 28 ea 20 3e 66 a9 de be
       -0.0034765752 0.0921461 0.15714324 -0.43488616
000070 e1 d8 39 3d 60 fa 65 be 0f ba a9 bd 29 f3 ab be
       0.045372847 -0.22458792 -0.08287441 -0.33583954
000080 d2 f5 84 3d 22 1e 64 be 3b 0d 02 3e 04 5c 84 3e
       0.06492199 -0.2227712 0.1270036 0.25851452
000090 6e f3 83 be 4e b5 aa 3e ba 6c aa be a8 a3 64 3e
       -0.2577166 0.3334145 -0.33286077 0.22328055
0000a0 20 28 3c 3d 24 8e 1c be 15 7e b9 be 44 75 c4 3c
       0.045936704 -0.15288597 -0.36229005 0.023981698
0000b0 86 64 90 3d a6 1c 72 be 56 e1 8c 3d 6f a2 0f 3e
       0.07050423 -0.23643741 0.06878917 0.14026807
0000c0 46 10 e8 3d 98 87 a4 be 09 63 13 3e 97 12 46 3c
       0.11331229 -0.321347 0.14393248 0.012089393
0000d0 2c f5 06 3e 15 7c 82 be ba c2 ca bd dc bb 91 bd
       0.13179463 -0.25485292 -0.099004224 -0.071159095
0000e0 7d 50 2a be 2c bc f2 3d 79 8e 2f be d4 4b 6f be
       -0.16632266 0.11852297 -0.17144193 -0.2336877
0000f0 e0 2d 6b 3d ae 6f a9 be 84 7b 68 3c 85 9a a2 bd
       0.057416797 -0.33093017 0.014189605 -0.079396285
000100 61 ca ed bc 59 d1 93 be a6 7a 87 bd 4d 91 d7 be
       -0.029027166 -0.28870657 -0.0661519 -0.42103043
000110 74 9e 9e bd 0f 62 9a be 7f c5 c6 bd 76 11 d6 bd
       -0.07745066 -0.30152938 -0.09705638 -0.10452549
000120 eb a9 a9 be 2c 1a aa 3d 85 d7 ca be 92 f4 1d be
       -0.3313745 0.08305773 -0.39617553 -0.15425327
000130 5b 25 77 bd d9 07 30 be 0a 99 89 3d ce d4 a7 bd
       -0.06033836 -0.17190494 0.06718643 -0.08194886
000140 52 60 1c 3c e6 a6 1b 3e 01 96 c6 3d 0a 9c a6 3d
       0.009544449 0.15200385 0.0969658 0.08135231
000150 f0 62 97 3d 47 e8 d9 bd e0 bd c9 be 1e 03 96 be
       0.07391918 -0.106400065 -0.39402676 -0.29299253
000160 08 85 7b 3d b7 75 b7 be 5e 5f bd be 74 61 82 bb
       0.061406165 -0.35831997 -0.36986822 -0.0039789025
000170 48 e7 f9 3e d5 97 e1 be 0d 05 f3 3d 9b ed b5 bd
       0.48809266 -0.4406115 0.11866198 -0.0888321
000180 11 93 cc 3d 7d 43 9e bd 15 8d d3 bd bd 5d d1 bd
       0.09988988 -0.07727716 -0.10329644 -0.10222957
000190 a4 f8 9f 3d 5c d8 22 be 98 7e 80 3d 50 6b 8b be
       0.07811096 -0.15902847 0.06274146 -0.2723031
0001a0 d0 1b 19 be 6a 1b 89 bd 8e 6f f9 3d 8f ef 4d 3e
       -0.14952016 -0.06694682 0.121794805 0.20110916
0001b0 13 0e 22 be 8c a8 24 3d 69 d4 88 bd 46 15 78 be
       -0.15825681 0.0401998 -0.06681139 -0.24226865
0001c0 01 bf 19 be 70 2c f3 3c 1f dc 9c bb 72 81 57 bd
       -0.15014268 0.029684275 -0.0047869827 -0.052613683
0001d0 e0 7a ff bd b8 0d 32 be e2 c7 97 be 4e 0f d2 3e
       -0.124746084 -0.17388046 -0.29644686 0.41027302
0001e0 af 17 c8 3d 4f 24 ce 3c 20 58 82 be 7b 46 36 bb
       0.09770142 0.025163798 -0.2545786 -0.0027813006
0001f0 56 0d 7e be 46 d9 2b bf 27 60 12 be 0b 9b 17 bd
       -0.24809775 -0.6712841 -0.14294492 -0.037013095

xy_encoder.resizer.to_hidden.weight f4 [32, 1]
000000 05 17 cd 3f 0c 95 ba 3f cf ed 64 bf 89 a9 8c 3f
       1.602265 1.4576735 -0.8942537 1.0989238
000010 2b 90 b3 3e 13 5e 23 bd 68 6a b9 3f 3a 30 35 bd
       0.3507093 -0.039884638 1.4485598 -0.044235446
000020 73 d0 0b bf d8 bd c8 bf 43 da ad 3d 3c 9b e4 bf
       -0.54614943 -1.5682936 0.08488896 -1.7859874
000030 8a 6a cd bd ac f6 18 3d c4 fc 21 3e cc 9b 89 3e
       -0.10030086 0.03734462 0.15819079 0.26876676
000040 f2 85 2d bc 8e 23 32 bf 48 9c 4c 3d 33 96 95 be
       -0.010591017 -0.695855 0.04995373 -0.29216155
000050 7a 57 e1 3f 65 11 43 3f 03 4e b5 bf 12 72 ab 3f
       1.7604821 0.76198417 -1.4164432 1.3394186
000060 ab 2e 48 3f e5 38 7c bf 41 9b b4 3f 95 7b c3 3f
       0.7819621 -0.98524314 1.410988 1.5272089
000070 1e b9 2d be 97 b8 d9 be 58 a0 82 3e 65 d8 e7 bc
       -0.16965148 -0.42523643 0.25512958 -0.028301427

xy_encoder.resizer.to_hidden.bias f4 [32]
000000 bf 5f 2b bf 3e e3 12 bf 87 6b f5 bd b0 b2 d8 3e
       -0.6694297 -0.57377994 -0.119834 0.42323828
000010 fe 80 cd be d5 e2 6b be df 5f 03 bf 43 ea 73 be
       -0.40137476 -0.23035748 -0.5131816 -0.23819833
000020 ac ab 4d 3e 32 6f 53 bd cc 91 d5 3d 32 30 2b bf
       0.20085019 -0.051619716 0.10428199 -0.66870415
000030 9b 90 66 3f 08 77 58 be 90 b3 12 3e 2f c7 f5 be
       0.900644 -0.21139157 0.1432631 -0.48003528
000040 60 bf c7 bd ab 91 25 3e 71 6f a7 be 1c 95 04 bf
       -0.09753299 0.16168849 -0.3270221 -0.5179002
000050 35 ce e2 be 94 99 b2 3c 0f 11 ea bd ca 97 f4 bd
       -0.44297948 0.021801747 -0.11429035 -0.11943014
000060 71 27 11 3d 04 41 10 bf 84 72 f8 be 0c 13 23 bf
       0.035438005 -0.56349206 -0.48524868 -0.6370094
000070 69 ed e6 be 82 a1 e6 be d9 30 8d be 34 26 38 be
       -0.45103005 -0.45045096 -0.2757633 -0.17983323

xy_encoder.resizer.out.weight f4 [128, 32]
000000 4e 13 97 bd d5 fd b2 be 31 b5 16 bf 0b f6 e0 3e
       -0.07376729 -0.34959283 -0.58870226 0.43937716
000010 f3 df a3 3c 73 fa 16 3f f1 6e a6 3d 37 ec 91 be
       0.020004248 0.58975905 0.08126629 -0.2850053
000020 5e 2b 16 bf 3f f2 2c 3e ae e3 a1 be 45 5c 31 3e
       -0.58659923 0.16889285 -0.31619018 0.17320354
000030 d0 91 ef be 98 b6 18 be 2d 29 e9 3e b4 c7 ba bd
       -0.46790934 -0.14913404 0.45539227 -0.091201216
000040 91 1a 71 3e cb 84 d1 be d0 d1 35 be c2 c0 e2 3e
       0.2354529 -0.40921625 -0.17755818 0.44287688
000050 54 d1 b7 3e f7 e8 81 be d8 48 1e bf eb 8e 5f 3d
       0.35901892 -0.2537305 -0.618299 0.054579657
000060 1d ff 6f be 4a de 22 be fd 57 6f be 64 ab d6 bc
       -0.23437162 -0.15905109 -0.23373409 -0.026204772
000070 1f ed d1 3f 5d 99 5c 3e f8 d5 1e bc 19 d0 78 3e
       1.6400489 0.21542878 -0.009694569 0.24298133
000080 bc 8a 50 3d a8 7b 36 3c 20 fd 55 be 1e 7a bc 3e
       0.050913557 0.01113788 -0.20897341 0.36811918
000090 50 a3 cc be f1 cf 6a 3d 57 60 b4 be 7b b9 42 be
       -0.39968348 0.057327215 -0.3522975 -0.19016068
0000a0 32 2d a9 3e 47 85 b5 3c 30 5d a8 be 7b 83 94 be
       0.33042294 0.022158278 -0.32883596 -0.29006562
0000b0 46 aa b7 3e 35 a3 3f 3e be f0 c3 be 69 dd 2d bd
       0.35872096 0.18714602 -0.3826961 -0.04244748
0000c0 40 c0 b2 be 49 00 8a bd 07 55 9a 3d d7 7d 8b be
       -0.349123 -0.06738336 0.07535749 -0.27244446
0000d0 86 c5 0f bf e9 c8 a7 be 0e 20 8d be b9 57 0a bf
       -0.5616077 -0.3277047 -0.27563518 -0.54040104
0000e0 62 c1 a2 be b5 88 1f bf 69 a4 03 bf b1 d4 4d bf
       -0.31788164 -0.62317973 -0.51422745 -0.80402666
0000f0 8c 2f 1d bd 6b 0b 4f bf 69 43 c3 be e5 ac ba be
       -0.038375422 -0.808768 -0.38137367 -0.36460033
000100 f2 76 2b be 09 76 fd bd f3 f1 f2 be 13 28 c7 bd
       -0.16744593 -0.12376029 -0.47450218 -0.097244404
000110 9e 66 89 3e 06 22 01 bf da d0 7a be 00 44 a9 3e
       0.26836103 -0.5044254 -0.24493733 0.33059692
000120 74 1b 59 be a9 7c 65 bd 2e 45 c0 3c a6 3d 86 be
       -0.21201879 -0.05602709 0.023470487 -0.2621891
000130 4b b9 31 3e ea 6e 16 be 0c 4f b5 be 29 a0 1e bf
       0.1735584 -0.14690748 -0.3541187 -0.61963135
000140 74 a6 71 bd 62 6b 84 3e 0a 3e 48 3e fd 3e 6c 3d
       -0.058996633 0.25863177 0.19554916 0.057677258
000150 31 63 4d be 5a 21 4e be 5e 69 0d bf 09 fd 26 3d
       -0.2005737 -0.2012991 -0.552389 0.040768657
000160 27 ff 27 be 15 1e 89 be c1 e8 56 bd fe 85 5d be
       -0.16405927 -0.26780763 -0.052468065 -0.21633145
000170 85 75 23 bf 63 ec c0 bd 3b 05 a5 3a 13 d9 61 3e
       -0.63851196 -0.09420087 0.001259006 0.22055463
000180 a7 2a 34 be 42 7c bc 3d 77 99 a3 3e 32 68 88 be
       -0.17594396 0.09203388 0.31953022 -0.26641995
000190 f5 31 4c be 48 fe 0b be 80 6d c1 ba a4 52 9e 3e
       -0.19940932 -0.1367122 -0.0014757365 0.30922425
0001a0 f5 72 52 be 7b 20 d3 3b 34 bb 5c be cc 0c 62 be
       -0.20551665 0.006443081 -0.21555787 -0.22075194
0001b0 f5 49 da bd 8d 02 29 be 83 80 24 be 5e c6 43 bf
       -0.106586374 -0.1650488 -0.16064648 -0.7647456
0001c0 bd f9 2e 3e 9d 34 bf be 83 be f6 3d 49 53 6b 3e
       0.17087455 -0.37344828 0.12048056 0.2298099
0001d0 03 f3 b9 be 2f 66 b4 3e 53 7c 45 3c db ff c4 3d
       -0.36318216 0.3523421 0.012053567 0.09619113
0001e0 54 b7 0f 3e ba f4 a9 be 95 2c 0d 3e 72 7d 51 3e
       0.14034778 -0.33194524 0.13786538 0.2045801
0001f0 b1 cc 8f be 02 32 81 3e ec 5b 44 bd 24 b9 3a be
       -0.28085855 0.25233465 -0.047939226 -0.18234688
000200 74 2f 5b be 05 e8 60 bd 03 21 b6 be f0 e9 16 bf
       -0.2140482 -0.05490877 -0.3557206 -0.5895071
000210 1c f4 d9 bc 80 f5 54 3e 28 5f 10 bf 13 00 cc be
       -0.026605658 0.20796776 -0.56395197 -0.39843807
000220 67 c2 85 be 75 e5 4f be 17 48 c5 be ca 2b 0b 3e
       -0.2612488 -0.20302375 -0.38531563 0.13590923
000230 d0 8e 22 3d b7 46 cb be f1 10 49 bf d7 72 f3 3d
       0.039686978 -0.3970239 -0.78541476 0.11887138
000240 fa 85 67 3e 44 7a 88 3e 33 2c 3d be ae 63 2d bf
       0.22609702 0.2665578 -0.18473892 -0.67730224
000250 6f e5 31 bf dd 49 90 be 0a 3a 78 3d 6b 9d 24 bf
       -0.6949071 -0.28181353 0.060602225 -0.643027
000260 c2 3c 45 be 4f 26 1c bf e0 63 23 bd 15 94 d5 3d
       -0.19261459 -0.60995954 -0.03989017 0.10428635
000270 28 a1 b0 be ad 35 db be e7 b9 a8 be b9 d3 57 be
       -0.34497952 -0.4281439 -0.32954332 -0.2107686
000280 38 ed 3a be 4d 67 41 3e 67 04 73 bc e4 2e 50 3e
       -0.18254554 0.18887062 -0.014832593 0.20330387
000290 54 23 0d be 0a cd b5 be a2 db 4a bd e3 81 cf 3e
       -0.13783008 -0.35507995 -0.049525864 0.40528783
0002a0 db dc 1b bd c7 7d f7 be 03 4b 84 3e c5 4b ae bd
       -0.03805242 -0.48338148 0.2583848 -0.08510546
0002b0 22 1b e5 3d ad 99 31 be c1 18 49 be 46 31 7a bd
       0.11186816 -0.17343779 -0.19638349 -0.061082147
0002c0 31 1d d1 3e 1d 2a 24 be bf 5e 1d 3d 5f 35 3b 3e
       0.40842584 -0.1603169 0.038420435 0.18282078
0002d0 47 85 87 3d 89 10 98 3e 47 c5 81 3e 72 c4 5a bd
       0.066172175 0.29700115 0.25345823 -0.05341
0002e0 80 f4 84 3e 7d d6 1c bf bb 85 ab 3e 78 d8 aa 3e
       0.2596779 -0.61264783 0.33500466 0.33368278
0002f0 4c 1c 40 be f0 b9 2a bf ad 36 bb 3d 47 a5 a0 be
       -0.18760794 -0.6668997 0.09141288 -0.31376097
000300 02 d2 b9 be 51 b6 49 be c8 db 44 be 1d ef ac 3d
       -0.36293036 -0.19698454 -0.19224465 0.08444045
000310 2e ce ad bd 50 b0 b4 be b3 e8 c7 3e 38 86 bc 3e
       -0.08486591 -0.35290766 0.39044723 0.3682115
000320 52 e8 1f 3e d4 88 09 bd ef 4d 1c 3e 50 8d 14 be
       0.15615967 -0.033577755 0.15264104 -0.14507031
000330 e5 0b 90 3e 4b 33 e9 be 91 e3 a4 3e 01 04 88 be
       0.28134075 -0.45546946 0.3220487 -0.26565555
000340 fb 85 aa 3a c5 c4 ac be 52 69 8e 3c d0 a6 bd 3d
       0.00130099 -0.33743873 0.017384205 0.092603326
000350 60 bd 8c 3e 00 a1 51 be de 68 bc 3e 72 e0 bb be
       0.27488232 -0.20471573 0.36798757 -0.36694676
000360 82 af d0 3d f3 f9 8f 3d b9 f7 b9 be 86 1f c6 bb
       0.101897255 0.07030096 -0.3632181 -0.0060462384
000370 cb c6 2f 3e a2 49 4d be c2 91 ab 3e 41 1f 7a 3d
       0.17165677 -0.2004762 0.33509642 0.061064962
000380 c0 01 70 be c7 88 86 be 22 08 c5 be 49 f6 da be
       -0.23438168 -0.26276228 -0.38482767 -0.42766026
000390 a6 21 76 be 56 86 13 be 4c fa ca 3e 90 20 c9 bd
       -0.24036273 -0.14406714 0.39644086 -0.09820664
0003a0 d6 9f 7a 3e 80 77 75 bd 10 69 1c be c3 4d d8 be
       0.24475035 -0.059928417 -0.15274453 -0.42246827
0003b0 88 f5 95 be 4b 88 5b be 2e fa 77 be e0 5a b7 bc
       -0.29288888 -0.2143871 -0.2421653 -0.0223822
0003c0 07 41 85 3e e4 19 b2 be 90 18 7b bd a6 24 c4 be
       0.26026174 -0.34785378 -0.06130272 -0.3830921
0003d0 1e 3b 42 be 96 92 3c be bc ff 76 be 0c f9 01 3e
       -0.18967864 -0.18415293 -0.24120992 0.1269266
0003e0 a1 56 4e 3b d4 4d c1 be e5 0a 73 be d1 ac 96 be
       0.003148474 -0.3775469 -0.23734625 -0.29428723
0003f0 98 66 4d 3e 6c 10 d5 3d 1e 42 a6 3e fd 55 be 3e
       0.20058668 0.10403523 0.32472318 0.3717498

xy_encoder.resizer.out.bias f4 [128]
000000 93 f9 64 be d0 76 c0 3d c6 74 e6 bd 06 0e fb bc
       -0.2236083 0.09397662 -0.112527415 -0.030646335
000010 19 a3 62 be 64 1d 04 be 88 e3 76 bd 37 16 45 bb
       -0.2213253 -0.12901837 -0.060275584 -0.0030073056
000020 55 e1 ee 3c 17 fe 04 bd 21 e6 52 3d 4d 8a 81 3d
       0.029160181 -0.03246888 0.051489 0.06325207
000030 03 e5 5a 3f e1 e9 7e be d2 b2 5a be c3 fb f4 bb
       0.85505694 -0.24893905 -0.21357277 -0.0074763014
000040 8e 7b 1e bf 36 70 24 bf bc 8e 5d bd b4 47 48 bc
       -0.6190728 -0.6423372 -0.0540912 -0.012224127
000050 56 b3 0f bf cf 16 0b bd a3 41 71 3d b6 3f 0e be
       -0.5613302 -0.0339573 0.058900487 -0.13891491
000060 46 dd 18 be 71 68 c8 be 90 ae 1c bd 1c f3 ee be
       -0.14928159 -0.39142182 -0.038252413 -0.46669853
000070 82 2c e2 3c 80 cd 1f bf 4f a8 45 be 76 9a ea be
       0.027609114 -0.62422943 -0.19302486 -0.4582097
000080 a2 af 45 be 02 d7 3b be 72 83 1c be 2e b2 84 3e
       -0.1930528 -0.18343738 -0.15284517 0.2591719
000090 a1 2d 88 bd ec 3e c0 3e b4 42 c4 be 5c 4e a0 be
       -0.06649328 0.37548006 -0.3833214 -0.31309783
0000a0 86 c7 f3 bd ba e8 1d be e7 64 2f bf d2 74 d2 bd
       -0.119032905 -0.1542081 -0.6851334 -0.10276188
0000b0 e0 28 90 bd 4a 8a a1 be 9c cd 19 bd ca 3d 85 be
       -0.07039046 -0.3155082 -0.0375496 -0.26023704
0000c0 b2 dd fa bd d6 33 dd be a5 64 ed 3e 69 04 42 3d
       -0.12249316 -0.4320361 0.46365848 0.047367487
0000d0 33 fa 27 3d 79 68 e9 bd 9e 94 ca bd bf ba b8 bb
       0.041010093 -0.1139688 -0.09891628 -0.0056374962
0000e0 94 b8 d0 be b3 fa 76 bd 9f 78 2f be fb 16 0f bf
       -0.40765822 -0.06029768 -0.17135857 -0.5589444
0000f0 29 59 6d 3d 81 5f 3b be 90 d1 3c 3e 9a a3 02 be
       0.057946358 -0.1829815 0.18439317 -0.12757722
000100 6f 1d 7c be 67 81 8a be 53 79 0d bc 9b 05 2b bf
       -0.24620603 -0.2705185 -0.008634883 -0.6680543
000110 42 0c 9e bd 5b 08 36 be 21 3f 38 be 60 a5 6f be
       -0.07717182 -0.17776625 -0.17992832 -0.2340293
000120 6f 0d 06 bf c9 87 75 3b 52 3a 38 bf d2 55 d4 be
       -0.5236425 0.0037464967 -0.7196399 -0.41471726
000130 b0 4d 52 be 87 a6 2f be 9c 08 26 bd 47 91 a9 bd
       -0.20537448 -0.17153369 -0.040535554 -0.082796626
000140 46 dc a1 be cd 08 ba 3e 92 78 f5 bd e7 73 99 3d
       -0.31613368 0.3633484 -0.119858876 0.0749281
000150 99 e1 0e bf 68 2e e2 bd 4a cf 59 be 85 54 49 be
       -0.55812985 -0.110440075 -0.21270481 -0.19661148
000160 51 1d bb bd 18 34 9e be f3 4a d0 be de 49 4e be
       -0.09136451 -0.3089912 -0.40682182 -0.20145366
000170 61 b5 03 3f e9 45 b6 be 56 9b a1 bd 00 00 00 00
       0.5144864 -0.35600212 -0.07890956 0.0
000180 93 4e 03 3e 9f 69 c7 bd af 27 c8 bd 00 00 00 00
       0.12822942 -0.097369425 -0.09773194 0.0
000190 2c 89 6c bd ec 56 18 be 57 e2 0b be 49 a5 6e be
       -0.057748005 -0.14876908 -0.1366056 -0.23305239
0001a0 8f ac 9e be 6d 59 75 bd ec 9f f9 3d ae 23 5d 3d
       -0.30991027 -0.059899736 0.12188706 0.053989105
0001b0 a5 29 21 be 74 cd d4 bd 4e eb 43 be 17 0c 9a 3d
       -0.15738542 -0.103907496 -0.1913273 0.07521837
0001c0 7d 30 97 be 31 57 67 be c0 ce 5a 3c 66 d9 7a be
       -0.2952918 -0.22591855 0.013354957 -0.24496993
0001d0 89 3e fd bd 8c 44 31 be c6 2b ad be 09 a8 d2 3e
       -0.12365443 -0.17311305 -0.3382246 0.41143826
0001e0 f2 05 0b 3e 3c 2d 20 3c 3e 13 8b be 76 3c 8d bd
       0.13576487 0.00977641 -0.27163118 -0.06896298
0001f0 0a 72 3c bf 81 d4 f0 be 6d 6b 1c be 4d af de bc
       -0.7361151 -0.47037128 -0.15275355 -0.0271832

xy_encoder.flat_module.to_hidden.weight f4 [128, 128]
000000 c0 4c ab be b0 a2 fb be 70 ec 08 bf 8e fa c6 bd
       -0.33456993 -0.49147558 -0.53485775 -0.09715758
000010 b3 43 51 be 2a 7f 43 3d cf 53 d0 bd 44 43 27 be
       -0.20435981 0.047728695 -0.10172235 -0.16334254
000020 7d 12 1f 3e c6 61 e6 bd a2 67 78 3e ba 0e 47 bd
       0.15534396 -0.112491176 0.24258283 -0.04859803
000030 21 66 ba bd 03 d3 48 bf 84 53 b0 bd 62 d4 81 3d
       -0.09101511 -0.7844698 -0.08609679 0.06339337
000040 2d d2 e3 bc f2 ec 80 bd de ef c1 3e 2e f5 c9 3d
       -0.02781018 -0.06295194 0.37878317 0.098612174
000050 39 c5 15 bd 17 81 39 be 28 5b 3c 3e 90 bd d7 bc
       -0.03656504 -0.1811565 0.18394148 -0.026335508
000060 f3 4c bd 3d 9b 8e 63 be 8e 33 a0 be e1 30 29 3e
       0.092431925 -0.22222368 -0.31289333 0.16522552
000070 2b 28 a9 be 7f c2 0f 3e c9 34 e7 be a5 ee e6 3c
       -0.33038458 0.14039038 -0.4515746 0.028189966
000080 19 d7 3b 3e 42 e8 28 3d 40 dc 30 be 1f 70 88 bd
       0.18343772 0.041237123 -0.17271519 -0.066620104
000090 f3 b0 03 bf 11 b1 29 3e b2 f2 43 3d d8 04 0f bd
       -0.5144188 0.16571452 0.047838874 -0.03491673
0000a0 92 73 3a be 46 ff d7 bd 13 5f 50 be 1a 9f 4e 3e
       -0.18208149 -0.105467364 -0.20348768 0.2017788
0000b0 74 ca a6 bd f8 22 ad bd 88 ee d2 be 1d 34 d9 3c
       -0.081440836 -0.084539354 -0.4119761 0.026514107
0000c0 f2 7a 9c 3c 6b d4 f6 bd db 83 8d 3d 89 90 cf be
       0.019101594 -0.12052234 0.06909915 -0.4053996
0000d0 a8 e3 65 3d 94 3e 13 bd 2d 0b 04 3d fd ae 4d be
       0.056125313 -0.03594835 0.03223722 -0.20086284
0000e0 cf ed 7f 3d 1b f3 e4 be 8e 97 a2 3d cf db cb bd
       0.06248265 -0.44716725 0.07939063 -0.099540345
0000f0 be d9 77 be 8a 3f 90 3d 1d bd 9f be 3a 2a 1f be
       -0.24204156 0.07043369 -0.3119897 -0.15543452
000100 9c db 24 3e 78 67 1f be 5a 47 26 bd f2 70 e6 bd
       0.160994 -0.15566814 -0.04059539 -0.11252011
000110 60 80 ae 3d b7 75 cf bc 80 73 86 bd 18 3e 54 bc
       0.08520579 -0.025324685 -0.065649986 -0.012954257
000120 7f 42 30 be 21 53 63 bd a5 35 70 3d d6 fd e3 3c
       -0.17212866 -0.0554992 0.05864491 0.027831
000130 ca aa 2e 3e 73 8e 64 3e d1 c7 9a be 8b aa 93 3d
       0.17057338 0.22319965 -0.30230573 0.07210263
000140 47 8f b1 be 74 89 9a 3e a4 56 bc 3d f4 82 25 3e
       -0.34679624 0.30182993 0.09196213 0.16163236
000150 e0 fe e6 be 77 64 ff be 66 a4 1c be eb 6d 67 be
       -0.4511633 -0.49881336 -0.15297088 -0.22600524
000160 1a a1 b5 bc 55 4b 39 be 62 ac ac be 23 73 b3 3d
       -0.022171546 -0.18095143 -0.33725268 0.08762195
000170 3b 5c 62 3d c6 84 20 be 23 38 83 be d1 ac 0e 3e
       0.05526374 -0.15675649 -0.25628766 0.13933112
000180 c5 08 ab 3e 46 9a 64 3e ba ad f0 bd ac 0a 6b 3d
       0.33405128 0.22324476 -0.11751886 0.057383224
000190 c1 eb 24 3c 0e f3 10 be 9f d6 e8 3d 42 03 c4 bd
       0.010065974 -0.14155218 0.11369061 -0.09570934
0001a0 14 cf 18 be c9 2b 7d bd 52 4c e7 be eb d4 eb 3d
       -0.14922744 -0.061809335 -0.45175415 0.1151522
0001b0 54 99 15 3d 3a a5 4e be 17 42 4d be 95 ae e6 bd
       0.03652318 -0.20180216 -0.20044743 -0.11263768
0001c0 90 f0 a1 be b8 0d 29 3e 80 c3 f3 3b cb 8f a7 be
       -0.31628847 0.1650914 0.007439077 -0.32726893
0001d0 57 a8 d4 bc ea 3f d4 bd 0c 3f 5a be 21 a7 55 be
       -0.025959177 -0.10363753 -0.21313113 -0.20864536
0001e0 74 f1 ad bc 1b b5 0f bd 45 9b ed be 70 ec 54 bd
       -0.021233298 -0.035084825 -0.46407524 -0.051983297
0001f0 71 d6 3f be 65 97 60 be f2 2a 40 bf 38 8c 95 3d
       -0.18734147 -0.21932752 -0.7506553 0.07302135
000200 13 a2 fb 3d f3 9e 6c be 9a c8 3c be a6 01 52 3e
       0.122867726 -0.2310751 -0.18435898 0.20508441
000210 a1 72 d0 bd 75 0d b6 be 28 c6 e7 bd 28 f2 a6 bd
       -0.10178114 -0.35557142 -0.11317092 -0.081516564
000220 e1 16 1b 3e f9 15 e5 bd 68 f5 c2 bd 69 50 56 be
       0.15145446 -0.111858316 -0.09519464 -0.20929112
000230 67 d1 da bd 1e a6 3b be b6 56 8d 3d 00 c0 1e be
       -0.106844716 -0.18325087 0.069013044 -0.1550293
000240 55 a1 b9 bc 14 26 30 be 64 74 f6 bd eb e4 cb 3d
       -0.022659937 -0.17202026 -0.120339185 0.09955772
000250 96 70 22 be 41 5d 98 3d e7 24 55 be 89 02 f0 bc
       -0.1586326 0.07439662 -0.20814858 -0.029298084
000260 a6 60 6a bd 00 4b 00 3e 59 3d 3f be ba 45 90 be
       -0.057221077 0.1252861 -0.18675746 -0.28178197
000270 fd bf 81 3d 50 84 a0 be ed f1 6d be 71 54 86 bd
       0.06335447 -0.31350946 -0.23236819 -0.06559075
000280 d7 b2 55 be 9e f2 5f bd a9 8d 73 be 78 29 bd bc
       -0.20869003 -0.054674737 -0.23784508 -0.023091063
000290 7e 33 7c 3c 6b 6d 2c be 91 03 c0 bd 83 bb 10 bd
       0.015393136 -0.16838615 -0.0937568 -0.035335075
0002a0 a0 46 b0 bc 60 2c aa 3d 1c 64 b2 bd ef 10 78 3d
       -0.021518052 0.08309245 -0.087105006 0.060563024
0002b0 76 e3 b9 3d 1c 67 8e 3e 13 95 62 3e a8 ff cd 3d
       0.09076588 0.2781304 0.2212718 0.10058528
0002c0 16 6c 0b be c8 a1 44 3c ff d4 d2 be 6e fc 10 3d
       -0.1361545 0.012001462 -0.41178128 0.035396986
0002d0 d4 d4 72 be 15 7f 3f be 9d b9 49 3e f2 6a e2 3d
       -0.23714 -0.18700822 0.19699712 0.110555544
0002e0 19 10 6d 3b 63 61 58 be f8 72 e2 3d d7 88 57 bd
       0.0036172925 -0.211309 0.11057085 -0.052620735
0002f0 b0 56 e8 bc 3d e6 02 bf ff f6 ce 3d aa 3b ab 3d
       -0.028361648 -0.51132566 0.101057045 0.083609894
000300 c5 45 30 3e 93 db 8e 3d 90 45 bc bd fb d2 28 be
       0.17214115 0.06975474 -0.091929555 -0.16486733
000310 6a f4 1b be 02 f9 3c be 5e 89 f7 bd 65 04 9e 3d
       -0.15229955 -0.18454364 -0.120867476 0.07715682
000320 ee e7 bd bd a5 2d 1d 3c fe 69 ef bd 41 7b 2d 3e
       -0.09272753 0.009593402 -0.11690138 0.16941549
000330 6e 76 4b be 11 99 ce bd fd ae b6 3c 86 89 9b be
       -0.19869396 -0.10087789 0.022300238 -0.3037836
000340 55 bc 90 be 5c cf b6 3c b4 77 39 bd 30 60 32 be
       -0.28268686 0.022315674 -0.045280173 -0.17419505
000350 ce be c3 be d9 ed fb 3c 3a 12 30 3d a1 3f 44 3b
       -0.3823151 0.030753063 0.042986132 0.0029945152
000360 47 d4 28 3e b2 58 71 3d 4c c3 4b be c7 03 02 3e
       0.16487227 0.058922477 -0.19898719 0.12696753
000370 83 71 3d bf 95 bb 96 3e 56 85 d6 3d 20 ea d7 3c
       -0.7400133 0.2943999 0.104746506 0.026356757
000380 d8 15 c3 bc bc f6 45 3d 06 31 86 3d 52 61 35 be
       -0.023814127 0.048331007 0.06552319 -0.17712906
000390 16 be fd 3d 02 bb 7f bd 16 2d 85 bc 16 12 20 3e
       0.12389772 -0.062434204 -0.01625685 0.15631899
0003a0 89 dd 31 3e 1a f9 65 be af a6 76 be 51 f4 ef bd
       0.17369665 -0.22458306 -0.24087022 -0.117165215
0003b0 e1 60 d4 3c b4 19 2e 3e be 63 8f bd 2c 63 1e be
       0.025925102 0.17001992 -0.07001446 -0.15467519
0003c0 4c bb b2 bd 30 81 e9 bd 15 a9 1c 3e 84 02 6a be
       -0.0872713 -0.11401594 0.15298875 -0.22852522
0003d0 98 e3 57 be ee 2e 05 3e e9 f0 78 be 21 f6 e7 3d
       -0.21082914 0.13006184 -0.2431065 0.11326242
0003e0 c9 f6 1a bf 69 04 34 bf 4d 13 d5 bc 04 67 10 bc
       -0.60532814 -0.7031923 -0.02601018 -0.008813623
0003f0 4e 59 e6 bd 2c 5b 93 be 7c e9 4e be 63 a6 25 3e
       -0.11247502 -0.28780496 -0.20206255 0.16176753

xy_encoder.flat_module.to_hidden.bias f4 [128]
000000 6a 77 53 3c 53 f0 da 3d 5a 3a b5 3d 1d e5 56 be
       0.0129068885 0.106903695 0.0884902 -0.20985837
000010 43 bc 88 3d 3e fa 98 be 08 ce a9 bd 34 92 99 3a
       0.06676533 -0.2987842 -0.082912505 0.0011716546
000020 9e ba ed bd 27 1d 12 be 32 03 d3 bd e7 c1 d5 3d
       -0.1160786 -0.14268933 -0.10303344 0.104373746
000030 e2 be ef be 57 8e a0 3e b8 62 2b be 33 f2 2c be
       -0.4682532 0.31358597 -0.16736877 -0.16889267
000040 c5 fe de bd 86 dd a3 be 85 cb 82 3c 65 ac 3a bd
       -0.10888437 -0.32004946 0.015966186 -0.045574564
000050 40 66 84 3d d4 b4 5f bd 18 50 f0 3e 31 8a 80 bd
       0.06464815 -0.05461581 0.46936107 -0.06276358
000060 63 7b 3e bb 2f 31 fa bd f5 a4 fc be fb 92 30 bd
       -0.0029065243 -0.12216412 -0.49344602 -0.04310892
000070 14 c5 e7 bd f3 d4 cd bd d0 64 d1 bd be 65 b4 bd
       -0.113168865 -0.100503825 -0.102243066 -0.08808468
000080 a9 82 9d bd c7 38 90 bd ec 79 23 be 1c f5 5c bc
       -0.07690937 -0.070420794 -0.15964478 -0.013486173
000090 7e b0 72 bc 12 f4 43 bd bd 46 f0 bd d5 ba e9 be
       -0.014812587 -0.047840185 -0.11732242 -0.45650354
0000a0 f1 b4 0e bf 8c 87 14 3c ba 67 de bd 0f ca e0 bd
       -0.55744845 0.00906552 -0.10859628 -0.109760396
0000b0 ed bb f8 bd 68 d4 5b 3d 8b 7d 86 3d 4c 33 96 be
       -0.12145219 0.053669363 0.06566914 -0.2933601
0000c0 22 56 db bd 42 bc 41 bd 01 b5 c4 ba cb 5a 52 bd
       -0.10709788 -0.047298677 -0.0015007557 -0.05135612
0000d0 33 bf b7 bd 2f 39 20 bd d9 4a 21 be ed d5 cc bc
       -0.08972015 -0.039117035 -0.15751208 -0.025004352
0000e0 42 f4 fb bd c2 3d a6 be 53 af de 3d 0f 21 9a bd
       -0.12302448 -0.32468992 0.10873284 -0.07525837
0000f0 72 c3 0d be ac fb d8 bd 09 fd e8 be 87 fe 0e bc
       -0.13844088 -0.105948776 -0.4550555 -0.008727676
000100 42 01 48 bd 36 64 35 3c a8 d8 c9 bd 3a 0d 63 bc
       -0.048829325 0.011071255 -0.09855777 -0.013858134
000110 9a 71 d9 3c 0b c6 1f 3d 76 42 16 3d 35 f8 69 bd
       0.026543427 0.039007228 0.036684476 -0.057121474
000120 4f e6 21 be d9 12 b7 be 82 f5 32 3c eb 96 8c 3d
       -0.15810512 -0.35756567 0.010922791 0.06864723
000130 88 cc 65 3d e3 a7 77 be 25 39 92 bc a5 53 91 be
       0.05610326 -0.24185137 -0.017849514 -0.28384128
000140 e9 82 68 bd 54 08 1a 3d 3e 21 3f be cf 5a 83 bd
       -0.05676547 0.0376056 -0.18665025 -0.06413805
000150 7a b5 cf bd 9a 28 fc bd 78 1b 25 bd 6f ff 01 be
       -0.10142036 -0.12312432 -0.0403094 -0.12695096
000160 02 a7 6e bd 63 16 1e be d0 fc 5f bd 07 64 90 bd
       -0.05826474 -0.15438227 -0.05468446 -0.07050329
000170 ae 6b db be f6 00 a8 bd 07 9d 83 bd b7 ec 4c bc
       -0.4285559 -0.08203308 -0.06426435 -0.012507609
000180 c1 f2 05 3d 0b e8 14 bd 85 2b cf bd 15 f4 f0 bd
       0.03270221 -0.036354106 -0.101157226 -0.11765305
000190 cc 25 d9 bc c8 6b f5 bc 39 36 1c bd c5 97 12 bd
       -0.02650728 -0.02995862 -0.03813765 -0.03578927
0001a0 98 5c 08 3d 5d c8 77 bd 93 b9 bb 3d 6d 4a 31 3d
       0.03329143 -0.060493816 0.09166255 0.04328387
0001b0 f1 cc 7d bd 22 61 e8 bb dc 33 38 bd 73 1f e3 3d
       -0.061963025 -0.0070916573 -0.044971332 0.11089983
0001c0 ab 35 ae be e9 bb 3d bd ec 01 e0 bd 9c 8c 34 bd
       -0.3402532 -0.046321783 -0.109378666 -0.044079408
0001d0 3a 06 7f bd 24 58 ba bd 3e 5e 71 be 75 a7 89 3c
       -0.062261797 -0.09098843 -0.23571107 0.016803483
0001e0 83 4b f2 bd 93 a3 53 bd b7 6b 4e be f5 d3 a1 bd
       -0.11830809 -0.05166967 -0.20158277 -0.07901756
0001f0 e8 e0 24 bd ed cd 63 bc a3 28 cc bd 8e 12 91 bd
       -0.04025355 -0.013904077 -0.09968688 -0.07083617

xy_encoder.flat_module.linears.0.weight f4 [128, 128]
000000 b0 f3 2b be 00 66 be bc d0 cd 2d 3e 6f be 32 3d
       -0.16792178 -0.023241997 0.16973042 0.043638643
000010 13 3e cb bd 01 43 8e be 72 92 3d 3e 2a 2c f0 bd
       -0.09923949 -0.27785495 0.18512896 -0.117271736
000020 95 6b ca bd 5f c4 94 bd 29 26 03 3e 07 3d 4a be
       -0.09883801 -0.07264017 0.12807526 -0.19749843
000030 33 99 aa 3c 9a 69 1d be 52 f3 46 bd 02 b5 42 3d
       0.020825004 -0.15372315 -0.048571892 0.047535904
000040 59 f3 52 3e d8 81 95 bd 12 a6 ba bb d7 a5 a6 be
       0.20600642 -0.07300156 -0.0056960667 -0.325484
000050 8e 42 2a bd 34 1c 42 bd 25 db 22 bf ee 67 f8 3d
       -0.041567378 -0.047390178 -0.6361564 0.12129198
000060 34 93 40 be 41 8b 33 bf 48 b9 86 be 52 08 11 be
       -0.18806154 -0.7013436 -0.26313233 -0.1416333
000070 34 90 99 3d 56 8b 02 bf f2 91 c5 3d 0f cb 8a 3e
       0.07498208 -0.5099386 0.096469775 0.27108046
000080 bf b0 37 3e f5 2a 5c be 5b 3c 29 bd b4 ad 3b bd
       0.17938517 -0.21500762 -0.041317325 -0.045819953
000090 2c f7 67 be 1a 72 41 bd b4 fa c5 bd 09 c1 69 be
       -0.22652882 -0.047227956 -0.096669585 -0.22827543
0000a0 6d 0f ba 3d 57 03 ca 3d e2 80 1d 3d c1 03 4e 3d
       0.090849735 0.09863918 0.03845299 0.05029655
0000b0 b4 eb 63 be 76 42 28 bf 53 e1 b6 be 68 96 4c be
       -0.22257882 -0.6572641 -0.35718784 -0.1997925
0000c0 48 69 54 bc ef 67 67 be 39 d0 98 bd e8 01 41 3d
       -0.012964554 -0.22598241 -0.0746159 0.04712096
0000d0 b6 25 79 bd ad a0 15 be 79 f1 ca bd 9f 2b 60 be
       -0.06082698 -0.14612074 -0.099093385 -0.2189164
0000e0 a4 0d 46 3e f8 a1 3a 3e 95 67 fd 3d ba 13 da bc
       0.19341141 0.18225849 0.12373272 -0.026620734
0000f0 7d 8f 5c 3e d7 99 af bc 52 44 04 bf f6 0c 5d be
       0.21539111 -0.021435661 -0.5166675 -0.21586975
000100 51 80 89 be 90 5f a7 bd b8 67 12 3d 3a 68 0d 3e
       -0.2685571 -0.08172524 0.035743445 0.1380929
000110 c3 c6 9d be 52 2d c8 3d d5 77 c6 3d 16 ea 57 3e
       -0.30815706 0.09774269 0.09690825 0.2108539
000120 3a e0 d1 bd 97 f6 4f be ac 02 00 bf 88 1f 46 bf
       -0.10247846 -0.2030891 -0.50004077 -0.7739186
000130 ad 6b 29 be 4e 64 1a be ef eb 9d be fa 5b 98 3d
       -0.16544981 -0.15077326 -0.30844066 0.07439418
000140 e8 1a da be 65 55 4c 3d ea a0 12 be 5e da 65 3d
       -0.42598653 0.049886126 -0.14319196 0.056116454
000150 7c 30 15 be a5 2c 4a be 48 c0 12 bd 98 3f 04 3e
       -0.14569277 -0.19743593 -0.035827905 0.12914884
000160 60 2d 83 bc 6d 06 78 bd b1 fe d8 3d e6 d9 89 be
       -0.016012847 -0.060553003 0.105954535 -0.26924056
000170 6b 35 56 3e df 32 d2 be 7c b0 08 bd 08 67 22 3c
       0.20918815 -0.41054437 -0.033371434 0.00991226
000180 82 4b 44 be e7 83 8d be 85 c3 3d 3e c3 06 e1 be
       -0.19169429 -0.27639696 0.18531616 -0.4395047
000190 83 92 00 be 20 d7 3b be a7 9a 0d be 8b 6c 29 3e
       -0.1255589 -0.18343782 -0.13828526 0.16545312
0001a0 8c c4 69 be 5e 4d 21 3e c4 cc 7d be 67 87 21 3d
       -0.22828883 0.1575217 -0.24785143 0.03943577
0001b0 e9 06 a8 bd fc d1 1c 3d 8a 5c 4b be 63 67 73 be
       -0.08204443 0.038286194 -0.1985952 -0.23769908
0001c0 9b f5 dd 3b 39 58 32 bf 1c 27 82 3d 5a eb aa 3d
       0.006773663 -0.6966587 0.06355116 0.08345671
0001d0 92 aa 0b be f9 8a e4 bd dd 6c 89 be 7f 66 7d be
       -0.13639286 -0.111593194 -0.2684087 -0.2474613
0001e0 17 39 1b be ed 5c 8f bc 68 8e 0f bc 67 99 39 3d
       -0.15158497 -0.017500365 -0.00876198 0.04531231
0001f0 e0 c9 8e be e1 e0 77 bd 36 22 a6 3d 0a 63 b2 3d
       -0.27888393 -0.060517196 0.08111994 0.087102965
000200 51 b1 32 bd 2c d4 9f 3d 04 51 98 3d 67 33 49 be
       -0.043626133 0.078041404 0.074373275 -0.19648515
000210 47 50 df bd 60 9b b0 be b1 54 95 3c 28 2a 88 be
       -0.109039836 -0.34493542 0.01822886 -0.26594663
000220 5e 1d eb bc cd 5f 04 3c bc c1 6a 3d 81 d6 8d be
       -0.028700527 0.008079481 0.057313666 -0.27702716
000230 40 66 f5 bb 91 81 d6 bd b4 09 0b 3e 32 b6 0a 3e
       -0.007488996 -0.104739316 0.1357792 0.13546064
000240 3c 24 cf 3d f3 9e 8e 3d c5 0b 9c be cf 23 31 bd
       0.10114333 0.06963911 -0.3047773 -0.04324704
000250 b0 d6 b6 bd 20 d4 c8 be a4 3b 93 3b c5 2d 6b bd
       -0.08927667 -0.3922434 0.0044931937 -0.057416696
000260 62 a6 1e 3e 4f 94 42 be 33 cb 1b be 3e d9 53 be
       0.15493158 -0.19001888 -0.15214233 -0.2068834
000270 b6 b9 16 3d 24 87 b7 3d 9a 3a f4 3d 1c e2 ea 3d
       0.0367982 0.08961323 0.1192524 0.11468908
000280 b9 d6 cd 3d 02 ad e1 be 7f 9e 54 3c 43 8f c4 be
       0.10050721 -0.44077307 0.012977242 -0.3839055
000290 e9 6e 2f bc 2a e4 b7 bd ed 70 bd bd 0c 78 02 bd
       -0.010707595 -0.08979066 -0.092500545 -0.031852767
0002a0 23 11 f9 be 25 dc 39 bd c0 a7 0e 3d 65 6a 34 3e
       -0.48645887 -0.04537596 0.034827948 0.17618711
0002b0 d9 c3 03 bf 67 f1 bf bd e2 3a a5 bb 5e 91 29 be
       -0.51470715 -0.09372216 -0.00504242 -0.1655936
0002c0 0c e0 f2 3d 57 bd 43 3e 3b 42 86 be d3 6e d0 3d
       0.1185914 0.19115196 -0.26222405 0.10177388
0002d0 57 67 ea bc 60 91 c3 be 12 af 18 3e c6 26 83 be
       -0.02861373 -0.3819685 0.14910534 -0.2561552
0002e0 01 aa 81 be 01 91 28 bd cf 14 22 bc 78 24 ec bd
       -0.25325015 -0.04115391 -0.0098926565 -0.11530393
0002f0 26 d0 b9 3d 9e b3 97 3e 3b 5f 12 be d0 f4 7a be
       0.09072904 0.29629225 -0.1429414 -0.24507451
000300 00 6e a0 bd 02 d8 d3 bd 97 5b a5 bd 52 ae 79 be
       -0.07833481 -0.103439346 -0.0807411 -0.24382904
000310 db dd 98 3d fd 68 79 3d 5e eb b6 be 55 2b 12 be
       0.074641906 0.06089114 -0.35726446 -0.14274342
000320 4b be 65 3b 4f 2d 1c be f5 07 a9 be 48 6c a0 3d
       0.003505605 -0.15251659 -0.33013883 0.07833153
000330 84 c9 0a 3e 60 95 1d 3e cd 5f 35 be a7 64 46 be
       0.13553435 0.15389013 -0.17712326 -0.19374333
000340 29 e1 02 be e2 f3 2e bf 13 97 89 3e b9 c1 0c bf
       -0.12781204 -0.68340886 0.26873073 -0.549831
000350 38 a7 b6 3d c9 39 0c be 62 5d f3 3d f9 d0 9d bd
       0.08918613 -0.13693918 0.11883046 -0.07705874
000360 40 93 17 bc 62 44 07 3e c2 a9 ec bd f9 93 ce bd
       -0.009251416 0.1320968 -0.11555816 -0.10086817
000370 ab 95 ad 3a 13 35 0d be db 08 fd 3d d5 d3 36 3d
       0.0013243457 -0.13789777 0.12355205 0.044635613
000380 f3 70 0e bf 18 75 dc be 59 2f 54 be bb 53 a9 be
       -0.55641097 -0.43058085 -0.20721187 -0.33071694
000390 cf 1f 43 bd bd 67 91 be 34 52 36 be a5 3d c2 bc
       -0.047637757 -0.2839946 -0.17804796 -0.023711035
0003a0 8b 20 9a be 94 96 30 3c b3 5c 04 be 7a 00 39 bd
       -0.30102953 0.010778088 -0.12925987 -0.04516647
0003b0 e1 1f 00 3d 75 68 87 3d a1 a6 9f 3d a8 8b 59 3d
       0.031280402 0.066117205 0.07795454 0.053111702
0003c0 e9 7a 19 be ed 63 00 3e fa 4f 0b 3e d9 06 df bd
       -0.14988293 0.12538119 0.13604727 -0.10889978
0003d0 af 1a 03 3e 25 c5 0a bf 2d 78 30 3c 45 a4 3d 3d
       0.12803148 -0.5420707 0.01077084 0.046299238
0003e0 3e be 51 3d 5d 97 2b bf fe d3 9f be ee 45 4d 3e
       0.05120682 -0.6702784 -0.31216425 0.20046207
0003f0 96 88 32 be 61 ad 19 be e3 b3 04 be 84 f8 7c be
       -0.17434916 -0.15007545 -0.12959246 -0.24704176

xy_encoder.flat_module.linears.0.bias f4 [128]
000000 13 2d a4 be c6 87 d4 bd ca 4e 7c bd 5e 63 c3 be
       -0.3206564 -0.10377459 -0.061598577 -0.3816175
000010 fb 80 c5 bd 50 4a 01 be ff 89 0c 3d 26 23 21 bc
       -0.09643742 -0.12626004 0.03431129 -0.00983504
000020 de 4b 50 3c 46 0c d9 bd e0 d5 33 3d a0 ae 3f be
       0.012713401 -0.10598044 0.04390514 -0.18718958
000030 f7 af 35 be 3a e8 89 be f3 4d fd bd 9f 2a a2 be
       -0.17742907 -0.26934987 -0.12368383 -0.31673142
000040 0c 9e b0 bb bd fc 1c be 81 29 9a 3b 9d d7 20 3d
       -0.0053899344 -0.15330787 0.0047046547 0.039268125
000050 ad 40 b1 bd 0b bd cb bd 50 62 e7 3d da 12 79 3d
       -0.08654914 -0.099481665 0.112980485 0.060808994
000060 8f fe a6 3d 41 d6 e2 bc f1 ab 18 be ff 2d 2d bd
       0.08154022 -0.027690055 -0.1490934 -0.042280193
000070 b1 78 5f 3d aa 81 9f bc fc 03 9a bd ae 5d 25 be
       0.05455846 -0.019471008 -0.07520291 -0.16149017
000080 ab 04 26 be 42 66 d1 3d 60 b5 fd 3c c8 4c 91 be
       -0.16212718 0.10224582 0.030970275 -0.28378892
000090 84 a0 dd 3d cc 04 9b 3a 92 8f 57 bd 15 8d 79 bd
       0.108216316 0.0011826991 -0.052627154 -0.060925562
0000a0 11 29 91 3d 3f 38 69 be f9 1c 0c be 57 48 02 be
       0.07087911 -0.22775362 -0.13682927 -0.12722908
0000b0 2a 35 02 be 54 3e ad be 99 cd 3c be 21 bd a1 bc
       -0.12715593 -0.33836615 -0.18437804 -0.019743504
0000c0 f5 b5 08 3d a3 77 c3 3d cd 38 06 be 83 03 d5 be
       0.033376653 0.09544303 -0.13107605 -0.41604242
0000d0 f3 4a 14 3d 84 c2 a7 bb 76 43 95 3c 95 11 0e be
       0.03620429 -0.0051196236 0.018220644 -0.13873895
0000e0 4c 0d 4f 3d 02 65 ab be f1 56 1e 3c 8d 0d 13 3d
       0.05054979 -0.334755 0.009664283 0.035901595
0000f0 9c 22 fe bd 5f e5 34 3e 66 52 2b bd 9b d5 70 bd
       -0.12408945 0.17665623 -0.04182663 -0.05879746
000100 08 4a 79 be af 62 94 bd 46 5b 22 be 07 da 9b be
       -0.24344647 -0.07245385 -0.1585513 -0.3043978
000110 2b 38 3e be e9 32 c6 bd b1 95 d0 bd e8 8f 67 bc
       -0.18576114 -0.09677679 -0.10184801 -0.014133431
000120 c1 1b 0b 3e f8 f1 94 be 9d 67 b4 bd 89 ec 71 bc
       0.13584806 -0.29090858 -0.08808825 -0.014765867
000130 73 61 47 bd 04 28 c7 3b eb 63 53 3d 44 85 15 be
       -0.04867692 0.0060777683 0.05160896 -0.14601618
000140 cc 67 7e be 04 2d 0d be 30 06 de bd b2 94 00 be
       -0.24844283 -0.13786703 -0.10841024 -0.12556723
000150 59 b3 4a be e6 f4 a0 be b6 08 23 be e5 8d ea bd
       -0.19794978 -0.31436843 -0.15921292 -0.114528455
000160 56 c5 d0 bd 9d 17 41 3c c5 91 bf bd 8b d3 ed 3c
       -0.10193889 0.011785415 -0.09353975 0.029031536
000170 bf c3 07 be 36 84 11 3e ae 4f 08 3e e1 aa 0f 3d
       -0.13258265 0.1421059 0.13311645 0.035075072
000180 22 fa 4d be 97 75 79 bd bb 1a f5 bd f3 8d 19 be
       -0.2011495 -0.060903158 -0.11967989 -0.14995556
000190 86 ed 13 3c 6b 03 2b be 98 a2 f8 3d 78 c3 5e 3d
       0.009028798 -0.16700523 0.12140387 0.054385632
0001a0 c9 1b 3e be bc c8 b5 3d 56 c1 d7 3c 58 a1 3e be
       -0.18565287 0.08876178 0.026337307 -0.18616235
0001b0 e3 4f 18 bd 87 58 3b bd a7 a9 ee bd 43 5a b1 3c
       -0.03718556 -0.045738723 -0.11653452 0.021649485
0001c0 05 be 96 bd c7 17 03 be 88 0a 8b bc 36 63 e3 3d
       -0.07360462 -0.12802039 -0.016972795 0.11102907
0001d0 bf 8d dc 3d f2 17 b3 bd db 94 00 be 79 89 a2 bc
       0.107692234 -0.087448016 -0.12556784 -0.019840943
0001e0 e6 89 19 be 81 c3 d9 be 56 54 c6 bd 64 82 08 bc
       -0.1499401 -0.4253197 -0.096840546 -0.008331869
0001f0 87 9e 89 bd de 9e ef bd f2 33 4e be ac 0c ca bd
       -0.0671969 -0.117002234 -0.20137003 -0.09865698
