results/notebooks/neural_process/Noisy_Matern_Kernel/AttnCNP/run_0/params.pt (torch_old, 753567 bytes, 36 tensors)

x_encoder.to_hidden.weight f4 [32, 1]
000000 30 43 00 bf 31 9f 8a 3b 50 0a 36 bf b0 4c 4a 3f
       -0.5010252 0.004230403 -0.71109486 0.79023266
000010 07 7e 3d bf c2 e0 5d 3f 1d 74 7c bf 2c 90 85 bf
       -0.7402043 0.8667108 -0.98614675 -1.0434623
000020 28 41 36 bf b5 7a 44 3f 07 60 28 bf 67 22 51 3f
       -0.7119317 0.76749736 -0.65771526 0.8169312
000030 33 a3 93 bf 7f ac 72 bf c6 8a 3d bf f8 2f 17 bf
       -1.153418 -0.9479446 -0.74039876 -0.5905757
000040 71 23 7e bf f5 ef 32 3f 24 07 d6 be 31 bf e3 3e
       -0.9927283 0.69897395 -0.41802323 0.44481805
000050 39 f3 0b 3f e9 40 c5 3e 51 af 0b 3f d3 82 9b 3f
       0.54668003 0.38526085 0.54564387 1.2149299
000060 fe d1 49 bf 76 72 3a 3f 9d 61 4b bf aa ee 4b 3f
       -0.7883605 0.72830904 -0.7944582 0.7966105
000070 8b 35 6c 3f 6f 7e 47 bf 3a 37 78 3f 38 03 08 3f
       0.922692 -0.779273 0.9695927 0.5312991

x_encoder.to_hidden.bias f4 [32]
000000 f8 69 eb 3e ad 9a 5c bc fb a5 81 3e 36 23 6a be
       0.45979285 -0.013464612 0.25321946 -0.22864994
000010 33 d8 14 3f 0f 25 da 3e 6b 20 1e 3e 4b ae b4 bd
       0.58142394 0.42606398 0.15442054 -0.08822306
000020 a1 3e f1 3e f3 e7 2f be bb 3a 9e 3e 59 24 a7 bd
       0.47118095 -0.17178325 0.30904183 -0.0816123
000030 b8 71 b6 be 68 cf c7 bc 9f 73 37 be f0 2b b9 be
       -0.35633636 -0.024390891 -0.179152 -0.36166334
000040 db 75 44 be 59 3a f2 3e b5 1c b6 3e 63 ed a8 3e
       -0.19185583 0.4731014 0.35568777 0.32993612
000050 cd d4 ef 3e 13 15 b7 3e bc 31 93 be 0c a3 2b 3e
       0.46842042 0.35758266 -0.28748882 0.16761416
000060 86 3e af be 44 45 99 be bd a0 00 3d 98 cb e1 3e
       -0.3422739 -0.29935658 0.031403292 0.44100642
000070 f0 d0 aa 3e e8 4a 11 3f fc f9 15 bf f4 58 db 3e
       0.33362532 0.5675492 -0.5858457 0.42841303

x_encoder.out.weight f4 [128, 32]
000000 4d c8 c3 be 1c 14 c0 bd 20 f7 e7 bc c4 40 89 be
       -0.38238755 -0.093788356 -0.02831608 -0.26807225
000010 f0 7f 77 be 0a cb c2 bd 91 29 82 3e 25 72 b8 be
       -0.24169898 -0.09511383 0.25422338 -0.36024585
000020 d0 5e d7 bc 4a ce b1 3e f0 a9 cf 3b 3c 26 1c 3c
       -0.026290327 0.347277 0.006337397 0.0095306
000030 7f 0f 12 3d 3a 25 12 be 4d d4 87 be 59 39 29 3e
       0.03565931 -0.14272013 -0.2652916 0.16525783
000040 72 7e c0 be 87 09 3f be 3a df d1 be c3 de 89 3d
       -0.3759647 -0.18655978 -0.4099062 0.067319416
000050 df d9 bd 3c 82 99 e3 3e bb 74 d3 3d 17 54 89 3c
       0.023175178 0.44453055 0.10324999 0.01676373
000060 cc 9f 9f 3d 57 2b 8a be 63 48 b1 bd 87 57 a1 3e
       0.07794151 -0.2698619 -0.08656385 0.3151209
000070 63 cd c1 3e 89 cf 82 be fe 85 70 be 83 26 c5 3e
       0.3785201 -0.25548962 -0.23488614 0.38505945
000080 d9 94 40 3e b2 9f 40 3d db de 9e bd d8 83 9b be
       0.18806781 0.047027297 -0.0775735 -0.30374026
000090 8b 6d 83 3e b1 84 89 be 20 cb a3 bd df 41 5c 3d
       0.25669512 -0.26859048 -0.079977274 0.053773757
0000a0 db 64 82 be cf 56 af be 6d b8 cf 3e 9f 08 29 bf
       -0.25467572 -0.34245917 0.40570393 -0.6602878
0000b0 b3 81 96 be 4d cc 5b 3e 27 bb 07 bf a4 47 ef 3d
       -0.29395828 0.21464653 -0.53019947 0.11683586
0000c0 00 70 c5 be cd 8a c8 3c 2b f0 4f 3d bb bc 76 be
       -0.38562012 0.024480248 0.05076615 -0.24095432
0000d0 02 f6 0b bf e3 86 48 bf 50 70 2f bf 0d 90 16 bf
       -0.54672253 -0.7833082 -0.6853075 -0.58813554
0000e0 95 c2 f3 bd 0b d9 19 bf c7 cf 9d be af 9b 86 be
       -0.11902348 -0.60096806 -0.30822584 -0.26290652
0000f0 0e fd 3e bf ed 83 6c 3e cb 81 0d 3e ff 50 e3 be
       -0.7460488 0.230972 0.13819043 -0.44397733
000100 95 40 cc 3e 02 4e 30 ba 0d be 81 be 2b 2d 96 3e
       0.39893022 -0.0006725491 -0.2534031 0.29331335
000110 27 f3 11 be 90 f0 2b 3f 39 d1 fb be 93 74 a0 bd
       -0.14252912 0.67163944 -0.49183062 -0.07834735
000120 c2 f4 a8 3e 3b 49 2b bd 19 58 94 3d 58 b9 a5 3e
       0.32999235 -0.041817885 0.07243366 0.3236797
000130 fe a8 43 3e a7 46 bd bc 89 d4 c4 bd be e8 0d 3e
       0.19107434 -0.023104979 -0.0961085 0.13858315
000140 73 9e cc be 1d 04 2b 3f e5 9b 29 bc 4f e8 9d 3e
       -0.39964637 0.6680315 -0.01035211 0.308413
000150 4b 46 86 bc 03 c9 58 3f db 9c 56 be da ce b9 3e
       -0.01639094 0.8468172 -0.20958273 0.36290628
000160 d6 3b c3 be 6a 56 dd be d4 17 8c 3e 2f dd 0b 3f
       -0.3813159 -0.4322999 0.2736193 0.54634374
000170 3c 2b be 3e 7f 70 8a be 03 62 e1 be 36 79 2a 3f
       0.3714236 -0.27038953 -0.4402009 0.66591203
000180 ce 56 30 3e f5 36 d8 3e 9c 65 04 3f ad e2 3e 3e
       0.17220613 0.4222943 0.51717544 0.18641157
000190 85 94 40 be d1 bf 0e 3e ba c7 f6 3d fb e8 df 3e
       -0.18806656 0.1394036 0.120498136 0.43732437
0001a0 d7 d8 0c 3e 20 cf d2 bd f7 f4 80 3e dc 4b d8 3c
       0.13754593 -0.10293412 0.25186893 0.02640336
0001b0 d9 f3 21 be f4 8d 0b 3e 15 53 fb 3e 3b c1 c2 bd
       -0.15815677 0.1362837 0.49086824 -0.09509512
0001c0 ec 3e 10 3f 87 87 39 3e 9d 63 22 3f 3a ef e4 be
       0.5634601 0.18118106 0.6343325 -0.44713765
0001d0 53 97 18 3e d0 cb 04 3e 28 af 6e be a1 72 dc be
       0.14901476 0.12968373 -0.23309004 -0.43056205
0001e0 8c b0 cf bd bf 45 2a be 3d 52 9c 3e 93 10 09 be
       -0.101410955 -0.16628169 0.30531493 -0.13385229
0001f0 1c 6d db be 1e 6f 0c 3f 40 1d 99 3e 30 17 2c 3e
       -0.4285668 0.5485705 0.29905128 0.1680572
000200 b1 fd 8c 3d bb 27 47 bd b3 d9 f0 3e a6 a9 9f 3e
       0.06884325 -0.048621874 0.4704109 0.3118412
000210 e0 0d 72 3e 12 63 97 3e 34 15 de 3e b6 3f ef 3e
       0.23638105 0.29567772 0.43375552 0.46728295
000220 d9 9e ce be 8b 45 a4 3e db 17 be bd 5e ce f5 3d
       -0.40355566 0.32084307 -0.09281894 0.12002252
000230 15 90 c4 3e ba 4d 1a be bf a3 cc 3c a3 8b 89 3e
       0.38391176 -0.15068713 0.024980424 0.26864347
000240 ae 2a 94 be ce 67 cc 3e f6 58 4b bd 71 47 c7 3e
       -0.28938812 0.39922947 -0.049645387 0.38921693
000250 33 a2 2d 3e a7 2d e2 3e 47 c1 de bc 25 c4 20 be
       0.16956405 0.44175455 -0.027191771 -0.15699823
000260 2e 7a b8 3e 0d ae ae 3e 6e 36 64 3e 8f 49 46 be
       0.36030716 0.34117165 0.22286388 -0.19363998
000270 46 f1 79 3e 74 37 bf 3d 46 c0 bd 3e 0a 7f b2 3e
       0.24408445 0.09336749 0.37060755 0.34862548
000280 42 02 25 3f 60 4b 33 3e b0 0c 3d be 3b e7 3e 3d
       0.6445657 0.17509222 -0.18461871 0.046607237
000290 cf c7 8c bd eb 89 11 bc a1 ce cb be 4c 36 d1 be
       -0.06874048 -0.00888298 -0.39806083 -0.40861738
0002a0 ad 7e 64 3e da 22 ae be 62 29 90 3e ac e9 37 be
       0.22313948 -0.34010965 0.28156573 -0.17960232
0002b0 e9 c3 39 bf 7d bf f7 bb 46 e7 60 bd 87 19 ba bf
       -0.7256456 -0.007560669 -0.05490806 -1.453904
0002c0 d2 d3 e4 be f5 24 ab be f5 4b 06 3f 62 32 87 be
       -0.44692856 -0.33426633 0.5245965 -0.26405627
0002d0 8d c5 31 3e 07 76 0d 3f 33 99 fb be 64 24 f6 be
       0.17360516 0.5525822 -0.4914032 -0.4807464
0002e0 ba bd 26 bf 9a d2 4a bf 05 ab 1f be e3 a0 c3 3e
       -0.6513325 -0.792276 -0.15592583 0.38208684
0002f0 6e 0e 93 bc 2a 6b af 3e 46 81 78 bf 1e 67 95 3e
       -0.017951217 0.34261447 -0.97072256 0.29180235
000300 74 1a 2c be 97 82 2c 3e 85 b4 ba be 7f c4 b4 be
       -0.16806966 0.16846691 -0.3646585 -0.35306165
000310 fc 1c 93 be a8 8f d8 3c 97 1b 08 bf 90 87 ca be
       -0.2873305 0.026435688 -0.531671 -0.3955655
000320 29 6d 0c bf 75 6c d0 3e f2 43 d6 3b ca 02 ed bd
       -0.54854065 0.40707746 0.0065388614 -0.115727976
000330 83 8c e1 bd 62 28 14 bf 21 b8 81 be 61 61 18 be
       -0.110131286 -0.5787412 -0.25335792 -0.14880897
000340 56 6e e0 be 87 1d a3 bd 1c ff 46 be bc 0c 98 3e
       -0.4383418 -0.07964616 -0.19433254 0.29697216
000350 8a e3 98 3d b6 00 95 3e 18 f9 5b 3e 68 a7 82 3d
       0.07465275 0.29102105 0.2148174 0.063795865
000360 35 57 60 be d8 18 a0 3e f6 70 12 be de 95 b2 be
       -0.21908267 0.31268954 -0.14300904 -0.34879965
000370 68 b2 ae 3e 1e d7 a3 be 66 d6 a9 3d 7c 90 a7 bd
       0.34120488 -0.3200006 0.082928464 -0.08181855
000380 1d 0a 03 bf 94 ec 51 3e 95 b2 59 3e 0b 98 81 bd
       -0.51187307 0.20500404 0.2125953 -0.06327828
000390 60 15 e2 be 99 63 d6 be e8 21 3e bd fd 08 dd 3e
       -0.44156933 -0.41872862 -0.046419054 0.4317092
0003a0 9a 47 ca be 96 a5 be 3d cb 5e 65 bd ff d7 a4 bc
       -0.39507753 0.09308927 -0.055998605 -0.020122526
0003b0 db e3 ab 3c a2 0a 20 3e f2 a4 8c 3e 93 34 8f 3e
       0.020982673 0.15629056 0.27469593 0.27969798
0003c0 63 df cb be 3c be 5f 3d 84 0d 78 3e 20 7a 12 bf
       -0.39818868 0.05462478 0.24223906 -0.572176
0003d0 b5 62 ea be d2 bb 1f bf 96 4f d5 3e 25 0d 8a be
       -0.45778432 -0.62395966 0.41662282 -0.26963153
0003e0 f3 9b b2 3d ff 00 b0 be 16 2e 52 3c 49 f4 51 be
       0.08721151 -0.3437576 0.012828371 -0.20503344
0003f0 92 2f 88 be 88 41 70 bd 91 c5 9b 3e b8 9c b4 be
       -0.26598793 -0.058656245 0.3042417 -0.35275817

x_encoder.out.bias f4 [128]
000000 b1 51 0d be c0 c6 64 bd 05 89 33 3e 53 68 7f 3d
       -0.13800694 -0.055853605 0.17532738 0.06235535
000010 9a 5d 28 bd f9 03 c0 3e 3b 1a 71 bd 92 96 97 be
       -0.04110489 0.3750303 -0.058862906 -0.29607064
000020 7c c0 27 3d b0 9e 40 3d e4 89 bd 3d 2b 90 fb 3d
       0.04095505 0.047026336 0.09254816 0.12283357
000030 9e 7e 69 be e6 1c 53 be 4f 28 16 3d d7 3b 8e 3e
       -0.22802207 -0.20616493 0.036659535 0.2778003
000040 7d 50 93 be 08 7a eb bd 8d ef 5b bd 0f 6a 90 be
       -0.28772345 -0.11497885 -0.05369525 -0.28205916
000050 b6 17 3f 3e 8d fe 4b 3e 1a f4 85 bd a4 a5 94 3e
       0.18661389 0.19921322 -0.06540699 0.29032624
000060 d8 7c 23 3e 6b e3 51 be c2 59 00 3e 45 6e 2b be
       0.15965593 -0.2049691 0.1253424 -0.16741283
000070 7b 66 81 3d 06 e4 88 3e 4d 3f 59 3e 0a 6a be be
       0.06318375 0.26736468 0.21215554 -0.37190276
000080 fa df 1d be 85 49 5c be 9d 14 4c be dc 6a a5 be
       -0.15417472 -0.2151242 -0.19929738 -0.3230809
000090 ef 9b 01 be 28 bf b6 3d 1e 6a 76 bc 3f 06 eb 3d
       -0.1265714 0.08923179 -0.015039949 0.11475801
0000a0 50 ff 87 3e 82 0a 4c be 13 cb db bd 97 85 8a be
       0.26561975 -0.19925883 -0.10732093 -0.27055046
0000b0 b9 af b3 bc ff be 48 be b5 8b 58 be 1f a5 a4 be
       -0.021934377 -0.19604109 -0.21147044 -0.32157227
0000c0 d2 be 83 be ce 7f 65 be 48 5b 86 3d 58 12 6f be
       -0.25731522 -0.22412035 0.06560379 -0.23346841
0000d0 22 2b 4b bc 78 f4 35 bd b4 04 c3 bd 48 61 a4 bd
       -0.01240042 -0.044422597 -0.095223814 -0.080263674
0000e0 27 09 aa be 86 f7 62 be d1 c6 22 be ac 05 b3 bd
       -0.33210108 -0.22164735 -0.15896155 -0.08741316
0000f0 af 9c 71 be 76 04 78 3e 37 2d 04 3d 10 df 1c be
       -0.23594926 0.24220452 0.032269683 -0.15319467
000100 5b 8e 34 3e 51 d0 54 be 98 80 9c 3e 90 5a a6 3e
       0.1763243 -0.20782591 0.3056686 0.3249097
000110 9c a5 67 bd 4f 7e 88 3d 08 46 0f 3d 23 f5 9e 3e
       -0.05655442 0.066647165 0.034978896 0.310464
000120 46 a6 34 bd 2a f6 d3 3d 6e 68 81 bd 34 4e 76 3e
       -0.044103883 0.103496864 -0.063187465 0.2405327
000130 b8 19 c7 3c a6 96 bb be dd 15 3e 3d 1c 75 00 3c
       0.024304256 -0.36638373 0.04640757 0.007840421
000140 42 86 68 be 2c e6 23 3e 1d f7 ba bd ec 3a 0c bd
       -0.22707465 0.16005772 -0.09129164 -0.03423588
000150 69 68 39 be 84 b1 0b bd 0e e7 d7 3a 43 1a df 3d
       -0.18106236 -0.03410484 0.0016472058 0.10893681
000160 77 82 70 3e 4b dc 2b be 6c e8 3e 3d c5 d3 6a be
       0.23487268 -0.16783254 0.046608374 -0.22932346
000170 63 73 2e be d1 81 a8 be 90 b1 42 3d 29 dd e5 bd
       -0.17036204 -0.32911542 0.047532618 -0.112238236
000180 dd 56 ad bd b6 46 d7 3d 1c 5b 1b be 4a 82 c2 bd
       -0.084638335 0.10511534 -0.15171474 -0.09497507
000190 dd fc 2d 3a e0 c3 6d be 88 46 97 be 8b 4b bf 3d
       0.0006637106 -0.23219252 -0.29546 0.093405806
0001a0 9b d1 b6 bd fb 16 9a be 82 de 1b 3d f2 bc 0a be
       -0.08926698 -0.30095658 0.038053997 -0.1354864
0001b0 d8 a7 43 bd db 45 4d bd fe 0d 17 be 09 d1 3e 3c
       -0.04776749 -0.050115447 -0.14751431 0.011646518
0001c0 63 ec e0 bc 9c e6 38 be 85 52 5e 3e c2 27 99 3d
       -0.027456468 -0.1805672 0.21711166 0.07478286
0001d0 f1 cb 06 3a 34 d6 6c 3e 63 ef ae be 28 cb 87 be
       0.0005142084 0.23128587 -0.34167013 -0.26522183
0001e0 33 be a1 3d 79 5d 2f 3e 25 4e 77 bd 84 fd 49 bd
       0.07897606 0.171255 -0.06037726 -0.049314037
0001f0 7b ae 6b 3e eb 2d a4 bd cf bc ec 3a b8 27 93 3e
       0.23015778 -0.08016571 0.001806164 0.2874124

xy_encoder.resizer.to_hidden.weight f4 [32, 1]
000000 c8 37 0e b9 7a b2 46 bf 9c bb 03 3f d9 ea 94 3e
       -0.00013562955 -0.77616084 0.51458144 0.29085425
000010 7f f4 1f 3f 69 49 7f 3e 94 ee 30 3f f1 9a 01 3f
       0.62482446 0.24930348 0.6911404 0.50627047
000020 e2 f3 8f be c0 df 0f 3f 16 15 67 bf bc 29 2c 3e
       -0.28115755 0.5620079 -0.9026655 0.16812795
000030 8e 1d 2f 3f 4b 62 2f 3f a5 04 df 3e 43 50 11 3f
       0.6840447 0.6850936 0.4355823 0.56763095
000040 14 9b 40 3f 6b 02 12 bf 23 5c 39 3f be 4c 82 be
       0.7523663 -0.5703494 0.72406214 -0.25449175
000050 8e b7 35 bf 98 ab 2b 3e 4e 44 f0 3d 44 3a e0 bd
       -0.7098321 0.16764677 0.11731778 -0.10948613
000060 4a 8d eb 3d b7 77 2f 3f 44 43 97 3e 85 bb b3 be
       0.11501558 0.68542045 0.29543507 -0.35104004
000070 f6 eb 58 bf 7e 50 c9 be 2d bf 1d 3e 87 ca e6 3c
       -0.8473505 -0.39319223 0.15404959 0.028172744

xy_encoder.resizer.to_hidden.bias f4 [32]
000000 03 b8 69 bb 9d d1 05 bc e2 94 40 bd fc d4 be bd
       -0.0035662658 -0.0081676515 -0.047016986 -0.09317967
000010 d8 a6 aa 3b 92 a8 f6 bd 8c 99 c2 3c b1 5b 55 bd
       0.0052078776 -0.12043871 0.023754857 -0.052089397
000020 83 e4 98 bd d9 29 77 bd 6e f4 20 bc 38 60 d6 bd
       -0.0746546 -0.060342643 -0.009823902 -0.10467571
000030 53 d2 15 3a af 8c c5 bd 3f 2b c0 bd b4 eb ca bd
       0.00057152397 -0.09645974 -0.093832485 -0.09908238
000040 32 da 7d bd 91 84 8c 3d 27 09 8f bd 44 75 c9 bd
       -0.061975665 0.068612225 -0.069841675 -0.0983682
000050 0c 7b 0f bd 31 47 28 be 8d 83 f5 bd 16 15 8c 3d
       -0.035029456 -0.16433407 -0.11987982 0.06839959
000060 f1 f6 6f bd 63 b2 14 3d 9f 11 59 38 a1 2e 30 bd
       -0.05858511 0.036302935 5.1753243e-05 -0.04301322
000070 14 11 04 3e 72 62 df bd d3 b7 59 3d f2 98 ec bd
       0.1289714 -0.10907449 0.053153824 -0.115526095

xy_encoder.resizer.out.weight f4 [128, 32]
000000 6d 6b 87 3d 33 d9 e2 be 6e ad 8d bb 98 dc 3a 3e
       0.06612287 -0.44306335 -0.004323653 0.18248212
000010 f8 54 de be c9 be 7d be 49 65 a2 be 10 e2 58 be
       -0.434242 -0.2477981 -0.317179 -0.21179986
000020 e7 0c 90 bd 4b cb 02 be 4d 0a f6 3d 8e c3 18 3d
       -0.07033711 -0.12772863 0.120136835 0.03729587
000030 3b e6 ad 3e b9 66 87 39 5e 13 f8 3c 6c 81 96 3e
       0.33964714 0.0002582574 0.030282672 0.29395616
000040 55 f3 c2 be 55 13 51 3d fe 67 89 be f2 70 9e 3e
       -0.38076273 0.051043827 -0.26837152 0.30945545
000050 d3 54 b4 be be b2 72 be bc 9c d4 be 7c 0d 8e be
       -0.35220966 -0.23700997 -0.4152583 -0.27744663
000060 50 f8 bf 3e d4 57 92 bd fd 03 e6 bc f7 75 a8 3d
       0.37494135 -0.07145658 -0.028078074 0.08225625
000070 67 68 91 3b 1c f8 9f 3e 9b eb fe bd af 46 67 be
       0.0044374946 0.3124398 -0.12447282 -0.22585557
000080 7e 6e 6a 3e 6c 32 c0 3d fc d4 b8 be c3 95 93 3e
       0.22893712 0.09384617 -0.36099994 0.28825197
000090 a1 72 a8 be b1 6f c7 3e 91 d0 6a 3e ed 33 89 bc
       -0.32899955 0.389524 0.22931124 -0.016748393
0000a0 a0 7f 9a 3c db 6a f7 3c b8 71 bd be 4e 7a ca be
       0.018859684 0.03020232 -0.37000823 -0.39546436
0000b0 93 43 1f bd 60 cf 04 be 5e a7 40 3e fd 72 81 be
       -0.038882803 -0.12969732 0.18813846 -0.25283042
0000c0 f1 64 c7 be 2e a3 95 be 87 d6 a0 be d2 cb 0f 3e
       -0.389442 -0.2922606 -0.3141367 0.14042595
0000d0 16 14 88 be 5a c9 66 3e fb 08 b0 3e 15 28 b1 be
       -0.26577824 0.22537747 0.34381852 -0.34600893
0000e0 7d 25 7c be ff 42 9a 3e 37 9e da 3e 1e b8 16 3e
       -0.24623676 0.3012924 0.42698833 0.14718673
0000f0 36 57 b5 3e 51 bf a2 be 15 0f 3f 3e 5e 7f 37 3e
       0.354181 -0.31786588 0.18658097 0.1791968
000100 ef 81 1d 3e 36 0f ac bc 48 4a 4b be 6c ec 34 be
       0.15381597 -0.021003347 -0.19852555 -0.17668313
000110 4b 0f 9b 3d 25 74 24 3e 2f 03 34 3d 3a bf c0 3e
       0.07571276 0.1605993 0.04394835 0.37645894
000120 87 4c 5b 3e 81 d6 61 bc ef 83 cc 3e c5 7e 9d 3e
       0.21415912 -0.013784052 0.39944407 0.3076078
000130 69 66 8d bc 23 a6 d4 bd e4 55 11 be 2d 38 f6 bd
       -0.017260747 -0.103832506 -0.14192921 -0.120224334
000140 1a 6c 20 bd d3 86 88 3d c7 b9 c6 3e 78 73 77 be
       -0.039165594 0.06666341 0.38813612 -0.24165142
000150 f0 f1 b0 be 89 45 db be 2f 78 80 be 91 d4 b7 bc
       -0.34559584 -0.4282649 -0.25091693 -0.022440227
000160 18 17 46 be 51 1c bd be 85 84 37 3e 89 14 99 bd
       -0.19344747 -0.36935666 0.17921646 -0.0747462
000170 15 1a a8 be a1 4b a4 be af 47 c2 bd 46 fb 62 3e
       -0.328324 -0.3208895 -0.09486329 0.22166166
000180 92 db c3 be 16 af b8 3d 22 01 f6 3c ba 95 09 be
       -0.38253456 0.0901777 0.030029837 -0.13436022
000190 f2 7f c8 bd 02 8c 8d be a5 87 a4 3d 53 d3 cb 3e
       -0.09790029 -0.2764588 0.08033685 0.39809665
0001a0 1b 3a b4 3d c1 29 ce be 1d 8f 12 3e 36 98 50 3c
       0.08800145 -0.4026623 0.14312406 0.012731602
0001b0 77 8e bd 3d 81 02 29 bb 84 1d c8 3d 78 8f 9f be
       0.09255689 -0.0025788846 0.09771255 -0.31164145
0001c0 ea 48 9c be 3d a6 ec be 98 d6 81 3e 1c 66 53 be
       -0.3052438 -0.4622058 0.25359035 -0.2064442
0001d0 42 c5 d5 bd 50 f6 64 3e 52 a4 49 3e 06 a6 8e 3e
       -0.104380146 0.22359586 0.1969159 0.2786104
0001e0 95 7e 20 3e aa a0 4b be cd 28 ab bd 99 3c 47 3e
       0.15673287 -0.19885507 -0.083573915 0.1945671
0001f0 2b ed 4e be d9 91 c3 3e c1 2c 6f be 5f 6d 15 3e
       -0.2020766 0.3819721 -0.23356916 0.14592503
000200 b7 92 57 be c4 8e b3 be 48 39 6f 3d d1 0f 2d be
       -0.21052061 -0.3506986 0.058404237 -0.16900565
000210 2c 30 58 3e 8a ad cf bd e1 88 d5 3e 6d a3 de 3d
       0.21112126 -0.10140522 0.41705993 0.10871015
000220 b1 a1 d2 3e 08 f3 cb bd 06 fe 97 be a7 25 c8 bd
       0.41138986 -0.09958464 -0.29685992 -0.097728066
000230 9c 50 41 be 4b f4 89 3e 21 8f 5c be c0 cf 96 be
       -0.18878406 0.26944193 -0.21538974 -0.29455376
000240 82 a8 88 be ce 82 a8 3e 87 e0 95 be aa 85 41 3d
       -0.2669106 0.32912296 -0.29272863 0.047246613
000250 5e d3 8c 3e 47 47 a0 be b9 6c 7a bd f7 f3 66 be
       0.2750501 -0.3130438 -0.061138842 -0.22554003
000260 31 c6 db 3e e8 b9 07 be e0 df da 3d 78 d9 9a 3d
       0.42924646 -0.13254511 0.10687232 0.0756101
000270 81 cb d1 be e7 04 45 3e 3c 40 4d be 4a 31 ab 3e
       -0.40975574 0.19240151 -0.20044035 0.33436042
000280 f0 da 9b 3e 96 82 39 3e 5a fb 28 be 21 ac 99 be
       0.30440474 0.18116221 -0.16502133 -0.30014136
000290 00 54 95 3e 40 eb b9 3b e6 b5 b7 3e d1 1b 04 be
       0.2916565 0.005673796 0.35880965 -0.12901236
0002a0 9c 74 90 be e7 f5 a7 3e 82 0c 6e 3e 6f 6c 9f 3e
       -0.28213966 0.32804796 0.23246959 0.31137416
0002b0 e5 a3 cb be 1c 4c df 3c 81 eb d0 be f6 8f ab 3d
       -0.3977348 0.027257971 -0.40804675 0.08377068
0002c0 11 18 92 3e b7 63 4e 3e f9 62 50 be 72 91 91 be
       0.28533986 0.20155226 -0.20350255 -0.28431278
0002d0 16 1c 1e 3e 9a e3 49 3e 04 70 50 be a9 40 a9 be
       0.15440401 0.1971573 -0.2035523 -0.33057144
0002e0 b4 9c ea 3d 6c 21 eb 3d d2 40 44 be ec 07 be be
       0.1145567 0.11480984 -0.19165352 -0.3711542
0002f0 19 73 c5 be b6 2f eb 3e d1 76 43 bd 99 3b 81 3e
       -0.38564375 0.45934838 -0.047720734 0.25240782
000300 e0 88 25 3e 02 17 6e be 9e ec a9 be 44 b4 c3 be
       0.16165495 -0.23250964 -0.33188337 -0.3822347
000310 f9 48 b9 3d 2f da a9 3c ed 95 13 3e 1f 48 0d be
       0.090471216 0.02073392 0.14412661 -0.13797043
000320 4e 23 e7 be c9 c3 be be 2b 4c b3 3d 1c fb d8 bd
       -0.45144123 -0.37258747 0.08754762 -0.1059477
000330 99 b7 62 3e 11 0d 4b be b5 18 47 be 08 30 11 be
       0.2214035 -0.19829203 -0.19443019 -0.14178479
000340 de 16 56 3e 56 c0 99 be 27 73 d1 be 1f d9 fb be
       0.2090716 -0.30029553 -0.40908167 -0.49189088
000350 81 de 5f b8 25 c0 f0 be 46 e8 c2 bd 16 86 e6 be
       -5.3374566e-05 -0.47021595 -0.09516959 -0.45024174
000360 03 41 47 be 6e 95 f6 be c2 bd 75 be 7e 38 0b bf
       -0.19458394 -0.4816088 -0.23998168 -0.54383075
000370 82 cb d8 be 16 9b 17 bf a4 fa ae 3d 0d 82 9d be
       -0.42342764 -0.5922102 0.085439 -0.30763283
000380 34 3c 09 be 7b 36 d5 be 82 be 7c 3e 8d 1f a6 be
       -0.13401872 -0.41643128 0.24682048 -0.32445946
000390 88 6a 84 be f4 8a 0e be 8c 58 91 3d c0 83 37 be
       -0.25862527 -0.13920194 0.07096967 -0.17921352
0003a0 44 00 c8 be 7a 08 2a be 97 f2 be 3e 01 a5 dd be
       -0.39062703 -0.16604796 0.37294456 -0.4328995
0003b0 f4 99 91 3d 70 22 ff bc 00 cf 2b 3b b6 ea cb be
       0.07109442 -0.03114435 0.002621591 -0.39827508
0003c0 18 df 5e 3d 79 3e b3 3e 12 17 65 3e a0 77 3b 3c
       0.054411978 0.350086 0.22372082 0.011442095
0003d0 5c 9f a4 be bc 75 b0 3d dd 6c b0 3e fc d6 ed 3d
       -0.32152832 0.08616206 0.34458056 0.11613271
0003e0 fc a1 fc 3d 90 15 f2 3c 5a 35 b6 be 98 05 f5 bd
       0.123355836 0.029551297 -0.3558758 -0.119639575
0003f0 fb e2 ad 3e 08 ba b0 be b8 1c 1a bd 1a f6 4c 3e
       0.33962235 -0.3451693 -0.037625045 0.20015755

xy_encoder.resizer.out.bias f4 [128]
000000 c2 56 f2 bd bd 64 04 bb 5f 73 44 3b b6 a6 89 bd
       -0.11832954 -0.0020201646 0.0029975993 -0.06721251
000010 f9 0b ec bc 13 5b e0 bc a8 f3 32 bd 00 00 00 00
       -0.028814303 -0.027387178 -0.0436894 0.0
000020 4d ab 98 bc 7a e4 3d bd 7c 86 87 bd 55 78 45 bd
       -0.01863637 -0.04636047 -0.06617448 -0.04821046
000030 36 db 74 bd 5b ad 8b bb 25 8d b6 bc 57 bc c6 bc
       -0.05977937 -0.004262609 -0.0222841 -0.02425973
000040 bd 29 53 bd 9d b0 0c bd 08 7b 10 3c 56 49 d6 bb
       -0.051553477 -0.03434812 0.008818395 -0.006539504
000050 d6 a9 f8 bc aa 06 fa bc 98 73 3b bd 41 03 17 be
       -0.030354422 -0.030520756 -0.045764536 -0.14747335
000060 20 7b 7b be 7c 8f f1 bc de e1 2d bd f6 a3 35 bc
       -0.24558687 -0.029487364 -0.04245173 -0.011086455
000070 99 ef d9 bd cc d0 d8 bb 69 42 71 3d a3 58 27 bc
       -0.10641403 -0.0066166874 0.058901224 -0.010214004
000080 c6 0b 37 bc cc 98 03 bd 36 eb 77 bc 16 dd 47 bd
       -0.011172241 -0.03212814 -0.015131762 -0.04879483
000090 b9 4e a2 bd 21 03 98 bc c4 a4 8c bd 28 b5 62 bd
       -0.079251714 -0.01855618 -0.06867364 -0.055348545
0000a0 9c d3 15 be d1 59 e9 bd 21 88 dc 3c 63 a9 c8 bc
       -0.14631504 -0.11394084 0.02692038 -0.024494832
0000b0 d2 9b c4 bc 89 16 57 3b a7 e7 42 bc 93 a2 78 be
       -0.024000082 0.0032819828 -0.011896051 -0.24280767
0000c0 a9 5f 0e bd 6d f3 97 bd f2 2c 5b bd ae f1 98 bd
       -0.034759197 -0.07419477 -0.05350966 -0.07467972
0000d0 fc 85 e7 bd b6 c8 2c bc 4e 9e 94 bd 35 7f e4 bd
       -0.11304852 -0.0105459 -0.07256757 -0.11157075
0000e0 d0 35 e1 bc 2a 02 77 bd 3e 2c 02 bc 37 3e 69 bd
       -0.02749148 -0.0603048 -0.0079451185 -0.0569441
0000f0 7e 19 75 bd 98 e6 d1 bd 30 01 23 bd 6c bc 45 3b
       -0.059838764 -0.102490604 -0.039796054 0.0030172123
000100 4a a1 d4 bd 51 9a ae bd 8d b6 9d bd a7 ba 04 be
       -0.10382326 -0.08525527 -0.077008344 -0.12961827
000110 48 b5 b6 bd 68 12 44 bd 5c 2a 87 bd 10 43 e0 bc
       -0.089212954 -0.047869116 -0.06599876 -0.027375728
000120 d9 72 68 bd 9a 08 d7 bd 4b b2 a9 bd 33 b4 cb bd
       -0.056750152 -0.104996875 -0.0828596 -0.0994648
000130 c9 20 11 be 79 83 5f bd 00 00 00 00 ee 03 1c bd
       -0.14172663 -0.05456874 0.0 -0.038089685
000140 21 71 7c bd 73 2b 3b be d3 68 30 be 7d a5 7c bd
       -0.061631326 -0.18278293 -0.17227487 -0.06168126
000150 4e fe c1 bd 3b ad 1b be b5 ac f4 bb 4c b8 95 bd
       -0.09472333 -0.15202801 -0.0074668773 -0.073105425
000160 9a 7c e6 3c 3b 88 5e bd 00 00 00 00 03 51 90 bd
       0.028135587 -0.05432914 0.0 -0.07046702
000170 17 50 8e bd 56 6a 56 bc 29 be 81 bd 00 ff 90 bc
       -0.0694887 -0.013086876 -0.06335098 -0.017699718
000180 83 b2 9c bd 74 f2 3e bd ad 4a 0c bd c0 d4 64 bd
       -0.07651236 -0.04661794 -0.034250904 -0.055866957
000190 8b 83 5f bc 21 63 9e bd aa 0a b9 bd 5f 63 69 bc
       -0.013642202 -0.07733751 -0.09035237 -0.014244883
0001a0 a8 db 4c bd 3d cf 1a bc 61 12 20 bd 6c 47 df bd
       -0.050014168 -0.0094488235 -0.039080027 -0.109022945
0001b0 96 3e 91 bd 8d 72 4b bd 26 6b 3c bd a6 bb 85 bd
       -0.070920154 -0.04966979 -0.046000622 -0.06529932
0001c0 b3 17 cf bd b3 a8 92 bd e8 a0 94 be c3 03 63 bd
       -0.10111942 -0.07161083 -0.29029012 -0.05542351
0001d0 eb a8 21 be 4b 74 87 bd e7 5d 2d bd 09 f6 34 bd
       -0.15787093 -0.06613978 -0.04232588 -0.04417995
0001e0 fd da d3 bd 91 5a cf bd 02 38 e9 bd 29 dc 8f bd
       -0.10344503 -0.10124696 -0.11387636 -0.07024414
0001f0 11 ac ff bb 13 97 51 bd d8 7d f7 bd 29 6d 84 bd
       -0.0078024943 -0.051169466 -0.1208455 -0.06466133

xy_encoder.flat_module.to_hidden.weight f4 [128, 128]
000000 e3 9d de bb 2c af dd bc e7 ce bb bd 97 d8 ba bd
       -0.006793724 -0.027061068 -0.09170323 -0.091233425
000010 a2 84 b8 bd 44 47 ec bd a9 bb 4f bd c7 0d 0f bd
       -0.09009673 -0.1153703 -0.050716076 -0.03492525
000020 62 80 e0 3c ac fd db 3d df a9 04 be 64 3a 6e 3b
       0.027404968 0.107417434 -0.12955426 0.0036350721
000030 ff 67 cb bd 90 15 53 3c 5f 11 46 bd 83 b9 61 3d
       -0.09931945 0.012883559 -0.04835641 0.05510856
000040 aa 64 9f 3c cb b7 1f 3d 29 16 8b bd c9 0c 8e bd
       0.01945718 0.038993638 -0.06791336 -0.06936032
000050 d6 33 66 3c 85 ad a1 bd 89 1b fb 3c d3 0f d1 bc
       0.014050445 -0.07894424 0.030652778 -0.02552024
000060 64 cf 10 3d 7d 25 9f 3c 69 70 36 bd af 07 d9 bc
       0.035354033 0.019427055 -0.044540796 -0.026492922
000070 31 7d 10 be e2 71 42 3d 89 66 8b bb 30 12 96 3d
       -0.14110257 0.04747189 -0.0042541665 0.07327688
000080 ec c9 82 3d 26 c0 3c 3c 9a c0 06 3e 4f 9e 0a 3d
       0.0638617 0.011520421 0.13159409 0.03384238
000090 88 ec 56 3d 78 8a 23 be 31 96 1b be 7e f7 99 bd
       0.052471668 -0.1597079 -0.15194012 -0.075179085
0000a0 d3 00 8d 3c 6b af 30 bd 44 3c 2a b6 d1 bc 05 3e
       0.017212307 -0.04313604 -2.5367053e-06 0.13060309
0000b0 ec f9 3a 3e 76 c7 62 3e 9b 51 71 bd 2b 0a cc bd
       0.182594 0.22146401 -0.058915716 -0.09962877
0000c0 e3 f5 18 bd 21 97 6f bc c6 0b 4d bd bc 5d 23 be
       -0.03734387 -0.014623434 -0.050060056 -0.15953726
0000d0 1f 8a 9d bb a1 f3 00 3d 5c e2 17 bd 7f 36 eb bc
       -0.004807725 0.031482343 -0.037081107 -0.02871251
0000e0 98 d5 e3 bd 13 c2 8a bd b8 7a 69 3e 57 f8 33 be
       -0.11124724 -0.06775298 0.2280072 -0.17575203
0000f0 cf b2 7a 3d 69 d4 4a 3d 40 69 d1 bd 32 67 97 3b
       0.06120568 0.049518976 -0.10225153 0.004620456
000100 e4 43 13 3d 5f 3b 07 3d e8 b4 68 3d 45 c2 a5 bc
       0.035953417 0.033015605 0.05681315 -0.020234236
000110 cf ef 4d bd 45 46 af 3d 77 0f c0 bd e9 29 56 be
       -0.050277527 0.08558325 -0.0937795 -0.20914425
000120 15 98 d7 3c c6 56 26 bc 02 0d 04 be 69 10 ab be
       0.026317636 -0.010152524 -0.12895587 -0.33410957
000130 13 2f 9a 3d d6 07 24 3e 16 9d ab bd 0c ee ea bd
       0.0752851 0.16018614 -0.08379571 -0.11471185
000140 2c 76 dc 3d 2e 9e da bd 50 c6 ae 3d 69 6c 79 3d
       0.10764727 -0.10674702 0.08533919 0.060894404
000150 5d e2 0b 3d 9f 08 2e be 4a 5c e9 3c ba de d0 bd
       0.034151424 -0.16995476 0.02848639 -0.10198732
000160 86 da c1 bd 59 2c 97 3c 80 6b 23 bc 93 75 b2 3d
       -0.09465508 0.018453764 -0.0099743605 0.08713832
000170 2d b7 a2 3b e8 31 05 3d 44 d1 25 bd 9b ed 8a 3d
       0.004965684 0.032518297 -0.040482774 0.06783601
000180 f0 1c 3f 3e bd ba 4c 3b 1f a3 44 3e d8 22 95 bc
       0.18663383 0.0031239234 0.19202851 -0.018205091
000190 bc 1c 0d 3e 22 19 06 3e fa 20 92 bc 30 28 7c bd
       0.13780493 0.13095525 -0.01783799 -0.061561763
0001a0 79 4a 11 be 72 e9 27 bc 0d 45 18 bd 76 70 b5 3c
       -0.14188565 -0.010248529 -0.037175227 0.022148352
0001b0 d7 c3 55 3c a1 1e 0d 3e 3c a8 3e 3d a1 f0 53 bd
       0.01304718 0.13781215 0.04654716 -0.051743153
0001c0 2a 4e 13 3d ef cc 0b bc 8b 11 94 3d 79 7c 98 bd
       0.035963215 -0.008532747 0.072299086 -0.07445616
0001d0 63 95 c2 bd 2d 83 70 bd a2 23 7f 3d a1 60 c8 3d
       -0.095011495 -0.05871885 0.06228984 0.097840555
0001e0 8e af 82 3c 0b 0f 61 be 30 91 41 be 64 46 42 bd
       0.015952852 -0.21978395 -0.18903041 -0.04743041
0001f0 4d bb 60 3d a8 e0 12 bb d4 8f 3d 3d 35 62 1d be
       0.054866124 -0.0022411738 0.046279743 -0.15369494
000200 0e 29 34 3b bd db 0e bd 0c b3 70 3d 21 31 9a 3c
       0.002749029 -0.034877528 0.058764502 0.018822255
000210 8c 2f ce bd 68 77 6c 3d 36 db 00 3d 04 9f 1f bd
       -0.100676626 0.057731062 0.031459056 -0.03897001
000220 0c 0f 82 bc f2 41 73 3d 66 71 32 3d 32 3a d7 bd
       -0.015876316 0.059389062 0.043565176 -0.10509147
000230 2a b1 c0 bd bf d5 8d 3d 25 ca 7c bd 46 9e bb ba
       -0.09408791 0.069255345 -0.061716218 -0.0014314137
000240 f8 4b c8 bd 82 bd ae bd 58 8b c4 bb 02 93 7d 3d
       -0.09780115 -0.085322395 -0.0059980564 0.061907776
000250 fa d7 48 bd eb bf 57 3d a7 66 8f bd b1 39 50 bb
       -0.049034096 0.05267326 -0.07002001 -0.0031772668
000260 0d 7f f0 3b fc bf 17 3d bc 01 44 bd f2 45 34 3d
       0.0073393644 0.037048325 -0.047853217 0.044012018
000270 db 5d 4c bd ae a9 06 3d e0 7e 3c 3d f4 39 ff 3c
       -0.049894195 0.032876663 0.046019435 0.031155564
000280 10 36 a7 bd 9d db 9e 3c ad 88 03 bd b0 84 04 3d
       -0.081646085 0.01939183 -0.032112766 0.032353103
000290 9c 57 87 3d 9a 3b 68 3d d5 83 5a 3c 30 65 93 bd
       0.06608507 0.056697465 0.013337095 -0.07197034
0002a0 80 de 5c 3d ba c4 e7 3c 31 24 c9 bd a9 43 8c 3d
       0.05392313 0.028292049 -0.09821356 0.06848843
0002b0 f3 a0 94 3d 88 c3 f8 3c 1a 03 93 bd 7c 9f 8f 3d
       0.07257261 0.030366674 -0.07178326 0.07012841
0002c0 c5 9a 32 bd 2d ec cb bd ed 79 02 be a9 a2 e8 3c
       -0.04360463 -0.09957156 -0.12741823 0.028397875
0002d0 8b 61 21 3c 36 d7 8f 3d dc f1 82 bc 2a 53 aa bd
       0.009849916 0.0702347 -0.015984468 -0.083166435
0002e0 bb c2 a9 3c 17 ff 13 3d ad 6c d1 3c 2e 09 0a 3c
       0.020722738 0.036131945 0.025564516 0.00842504
0002f0 28 cd 52 3d 7a 1a af 3d 71 d8 de 3c f8 9d 33 3c
       0.051465183 0.08549972 0.027202817 0.010962956
000300 21 31 99 bd 27 d6 bc bd 7a 82 0f bd 04 4c 17 3d
       -0.07480074 -0.09220534 -0.03503654 0.03693773
000310 1c e3 58 bd 61 ee a3 bc 2d 5a 4d 3c b9 65 99 bd
       -0.052950963 -0.020011129 0.012533707 -0.07490105
000320 86 ab ba bc bf c1 b6 3c 83 9f 35 bd 71 49 37 3d
       -0.022786867 0.022309182 -0.044341575 0.044747774
000330 2a 54 b4 bd 49 1f 46 3d 41 c6 b2 bd 25 4a b6 bc
       -0.088051155 0.04836968 -0.0872922 -0.022252152
000340 4d 78 21 3d 91 f1 c6 bb ae c2 50 3c 42 e4 5f 3d
       0.03942137 -0.0060712774 0.012741728 0.054661043
000350 92 81 b0 bd 4d 43 2f bc 3e 6a 6f 3d 08 8d 0c bd
       -0.086184636 -0.010697198 0.05845093 -0.034314185
000360 55 06 a1 3d 75 3f 6b bd 9e 3d 26 3d fb 73 fa bc
       0.07862536 -0.057433564 0.040586106 -0.030572882
000370 26 44 9d 3d 6d 24 94 bd 0f 9d 5a bd f0 77 9f bd
       0.07679014 -0.0723351 -0.05337244 -0.07786548
000380 de 8d 16 bb 72 92 83 bb 5c 72 82 3d 41 54 02 be
       -0.0022972743 -0.0040152604 0.063694686 -0.12727453
000390 fe 87 02 3c 67 c6 bb bd 5e f9 42 3d af 3d a1 bd
       0.007966993 -0.091687016 0.047601096 -0.07873093
0003a0 47 4b b8 bc 5b 81 98 bc 56 45 96 3d ba c2 6a 3d
       -0.022496833 -0.018616369 0.073374435 0.057314612
0003b0 2c bc 3f bd 39 99 85 3c a0 a6 52 3d 81 dd 2c ba
       -0.046810314 0.016308414 0.051428437 -0.0006594286
0003c0 92 32 98 3d 82 4b 1c bd 06 97 4d bd f8 3a 20 3d
       0.074315205 -0.038157947 -0.050192855 0.039118737
0003d0 ed 9c 75 3d 8a 40 f8 bb ae 15 5d bd e1 0b b0 bd
       0.05996411 -0.007576053 -0.053975753 -0.08596016
0003e0 f4 86 4c bd 22 3c a2 bd cc 40 1b bd fa 5a 32 bc
       -0.04993339 -0.07921626 -0.037903592 -0.010885948
0003f0 3e 8d 53 bd 59 cb b8 ba 42 8f 4e bd eb 08 b5 3c
       -0.05164837 -0.0014098688 -0.05042959 0.022098979

xy_encoder.flat_module.to_hidden.bias f4 [128]
000000 24 b7 98 bd 38 d6 b5 ba a3 9f 35 bd 4b 0a 4a bd
       -0.07456806 -0.0013873046 -0.044341695 -0.049326222
000010 f9 25 5b bd ce 8f f4 bd f1 ec 10 bc 70 99 33 3b
       -0.05350301 -0.11941491 -0.008845554 0.0027404688
000020 33 bf 3d bd 5e 0a e0 3b 4a 87 21 bd b1 fe 20 bd
       -0.04632492 0.0068371734 -0.039435662 -0.039305393
000030 a6 09 15 3c 1f 23 53 bc 7d a3 ad bc f9 50 2f be
       0.009096539 -0.0128867915 -0.021196121 -0.17120732
000040 ef 1e 88 bc 3b a1 2f be 17 48 e5 bd 12 c3 10 3d
       -0.016616313 -0.17151348 -0.11195391 0.035342284
000050 f5 20 93 bd 9c 09 81 bc e9 07 35 bd 12 32 aa bd
       -0.071840204 -0.015751652 -0.044196997 -0.083103314
000060 0e 81 2f bd 76 71 12 bd ba 4e 80 bc 8b 6f f2 bc
       -0.042847686 -0.035752736 -0.01566254 -0.029594203
000070 84 87 56 bd 07 e0 27 bd df 2e 9d bc 32 5a 3f bc
       -0.05237533 -0.040985133 -0.019187389 -0.011679219
000080 2b 65 2e bd e0 0c 30 3d f5 64 cd bd 6c ae 6d bd
       -0.04257695 0.04298103 -0.10029022 -0.05802767
000090 0b 64 2a bc 62 f7 16 bc ba 2f 99 bc 18 68 d4 ba
       -0.010399829 -0.009214254 -0.018699516 -0.0016205339
0000a0 a1 5b 69 bc ac f6 91 bd 67 99 28 bd 2c 5b 05 be
       -0.014243037 -0.07127127 -0.04116192 -0.1302306
0000b0 68 fa 18 bd 40 11 ec bb cc 46 d6 bd 1f ab e2 bc
       -0.03734818 -0.007204205 -0.10462722 -0.027669488
0000c0 64 d7 e2 bb 56 3e 74 bd 07 08 f8 bc 0f 29 36 bb
       -0.006922649 -0.05962976 -0.030277265 -0.002779547
0000d0 08 66 48 bd 50 27 a2 bc db ed 6d bd 54 a4 c4 bc
       -0.04892543 -0.019794136 -0.058088165 -0.024004139
0000e0 db 89 02 be d3 62 bd bd c7 6f 91 bc e8 02 9b bb
       -0.127479 -0.09247365 -0.017753495 -0.004730571
0000f0 c7 f2 4e bd d8 0c af bd 2d 30 73 bc 84 29 b3 3b
       -0.0505245 -0.085473716 -0.014843029 0.0054675955
000100 9a e7 a7 bd b7 4c 67 bc 2c 56 17 3c c4 5e 1f bd
       -0.08198471 -0.014117411 0.009236854 -0.038908735
000110 0b 13 78 bc e6 26 89 bc d2 f1 47 bd f4 b2 18 3c
       -0.015141259 -0.016742181 -0.048814602 0.0093200095
000120 f3 17 aa bd 26 2c 2b bc e1 f5 29 bd 48 a4 cc bd
       -0.08305349 -0.0104475375 -0.041494254 -0.09992272
000130 03 8e 5f bd 4e c9 95 bc ca 58 1b bd 30 8a 2a bd
       -0.054578792 -0.018284466 -0.037926473 -0.041635692
000140 15 3f a8 bd 3c 26 b0 bc fd b6 fd bb 38 b0 9c bd
       -0.08215157 -0.021502607 -0.007742761 -0.076507986
000150 4f cf ea bc 0e c8 89 bc e3 9d 22 bd 5f 5f 02 bd
       -0.028663306 -0.016819026 -0.039701354 -0.031829234
000160 39 0d 3a 3d d6 9d 92 bd 30 e3 7d bd 59 30 07 bd
       0.045422766 -0.07159011 -0.06198424 -0.033005092
000170 34 8e b1 bd 81 86 eb bc 1d aa b2 bc 71 1d c2 bc
       -0.08669701 -0.02875066 -0.021809632 -0.02369568
000180 4f e7 f4 bc 44 e8 04 bd 94 93 d0 bd ce f7 e2 bd
       -0.029895453 -0.03244807 -0.10184398 -0.11082421
000190 f8 37 27 bd 2b 92 2b bd bc 97 29 be 6f c0 ec bc
       -0.04082486 -0.041887444 -0.16561788 -0.028900353
0001a0 d5 bb 1c bd cb 11 8d bc fb b0 16 bc dc ec 11 3b
       -0.038265068 -0.017220398 -0.009197469 0.0022266423
0001b0 a1 ad 20 3d 4c 08 25 bd d7 58 cc bd 28 93 7d bc
       0.039228085 -0.040291116 -0.09977882 -0.015476979
0001c0 0b 95 91 bb 59 51 66 bb 37 4a 3b bd 7c d0 e2 bc
       -0.004442816 -0.0035143702 -0.045725074 -0.027687304
0001d0 02 b4 e0 b9 67 31 1a bb 65 e1 2a bc 6a bb d2 bc
       -0.00042858726 -0.0023527981 -0.010429715 -0.025724132
0001e0 5c 93 eb bc 4a 90 08 be 4c 51 c3 bc f6 8a 7e bd
       -0.02875679 -0.13336292 -0.023842476 -0.062144242
0001f0 73 24 d2 bc 57 05 2c bc 30 d3 8d 3c 35 77 e5 bb
       -0.025652146 -0.01049932 0.017312616 -0.007002736

xy_encoder.flat_module.linears.0.weight f4 [128, 128]
000000 8b e4 9b bd b3 4c 9f 3d 2c 09 90 bd 82 82 4a 3d
       -0.076119505 0.07778301 -0.070329994 0.04944087
000010 03 0e 9d bd f0 95 0a be e5 46 42 bd 15 e8 82 3d
       -0.07668688 -0.13533759 -0.04743089 0.063919224
000020 e8 2a b0 bd 7e 37 ac 3c e1 fc 86 3b c8 60 82 bd
       -0.08601934 0.021022554 0.004119501 -0.06366116
000030 31 b4 50 be 2c 99 c9 bc d7 fb 20 3d 45 c4 f7 bd
       -0.20381238 -0.02460917 0.039302673 -0.12097982
000040 0c e7 73 3d 64 3d 12 be b3 ca d0 bc e9 08 d8 bd
       0.059546515 -0.14281231 -0.02548728 -0.105485745
000050 db 4f 6f 3d 81 1f 93 bd e3 45 0e bd e7 a2 4c bd
       0.058425765 -0.07183743 -0.034734618 -0.049960043
000060 a0 80 bb 3c e1 9b 98 3d 21 ad 43 ba 4d 85 00 be
       0.022888482 0.074516065 -0.0007464458 -0.1255085
000070 25 5a ae 3b 23 87 32 bc 72 ac ec 3b 7c ec 58 bd
       0.0053208047 -0.010896477 0.0072227055 -0.052959904
000080 89 f3 3a be 9e 24 a3 3c 1e 3c c9 bd f5 25 9d bd
       -0.18256964 0.019914921 -0.098259196 -0.07673255
000090 e7 34 0a bc 12 f8 5a bd b6 35 c5 3d 71 07 81 bd
       -0.008435464 -0.053459235 0.09629385 -0.063002475
0000a0 8f 21 db 3d 2a e6 2a 3d d0 43 90 bd b6 47 01 3d
       0.1069976 0.041723408 -0.07044184 0.03156253
0000b0 a5 c1 9a bd ef 65 bd bb 5e c4 1f be 74 e8 54 be
       -0.07556466 -0.0057799737 -0.15602252 -0.20791799
0000c0 38 09 a7 bd 2a 13 3c 3d de 62 8e bd 92 19 ac 3c
       -0.08156055 0.045916714 -0.06952451 0.021008287
0000d0 23 8a be 3b cc ad f2 bd 6f dc bb 3d dd b2 57 bd
       0.005814807 -0.118495554 0.09172904 -0.05266081
0000e0 85 b5 c7 bd 74 dc 06 be 8b a5 6a 3d 01 73 b3 3d
       -0.09751419 -0.13170034 0.05728678 0.0876217
0000f0 45 e4 95 bd 30 bd f8 bb e5 dc dc 3c fa 4a 72 bd
       -0.073189296 -0.0075909123 0.0269608 -0.059153534
000100 65 39 51 bc 1e 24 4d bd d7 34 4e 3d 6c ad 53 bd
       -0.012770032 -0.050083272 0.05034336 -0.05167906
000110 56 e0 1e bd 91 04 60 bb 96 fa 0d 3d d3 75 4e bd
       -0.038788162 -0.003418241 0.034662805 -0.050405335
000120 c4 4f 22 bd 2f 04 bf 3d 9f 1a 4c 3d 96 2a 44 bd
       -0.03962685 0.0932697 0.049830075 -0.047892176
000130 07 7b 77 bd 70 13 64 3b bd 90 27 be ef 5a 44 3d
       -0.060420062 0.0034801625 -0.16363807 0.047938284
000140 0c 34 e8 bc 9a 63 4c 3c ae b5 1c bd 0c 29 94 bd
       -0.02834513 0.012474919 -0.0382592 -0.072343916
000150 91 9f df bd 53 2a 90 3d 92 1f 65 3d df be bf 3c
       -0.10919107 0.07039323 0.05593831 0.023406444
000160 1b 46 44 3d 73 f9 61 3a eb 77 ab bd 9b 9a 47 bd
       0.04791842 0.00086202397 -0.08372482 -0.048731428
000170 90 ab 8c 3b 47 4b a7 3d 48 66 86 bd c1 4e 8e bd
       0.004292913 0.08168655 -0.06562477 -0.06948615
000180 d0 c1 8e bd 99 48 79 bc d1 39 50 bd 42 0e 07 bc
       -0.069705606 -0.015215063 -0.050836388 -0.008243145
000190 21 b4 f0 3c 8d 23 04 3d cf 48 9f 3c bd 1a 56 3c
       0.029382767 0.032260466 0.019443898 0.013067898
0001a0 59 50 69 bc 8a 5d 49 bd 0a ed 19 3d fe 57 85 3d
       -0.014240348 -0.04916147 0.037579574 0.06510924
0001b0 2b c5 d0 bd 65 fa ef bb dc ae 40 3d 27 5e 29 3d
       -0.10193857 -0.0073235505 0.04704176 0.041349556
0001c0 17 59 06 3d b1 45 76 bd 12 2c c8 3c c9 d1 e2 3c
       0.032799806 -0.060125057 0.024435077 0.027687924
0001d0 5c 73 0e 3c 65 a6 9c bc a2 fa b5 3c be 69 b9 bd
       0.008694496 -0.019122312 0.022214238 -0.09053372
0001e0 c1 31 4d 3d 0a 21 17 be 64 f7 e8 bd 1b 8c 40 bd
       0.050096277 -0.14758697 -0.11375311 -0.047008615
0001f0 cf 69 3d be 2e 38 4e 3d da ad a3 bd 31 2a 89 bd
       -0.18497394 0.050346546 -0.07992144 -0.066975005
000200 46 a6 12 3d be d8 32 bd a3 0c 02 3d ab 9e 9f 3c
       0.035803102 -0.043663733 0.031750333 0.019484838
000210 7e a0 0d 3e b2 ce 95 3d 53 9e bb 3d 1f a6 4f bd
       0.13830754 0.073148146 0.09161057 -0.050695535
000220 7e a0 af bd 00 9c 36 bc ef c8 89 39 51 db 85 bd
       -0.08575533 -0.011145592 0.00026280383 -0.06535972
000230 8d f1 3e bc 7b 6b 32 bd 8e 05 60 3d 64 a9 c8 3d
       -0.01165427 -0.043559533 0.054692797 0.09797934
000240 92 24 69 3c cf 91 b7 3d 46 bb 06 3e 33 8a 0a 3a
       0.01422991 0.08963358 0.13157377 0.00052848755
000250 e1 16 b5 3d e5 63 f3 bd a2 7c f8 bc 56 02 1f bd
       0.088422544 -0.11884288 -0.030332867 -0.038820587
000260 2b 3f 9c 3d c2 f9 a3 3d 0f ef 03 bd 72 bb 00 bc
       0.07629236 0.08006622 -0.032210406 -0.00785719
000270 eb 9d d0 3b fa e1 86 bb 2b f1 d2 bc 66 1b 25 bc
       0.0063664815 -0.004116294 -0.025749763 -0.010077333
000280 14 e0 a6 3d 49 1a a3 bb d6 15 26 bd 6a e2 fb 3c
       0.08148208 -0.0049774987 -0.040548168 0.030747611
000290 d6 e4 09 3d 29 e6 d8 bc 87 f0 5e bd b1 22 1c bd
       0.0336655 -0.026476936 -0.054428604 -0.03811902
0002a0 a1 57 e4 bc 14 d6 fb bc 2c 01 46 3d ab 32 47 3c
       -0.027873816 -0.030741729 0.04834096 0.012158076
0002b0 90 b8 ca 3d 86 7f 99 bd e5 8c 40 bd 9c 66 61 bd
       0.09898484 -0.07495026 -0.047009367 -0.055029497
0002c0 a9 19 03 3d 84 3e ac 3d bb 14 04 bd c2 d9 a9 3c
       0.032006893 0.084103614 -0.032246333 0.020733718
0002d0 f1 04 82 3d 9d 74 8e 3c 5f b7 95 bd bc 4b 25 bd
       0.06348599 0.01738959 -0.07310366 -0.04035543
0002e0 dc be 7e 3d 20 c7 02 3c b1 94 6b bc 65 48 39 3d
       0.062193736 0.007982045 -0.0143787125 0.045235056
0002f0 ae 99 bd bc 27 f2 0f 3d 13 fb e5 3c 8e c8 17 3b
       -0.02314457 0.035143044 0.028073823 0.0023160311
000300 e1 9c 81 3d 74 35 9b 3d 7d 66 90 bd 54 ed 9e 3d
       0.063287504 0.07578555 -0.07050798 0.077601105
000310 28 5f 80 3c eb 7f d6 3b cf 05 a4 3d 54 b1 0e bc
       0.015670374 0.0065460107 0.080089204 -0.0087092705
000320 c2 60 b9 3d 1d ad 86 3d 1f 10 d8 3d 9a f6 19 bb
       0.09051658 0.065759875 0.1054995 -0.0023492933
000330 d4 4d d2 3d c1 e9 82 3c ee b0 22 3d 19 e1 88 bd
       0.10268751 0.015980603 0.039719515 -0.06683559
000340 0d 23 ba 3d cf ba 9e bd fe c1 94 bd 51 89 b9 bc
       0.09088717 -0.07750475 -0.072635636 -0.022648485
000350 10 0a 17 3d 0a 61 14 bd 8c 76 56 bd af b3 07 3d
       0.03687483 -0.036225356 -0.05235915 0.033130344
000360 bf aa 87 bd 06 00 cf 3c dc ae 8d 3d 0d 5d 3b bd
       -0.06624364 0.025268566 0.069181174 -0.045743037
000370 e2 37 1a 3d 26 4f 31 3c d9 cf 99 bd bd 9b 00 3d
       0.03765095 0.010822093 -0.07510347 0.031398524
000380 d9 d9 c6 bd a3 53 37 3d 85 34 b2 bd db 97 08 3e
       -0.0970952 0.044757497 -0.087014236 0.13339178
000390 82 ab 20 bd 92 e0 af 3d e2 f0 99 3d 04 18 04 3d
       -0.039226063 0.08587755 0.07516648 0.032249466
0003a0 94 b1 81 bd 0f 3f 95 bb 80 bd 9d 3d 02 8a d1 bd
       -0.063326985 -0.0045546363 0.0770216 -0.10231401
0003b0 47 72 3e bd 69 ce 21 3c 9d 26 07 3d ba b1 a2 3d
       -0.046495702 0.009875872 0.03299581 0.07944055
0003c0 5c a2 dc 3c fd fe 47 bd 0c 4e eb 3b e7 46 dc bd
       0.026932888 -0.04882716 0.007180935 -0.10755711
0003d0 0a 0e 3d 3c ae 8c f0 bb 1d 76 c4 3a 2c 22 8e bd
       0.011538992 -0.007340989 0.0014988814 -0.069401115
0003e0 e4 4f aa bd ec 66 dd 3c b9 1d c9 3c f8 82 31 3d
       -0.08316019 0.027026616 0.024550306 0.043337792
0003f0 40 db 82 bd 55 90 30 bc b4 ee ce bd 5c 67 84 3d
       -0.06389475 -0.010776599 -0.10104123 0.06465027

xy_encoder.flat_module.linears.0.bias f4 [128]
000000 a5 b9 90 3d b7 b4 95 bd 5e 5c a9 bc 5b cb a7 bc
       0.07066659 -0.07309859 -0.020673927 -0.02048271
000010 8b e2 76 3a c2 0f cf bb fd 98 3b bc 75 cc 38 bd
       0.0009417913 -0.006319017 -0.0114500495 -0.04511686
000020 15 c1 c8 bc 82 f4 00 bd 85 7f 40 bc eb 60 7a bc
       -0.024506131 -0.03148318 -0.011749153 -0.015281896
000030 79 64 e3 bc a1 72 6b 3c d1 68 a8 3b f6 51 81 3d
       -0.02775787 0.014370591 0.005139448 0.06314461
000040 1d 3f 22 bd 35 a3 80 3d e2 3a 83 bd 67 cf e5 bc
       -0.03961097 0.06281129 -0.064077154 -0.028052999
000050 d9 1d 1f bd b3 6d d4 bc 70 b7 70 3d 13 46 68 bd
       -0.038846824 -0.025931215 0.05876869 -0.056707453
000060 46 70 09 be 1b 50 ce 3d c1 17 e4 bd 96 2d 40 bc
       -0.13421735 0.10073873 -0.11137343 -0.011729619
000070 e8 59 2a bd f8 40 0e 3d b0 3b 11 bd 4d 5a 93 bc
       -0.041589648 0.034729928 -0.035457313 -0.017987395
000080 30 0b 85 bd a8 23 82 bd 88 b0 93 3c f7 4b 86 3d
       -0.064962745 -0.06354457 0.018028513 0.06557458
000090 f3 10 aa bc a1 a1 c2 bc 19 14 f0 bc f5 e7 26 bd
       -0.020760035 -0.023758711 -0.029306458 -0.040748555
0000a0 a2 6d 11 bd 5a 7d a8 bc 1c 4d 04 be 07 be 0e bc
       -0.035504945 -0.020567585 -0.1292004 -0.008712298
0000b0 dc 06 fc bd 50 0a 1c bd e5 5c c6 bd 51 69 3a 3d
       -0.12305996 -0.038095772 -0.09685687 0.045510594
0000c0 9d ab 37 bd d7 e6 89 bc 74 3f 90 bd c1 9a 54 bc
       -0.044841398 -0.016833706 -0.07043353 -0.012976349
0000d0 f5 de 19 bd 42 71 51 bd b0 ea 6c bc cb 6a 78 bc
       -0.037566144 -0.0511334 -0.014460251 -0.01516218
0000e0 af 29 b1 bc 9a 7f d5 bc 96 58 89 bc 73 ae 82 bc
       -0.021626322 -0.026061822 -0.016765874 -0.015952324
0000f0 2f eb 1e bd c3 5d 33 bd 7a 10 53 bd 62 d4 ed bc
       -0.038798507 -0.04379059 -0.051529385 -0.029031936
000100 63 15 5e bc bc e4 2d 3d ee e9 82 bd da 60 52 bd
       -0.013554904 0.042454466 -0.06392275 -0.051361896
000110 b5 84 ee bc d2 3b a1 bc e8 bf 43 bd e7 e3 3f bd
       -0.029116014 -0.019681845 -0.047790438 -0.046848204
000120 b4 58 14 bc 8d fc 87 b9 4e 76 77 bd c8 6d ec bd
       -0.009054352 -0.00025937372 -0.06041556 -0.115443766
000130 83 c5 38 bc f5 61 4d bc d4 8a 2e 3e 86 34 3c bd
       -0.011277559 -0.012535562 0.17045146 -0.045948528
000140 b8 eb cb bc b4 71 d4 3d 70 bc da 3b e7 7c 8d 3c
       -0.024892673 0.1037325 0.0066752955 0.017271472
000150 42 1a 24 bd 18 91 e5 3d 76 cb fc bd a1 1e 52 bd
       -0.040064104 0.11209315 -0.123434946 -0.05129874
000160 88 ba 0e bd d6 04 88 3c c3 78 9d bc 2b 8f af bc
       -0.03484586 0.016603868 -0.019222623 -0.021430572
000170 f1 85 24 3c 74 3f 62 bc 72 03 fa 3a 1f 2c 96 bc
       0.0100417 -0.013809074 0.0019074513 -0.018331585
000180 74 6a 13 bd 1e 49 0e 3d fd 97 d4 3c 50 1e 37 bc
       -0.035990193 0.0347377 0.02595138 -0.011176661
000190 c0 74 15 bd 36 9c 6a 3d 01 c8 a7 bd ef 3f 11 bd
       -0.036488295 0.05727788 -0.081924446 -0.035461362
0001a0 13 0d 0f 3c 11 90 50 bc 0a 79 3f bc d9 e6 ce 3d
       0.0087311445 -0.012729661 -0.011686573 0.101026244
0001b0 53 1e 17 3d 9d c0 e3 bc 69 e6 b4 bd 6f 4d 36 bd
       0.036894154 -0.027801806 -0.0883301 -0.04450744
0001c0 88 c8 0b be dd 92 d9 3d b1 d2 3d bc dc c9 36 bc
       -0.13650715 0.10623715 -0.011585877 -0.011156525
0001d0 fe d5 e1 bc f8 db 97 bc f1 d5 cd bd e4 e5 f0 3c
       -0.02756786 -0.018537506 -0.10050572 0.029406495
0001e0 7f 9b 99 bd c0 1c 25 bc 55 0d 6c bd f8 7a 14 bd
       -0.07500362 -0.010077655 -0.057629902 -0.036250085
0001f0 3d 80 9b 3c 9b 89 05 3d 28 b8 a7 bc ca 11 0f 3d
       0.018982047 0.032601934 -0.020473555 0.034929074
