results/notebooks/neural_process/RBF_Kernel/attn_cnp/run_0/params.pt (torch_old, 753443 bytes, 36 tensors)

x_encoder.to_hidden.weight f4 [32, 1]
00000000: 715c b7be 0d0a 36bf e99e 84bf 2527 753e
00000010: 6c84 493c 158c a93f 510e c6be b0f6 a53e
00000020: 9b31 5a3f 6283 633f ab18 abbe 8719 163f
00000030: 1387 653f 03a8 88bf b2c1 933e 74d9 cf3e
00000040: 83b5 0fbf 1278 38bf 86cc 7d3f 3e21 773f
00000050: b58f a43e d2fe c7be 96bd 2ebf a2da 2d3f
00000060: 0889 3b3f 5779 83be f82e e6be ba6a 6abf
00000070: c827 973f c028 a93e 2e03 a73f 79bc 96bf
-0.35812715 -0.71109086 -1.0360996 0.23940714 0.012299638 1.3245875 -0.38682798 0.3241477
0.8523194 0.8887235 -0.33417258 0.586327 0.8965923 -1.0676273 0.28858715 0.4059559
-0.5613634 -0.7205821 0.99140203 0.965351 0.3214089 -0.390616 -0.68258035 0.6791173
0.7325597 -0.25678512 -0.4495771 -0.915691 1.1809015 0.33038902 1.3047845 -1.1776267

x_encoder.to_hidden.bias f4 [32]
00000000: 95ad aebd c9e7 11be c94f ecbc e999 4b3e
00000010: 3564 c03e 868c 7bbe c4f7 7f3e e7a9 70be
00000020: 9ee2 e53e 0ddd 9a3d 0407 993e 3cdf c93e
00000030: 4edb 96be 9f42 503d 4243 973c c030 a43e
00000040: 47ba aebe 90ce cd3e 57fa 8a3e 658a c63e
00000050: fed2 ae3c 2701 a23e a959 a63e ea23 60bc
00000060: 4666 733e 7769 42be 7fa8 59be e7e3 b83e
00000070: 3552 2a3e 9de6 963e 3628 24be c6f9 a03e
-0.08529202 -0.14248575 -0.028846638 0.19882931 0.37576452 -0.24565324 0.24996859 -0.23502313
0.44899458 0.07561693 0.29888165 0.39428127 -0.2946419 0.050844785 0.018464688 0.32068443
-0.34126493 0.40196657 0.2714412 0.38777462 0.021340843 0.31641504 0.3249028 -0.013680438
0.23769483 -0.18985544 -0.21255682 0.36111376 0.16632922 0.2947282 -0.16030964 0.31440562

x_encoder.out.weight f4 [128, 32]
00000000: 0427 afbe 86c6 eb3e cbf6 c63e eec4 acbd
00000010: c0a3 0c3f 7015 a13e 2690 24be dee3 5abe
00000020: 642a aebc dafd 123e 9444 033e f1b4 b53e
00000030: 7153 0abe 8795 80be e8d3 b5be 058f 993e
00000040: 48c2 bc3e 7eee cc3d 8054 e93e 62ff 00be
00000050: f600 5ebe 8c00 653e 36dc a5be 3196 81be
00000060: 6e7c 753e d623 8d3e 70cc dfbd 0f3c 883e
00000070: 8b94 df3e 6643 823e 3b3c f9bd 39fc bc3e
00000080: 708b 9d3e 7c2d 9e3e d115 a3bd 13b9 59be
00000090: a286 013f 05d0 c43d a50e ec3e 7526 3abe
000000a0: d1ed 81be 0aa6 c5be ff07 ff3e 03ba 343e
000000b0: 8ff0 c4be 03eb 923e 2296 eebe 9b2f 233e
000000c0: fab5 febe 308c 4dbe f6eb d7be 982a dabe
000000d0: f95e 3a3e 13af 6f3e 3258 573e 26f1 313e
000000e0: 66f4 f5bd 9909 1cbf fda6 f3be fe26 c83d
000000f0: 13f7 9e3d a516 87be 21f4 e73c 5c3b 52be
00000100: 32d3 52be bbcd 6abe fd91 7dbd 912c 613e
00000110: 809d a3bd af37 97be 0704 da3e ed86 cabe
00000120: 75b0 c13d bdfc 1dbe 0ba9 5c3e c7ff 5abd
00000130: 1dd9 a33c 97f0 75be 7b2e b23e ce5d 53be
00000140: 1514 ee3d 9116 923e cfcf f5bd 4446 88be
00000150: 4a51 ccbc 8b01 e93e d410 be3e 6fe9 87bd
00000160: f471 babe c380 473e 03d2 6a3e fc64 aabd
00000170: 205b ad3d 263c 9f3d 830f c1be c136 f43e
00000180: 24b1 2e3e 4aa1 6fbd edd6 ad3e fac0 053e
00000190: 74bc fabc d41b fbbe 13b3 88bd d5ff b6bd
000001a0: 9f94 b93d 6e80 1c3d 360d 6cbd c633 953d
000001b0: 66d0 d5be 015d 823d ef34 aebd c751 69be
000001c0: f182 823e 97ed bcbe 1be7 e2be f55a 8cbe
000001d0: 365d 67bd 96ef 013f fffc 513e fa51 cbbd
000001e0: ea09 873c 93f6 95be e84f f9bb b8c1 b9bc
000001f0: 8678 03bf 20bb cabe 26ea d6bc a03d df3e
00000200: cd4d c5bc 13d0 e7be 9d49 713e f0e4 443e
00000210: fbee efbd 2bb6 2f3e 832e 8bbe 7294 223e
00000220: 740a e53d f214 853d d39f 3a3e c068 19be
00000230: e651 d63d 560c 17be 10b0 ed3e c510 223d
00000240: 144e afbe 8d95 cbbd 4c16 ca3e cdbf acbe
00000250: 5a8e 4d3e 4335 8abe 103c adbe ee77 873e
00000260: 4718 cb3e 7fcb afbd 9567 e9bd bbfd 8bbe
00000270: 9ddd e03c cf6f e53e ed06 adbe 646e 713e
00000280: 0e09 0c3f d8d9 9a3e 0385 1f3f 8266 443d
00000290: 23ba 1cbe 5063 4e3e c731 b5bc 7963 4ebe
000002a0: 1cc4 8abd 52a9 1cbe 71fb ab3d f84c c13e
000002b0: 78b1 843c 5a20 e93d 91d2 6cbe 0c08 7ebc
000002c0: 0a2d c73e 84ea 98be d9d7 08bd 11de aa3e
000002d0: 09bc 60bb 12ca ac3e d064 ad3e 48d8 07be
000002e0: d4c9 1e3e 2392 843f 0002 673f de45 3bbd
000002f0: 3d4e c7bd e7bb ccbe 5981 b4be c342 143f
00000300: 8121 39be 90d2 08bf 0721 02bf fad6 693e
00000310: 6ab8 233f 7895 cb3d 4a63 1c3d 0a3d 1ebc
00000320: 3bfb 003f b73a 893e 59f7 263e 4b51 ac3c
00000330: de89 e5be 0992 2fbe 1f51 a93e 748c b03d
00000340: 1b0a babe 90e1 653e 15f3 b43d 0408 d13e
00000350: eb57 893e bfbb 26be e515 4abe b413 8f3e
00000360: 3b42 6dbd 4b4c 01bf f13d f9bc 2cd2 993e
00000370: 7385 9dbe 2194 3b3f ef55 50be 0c9e e6ba
00000380: 971c 9a3e cac4 b73e 2ced da3e 68df d33e
00000390: bf3a 9f3e af24 d0be f78c e63c 55e9 933e
000003a0: 4a77 013c 3aa5 01be 07a7 1d3f 0a95 ba3e
000003b0: afb2 fa3d a461 8cbe 2138 06bc 58a9 a53e
000003c0: 7131 0b3e 5187 703e 1bab 7cba 2eaf 11be
000003d0: 51b5 683e 5b13 43be b6b0 0c3f 744b e03d
000003e0: 9c96 b4bd 80d4 803e 0194 d53d b487 aebd
000003f0: a364 8cbb 1937 36bd 161b b8be 5f05 883e
-0.34209454 0.460499 0.38860163 -0.08435999 0.5493736 0.31461668 -0.16070613 -0.21375987
-0.021260448 0.14354649 0.12819129 0.3548961 -0.13508393 -0.2511408 -0.35513234 0.29991928
0.36866975 0.10006426 0.4557228 -0.12597421 -0.21680054 0.2236349 -0.3239457 -0.253099
0.23973247 0.27566403 -0.10927665 0.2660832 0.43668017 0.25442046 -0.12169691 0.3691118
0.30770445 0.30894077 -0.079631455 -0.21262006 0.5059606 0.09609989 0.46104923 -0.18178733
-0.25376752 -0.3860324 0.49810788 0.17649083 -0.38464782 0.28694925 -0.46598917 0.15936129
-0.49748212 -0.20073009 -0.4217221 -0.4261062 0.18200292 0.2340663 0.21029738 0.17377147
-0.12009506 -0.60952145 -0.4758834 0.09773062 0.077619694 -0.26384464 0.028314652 -0.20530456
-0.20588377 -0.22930042 -0.061906803 0.21989657 -0.07989025 -0.2953467 0.42581198 -0.39556065
0.09457485 -0.15428443 0.2154886 -0.053466585 0.020000989 -0.24017559 0.34801087 -0.20641252
0.11624924 0.28532842 -0.12002527 -0.26616108 -0.024941105 0.4550899 0.37122214 -0.06636321
-0.36415064 0.19482712 0.22931676 -0.083200425 0.08464646 0.07775144 -0.37707147 0.47698024
0.17059761 -0.058503427 0.33953038 0.13061896 -0.03060744 -0.4904467 -0.06674781 -0.08935515
0.0906155 0.038208418 -0.057629786 0.072852656 -0.41760558 0.06365395 -0.0850619 -0.22785102
0.25490525 -0.36900017 -0.44316944 -0.27413145 -0.056485377 0.50756204 0.20506667 -0.09927745
0.01648422 -0.29289684 -0.0076084025 -0.02267538 -0.5135578 -0.3959589 -0.026234698 0.43601704
-0.02408495 -0.45275936 0.23563237 0.19227958 -0.11715504 0.17159335 -0.27183923 0.1587694
0.111836344 0.064981356 0.1822503 -0.14981365 0.1046484 -0.147508 0.46423388 0.039566774
-0.34239256 -0.09940634 0.39470136 -0.33740082 0.20073834 -0.2699376 -0.33834887 0.26458687
0.3966696 -0.08583736 -0.1139671 -0.27342018 0.027449423 0.44811866 -0.33794346 0.23577267
0.54701316 0.30244327 0.62312335 0.04794932 -0.1530538 0.20155072 -0.022118462 -0.20155133
-0.06775686 -0.15298966 0.08397568 0.37754035 0.016197905 0.11383124 -0.231272 -0.015504848
0.3890155 -0.2986642 -0.033408973 0.33372548 -0.0034291765 0.33747917 0.33865976 -0.13266098
0.15506679 1.0357097 0.90237427 -0.045720927 -0.0973172 -0.39987108 -0.35254934 0.5791437
-0.18079187 -0.5344629 -0.50831646 0.22835913 0.6395327 0.09940618 0.038180627 -0.0096581075
0.5038335 0.26802608 0.16305293 0.021034857 -0.44831747 -0.17145552 0.33069703 0.08620539
-0.36335835 0.22449327 0.08835427 0.40826428 0.2682489 -0.16282557 -0.19734915 0.2794472
-0.05792449 -0.5050704 -0.030425044 0.3004316 -0.30765876 0.732729 -0.20345281 -0.0017594709
0.30099937 0.35892326 0.42759073 0.41381383 0.31099507 -0.40652987 0.02814339 0.28888956
0.007901976 -0.12660685 0.6158299 0.36441833 0.122411124 -0.27418244 -0.008192093 0.32355762
0.13593079 0.23489119 -0.0009638534 -0.14226982 0.22725417 -0.19050352 0.5495714 0.109518915
-0.08817789 0.25162125 0.1042862 -0.08521977 -0.004284458 -0.04448614 -0.35958165 0.26566598

x_encoder.out.bias f4 [128]
00000000: 2a64 093e 9df5 123e 5c25 1e3d 6c09 68bc
00000010: da98 b73c 0690 aebb 4e29 6b3e 3ba3 893d
00000020: c4c4 c93d e7d9 a73d 3d09 e3bb 0229 e13d
00000030: 9c89 15be 6d17 933d d227 91bc b60c 06be
00000040: 0fae 2d3e 48c3 1cbe 65ea bc3d 7b72 8bbc
00000050: 7593 1dbe 6f9c a7bd 3c54 4abe 5502 713e
00000060: a235 15bd 3e6a 933c e54c b33d 46a4 693d
00000070: 3b8f 24be 8d28 36bd fac5 06be c53b 2e3e
00000080: cb07 ee3d 1681 b03d 32cd 9ebe b0e8 b5bd
00000090: ff80 423e f2a3 f6bc f66b 84ba 4d78 7f3e
000000a0: b23b d8bd 65c2 c4bc 181a 46bd 2c34 b2bd
000000b0: 87e5 023d f7de e53c e187 2d3d c9c4 60be
000000c0: b42a b93d 6e13 9cbe 4e62 383d 1248 9dbe
000000d0: c842 dcbd 9697 fbbd b9c1 37be 1724 393c
000000e0: 1729 b9bd 9f77 083d 4421 22be 9b95 0ebe
000000f0: 220b 35be 0725 283d 0b3e 81bd 490b 923d
00000100: f2e1 923c 8788 4ebc 5a38 04be 8c01 733c
00000110: b531 8e3c e2d5 713d f5c5 3b3e 546f 30be
00000120: 5180 373a 4393 813c e16f 913e 1f55 493e
00000130: 3822 773d 7e2f 98be 6aa4 a1be e17b a1bc
00000140: f5e2 7ebd e075 8dbd abbe d53d 7b7d 7abe
00000150: 1c72 c4bc 1b42 1dbe e445 5f3d 128f 8fbe
00000160: 099d 2b3e 17e3 9fbd c2d0 8abe cbd1 afbd
00000170: de8b 4bbe d15e 7f3e ecbf c53d 4bf4 44be
00000180: 42bc c9bc 63c5 d73d 3259 db3d 0fcf 3a3d
00000190: 7037 29be 1a5e c23c 5015 c1bd 1929 82bd
000001a0: 9a22 43be 38e2 703d 8d3e 5d3d f7f5 a8bc
000001b0: dc0f 453e cc92 edbd 1268 4bbe 2ae4 783d
000001c0: 2690 8a3d b77f 68be 31c1 3d3d 3668 503e
000001d0: 56cf 38be d5fd b2be acc0 1b3e 91b7 80be
000001e0: 1ad9 12be 3aab be3d 4dc9 a03d 6de0 6dbd
000001f0: 4868 913c ac2c 4f3e f60c 593e 2174 a33b
0.13417116 0.14351507 0.038609847 -0.014162403 0.022411752 -0.0053272275 0.22964975 0.06720587
0.09851983 0.081958584 -0.0069285915 0.1099415 -0.14603275 0.071822025 -0.017719183 -0.13090786
0.1696093 -0.15308869 0.09224395 -0.017022362 -0.15388282 -0.08184134 -0.19758695 0.23536046
-0.0364281 0.017994996 0.08754901 0.05704143 -0.16070263 -0.044472266 -0.1316146 0.17014988
0.1162258 0.08618371 -0.31015927 -0.08882272 0.1899452 -0.030107472 -0.0010102976 0.24948235
-0.10558261 -0.024018476 -0.04836473 -0.08701357 0.031957176 0.02806042 0.042365912 -0.21950068
0.09041348 -0.30483574 0.045015626 -0.30719048 -0.10754925 -0.12284772 -0.17944993 0.011300108
-0.090410404 0.033317205 -0.15833002 -0.13924257 -0.17680028 0.041050937 -0.06310662 0.07131059
0.017930005 -0.012605793 -0.12912121 0.014831912 0.017357687 0.059041865 0.18337233 -0.17229968
0.00070000166 0.01581729 0.2840567 0.19661377 0.060335368 -0.29723734 -0.3157075 -0.01971239
-0.06222816 -0.069072485 0.10436758 -0.2446193 -0.023980193 -0.15357248 0.054510012 -0.2803884
0.16759123 -0.07806986 -0.27112395 -0.08584937 -0.19877574 0.24938513 0.09655747 -0.19233815
-0.024625901 0.105356954 0.10710372 0.045607623 -0.16525054 0.023726512 -0.09427893 -0.06355495
-0.19056168 0.05880949 0.05401473 -0.020625098 0.19244331 -0.11600265 -0.19863918 0.06076447
0.067657754 -0.2270497 0.04632682 0.20352253 -0.18047842 -0.34959283 0.15210217 -0.2514005
-0.1434063 0.093100026 0.07850895 -0.058075357 0.01774992 0.20231885 0.2119635 0.004988209

xy_encoder.resizer.to_hidden.weight f4 [32, 1]
00000000: a86e 2c3e bd76 fc3e 4368 503c e945 9b3d
00000010: 5d6d 343f 532f 67bf 83f6 34bf 8db4 e53e
00000020: 9d2d 0ebe daa1 df3d 2c71 2cbf d48f 633f
00000030: e05d 94be 6fac 62bf ff36 983e baee 3bbf
00000040: dd65 b4be 9496 17bf db71 5fbf c53b 1c3e
00000050: 48b8 11bf 5e8f a83e e855 3a3e d133 42bf
00000060: 58a9 9dbc 4f35 35bf 2971 babe 13b1 9d3e
00000070: ecb1 4b3f 0796 e53e 9a70 68bf 4eef 4abf
0.16839087 0.4930934 0.01272017 0.07581694 0.70479375 -0.90306586 -0.7068865 0.44864312
-0.13884588 0.109195426 -0.67360187 0.8889134 -0.2897787 -0.8854436 0.2972946 -0.7341114
-0.35233966 -0.5921414 -0.87283105 0.15257175 -0.56921816 0.3292188 0.18196833 -0.75860316
-0.019245788 -0.7078447 -0.3641446 0.3079916 0.7956836 0.44841024 -0.90796816 -0.792714

xy_encoder.resizer.to_hidden.bias f4 [32]
00000000: a5d5 85bd cf69 5abc 1819 6cbd d6c6 763c
00000010: 3e5a 43bc eb45 0fbd 46e3 163d 242a 11bd
00000020: 1665 b63c e9eb 9ebd 335f ccbc 5521 063c
00000030: fa66 8c3c de48 9ebd bfb6 823c def0 babd
00000040: af28 36bd 896d c2bd 07b5 70bd 9d0e 8c3b
00000050: c72b 82bd 9ef8 07bd 2e41 c73c c9f7 cebc
00000060: 5031 77bd 336d 133c 07f8 49bc 7390 15bd
00000070: 3174 093c 7692 13bd 9bd7 6cbc 5f3f 8c3d
-0.0653489 -0.013330891 -0.05764112 0.015062055 -0.011923371 -0.03497879 0.03683784 -0.03544058
0.022264998 -0.0775984 -0.024947738 0.008186658 0.017138947 -0.07728742 0.01595628 -0.09127973
-0.044472393 -0.094935484 -0.05876639 0.004274203 -0.06356006 -0.033196084 0.024323072 -0.025264638
-0.060349762 0.008998203 -0.012327201 -0.03651471 0.008389519 -0.036028348 -0.014455701 0.068480246

xy_encoder.resizer.out.weight f4 [128, 32]
00000000: 014f 8b3e 5ee4 903b a6d4 aa3d fba4 51bc
00000010: ff94 e6bd 8852 b9be 31ae 90be c254 c4be
00000020: 248c d23d 8347 0d3e ccc5 a93b 63a9 3fbd
00000030: 4212 97be 1f36 223d 271d b03e 36e8 09be
00000040: 0989 94be 91f4 dd3c 019a 58be bb79 e0bd
00000050: d63d a23e e744 853e 3618 d4be 5549 303e
00000060: 4e01 5fbd f82a adbe 26f7 23be e0bb a03e
00000070: 6d1b a1be 7837 0a3c badf ccbe ff1f aa3d
00000080: bf8a 0dbf f1a1 18be c3d0 babe 43bf ebbe
00000090: ee33 5cbc 3f47 043e 53a5 d03e cde9 15bf
000000a0: a7f8 3cbd 9b16 0ebf e0df 53bd 5ba0 07bf
000000b0: 3f8d e83c fa49 223c c694 c03d c6d6 97be
000000c0: ab3e ccbe 718b d63b 64b5 d73c 310e 323e
000000d0: 223e 733e 64b1 453e ff8c d1be 22e0 023e
000000e0: 2a08 57bd fe1e a5be 6949 8a3e fd80 8ebe
000000f0: ccc6 c5bd 657b 9cbe 966f b23e 46d5 d93d
00000100: 31fb b83d 05c2 13be 3e98 ba3e bc0b 17be
00000110: af8f 6ebe 495b 9d3e 74db 863e c327 cfbe
00000120: a3b4 3bbe e00c 75be ff6a 47be bb59 a1be
00000130: 40d0 89be 551c c6bb 854c c43e 9884 393e
00000140: 5547 153c 49fa 85bd bb17 263e 7629 d9be
00000150: af0d c9be f366 a1be 8ecd a83e f4ed b4be
00000160: 92ca 93be 75e1 4ebd f7ee 453e e883 b1be
00000170: 3f3c b3bb 10ed 563d b4a9 313e 0d21 aabe
00000180: 99dc bbbd c6fa d7bc 2960 a2bd 3a24 58be
00000190: 0d10 683d 68fa be3e 8208 fd3d 6a3b 02bd
000001a0: bac0 bfbe 750a 09bf 2697 a8be fbce bdbe
000001b0: 3e84 733d 154a 8b3e 577a 4e3e 8a6d bb3c
000001c0: 52fd 3abe fe46 c73e d930 5d3e d1b2 c6bc
000001d0: cdbd 0cbe 92fe b9be 3afd 94bc 634e 4c3e
000001e0: 3ab6 95be 50d1 ab3c ae0e e7bd d6be a93e
000001f0: 83d5 83be be32 ecbe c57a efbd 54fb e73c
00000200: 10ca b83e 9754 b0be 5fe2 f33d 3610 9bbe
00000210: f718 85be 2b06 20be 3b3f ea3d 3322 c73e
00000220: cc07 61bc 9fee 923e 9707 b8be 646c 8a3e
00000230: 5481 8c3e 1b42 493e c193 9dbe e174 5a3d
00000240: 09dc 523e fee3 743e dfb1 853e faf5 18be
00000250: 71c2 b93e f095 bb3e d73c e83c f68b 813e
00000260: 11a4 433e 3b23 d8be d693 e6bd 2d54 653e
00000270: 86a0 68bd 1547 d13e 102e c73e 623c 2bbe
00000280: 9b09 84bc 7a2a 3abe e2e2 7a3e 8d4e 82be
00000290: dd91 873d d29b f1bc 47bc 503c e032 a03e
000002a0: b14b d0be 9fcd 083e fd03 133e 1330 a03d
000002b0: cc68 aebe a094 f3bc c09d 6a3d d076 4a3c
000002c0: d2a6 b0b9 1036 b5be 43f6 a53e 1b12 d43e
000002d0: 4cf6 b43e f6f0 14be d48d 94bd 42a4 c93d
000002e0: 324f c03e 1e76 d4be e2c8 ddbc 71d7 bfbd
000002f0: 4a18 133e b7ec 9b3e 0c66 d4be fb39 97be
00000300: 84bf c83d c5a3 d4be 23cc ab3e 0101 6ebe
00000310: 584d 863e 44bb aebe d985 4dbe c533 d2be
00000320: 8540 eebe 65db 9a3e dbec 5b3e a938 dd3d
00000330: fd8f 7a3e a9cc 64bd cee2 8c3e c320 25be
00000340: 6512 abbe 6ccf 773e ad71 913d 3eed 063e
00000350: 1c34 2e3c beda 833e 8253 c33e db14 aabe
00000360: dd44 07be dc2b 92be 5631 acbe 64d1 363e
00000370: 2b8a a5be bc50 973c 7716 f2be e659 bbbd
00000380: e91e 49be 7774 b7be b927 acbe 9f15 903e
00000390: 926f 84bd 6494 8abe 232c af3e 27e7 41bb
000003a0: cea6 41be 7acd 853d 6ba7 263e 0140 0f3d
000003b0: 2c59 acbe 2d28 e2be e72e a5be 5644 393e
000003c0: b929 aabe 9d84 a93d ecca cabd 4185 ba3e
000003d0: 6463 59be 420f 833e 7b92 113e 1e10 603d
000003e0: ccd1 793e ba46 d9be 5767 083d 0934 2abe
000003f0: 3675 cfbd 324e 393e 3628 eebe 267e 22be
0.27208713 0.0044217547 0.08341341 -0.012795682 -0.112588875 -0.3619578 -0.28257897 -0.38345915
0.10280636 0.13796811 0.00518105 -0.0467924 -0.29506117 0.039602395 0.3439724 -0.13467488
-0.290108 0.027094157 -0.21152498 -0.10960718 0.31687802 0.2602913 -0.4142472 0.17215474
-0.054444604 -0.33821845 -0.16012248 0.31393337 -0.31466237 0.008436076 -0.4001444 0.08306884
-0.55289835 -0.14905526 -0.36487398 -0.4604436 -0.013440115 0.12917803 0.40751132 -0.58559877
-0.04613557 -0.55503243 -0.051727176 -0.5297906 0.028387664 0.009905333 0.09403376 -0.29656047
-0.39891562 0.0065473844 0.026331611 0.17388226 0.2375417 0.1930595 -0.40927884 0.12780812
-0.05249802 -0.32250208 0.27009133 -0.27832785 -0.09657058 -0.30562893 0.34850758 0.10636382
0.09032286 -0.14429481 0.36444277 -0.1475057 -0.23296998 0.30733708 0.26339304 -0.40460023
-0.18330626 -0.23930693 -0.1947441 -0.3151377 -0.26916695 -0.006045858 0.3833963 0.18116987
0.009111245 -0.06541879 0.1621999 -0.42414445 -0.39268252 -0.31523857 0.32969326 -0.35337794
-0.28865486 -0.05050798 0.19329439 -0.3467095 -0.0054698284 0.052472174 0.17349893 -0.3322834
-0.09172935 -0.026364695 -0.07928497 -0.2110757 0.056655932 0.3730042 0.12355138 -0.031794943
-0.37451726 -0.5353158 -0.32927817 -0.37071976 0.059452288 0.27204958 0.20163856 0.02287938
-0.18260697 0.3892135 0.21600665 -0.024255188 -0.13744278 -0.36327034 -0.018187154 0.19951777
-0.2924059 0.020973831 -0.11282097 0.3315341 -0.25748834 -0.46132463 -0.11693338 0.028318085
0.3609166 -0.34439537 0.11908411 -0.30285805 -0.2599561 -0.15627353 0.114378415 0.3889328
-0.013734769 0.28697678 -0.3594329 0.2703582 0.2744242 0.19654123 -0.3077679 0.05333412
0.20591749 0.23915097 0.26112267 -0.14937583 0.3628116 0.3663783 0.028349323 0.25302094
0.19105555 -0.4221438 -0.11258666 0.22395392 -0.056793712 0.40874544 0.3890233 -0.16722253
-0.016117861 -0.18180266 0.24500611 -0.25450554 0.06619618 -0.029493246 0.012740201 0.31288815
-0.40682748 0.13359688 0.1435699 0.078216694 -0.3406433 -0.029733956 0.05727935 0.012357429
-0.00033693627 -0.3539281 0.32414445 0.41420063 0.3534416 -0.14545044 -0.07253614 0.09845783
0.3756042 -0.41496366 -0.027073327 -0.09367264 0.14364734 0.30454037 -0.41484106 -0.29536423
0.09802154 -0.41531196 0.3355418 -0.2324257 0.26230884 -0.34127247 -0.2007059 -0.41055122
-0.465336 0.3024551 0.21477072 0.10801823 0.2446899 -0.05585924 0.27516788 -0.16125779
-0.3341247 0.24200219 0.0710176 0.13176438 0.010632541 0.25752825 0.3814965 -0.33219036
-0.13209863 -0.28549087 -0.3363139 0.17853314 -0.32331976 0.018471114 -0.47282764 -0.09148006
-0.19640698 -0.35831043 -0.33624056 0.28141496 -0.06466593 -0.27066338 0.3421336 -0.002958724
-0.18911287 0.06533332 0.16274802 0.03497315 -0.33661783 -0.44171277 -0.32262346 0.18092474
-0.33234957 0.08277247 -0.099019855 0.3642979 -0.21229321 0.25597578 0.14216034 0.05470287
0.24396437 -0.42436773 0.033301678 -0.16621412 -0.10129778 0.18096235 -0.46515054 -0.15868434

xy_encoder.resizer.out.bias f4 [128]
00000000: 0b6f 06be 310c 77bd 3c02 0b3d c8e2 903c
00000010: 2582 f1bd bb2f 34bb 3e93 f9bc 22a4 11bd
00000020: 1cc3 f6bb 4469 d8bc f668 82bc b23e 0bbd
00000030: e0ac edbb c564 86bc c886 a3bd a88b 76bd
00000040: c9ae 2fbd 0000 0000 cb72 d8bc fbf4 52bd
00000050: c431 4dbd 332f a4bd b9c5 93bd d519 39bd
00000060: 51af 98bb bc1c a139 1e4a 58bd fa22 e4bb
00000070: 2bc9 143d d88c 28bd 96a5 81bd a808 5abd
00000080: f5d0 e2bc e5d4 4a3c 2634 5cbd 2497 d93c
00000090: 90a1 d4bc f30b 153c 4a97 ffbc ce3b e7bd
000000a0: 938a ff3c ca7a 8ebd 7452 69bd 7199 6dbd
000000b0: 3352 91bd a540 c1bc 8394 dbbc be79 9a3b
000000c0: 6a63 3f3c 8578 9b3c 218f 83bd cbcf dcbc
000000d0: c0b0 37bd 010e ddba 5089 8dbb b575 b5bc
000000e0: 61b6 c6ba 8553 9fbd 570e c9bc 2e74 14bd
000000f0: 4ed0 8ebd 612f 933c fe23 f1bc e0fa 953c
00000100: 25b5 b6bd eb09 45bd 19df 013d 184a 67bd
00000110: 99bf cebc c259 0a3d 9ff7 f4bd e4ae 16bd
00000120: d9ed 5fbb 0d75 72bd be50 e1ba 1948 88bd
00000130: 3bc9 debc 3b6a b1bc 0c85 11bd 87c3 52bd
00000140: 6454 acbd 77ce a4bb 9318 f8bc 0000 0000
00000150: b1b1 23bd a3b0 b3bd 8ee3 7abc 1193 31bd
00000160: 8c6c 5f3d 229e 9dbd 124b 92bc 5b25 5fbd
00000170: d54e 02bd a852 79bd b8f4 5d3c e530 aabd
00000180: 2cf3 b5bd eb87 45bc b9f8 c73b 5147 03bd
00000190: bc13 37bd bdf9 d3bd f0e8 edbc bd12 0bbc
000001a0: c5c5 a0bb 1c3a 51bd 8ba4 973c ab34 b7bd
000001b0: 5bac a33c df0c fc3c 2f2d c03a dc54 07bd
000001c0: ed6a d53c 4b99 09bd fc35 17bd a4c0 a73c
000001d0: 521f 2cbd 509b e1ba 7702 42bd 1a54 66bc
000001e0: 3693 aebb 19e8 2bbc 0000 0000 116a 803c
000001f0: 83d9 4f3c 37ce 8bbd 250f 1ebc 34b9 08bd
-0.13128297 -0.06031436 0.033937678 0.017686263 -0.11792401 -0.002749427 -0.030465718 -0.03555692
-0.007530583 -0.026417382 -0.01591919 -0.033995338 -0.0072532743 -0.016405473 -0.07984692 -0.06019178
-0.042891297 0.0 -0.026421925 -0.051503163 -0.05009629 -0.08016815 -0.07215447 -0.04519065
-0.004659571 0.00030729722 -0.05280506 -0.0069621773 0.03632466 -0.041149944 -0.06330411 -0.05323091
-0.02768753 0.01237986 -0.05376067 0.026561327 -0.025955945 0.009097087 -0.03120007 -0.11290704
0.031194007 -0.06957014 -0.0569634 -0.05800766 -0.070957564 -0.023590395 -0.026804214 0.00471422
0.011681417 0.018978367 -0.06423784 -0.026954552 -0.044846296 -0.0016865135 -0.0043193474 -0.022150854
-0.0015160554 -0.07779602 -0.02454297 -0.03624361 -0.06973325 0.017966928 -0.029436108 0.018308103
-0.08921269 -0.04810516 0.031706903 -0.056467146 -0.025237845 0.033777006 -0.119612925 -0.036787882
-0.0034168868 -0.05919366 -0.0017190201 -0.066543765 -0.027195564 -0.0216571 -0.035527274 -0.051456
-0.08414534 -0.0050294953 -0.030285155 0.0 -0.03996438 -0.08773925 -0.015313042 -0.043353144
0.054546878 -0.07696177 -0.017858062 -0.054478984 -0.03181346 -0.060869843 0.013547115 -0.08310107
-0.08884272 -0.012056331 0.006102648 -0.032050434 -0.044696555 -0.10350368 -0.029041737 -0.008488354
-0.0049063885 -0.051080808 0.018511077 -0.089455925 0.019979646 0.030767856 0.0014661903 -0.033039913
0.026051963 -0.033593457 -0.036916718 0.0204776 -0.042022057 -0.0017212424 -0.047365632 -0.014058137
-0.0053276075 -0.010492348 0.0 0.015675576 0.012686136 -0.06826442 -0.009647165 -0.03337975

xy_encoder.flat_module.to_hidden.weight f4 [128, 128]
00000000: 2646 a8bd 0cf0 d63c 0d98 d7bc e8af 353d
00000010: 1e21 593d 3d4e 843b 23e3 01bc f06d 27bd
00000020: 7939 d6bc da09 b93d 2f98 c1bd e672 cebd
00000030: d2e5 00bd 990b 8cbd 2822 4dbd b7a7 0e3d
00000040: 4e29 40bd d297 6bbd 965d a03c b02f cb3b
00000050: 15f9 94bd 3812 0fbd 974e 81bc 9256 6e3b
00000060: e600 43ba a5cd c3bb 0684 35bd 9e2d e2bd
00000070: 530d 9d3c 0c72 483d 7cea 47bd 5e3e 313d
00000080: 9fbd 8ebc 0f86 d73c 6597 44bd cb98 3dbd
00000090: 1e51 1bbc e304 a3bd d0fb 543d 5624 543d
000000a0: c25b ab3c 91fe 7a3d 6957 db3b 627a 22bd
000000b0: 1477 673c a345 2f3d 6cec a8bd 3db5 223d
000000c0: 6d0b 50bd ce5f fd3c 69d1 51bd 296c 40be
000000d0: 667b 1cbc e674 7d3c b501 8a3d 42fb 0a3d
000000e0: a94d c13d 4286 243d 5549 9cbd 9dcc d5bb
000000f0: 6477 f6bc 4a65 debd c4ea b0bd dfcb 9f3d
00000100: 8ca4 a0bd ecc8 a33c 5cea 413d de67 453d
00000110: 32c6 8a3d bd13 65bc 828e d7bc 78df f1ba
00000120: 6de6 11be faad ffbd 4152 aebd 883b a23d
00000130: 3ea5 723d 366a a7bd 5c5d f2bc e451 783d
00000140: ae82 d9bd 1085 8abd c18c 9e3c de08 7a3d
00000150: 57c1 2b3d f8ed 77bc f3d3 97bd 4fb7 32bc
00000160: d01e b53d acbf cabd 4b28 053d 06b3 4a3d
00000170: e348 d3bd 0cf8 733d 7292 a8bd 69c6 1d3c
00000180: 91c3 e9bb f376 80bd 3315 323d 4b84 8cbd
00000190: 6f2f 1ebe b973 b5bc 6e18 7f3c c57a 65bd
000001a0: 1e31 93bc 6d4f 8bbd 2c4f 2abd f763 babd
000001b0: 82d1 06bd ae13 68be 8116 b2bd 4217 22bd
000001c0: 51e7 ab3d e935 c5bd f139 783d f467 1e3d
000001d0: f14d 073d 0ef9 e0bb 3088 d6bc 3e10 2abc
000001e0: 661a a03d 64a5 843b 5654 333d 6d9a ea3b
000001f0: 7336 9cbd 4641 533d 16e4 08bd b254 01bd
00000200: 68a1 3d3c 78e9 03bc 3aee 053d 1808 65bc
00000210: e245 763d a080 f83b ec67 a1bc 7d01 813d
00000220: 3e43 17bd a19f 8dbd 9253 99bd a8e2 7dbc
00000230: 116b 73bd d8cc d63c dc33 66bd 907f 7fbc
00000240: f42f a9bd c848 803c 44b5 82bc 466d 743d
00000250: 466e 7e3d 9fe3 9dbd b0ff b2bb 6f1c 0abd
00000260: 9407 8ebc 80ea 3e3c fa51 763d 40c5 86ba
00000270: e4b3 103d fe4b b4bd 4002 dbbc 2908 3abd
00000280: f359 69bd a0e3 c6bc 9a95 17bd 0805 fabc
00000290: 79e9 49bd 9299 223d b057 8fbc 1073 2f3c
000002a0: 9c5f 903c c54d 8bbd d1cd a1bd 70c2 ccbb
000002b0: 987a cd3c 5d2b 883d 55c8 9b3d c8b7 91bd
000002c0: 8843 653c a22c a5bd d88f d53c 58ab 45bc
000002d0: 7315 803d 200f 723c dc4d a9bd 0863 5cbd
000002e0: f8bc 673c 32e0 01bd 3c82 b0bd 782b 2dbc
000002f0: 808d a3bd 4ed8 9bbd b601 4cbd 207d a7bb
00000300: 53c6 63bd 905d 0c3c c730 933d 0028 8d38
00000310: 0e77 773d c03e dc3c 7c34 b03c 00e5 07ba
00000320: f635 2a3d 5e29 1f3d 4e3e 0fbd 20ba a9bb
00000330: 8054 a43a 6aad 403d 16c8 7f3d 0243 193d
00000340: 6e20 a4bd 4807 90bc 99db 66bd 78be 713c
00000350: b8d2 c03c f2dc 783d c07e 55bc de9c 613d
00000360: 823e 4f3d 5ef6 5d3d a345 863d 886a 0f3d
00000370: e835 223c e4b9 8fbd 43a9 af3d 0a6b 72bd
00000380: 7c76 cb3c a08e e73b 22e2 3d3d 0e8d 2e3d
00000390: 38fa 4c3c 7fac 0cbd eb58 823d fbea af3d
000003a0: ad3c 9abd 1708 863d 994c 96bd e095 b2bc
000003b0: 9001 663c 009c 94bc b89c 75bd 2414 dc3c
000003c0: 608c 75bd c403 9ebd a82b 99bd 795a 62bd
000003d0: efcc 843d 90a2 b23c 367b 29bd 5437 c7bc
000003e0: 207b 263c 7fc0 8a3d a079 193b 330a b33d
000003f0: 1642 783d 6139 adbd 63c6 1abd 2ddf 3ebd
-0.08216505 0.02623751 -0.02631762 0.04435721 0.0530101 0.004037647 -0.007927689 -0.04087633
-0.026150452 0.09035082 -0.09452855 -0.10080509 -0.031469174 -0.068381496 -0.050081402 0.034827914
-0.04691439 -0.057517834 0.019575875 0.006200753 -0.07274071 -0.034929484 -0.015784545 0.0036367518
-0.00074387935 -0.0059754425 -0.04431536 -0.11043857 0.019171393 0.04893689 -0.048807606 0.04327237
-0.017424403 0.026309041 -0.047995944 -0.046288293 -0.009479789 -0.079599164 0.05199796 0.051792465
0.020917777 0.06127793 0.0066937697 -0.039667495 0.0141275115 0.04279102 -0.08248219 0.039723624
-0.050792146 0.030929472 -0.0512251 -0.1879126 -0.009550905 0.015469765 0.06738607 0.033931024
0.094386406 0.0401671 -0.076311745 -0.006524636 -0.030086227 -0.10859163 -0.08638528 0.07802557
-0.07843885 0.019993268 0.047342643 0.04819476 0.06776084 -0.013981757 -0.02631307 -0.001845344
-0.14248057 -0.12484355 -0.085117824 0.07921511 0.05923962 -0.08174555 -0.029585533 0.060624972
-0.10620628 -0.06763661 0.019354226 0.061043613 0.04193243 -0.01513242 -0.07413473 -0.010907962
0.08843768 -0.0989984 0.03250913 0.049487136 -0.103166364 0.059562728 -0.08231057 0.009629824
-0.007133909 -0.06272688 0.04347725 -0.068611704 -0.15447782 -0.022149907 0.015569789 -0.056025285
-0.017967757 -0.06802259 -0.04157941 -0.09101098 -0.032914646 -0.22663757 -0.086956985 -0.03957296
0.083937295 -0.09629423 0.060602132 0.038673356 0.033033315 -0.006865627 -0.026187986 -0.010379849
0.07817535 0.0040480364 0.0437816 0.0071595223 -0.07627573 0.05157592 -0.033420645 -0.031574912
0.011574127 -0.008051269 0.032697894 -0.0139789805 0.06012524 0.0075836927 -0.019702874 0.06299112
-0.03692936 -0.069152124 -0.07486643 -0.015495934 -0.05942828 0.026220724 -0.0562018 -0.015594378
-0.082610995 0.015659705 -0.015955575 0.059674524 0.062116884 -0.07709431 -0.005462609 -0.033718523
-0.017337598 0.011652589 0.060136773 -0.0010282174 0.035327807 -0.08803557 -0.026734471 -0.04541794
-0.056970548 -0.024278462 -0.037007906 -0.030519977 -0.049294923 0.039697237 -0.017497867 0.010708585
0.017623715 -0.06801943 -0.079005845 -0.0062487647 0.025082871 0.06648896 0.0760657 -0.071151316
0.0139931515 -0.08065154 0.026069567 -0.012064777 0.06254091 0.014774114 -0.082668036 -0.05380538
0.014144175 -0.03170795 -0.0861859 -0.010569446 -0.07985973 -0.07609616 -0.04980632 -0.0051113516
-0.05560906 0.008567229 0.07187038 6.7308545e-05 0.060416274 0.02688539 0.021509402 -0.0005183965
0.041555367 0.03885781 -0.034971528 -0.0051796585 0.001253739 0.04704038 0.062446676 0.03741742
-0.08013998 -0.017581597 -0.05636177 0.014754884 0.023537979 0.060757585 -0.013030708 0.05508124
0.05059672 0.054190032 0.06556251 0.035013705 0.009900548 -0.07017878 0.08577206 -0.05918411
0.024836771 0.007066563 0.046358235 0.04261499 0.012510829 -0.034344193 0.06364616 0.08589741
-0.07531104 0.06544512 -0.073388286 -0.021799982 0.0140384585 -0.018140793 -0.05996391 0.026865073
-0.059948325 -0.07715562 -0.0747903 -0.055262063 0.064844005 0.021806031 -0.04137727 -0.024318375
0.010161191 0.06774997 0.0023418441 0.0874218 0.0606099 -0.0845821 -0.037786853 -0.046599556

xy_encoder.flat_module.to_hidden.bias f4 [128]
00000000: 9697 41bc 0000 0000 a310 673b f696 d93c
00000010: ca60 d2bb 8a85 87bc 92e4 35bd a678 e53b
00000020: 9f47 dc3a bfa9 643d d1a0 f5bc 5185 13bd
00000030: ffbc 833d 8f86 0ebd 0866 093d afa8 0bbd
00000040: a391 cbbc 4b7d 9ebd 8027 20bc d09a 2abc
00000050: 7542 2e3c b34b 4cbc 11fe 083b fb3e 18bd
00000060: d665 fbbc 82dc 92bd edb3 dcbb cbb1 383d
00000070: 279f 75bc 2761 51bd 3ed4 0dbd e118 d8bc
00000080: cfa9 5fbd c93c 893c 4df1 613c 3844 15bb
00000090: c86c d03c fe3c 77bd 0c2a aebb 9ef1 05bc
000000a0: 0000 0000 7fa2 803d 5b8c 67ba 45bf 06bd
000000b0: 8345 283b 1850 10bd 1f9c 5fbc ad5e dbbb
000000c0: cc17 143d 6fbc 57bd c6c7 14bc 4b07 d7bd
000000d0: 5db5 0bbd 75d2 07bd c1b9 9a3c 7e7a 93bd
000000e0: 7f76 3fbc 6ed2 b0bc fc95 66bd c236 cebc
000000f0: bf3f e63c 3039 d3bb 90e7 93bc fe20 42bd
00000100: ee14 41ba 84e2 b03a 3385 04bc 81a0 98bc
00000110: 4182 62bd dba2 5bbd 4b7c 9f3c d690 7bbd
00000120: e185 e9bc 34c1 3c3c 9339 bbbc 66c9 cd3b
00000130: b0ac bebd a97a 22bc 56e8 6bbd c3e2 0bbd
00000140: 4b5b 3bbd 0e31 f3bb b425 80bc 842b f6bb
00000150: ea47 76bb 2d7e 13bc 5230 a4bc 0016 6fbd
00000160: 80c9 87bd 3647 e43c fee8 5e3d 879d 27bd
00000170: 0023 19bc 4919 abbb 2e08 00bc 9555 60bb
00000180: 6e27 95bc 2143 c93c 209d d4bc 2b07 75bc
00000190: c28c fbbc 424f 3bbd 7574 d7bd a6f6 2dbc
000001a0: 55db f9bc 9830 6abd 8ca2 313c 68cc 3fbd
000001b0: ec66 833b 0149 a43a 47d8 16bd ccdc bcbd
000001c0: b8ce 94bb 61e9 e8bc c0ba 093c 3135 54bd
000001d0: 42c6 79bb 798f 1ebd a6ee 2fbc ce1d 87bc
000001e0: 5228 22bd b268 513b 5c48 2a3c 5a4d debc
000001f0: ae54 633c ea95 2c3a 622d ba3b cd39 e23b
-0.011815926 0.0 0.003525772 0.026561242 -0.0064202296 -0.016543169 -0.044407435 0.007002908
0.0016806013 0.055825945 -0.02998391 -0.036015812 0.064325325 -0.034796294 0.03354457 -0.034096416
-0.024849718 -0.077387415 -0.0097750425 -0.010412887 0.010635962 -0.01246922 0.0020903389 -0.037169438
-0.030688208 -0.07170965 -0.006735316 0.04509143 -0.014991558 -0.051118042 -0.034626238 -0.02637905
-0.0546053 0.016752617 0.013790441 -0.0022776257 0.025442496 -0.0603609 -0.005315071 -0.008175282
0.0 0.06280994 -0.0008832865 -0.032897253 0.0025676198 -0.035232633 -0.013648062 -0.006694636
0.036155507 -0.05266994 -0.009080833 -0.10499438 -0.03410851 -0.03315969 0.018887402 -0.07201098
-0.0116859665 -0.021584716 -0.05629538 -0.025172595 0.028106568 -0.0064460263 -0.018054754 -0.047394745
-0.00073654845 0.0013495241 -0.008088398 -0.018631222 -0.0553 -0.053622108 0.019468447 -0.061417423
-0.028506221 0.011520673 -0.022854602 0.006280112 -0.09310281 -0.00991694 -0.05759462 -0.034151804
-0.04574136 -0.0074216193 -0.015642978 -0.0075125117 -0.0037579485 -0.009002251 -0.020042572 -0.05837059
-0.0663023 0.027865987 0.054421417 -0.040921714 -0.009346724 -0.00522152 -0.00781445 -0.0034230698
-0.018207278 0.024568142 -0.02595383 -0.014955322 -0.030706767 -0.045729883 -0.10520259 -0.010617888
-0.030500093 -0.05717525 0.010841977 -0.046825796 0.004010072 0.0012533964 -0.036827352 -0.09221801
-0.0045412444 -0.028431596 0.008406341 -0.05180854 -0.0038112556 -0.038711045 -0.010738051 -0.016493704
-0.039589234 0.0031953272 0.010393228 -0.027136493 0.01387517 0.0006583618 0.0056816796 0.006903863

xy_encoder.flat_module.linears.0.weight f4 [128, 128]
00000000: 2508 bb3a 9149 9e3d ee34 18bd 9dc6 74bb
00000010: 1d7c 34bd 15a0 ec3b e4c8 783d b258 c93b
00000020: 2b45 e8bd ed7b 6cbd d9c0 b13d b72b 35bd
00000030: a8d2 8bbc 609d 803d 3677 06bc 1bc3 cabc
00000040: e34f f13d 10a7 013d a298 e73c 3879 053e
00000050: e3d5 85bd 0954 45bc 6e3a c83d 6ed6 963d
00000060: 68dd f5bc eccb 093e eca5 a93c e6ab 33bd
00000070: f46b ddbc 9363 0abd c0f3 bbbb eee4 813d
00000080: b427 b5bc 8cf2 1b3d 709d b53d 8ced 1e3d
00000090: 55dd 95bd a46e 623a a7f7 ec3c 7a14 85bd
000000a0: bff9 813d 8ae1 93bd 5012 533c 3ff8 663d
000000b0: 472b 34bd 65b7 1c3b d70b 4d3d eb1a 4dbc
000000c0: fafd cf3c ffad f63c 677d b9bc d9dc 013e
000000d0: e0cb 23bd 97b2 853d 501d 9cbb 2dd2 063e
000000e0: 25ac 933d 934e 9a3b ac46 153d ed84 d3bd
000000f0: 51d5 d73c e801 a8bd 4196 e83b cd13 f1bc
00000100: 329a 02bd ac3d c13d 878c f03c 9db2 f03d
00000110: a893 833c 1a3b ad3b 47df 3d3d ef1f f63d
00000120: 1634 893d b976 b43d 44c7 1b3d 5720 e6bc
00000130: 1a19 fb3d 67ef 0cbe ec30 04bc ed93 053c
00000140: f47b c1bc 0f8f 7abd 2346 94bd 070e 86bd
00000150: 0abf 0bbc cc4d 8cbc 2c58 ee3d 22c0 8b3d
00000160: 3dca 973d f6cb f2bc 59fe a03b 3a83 0e3d
00000170: 5008 84bd f0e7 89bd 2f28 503d 5bff 793c
00000180: 6f11 23bd d94b 96bb bfb7 4d3d 4ea6 8dbd
00000190: 7f67 d43d 2d3d 7a3d abdb 983d 47ef 67bd
000001a0: 9771 773c f822 bc3d fa98 2b3c 7c93 b9bc
000001b0: 45bc a9bd 7e2f 99ba 8b9c e0bd 6f4b e83d
000001c0: 4262 a33d 9c92 0abd 6c87 b3bd 6a99 693d
000001d0: a316 893b 8ac1 c3bc ecfb 67bd 865e 31bd
000001e0: 203e 623d bd5a 943c 3ef8 493c 0e8c 263d
000001f0: 8e30 84bd 9a78 dcbc 1a21 0abd 6267 72bd
00000200: d202 403d e505 8a3d 9b7e 473d 009f 2b3d
00000210: a0a8 d33b 0dcd 3b3a aad7 79bd 2b8c 303d
00000220: 5e6d 82bc 6155 0ebd 32b8 973d 1093 753c
00000230: 98a7 7d3d b1c7 14bd 0639 91bd 742e c13c
00000240: 014e 4bbe 1a40 d6bd e73c 853a 823d 2fbe
00000250: 9c4f a83b d069 c8bd dbea 713d 1754 bdbb
00000260: b1a0 83bc cab4 0fbe c6bf b2bd 4f79 24bb
00000270: 9582 5c3d 8e2e 9fbd 84da 663d d219 3a3d
00000280: 1efc ebbd e937 c63c ea24 83bd 0790 653d
00000290: 4cbe 37bd 2e8f 583d 56a2 20bd 85c0 f03c
000002a0: 17b0 a83d f52e 673d ff82 8b3c 7410 32bd
000002b0: 7a14 0a3e 8deb 46bd 44dd 1bbd 9a4d 0d3d
000002c0: d546 f0bd daf1 a4bd b4c7 ccbc 4fe7 bebd
000002d0: 70d7 97bd 5b85 debd dd24 3c3a 59f4 85bd
000002e0: 17f8 9c3d 0a71 2abd b4a0 89bd 37dd 1dbc
000002f0: 9ea2 96bc 1e40 583c 602d 373b da0d 23bd
00000300: dab2 91bd c9f3 643a cb46 a23d 38ad b6bd
00000310: 5716 85bd 2364 313c f39d 983d 3216 cf3c
00000320: 987f 473c f95e 15bd 83f8 5dbc 20ce 11be
00000330: 8710 75bc 9880 edbd b900 343d 3c9c 9abc
00000340: 812b 9ebd 00f3 003d 318f e3bc 5e0d 333d
00000350: 0e67 5abc 1625 883c c82e 3cbe a2a4 abbd
00000360: b9c5 babd 0013 443c 8ebe 133d 02cd e33b
00000370: 26d5 293d 4c79 01be c19b afbd 183d f13c
00000380: 2325 b93d f2d1 3dbe 5009 73bd d04a 00be
00000390: 3d6b 123d f6bb a5bb 28dd 2bbe 3233 243d
000003a0: 87c8 8dbd 0632 e5bc c4bf ba3c ca3e 6a3d
000003b0: 37d9 61bd 2ab7 a13d a129 1ebd 4b16 1ebd
000003c0: a142 48be 360d 2c3d 77c5 813b 3747 abbd
000003d0: 5cb7 bc3d 9f38 96bd 1128 65bd 436a 2cbd
000003e0: be10 a9bb 56e6 22be 2ec1 d0bd d351 2abd
000003f0: 820a 763d 970a 6f3d 3fea 54bd 46f8 cd3c
0.0014269395 0.077288754 -0.037159853 -0.0037349828 -0.044063676 0.0072212317 0.06073846 0.0061446065
-0.11341318 -0.057735372 0.08679361 -0.044231143 -0.017068222 0.06280017 -0.008207133 -0.024751237
0.11782815 0.031653464 0.028271023 0.13034523 -0.06534936 -0.012043961 0.097767696 0.07365118
-0.030012801 0.13456696 0.020709 -0.043865107 -0.027029015 -0.033786368 -0.0057358444 0.06342493
-0.022113658 0.038073108 0.088679194 0.03880076 -0.07317606 0.00086377026 0.028926684 -0.06498046
0.063464634 -0.072207525 0.012882784 0.05638909 -0.043986585 0.0023913023 0.05006012 -0.012518625
0.02538966 0.030112265 -0.022642804 0.12681903 -0.039989352 0.06528204 -0.0047642365 0.13166113
0.07210568 0.004709074 0.03644435 -0.10328088 0.026346834 -0.082034886 0.00709799 -0.029428387
-0.031885333 0.09435591 0.029363884 0.11752818 0.016061619 0.0052865865 0.046355512 0.120178096
0.06699388 0.08811707 0.03803183 -0.028091593 0.12260647 -0.137632 -0.0080683045 0.008152944
-0.023618676 -0.061171588 -0.0723994 -0.06545644 -0.008529434 -0.01712694 0.11637911 0.06823756
0.07411621 -0.029638272 0.004913133 0.034793116 -0.06446898 -0.06733692 0.050819572 0.015258635
-0.039811548 -0.0045866785 0.050224062 -0.06916486 0.10371303 0.061093498 0.07463773 -0.056624677
0.0151027655 0.09186357 0.010473484 -0.022653334 -0.08287863 -0.0011687127 -0.10967358 0.11342513
0.079777256 -0.033831224 -0.08766064 0.057031073 0.0041836067 -0.023895998 -0.056636736 -0.043303035
0.05523503 0.018109674 0.012327252 0.04066091 -0.064545736 -0.026912976 -0.033722974 -0.059180625
0.04687769 0.067394055 0.048704725 0.04189968 0.0064593107 0.0007164039 -0.06099669 0.043102425
-0.015921291 -0.034749392 0.07408179 0.014988676 0.061927408 -0.036323253 -0.070909545 0.02358172
-0.19853975 -0.10461445 0.0010165245 -0.17113307 0.0051364433 -0.09785807 0.059061866 -0.0057778466
-0.016067835 -0.1403381 -0.08727984 -0.002509672 0.05383547 -0.077725515 0.056360736 0.04543478
-0.11522697 0.024196582 -0.06403525 0.05604556 -0.044859216 0.05287092 -0.039217316 0.029388675
0.082367115 0.056441266 0.017030237 -0.043472722 0.13484374 -0.048564482 -0.038052812 0.034497835
-0.1173226 -0.08053942 -0.02499757 -0.09321462 -0.07414138 -0.10865279 0.0007177124 -0.06540746
0.07664507 -0.04161171 -0.06720105 -0.009635261 -0.018388089 0.0131988805 0.002795063 -0.03980813
-0.07114191 0.00087338366 0.07923659 -0.089197576 -0.064984016 0.010827097 0.074520014 0.025279138
0.012176417 -0.036467526 -0.013548019 -0.14238787 -0.014957554 -0.11596793 0.043946 -0.018873326
-0.077231415 0.031481743 -0.02777824 0.04371392 -0.013330234 0.016619246 -0.1837722 -0.083810106
-0.09119744 0.011967421 0.0360704 0.006951929 0.04146304 -0.12643927 -0.085746296 0.029448077
0.090402864 -0.18537119 -0.059335053 -0.12528539 0.0357468 -0.005057807 -0.16783583 0.040087886
-0.06923013 -0.027977955 0.02279652 0.057188787 -0.055138793 0.07896264 -0.03861392 -0.03859548
-0.19556667 0.042004786 0.003960307 -0.083631925 0.092146605 -0.07335018 -0.055946413 -0.042093527
-0.0051594665 -0.15908179 -0.10193096 -0.04158194 0.060068615 0.05835971 -0.051981207 0.0251428

xy_encoder.flat_module.linears.0.bias f4 [128]
00000000: 7ec0 d8bd 5e4a be3d 20c5 c5bc 7b92 99bb
00000010: 1d03 f4bc 8cb3 0b3d 35a6 b0bd 679f cabb
00000020: 1370 22bc 56cd 35bd 8cd7 b7bb 5986 e6bc
00000030: 9e2a 4d3d eef1 433c 5d71 793b 3d64 32bd
00000040: a507 8bbc 0875 3d3d 0955 61bc a30e 493d
00000050: df55 f23a 734e 0abd 2e4e 743d 3337 a53d
00000060: 007e 03bd ce61 c3bc 6c4e 87bd 2d94 c4bb
00000070: 6484 f6bc 2f23 29bd b121 063d ab57 45bd
00000080: 071d c9bc 2bd4 22bd 7dea c5bc 275d 523b
00000090: 770d 40bd fb81 8cbd 6389 54bc 70dd 8dbc
000000a0: e757 1bbd b83b 6dbd 6ed9 9b3d 0ad1 653c
000000b0: f9d2 05bc 2c92 ba3c c981 bd3b ca8d ad3c
000000c0: 11b7 603d 92e8 50bd 3367 09bc 4bb5 b3bb
000000d0: 8568 dabc 4c2e cebc 629d 273b e800 48bd
000000e0: 504c 47bd 2fad a7bc 1561 fbbc 26a2 6bbd
000000f0: ead7 32bc 6e1e febc 97e9 e6bc 5a05 113c
00000100: 5f26 eebc ab9e 04bc 4135 12bd ef1b 243d
00000110: 702b 4dbc f09b a83d da46 f93c 0b5f 87bc
00000120: f770 5bbd e3f5 17bd 0e0e cdbc b8d8 953d
00000130: 143d 023d b2ee 6c3d 5a0a 15bd 6ddd 8bbd
00000140: 2d74 78ba 6a8b 36bd c5b1 b2bc c2b6 ccbc
00000150: 8c1e 43bc a158 f7bc 85b4 0e3d 2159 d1bc
00000160: e86c dd3c d2fd 52bd 2c0e 94bd c7c4 59bd
00000170: 3865 efbc fef8 9a3c 8ee6 5b3d 34eb b9bd
00000180: 7788 e8bc 1b83 d3bc f42b a4bd bf62 0dbd
00000190: 448a 4bbd 402e cfbc c966 4abd 4377 84bd
000001a0: d1c7 42bd 0429 0abd ca99 9bbc 1649 8b3d
000001b0: 03b9 07bc ac6e 02bc 68ee 78bc 006a c9bc
000001c0: 2b5d 71bc 6032 abbc 481c 02bc edca 13bd
000001d0: 241f 94bb e97f 183d 1905 27bc 4cac 35bd
000001e0: ee08 e93c ed82 393d 69ae 293a 0735 203c
000001f0: c6b3 b23c aa73 893c 4be0 4dbd 7286 89bc
-0.1058359 0.09291528 -0.024141848 -0.0046866513 -0.02978664 0.034106776 -0.086254515 -0.006183553
-0.009914416 -0.044385277 -0.005610412 -0.028140234 0.05008947 0.011959536 0.0038061955 -0.043552626
-0.016971419 0.046254188 -0.013753184 0.049086224 0.0018488726 -0.03376622 0.05964487 0.08067169
-0.032102585 -0.023850348 -0.06606755 -0.0059991092 -0.030092426 -0.04129332 0.032746974 -0.04817931
-0.024549974 -0.03975312 -0.024159664 0.003209898 -0.04688784 -0.06860729 -0.012972209 -0.017317504
-0.037925627 -0.05791828 0.07609831 0.01402689 -0.008167976 0.022774778 0.005783294 0.021185774
0.054862086 -0.051003046 -0.008386421 -0.0054842583 -0.026661167 -0.02516856 0.0025575985 -0.04882899
-0.04865676 -0.020468323 -0.03068594 -0.057527684 -0.010915736 -0.03102037 -0.028187556 0.008851374
-0.029071031 -0.00809447 -0.035695318 0.040065702 -0.012522563 0.08232868 0.030429292 -0.016524812
-0.05357453 -0.03709973 -0.025031116 0.073167264 0.03179653 0.057844825 -0.036386825 -0.06829343
-0.0009477761 -0.04456655 -0.021813283 -0.02498949 -0.011909138 -0.030193629 0.034840126 -0.025555195
0.02702947 -0.051511593 -0.072292656 -0.053166177 -0.02922307 0.018917557 0.05368667 -0.090780646
-0.028385384 -0.025819352 -0.08016196 -0.034518 -0.049692407 -0.025290608 -0.04941443 -0.0646806
-0.04755384 -0.03373052 -0.01899423 0.068010494 -0.008283856 -0.007960957 -0.015193559 -0.024586678
-0.014731686 -0.020898044 -0.007941313 -0.036082197 -0.004520314 0.03723136 -0.0101940865 -0.04435377
0.02844664 0.045290876 0.00064728275 0.009778268 0.021814238 0.016778786 -0.05026273 -0.016787741

xy_encoder.flat_module.out.weight f4 [128, 128]
00000000: 2c6b 6dbd e85f 54be d63a 8bbb ed63 f1ba
00000010: 0a0d 193e 2d40 643d 61ac 11be aa83 04be
00000020: a972 0ebd 21a7 fdbd fa36 0abd 472c 03be
00000030: c9c6 16be 25da ec3c 7b8f ef3d cd34 f3bc
00000040: 5b2d 9fbd b1d7 0cbe 894d 573c d34f 55be
00000050: 544d 333e f748 573c 13de 21be b85e 5b3e
00000060: 9673 21be 2afb 5c3d 63dc ba3d c08f 39be
00000070: c319 c63c 2b7d 1e3e 5bcd 903d c409 50be
00000080: 2f68 0dbe 928b c8bd 6652 27be 04ac 1d3e
00000090: a3bf f43d 4aab 253e 9658 26be c97b 2b3e
000000a0: 7bea 96bd dd9e 173e de0a 973d c6a1 82bd
000000b0: 6260 213e 1368 893d ad14 693e fd7a b53d
000000c0: b35c ecbc 6313 d0bc c829 6cbc 3980 9b3c
000000d0: 614d 66be 58a5 cbbd 66c4 b0bc 77d6 c4bd
000000e0: 108a ffbd 5b40 0d3d 675f 1b3e 2b32 403e
000000f0: e842 2d3e ece5 483e d20c 18be 99df 05be
00000100: 6ea1 26be cad7 bb3d f3a5 183e 317e 2b3e
00000110: a93e cc3d 1e4b 113d 115d 193e 8346 69be
00000120: 87bd 323d 067c b0bd a937 033e 13f0 b53b
00000130: 4f4a 343e d290 6bbe 1eb2 e53d fea9 d93c
00000140: b50e 04be 3b9c 79bd d51e 5e3d 9892 09be
00000150: 8acb 3ebc 3e0a 20be 9255 443d c522 413e
00000160: 06a3 243d 87ce ac3d e833 5fbd 9943 293e
00000170: 7227 94bd 5223 2a3e f97f 88bd 7010 1f3e
00000180: ec0d 82bd 82a9 12bd 1190 b0bd 2973 6a3e
00000190: 6727 85bd e3b5 59bc d5a0 03be 1b53 6bbe
000001a0: 89bf ccbd c21e 543d 9ef0 17be a873 8cbd
000001b0: e2c0 223e 6b85 72bd 9a2a 6f3d 1b90 1d3e
000001c0: cbff e0bd 8d9f 373e 6e62 f0bd 44ec 33be
000001d0: 3aaa ffbd dcb6 19bd 5024 103e d7bf 4c3d
000001e0: b16a 54be aa13 3e3d 4072 6f3d a2ae 54be
000001f0: 5e70 69bd 7f80 59be 0111 a33d 9826 383e
00000200: 2af8 1bbe b49d 693e 6eb1 67bd 0cb7 09be
00000210: 0375 0d3b 0306 44bd 412f 663b bde6 e7bd
00000220: 6bf2 f2bd 6527 163e f915 373e 2be3 2b3d
00000230: 6741 07be 9b47 23be c078 bdbd 3b89 d3bd
00000240: 7ae7 8cbd b04a 2ebe 4482 d33d d7bf 1dbe
00000250: 7444 1fbc 2587 69bd 0e6b 9d3d cc08 5ebe
00000260: 2e94 1a3e ac1c 54be 8fc2 823c 53f1 673d
00000270: 0960 1abe 8417 d63d 744b 02be 6b34 943d
00000280: 2309 f13d 5116 92bd f41d 133e 2ffb 5abe
00000290: dc9a 35be f366 01bd ceee 103e 006f 48bd
000002a0: 0101 383d 4ac9 60be 70b4 a03c b534 4fbe
000002b0: 1940 e23d b8ae 41be 1ab4 48be 347a 24bc
000002c0: cff3 44bb 17ea 083e 5033 453d f8f7 3ebe
000002d0: 5e45 e03d 4642 93bd 5d8d bcbd 000b 433e
000002e0: 2be9 6dbe f92e 5ebc 842c 1d3e f801 763d
000002f0: 9547 103e 31dc bb3c de6a 3d3d 96eb 24be
00000300: 3cf1 183e 06c3 fabd 71ed 603d 0249 33be
00000310: c11f dabc 9ca5 9e3d 340c 183e e4f2 743d
00000320: 54ba 3a3e 2aec 10be e887 413e 6b59 143e
00000330: ee9f 1bbe a06a 043e 9959 1fbd b4e1 8d3b
00000340: f24e 0abe 0446 113e 80b5 32bd 8c5a 1e3e
00000350: b09c b63d 2631 083e ab5f ff3c 01ff f83d
00000360: a750 d2bd 668f 4a3e af5f 7c3e 8380 06be
00000370: 3bdb e8bc 9169 273e c691 e63d a59e 0f3e
00000380: c4e1 713d c222 b4bc 62e7 0b3e d79a 613e
00000390: 8964 81bb 99c2 08be 7328 0c3e 3ae8 0ebe
000003a0: bae4 cbbc 5621 06bd 524b 943b 745e 233e
000003b0: 43e4 473e 33cb 9d3c 291c 0c3e 59c2 a53d
000003c0: 2e24 1fbc 565a bcbc f61f 2c3e 14a7 c2bd
000003d0: 1350 efbd fe87 fcbd 1bd1 5cbe 024a eabb
000003e0: e272 37be 3e65 cc3c a9ab 38be 9e5f 8f3c
000003f0: e0f0 2f3d b4c9 4abe fd6d 11be 36f5 2fbe
-0.057963535 -0.2073971 -0.004248957 -0.0018416621 0.1494638 0.055725265 -0.14225914 -0.12940851
-0.034777317 -0.12385393 -0.033743836 -0.12809859 -0.14724268 0.028912613 0.116972886 -0.029688263
-0.07772323 -0.13754155 0.013141044 -0.20831232 0.17509967 0.013139955 -0.15807371 0.21422851
-0.15766749 0.053950466 0.09124067 -0.18121243 0.024182206 0.15477435 0.070704184 -0.20316225
-0.13809274 -0.09792246 -0.16340026 0.1539765 0.11950614 0.16178623 -0.1624473 0.16746439
-0.07368942 0.14806695 0.073751196 -0.06378512 0.15759423 0.06709304 0.22761793 0.08861349
-0.028852796 -0.02539987 -0.014414258 0.01898204 -0.22490455 -0.09943646 -0.021578025 -0.096112184
-0.12477505 0.034485202 0.15173112 0.18769138 0.16920054 0.19618958 -0.1484864 -0.13073577
-0.16272518 0.09172018 0.14907055 0.16747357 0.09972889 0.035472028 0.14976908 -0.22780804
0.04363778 -0.086174056 0.12814201 0.0055523007 0.17606471 -0.23004463 0.11215614 0.026570316
-0.12896235 -0.06094001 0.054228622 -0.13434827 -0.011645207 -0.15628907 0.04793317 0.1886092
0.040194534 0.084378295 -0.05449286 0.16529693 -0.07234086 0.16615036 -0.06665034 0.15533614
-0.06350312 -0.035806186 -0.086212285 0.22895493 -0.06501656 -0.013287994 -0.12854321 -0.22980921
-0.0999747 0.051787145 -0.14837882 -0.06857997 0.15893891 -0.05920927 0.058390237 0.15387003
-0.10986289 0.17931958 -0.11737524 -0.17570597 -0.1248364 -0.037527904 0.14076352 0.04998764
-0.20743825 0.04640547 0.058458567 -0.20769742 -0.056991927 -0.21240424 0.079622276 0.17983472
-0.15231386 0.22814065 -0.056565695 -0.13448733 0.0021584637 -0.047857296 0.003512338 -0.11323307
-0.11862644 0.14663465 0.17879476 0.04196469 -0.13208543 -0.15945284 -0.09251547 -0.10328909
-0.06880088 -0.17020679 0.103275806 -0.15405212 -0.00972091 -0.05701365 0.07686435 -0.21683043
0.15095589 -0.20714062 0.015961913 0.05662663 -0.15075697 0.10453704 -0.12724096 0.072365604
0.11769321 -0.07133163 0.14366895 -0.21384881 -0.17734855 -0.03159232 0.14153597 -0.048933983
0.044922832 -0.21951786 0.01961729 -0.2023495 0.11047382 -0.18914306 -0.19599953 -0.010038901
-0.0030052548 0.13370548 0.04814464 -0.1864928 0.10950731 -0.07190375 -0.092066504 0.19047165
-0.23233478 -0.013561004 0.15349013 0.06006047 0.14089806 0.022932144 0.046244495 -0.16105494
0.14935774 -0.12244229 0.05491394 -0.17508319 -0.02662647 0.07746431 0.14848405 0.05980195
0.18235141 -0.1415259 0.188995 0.14487235 -0.15197727 0.12931299 -0.038903806 0.0043298844
-0.13506678 0.14186865 -0.043630123 0.15464228 0.089166045 0.13299999 0.031173548 0.12158013
-0.102692895 0.19781265 0.24645875 -0.13134961 -0.02842485 0.16348864 0.11258273 0.14025362
0.059053198 -0.02198923 0.13662484 0.22031723 -0.0039487523 -0.13355483 0.13687305 -0.13955775
-0.024889339 -0.032746635 0.0045255804 0.15954 0.19520669 0.019261932 0.13682617 0.080937095
-0.009713216 -0.022992294 0.16809067 -0.09504524 -0.11685195 -0.12330626 -0.21564142 -0.0071499357
-0.17914918 0.02495062 -0.18034233 0.017501649 0.042954326 -0.19803506 -0.14202113 -0.17183384
