results/notebooks/neural_process/Periodic_Kernel/NP/run_0/params.pt (torch_old, 618759 bytes, 28 tensors)

x_encoder.to_hidden.weight f4 [32, 1]
-0.40987417 0.04353887 -0.5084873 0.3486937 -0.8339809 0.7310779 -0.68727314 -0.7697928
-0.6145876 0.41917068 -0.40623087 0.3543193 -0.82890964 -0.57965934 -0.3412528 -0.174807
-0.7268256 0.6351448 -0.20058347 0.29289216 0.68296283 0.17817521 0.2670965 0.94628406
-0.42809165 0.28237835 -0.42719895 0.70468044 0.7574359 -0.883359 0.8318214 0.45245188
00000000: 07db d1be d055 323d 392c 02bf fb87 b23e
00000010: c67f 55bf ec27 3b3f 22f1 2fbf 2411 45bf
00000020: 9d55 1dbf 8a9d d63e 7efd cfbe 5769 b53e
00000030: 6c33 54bf 8e64 14bf b0b8 aebe 9b00 33be
00000040: 3e11 3abf da98 223f c165 4dbe f6f5 953e
00000050: a7d6 2e3f 9073 363e dfc0 883e ac3f 723f
00000060: d42e dbbe e593 903e d2b9 dabe f065 343f
00000070: 52e7 413f d123 62bf 3ff2 543f c6a7 e73e

x_encoder.to_hidden.bias f4 [32]
-0.012302505 -0.017268414 0.048941035 0.00045838868 -0.0052779913 0.043498565 -0.03267286 0.010166371
0.0014976307 -0.03265381 0.052663043 -0.028020281 0.027138717 -0.00014159607 -0.034211375 -0.008890639
-0.02943677 -0.0022481158 -0.050122097 -0.0061512743 0.008511221 0.009938388 0.014939891 0.019528845
-0.009683665 0.011231572 -0.02763208 0.020838728 -0.02744799 -0.01236189 -0.00030988446 0.004221459
00000000: 7290 49bc 7d76 8dbc 6576 483d e353 f039
00000010: 00f3 acbb 8d2b 323d fad3 05bd da90 263c
00000020: 264c c43a 00c0 05bd 34b5 573d ca8a e5bc
00000030: 0452 de3c 6879 14b9 3a21 0cbd 0baa 11bc
00000040: 6225 f1bc 2055 13bb d44c 4dbd a190 c9bb
00000050: a672 0b3c 9fd4 223c 72c6 743c f5fa 9f3c
00000060: 3ca8 1ebc a104 383c ac5c e2bc fbb5 aa3c
00000070: 9bda e0bc 8689 4abc fd77 a2b9 2a54 8a3b

x_encoder.out.weight f4 [128, 32]
-0.17318018 -0.12148546 0.08574871 -0.2917317 -0.12011161 -0.14480865 0.32088888 -0.3135326
0.09929589 0.3245488 0.13580996 -0.027824964 0.05056035 -0.08836909 -0.28122512 0.07524633
-0.38852385 -0.21815087 -0.19460289 -0.0010000472 0.0179178 0.40651637 0.14329931 -0.030446539
0.046716996 -0.29452816 -0.009876908 0.26616907 0.3374724 -0.15129995 -0.2933946 0.33923477
0.11477388 0.04282514 -0.09069525 0.03241713 0.20477444 0.12587862 -0.11011238 0.041041344
-0.29891744 0.01798587 0.37971467 -0.3210956 -0.29194164 0.20783345 -0.44301805 0.29271895
-0.3595602 0.37005886 -0.021247746 0.2714081 -0.35721081 -0.40071476 -0.29929292 -0.4040349
-0.030026244 -0.30275926 -0.29603428 0.11383419 -0.4244851 0.18369071 0.2890792 -0.0034989798
0.4200556 -0.0065964335 -0.20350452 0.25559965 -0.11517407 0.4334275 -0.42460725 -0.0024620355
0.3722215 -0.10292526 0.121045314 0.21054164 0.2634889 0.046942793 -0.07305413 0.1331243
-0.33830935 0.4347508 0.026617492 0.008022712 -0.22023846 0.4037738 -0.16031206 0.2471738
-0.3584726 -0.42298955 0.33554873 0.3195721 0.17114417 -0.23838831 -0.34838465 0.37571996
-0.06389248 0.42053586 0.30039984 0.1857207 -0.34046134 0.18339966 -0.02432266 0.2978852
-0.047177285 -0.10797027 0.03129949 0.05343003 -0.29001176 -0.025700971 0.29718506 -0.36043826
0.41520828 0.21663518 0.36209103 -0.41583025 0.17951515 0.15110154 -0.29098734 -0.36090323
-0.30066058 -0.15116847 0.107114285 -0.09321077 -0.38002712 0.40672225 0.3755251 0.2008423
0.042827316 -0.07851647 0.38987043 0.11860984 0.22050788 0.15584219 0.3818 0.3688079
-0.44193554 0.13325638 -0.16799985 -0.048577398 0.25426212 -0.2519425 -0.1778863 -0.07764316
-0.42694375 0.27786624 -0.09773038 0.23075269 0.09750385 0.3024586 -0.31612435 -0.2663928
0.1324105 0.14901441 0.10657845 -0.32713693 0.11447644 0.07383936 0.22282334 0.20608307
0.40349188 0.18619475 -0.18241334 0.3782997 -0.20734969 0.0130370045 -0.34421578 -0.23597087
0.14439324 -0.040820308 0.26439738 0.044591825 -0.37460008 0.13291568 0.31361172 -0.11460579
-0.14327367 -0.35778502 0.34491485 -0.28711656 0.05881759 0.36296555 0.062186453 -0.37661988
-0.034093875 -0.3892907 -0.023902956 0.3963393 0.027223157 0.23319325 -0.39532205 0.24519938
0.09779275 0.14043286 -0.13687716 -0.37525493 -0.119676776 -0.021312218 -0.377932 -0.23355134
-0.3470709 0.39110544 0.24402924 -0.15362784 0.04032867 -0.40330452 -0.030194588 0.094228685
-0.26292142 -0.12115015 0.09348262 0.25493369 0.033934746 0.23642159 0.25209928 -0.0029023972
-0.0053584166 0.2771074 0.07229875 -0.3943958 0.28979018 -0.16155978 -0.004287138 -0.12435844
-0.42059618 0.18986733 0.2414254 -0.09003505 -0.4035269 -0.29253477 -0.058274515 0.4098349
-0.36541048 0.09546253 -0.030107027 -0.008910656 -0.017209811 0.14597519 0.3004285 0.3299367
-0.41672286 0.18785039 0.32678935 -0.35211107 -0.33136746 -0.36194435 0.37111995 -0.2919617
0.09908181 -0.43291545 0.0250728 -0.08796422 -0.18555385 -0.028296769 0.07922949 -0.16610235
00000000: 2556 31be 5ecd f8bd 059d af3d db5d 95be
00000010: 13fd f5bd b848 14be 8c4b a43e 5887 a0be
00000020: a55b cb3d 432b a63e c411 0b3e 2ef1 e3bc
00000030: 5f18 4f3d dafa b4bd bdfc 8fbe bf1a 9a3d
00000040: 99ec c6be f162 5fbe fb45 47be 0414 83ba
00000050: 5ac8 923c ea22 d03e 0ebd 123e 056b f9bc
00000060: 525a 3f3d 65cc 96be c1d2 21bc 5047 883e
00000070: 2fc9 ac3e 60ee 1abe d137 96be 2eb0 ad3e
00000080: 910e eb3d 6a69 2f3d 6ebe b9bd d3c7 043d
00000090: 64b0 513e 53e6 003e 9982 e1bd f81a 283d
000000a0: b50b 99be 1a57 933c f669 c23e a466 a4be
000000b0: 6079 95be 4bd2 543e 43d3 e2be 42df 953e
000000c0: 4618 b8be 5b78 bd3e c10f aebc 01f6 8a3e
000000d0: 56e4 b6be 7c2a cdbe ec3c 99be aadd cebe
000000e0: 99f9 f5bc 4303 9bbe ce91 97be e621 e93d
000000f0: 1c56 d9be 6b19 3c3e 3002 943e 244f 65bb
00000100: 8711 d73e e526 d8bb 7d63 50be f5dd 823e
00000110: 62e0 ebbd 36ea dd3e 1f66 d9be 1a5a 21bb
00000120: d193 be3e 7bca d2bd 9be6 f73d 3a98 573e
00000130: 04e8 863e 1647 403d 679d 95bd bd51 083e
00000140: e236 adbe a897 de3e ed0c da3c b171 033c
00000150: 3186 61be 71bb ce3e d828 24be 211b 7d3e
00000160: b889 b7be 1692 d8be 0bcd ab3e f49e a33e
00000170: 6b40 2f3e 111c 74be 795f b2be 5e5e c03e
00000180: 10da 82bd 7a50 d73e 02ce 993e 912d 3e3e
00000190: f350 aebe 1fcd 3b3e 5140 c7bc 6984 983e
000001a0: f83c 41bd 841f ddbd e533 003d 72d9 5a3d
000001b0: 6c7c 94be d88a d2bc a428 983e 5d8b b8be
000001c0: 2e96 d43e 9dd5 5d3e ff63 b93e b4e7 d4be
000001d0: d2d2 373e 5dba 1a3e 4bfc 94be 4fc8 b8be
000001e0: 2ff0 99be e8cb 1abe bc5e db3d 4ae5 bebd
000001f0: ea92 c2be e63d d03e d344 c03e 9ba9 4d3e
00000200: b26b 2f3d 3ecd a0bd 199d c73e b7e9 f23d
00000210: d1cc 613e 1895 1f3e 4a7b c33e 64d4 bc3e
00000220: 6045 e2be 5c74 083e 2708 2cbe 18f9 46bd
00000230: a52e 823e 9bfe 80be d427 36be 6103 9fbd
00000240: 5f98 dabe 7c44 8e3e de26 c8bd 6f4a 6c3e
00000250: 19b0 c73d dbdb 9a3e 0ddb a1be a364 88be
00000260: 9e96 073e 3c97 183e cd45 da3d 7e7e a7be
00000270: a072 ea3d 1739 973d cd2b 643e 7107 533e
00000280: 7d96 ce3e d6a9 3e3e 90ca 3abe 80b0 c13e
00000290: 7a53 54be 2999 553c 0d3d b0be 59a2 71be
000002a0: d2db 133e 3233 27bd 185f 873e eba5 363d
000002b0: 95cb bfbe 0c1b 083e b791 a03e 71b6 eabd
000002c0: 55b6 12be 992f b7be ae98 b03e f100 93be
000002d0: b7ea 703d 9fd6 b93e 39b7 7e3d 52d4 c0be
000002e0: 05a6 0bbd 1c51 c7be 22d0 c3bc fcec ca3e
000002f0: 1903 df3c 36ca 6e3e a767 cabe 8c15 7b3e
00000300: 9147 c83d a2cd 0f3e 8729 0cbe 6a21 c0be
00000310: 1919 f5bd f696 aebc 4e80 c1be 1528 6fbe
00000320: 47b3 b1be f93e c83e cde2 793e 9e50 1dbe
00000330: ad2f 253d ee7d cebe a45a f7bc f8fa c03d
00000340: a39d 86be 921d f8bd d173 bf3d ab86 823e
00000350: 29ff 0a3d 8018 723e 2813 813e 2536 3ebb
00000360: a895 afbb 05e1 8d3e 5e11 943d 3fee c9be
00000370: 615f 943e ed6f 25be 1f7b 8cbb a3af febd
00000380: 6258 d7be 956c 423e 3838 773e 4c64 b8bd
00000390: 149b cebe 1ec7 95be 42b1 6ebd e1d5 d13e
000003a0: 1517 bbbe dc81 c33d 03a3 f6bc 00fe 11bc
000003b0: 97fb 8cbc 857a 153e c4d1 993e 77ed a83e
000003c0: b35c d5be da5b 403e ef50 a73e e747 b4be
000003d0: ffa8 a9be c550 b9be 6f03 be3e 017c 95be
000003e0: 67eb ca3d 18a7 ddbe 7965 cd3c 9626 b4bd
000003f0: d401 3ebe a0ce e7bc 1243 a23d bc16 2abe

x_encoder.out.bias f4 [128]
-0.022602824 -0.020017285 0.018351175 -0.0039184606 -0.021896802 -0.023005882 -0.02519684 -0.01954577
-0.018832926 -0.037095774 -0.013446743 -0.017855138 0.0030877562 -0.007556797 0.017746296 -0.01960654
-0.038413085 -0.043544546 -0.007201984 0.004322799 -0.050046243 -0.038123786 -0.040460184 -0.018224828
-0.02578739 -0.020769373 -0.018313676 0.027876148 -0.0017268126 -0.0072936206 0.016570847 -0.032724764
0.00078638113 0.0058274753 0.0049734646 -0.018491382 -0.061421856 0.02455533 -0.0061877035 -0.018955205
0.007706626 -0.038352076 -0.0027126516 0.0036805992 -0.004611729 -0.027584538 -0.00097494974 -0.0076677115
-0.007047336 -0.027350027 0.018155167 -0.010886027 -0.049223788 -0.0027926692 -0.030149756 -0.01851651
0.036515478 -0.040561173 -0.058849286 -0.031687047 -0.009058703 -0.021125942 0.043212052 -0.018826924
-0.052430812 -0.019768108 -0.036221437 -0.022904865 -0.03218769 -0.03861179 -0.014838865 -0.032458413
-0.042969324 -0.007015302 -0.019247629 -0.016530005 -0.08254977 -0.02421778 0.0073688417 -0.02994858
-0.050094534 -0.055482384 -0.068748504 -0.060665134 -0.05160916 -0.023758005 -0.015555863 0.0008667122
-0.015557312 0.016015103 -0.005430144 -0.015282122 -0.018483834 0.009680792 -0.009720974 0.0007370883
-0.062527694 -0.07035434 -0.0060889185 0.0080448575 -0.024083199 -0.020137751 -0.022007309 -0.013647436
0.011864171 0.0052904454 -0.056581914 0.020761177 -0.009211275 -0.04164535 -0.043485783 -0.0014049439
-0.032948423 -0.017626807 -0.06314204 -0.028213164 -0.015195894 -0.008029127 -0.026728654 -0.02407232
-0.00920697 -0.008884432 -0.016775101 -0.014778773 -0.021386646 -0.04582764 0.0050045857 -0.07459094
00000000: 8f29 b9bc 4afb a3bc 3455 963c 6e66 80bb
00000010: ec60 b3bc d576 bcbc 9a69 cebc 731e a0bc
00000020: 8247 9abc bdf1 17bd ba4f 5cbc f044 92bc
00000030: f45b 4a3b 029f f7bb ae60 913c e59d a0bc
00000040: 0a57 1dbd c45b 32bd 9ffe ebbb 44a6 8d3b
00000050: 4afd 4cbd b027 1cbd 94b9 25bd 3c4c 95bc
00000060: 1440 d3bc 8824 aabc 9006 96bc 855c e43c
00000070: 3756 e2ba 53ff eebb 96bf 873c 670a 06bd
00000080: 2525 4e3a 68f4 be3b 72f8 a23b 3d7b 97bc
00000090: 7c95 7bbd 4228 c93c 38c2 cabb f247 9bbc
000000a0: dd87 fc3b 1117 1dbd bec6 31bb 3536 713b
000000b0: fd1d 97bb f8f8 e1bc c593 7fba 6d41 fbbb
000000c0: 57ed e6bb 2a0d e0bc 25ba 943c 4e5b 32bc
000000d0: e29e 49bd 3705 37bb 9ffc f6bc f0af 97bc
000000e0: 4191 153d 7923 26bd f30b 71bd 47ca 01bd
000000f0: f46a 14bc 5010 adbc 1fff 303d ec3a 9abc
00000100: b1c1 56bd baf0 a1bc ee5c 14bd fca2 bbbc
00000110: 3dd7 03bd 6527 1ebd b61e 73bc 1df3 04bd
00000120: 9a00 30bd 9ee0 e5bb 34ad 9dbc ef69 87bc
00000130: db0f a9bd 5e64 c6bc 5376 f13b b956 f5bc
00000140: ed2f 4dbd 7f41 63bd 04cc 8cbd 017c 78bd
00000150: 2064 53bd 26a0 c2bc 05de 7ebc 1234 633a
00000160: 19e4 7ebc 1b32 833c 59ef b1bb de61 7abc
00000170: 696b 97bc 2f9c 1e3c b844 1fbc 2939 413a
00000180: 850e 80bd f015 90bd 8d85 c7bb 94ce 033c
00000190: 214a c5bc edf7 a4bc ac48 b4bc 7f99 5fbc
000001a0: f161 423c 795b ad3b 70c2 67bd 5813 aa3c
000001b0: e3ea 16bc 5194 2abd 261e 32bd 1826 b8ba
000001c0: edf4 06bd 1866 90bc 9d50 81bd 4b1f e7bc
000001d0: 33f8 78bc 998c 03bc 0df6 dabc 5033 c5bc
000001e0: d5d8 16bc 0290 11bc f06b 89bc ab22 72bc
000001f0: 0c33 afbc c3b5 3bbd 82fd a33b 22c3 98bd

xy_encoder.resizer.to_hidden.weight f4 [32, 1]
0.0019994907 -0.8384844 0.5967234 0.33564693 0.6901349 0.33719364 0.78470236 0.64245445
-0.37138432 0.64560896 -0.96583074 0.23349908 0.69773525 0.7839204 0.52532107 0.6376506
0.9226661 -0.6482692 0.8363403 -0.35024142 -0.85735077 0.22536547 0.21334006 -0.12052201
0.2354204 0.80625767 0.37439537 -0.4286621 -0.9280762 -0.44567713 0.21673517 0.112902194
00000000: e309 033b eaa6 56bf ddc2 183f ead9 ab3e
00000010: aeac 303f a5a4 ac3e 41e2 483f e577 243f
00000020: 1626 bebe a146 253f af40 77bf 621a 6f3e
00000030: c79e 323f 02af 483f 717b 063f 123d 233f
00000040: d833 6c3f f8f4 25bf 661a 563f d852 b3be
00000050: 577b 5bbf 35c6 663e d175 5a3e 3ed4 f6bd
00000060: 0c12 713e e766 4e3f c0b0 bf3e 9979 dbbe
00000070: 6796 6dbf cb2f e4be d3ef 5d3e 4439 e73d

xy_encoder.resizer.to_hidden.bias f4 [32]
-0.011664249 -0.0145429475 -0.042582102 -0.08649161 -0.016858533 -0.01112447 -0.04547976 -0.012133987
-0.018725969 -0.03671656 -0.02163327 -0.026448607 0.019689249 -0.01895142 -0.036719352 -0.027668666
-0.034528125 -0.03757201 -0.02578107 -0.012434314 -0.029401086 -0.046858683 -0.023822185 0.009470467
-0.020947892 -0.0189744 -0.0072159474 -0.029344851 -0.022286937 -0.035772413 -0.005140618 -0.031371187
00000000: 681b 3fbc 8b45 6ebc 926a 2ebd 8322 b1bd
00000010: e81a 8abc 6943 36bc fc48 3abd a1cd 46bc
00000020: 3467 99bc 1b64 16bd 4138 b1bc c0aa d8bc
00000030: 594b a13c 0240 9bbc 0867 16bd 66a9 e2bc
00000040: 5d6d 0dbd 1ce5 19bd d332 d3bc 4bb9 4bbc
00000050: 8cda f0bc e4ee 3fbd be26 c3bc 052a 1b3c
00000060: ea9a abbc 3370 9bbc c173 ecbb 9d64 f0bc
00000070: 1893 b6bc 1886 12bd a172 a8bb 137f 00bd

xy_encoder.resizer.out.weight f4 [128, 32]
0.09576364 -0.39747852 0.01895052 0.1759296 -0.3912988 -0.21816443 -0.2653912 -0.19340591
-0.018872688 -0.10403519 0.16157918 0.09149171 0.39436167 -0.00076426205 0.01736588 0.28696418
-0.35081095 0.091304995 -0.2593629 0.36340162 -0.30786967 -0.08904482 -0.38610175 -0.23874983
0.39468652 -0.024634572 0.028444733 0.122259475 0.042371023 0.35239637 -0.036630556 -0.17753942
0.22893712 0.07890739 -0.34904605 0.28825197 -0.33084804 0.38939792 0.22910245 -0.0027383175
0.018583762 0.043866366 -0.37813956 -0.39729178 -0.042110644 -0.14832442 0.18804008 -0.25297493
-0.38248137 -0.28744605 -0.30043998 0.1401418 -0.26654586 0.22537747 0.34312755 -0.34230423
-0.24631573 0.30119705 0.4254169 0.14615606 0.35833162 -0.31789264 0.18968756 0.1791968
0.15139546 -0.010706885 -0.21290036 -0.20764771 0.06173227 0.1405532 0.027762113 0.36408335
0.23325744 -0.028719654 0.40902323 0.30908018 -0.0399744 -0.12829708 -0.16236243 -0.13449544
-0.059674706 0.0840102 0.36468875 -0.22510193 -0.34396687 -0.4372125 -0.24843462 -0.0070184874
-0.23903784 -0.38854703 0.15207396 -0.078118294 -0.3199647 -0.3300399 -0.105825156 0.20098989
-0.38212922 0.13185836 -0.020067383 -0.17516711 -0.1505899 -0.34208947 0.033255436 0.34225762
0.11020508 -0.45296007 0.18365242 -0.07466455 0.048336074 -0.046792578 0.047044277 -0.36785585
-0.35100803 -0.42409277 0.20829742 -0.18120603 -0.05883773 0.14757535 0.11158189 0.3243651
0.1171509 -0.2475899 -0.1163734 0.24064887 -0.15703028 0.43119508 -0.27400136 0.10222594
-0.2271187 -0.35289013 0.075313784 -0.15197515 0.22857504 -0.08721208 0.43408835 0.12431396
0.4109246 -0.084428094 -0.30496454 -0.080285326 -0.17340097 0.2835753 -0.20556377 -0.27785307
-0.25323597 0.32997167 -0.28246096 0.050322324 0.27090186 -0.26240525 -0.042864863 -0.22510934
0.42736763 -0.11904726 0.11992581 0.06634901 -0.4159478 0.18252799 -0.18725078 0.3789632
0.32911834 0.14323777 -0.102212235 -0.24522741 0.35444945 0.068296276 0.4206036 -0.0651717
-0.32957083 0.39152658 0.2012973 0.3792351 -0.3388293 0.086431354 -0.34159154 0.14689834
0.34709233 0.16914633 -0.13995692 -0.33713245 0.116119005 0.25013903 -0.13170317 -0.35034233
0.17303428 0.17893098 -0.13770206 -0.406595 -0.41569948 0.42184195 0.021267805 0.28029782
0.15132178 -0.067274 -0.25336227 -0.4340037 0.18002187 -0.03569515 0.20978723 -0.028403554
-0.28950468 -0.2946139 0.25812975 -0.13655102 0.32013634 -0.07497456 -0.10877796 -0.03129793
0.3060153 -0.15293357 -0.2937287 -0.3932016 0.16802229 -0.45557624 -0.082833916 -0.3253622
-0.19514282 -0.3801219 -0.15292333 -0.36740917 -0.2553061 -0.42557734 0.09839505 -0.32569304
-0.13401872 -0.42397937 0.24682048 -0.32445946 -0.25862527 -0.13920194 0.07096967 -0.17921352
-0.39026147 -0.16604796 0.3672154 -0.4328995 0.0683974 -0.03114435 0.002621591 -0.39827508
0.054411978 0.35055587 0.22372082 0.011670505 -0.32120854 0.08616206 0.34458056 0.11045585
0.123355836 0.029551297 -0.3558758 -0.119329065 0.33471018 -0.34509483 -0.037625045 0.20015755
00000000: ba1f c43d 4e82 cbbe 1f3e 9b3c e426 343e
00000010: 5158 c8be 7f66 5fbe 5be1 87be 330c 46be
00000020: e59a 9abc 6710 d5bd 0375 253e 0160 bb3d
00000030: c6e9 c93e c258 48ba e442 8e3c f8ec 923e
00000040: 7e9d b3be 1dfe ba3d 37cb 84be c70f ba3e
00000050: 18a1 9dbe 215d b6bd 21af c5be d67a 74be
00000060: 5a14 ca3e 71ce c9bc ee04 e93c 2d63 fa3d
00000070: 3d8d 2d3d 4c6d b43e ec09 16bd e5cc 35be
00000080: 7e6e 6a3e 339a a13d 2ab6 b2be c395 933e
00000090: ea64 a9be 2a5f c73e d599 6a3e 5875 33bb
000000a0: f93c 983c 38ad 333d 829b c1be d469 cbbe
000000b0: 367c 2cbd 5be2 17be 948d 403e ee85 81be
000000c0: 99d4 c3be 212c 93be 45d3 99be 5581 0f3e
000000d0: b378 88be 5ac9 663e 6aae af3e 8042 afbe
000000e0: 313a 7cbe 8036 9a3e 3ed0 d93e efa9 153e
000000f0: 3e77 b73e d3c2 a2be 753d 423e 5e7f 373e
00000100: 6907 1b3e ee6b 2fbc 8d02 5abe 9aa1 54be
00000110: fada 7c3d 2eed 0f3e 5f6d e33c 2269 ba3e
00000120: 0adb 6e3e 7b45 ebbc 7e6b d13e c23f 9e3e
00000130: 32bc 23bd 4f60 03be 5642 26be 2cb9 09be
00000140: 776d 74bd 8a0d ac3d 7cb8 ba3e 1f81 66be
00000150: 6d1c b0be 51da dfbe a565 7ebe 57fb e5bb
00000160: 56c6 74be a3ef c6be 47b9 1b3e 7cfc 9fbd
00000170: 6ad2 a3be fdfa a8be dcba d8bd 4bd0 4d3e
00000180: 71a6 c3be e105 073e 5a64 a4bc 025f 33be
00000190: 3d34 1abe 5a26 afbe da36 083d 643c af3e
000001a0: 33b3 e13d 62ea e7be 610f 3c3e bae9 98bd
000001b0: 0cfc 453d 93a9 3fbd 80b1 403d 9a57 bcbe
000001c0: 53b7 b3be b022 d9be eb4b 553e 138e 39be
000001d0: d5ff 70bd fe1d 173e 0c85 e43d 2f13 a63e
000001e0: d0ec ef3d 3588 7dbe 2d55 eebd a86c 763e
000001f0: 8ccc 20be 9ac5 dc3e e849 8cbe d55b d13d
00000200: ce91 68be 04ae b4be 1d3e 9a3d 609f 1bbe
00000210: 930f 6a3e 3f9c b2bd d440 de3e 5198 fe3d
00000220: b664 d23e a3e8 acbd 5024 9cbe a26c a4bd
00000230: 0690 31be c830 913e 4f7f 52be c242 8ebe
00000240: 25a8 81be 0cf2 a83e b99e 90be c81e 4e3d
00000250: a6b3 8a3e fb59 86be 1193 2fbd 1083 66be
00000260: eecf da3e 0dcf f3bd aa9b f53d fde1 873d
00000270: 1cf7 d4be 9ee8 3a3e abbe 3fbe 7707 c23e
00000280: 3382 a83e ecac 123e a654 d1bd e51c 7bbe
00000290: 667a b53e ebde 8b3d 5b59 d73e be78 85bd
000002a0: 82bd a8be 2c76 c83e e120 4e3e 1a2b c23e
000002b0: 097b adbe ec02 b13d 16e5 aebe 856c 163e
000002c0: 16b6 b13e b234 2d3e de50 0fbe a09c acbe
000002d0: cdcf ed3d 3912 803e 32dd 06be 1260 b3be
000002e0: e62f 313e af39 373e c501 0dbe 382d d0be
000002f0: 90d6 d4be abfb d73e d239 ae3c 3283 8f3e
00000300: 19f4 1a3e f3c6 89bd b3b8 81be bc35 debe
00000310: a757 383e 1435 12bd 77d2 563e 92ae e8bc
00000320: f539 94be a2d7 96be 9529 843e 08d4 0bbe
00000330: e9e8 a33e 438c 99bd fbc6 debd 4232 00bd
00000340: 0aae 9c3e 9e9a 1cbe 9c63 96be b851 c9be
00000350: 090e 2c3e 4a41 e9be d4a4 a9bd e095 a6be
00000360: 85d3 47be 569f c2be ef97 1cbe 0e1d bcbe
00000370: 7bb7 82be 46e5 d9be 5883 c93d 3dc1 a6be
00000380: 343c 09be d313 d9be 82be 7c3e 8d1f a6be
00000390: 886a 84be f48a 0ebe 8c58 913d c083 37be
000003a0: 5ad0 c7be 7a08 2abe a803 bc3e 01a5 ddbe
000003b0: f013 8c3d 7022 ffbc 00cf 2b3b b6ea cbbe
000003c0: 18df 5e3d 0f7c b33e 1217 653e a535 3f3c
000003d0: 7275 a4be bc75 b03d dd6c b03e ad36 e23d
000003e0: fca1 fc3d 9015 f23c 5a35 b6be cc62 f4bd
000003f0: 225f ab3e 45b0 b0be b81c 1abd 1af6 4c3e

xy_encoder.resizer.out.bias f4 [128]
-0.0018173734 -0.010772907 0.046620615 -0.009593173 -0.00083667604 -0.03965348 0.055365458 -0.016321536
-0.06983146 -0.020538077 -0.0023115627 -0.05377197 0.014216376 0.0 0.013330538 -0.026405236
-0.03007938 -0.026577828 0.026726484 -0.021775935 -0.07053231 -0.042171158 -0.05064238 -0.014416117
-0.06705402 0.008146301 -0.012485791 0.05162049 -0.036933757 -0.0037366655 0.040903207 -0.03234567
-0.00013211081 -0.006933204 0.022181654 0.0074461526 -0.059613556 0.029629406 -0.0059479442 -0.04359629
-0.03682298 -0.06605974 0.01366648 -0.025081523 -0.018030925 -0.014509713 0.028175076 -7.902163e-05
-7.5500364e-05 -0.032087337 0.03278546 0.0040522343 -0.09488852 -0.026565231 -0.027651284 -0.00827586
0.06554113 -0.02806822 -0.054951508 -0.04737708 -0.053682208 -0.025365101 0.056941394 -0.015407953
-0.047255617 -0.03392867 -0.04101776 -0.029362492 -0.018964753 -0.064595 -0.013525399 0.0
-0.029002795 -0.0033434636 -0.0061353724 -0.011741566 -0.09130273 -0.020504666 0.0 -0.029413367
-0.02792093 -0.06048296 -0.082348086 -0.0711529 -0.10201287 -0.0023086658 0.0 0.019598536
-0.01934855 0.026512712 -0.02169704 -0.015822109 -0.01118747 0.020017045 -0.008451687 -0.00012721942
-0.041054633 -0.055418827 0.0027495632 0.049054462 -0.018572796 -0.003283009 -0.110248394 0.024575602
0.011810193 0.04129854 -0.045560334 0.001074914 -0.0036364952 -0.025468234 -0.03921954 -0.012422918
-0.02845479 -0.026383061 -0.050743792 -0.061059207 -0.002684772 -0.03362216 -0.0115247825 -0.02371484
0.028139435 -0.013772653 -0.03150133 -0.035799835 0.0 -0.043700255 -0.015297449 -0.076305166
00000000: ef34 eeba d980 30bc 42f5 3e3d af2c 1dbc
00000010: 6154 5bba b06b 22bd e4c6 623d beb4 85bc
00000020: cc03 8fbd 783f a8bc 967d 17bb ff3f 5cbd
00000030: cdeb 683c 0000 0000 5468 5a3c cb4f d8bc
00000040: 0869 f6bc bfb9 d9bc 80f1 da3c 7263 b2bc
00000050: 3e73 90bd aabb 2cbd 626e 4fbd 9431 6cbc
00000060: 9e53 89bd 1078 053c 3491 4cbc 0270 533d
00000070: da47 17bd d8e2 74bb 1f8a 273d e57c 04bd
00000080: 3a87 0ab9 ee2f e3bb 4db6 b53c dbfe f33b
00000090: 582d 74bd 5eb9 f23c f9e6 c2bb 0692 32bd
000000a0: b1d3 16bd 544a 87bd 5fe9 5f3c c477 cdbc
000000b0: 97b5 93bc 26ba 6dbc 6bcf e63c 6ab8 a5b8
000000c0: f355 9eb8 036e 03bd 0c4a 063d 9bc8 843b
000000d0: ea54 c2bd 549f d9bc f284 e2bc 7997 07bc
000000e0: 6e3a 863d 53ef e5bc d514 61bd 780e 42bd
000000f0: e0e1 5bbd 79ca cfbc 613b 693d a471 7cbc
00000100: 1b8f 41bd caf8 0abd 3d02 28bd 9c89 f0bc
00000110: f85b 9bbc 624a 84bd a399 5dbc 0000 0000
00000120: 4597 edbc 031e 5bbb 3c0b c9bb b25f 40bc
00000130: edfc babd 67f9 a7bc 0000 0000 4df4 f0bc
00000140: 6fba e4bc fbbc 77bd 1da6 a8bd 9db8 91bd
00000150: 20ec d0bd fc4c 17bb 0000 0000 1c8d a03c
00000160: da80 9ebc 3031 d93c febd b1bc 5e9d 81bc
00000170: a64b 37bc c9fa a33c f278 0abc 3466 05b9
00000180: e728 28bd dafe 62bd 0432 343b 55ed 483d
00000190: fa25 98bc c027 57bb e9c9 e1bd c652 c93c
000001a0: 8a7f 413c a828 293d 799d 3abd 21e4 8c3a
000001b0: 4452 6ebb c2a2 d0bc aba4 20bd 7f89 4bbc
000001c0: 051a e9bc 4a21 d8bc b9d8 4fbd 3819 7abd
000001d0: 00f3 2fbb 64b7 09bd 71d2 3cbc a045 c2bc
000001e0: ac84 e63c b2a6 61bc 8a07 01bd d9a2 12bd
000001f0: 0000 0000 0aff 32bd 27a2 7abc e245 9cbd

xy_encoder.flat_module.to_hidden.weight f4 [128, 128]
0.025670404 -0.027056428 -0.041312274 -0.021892644 -0.0039251624 -0.04321697 -0.03758485 -0.03492525
0.05212431 0.0576885 -0.020627713 0.03471049 -0.0994346 0.01281248 0.020697843 0.07376569
-0.021510899 -0.023225175 -0.06723484 -0.078083 0.024138536 -0.010917146 -0.033584107 -0.022336284
0.04389382 0.06795283 0.04625278 0.02257658 -0.0038634457 0.052294936 -0.010197592 0.01188741
0.06354454 -0.047406103 0.06964727 0.06672675 0.04033072 -0.071421556 -0.08195922 -0.0828592
0.01834243 -0.056309134 -0.042556982 0.09249821 0.06693095 0.0021646149 -0.071279176 -0.09682756
-0.062737025 -0.041166786 -0.04898569 0.06249882 0.00013358248 -0.002612695 -0.027736451 0.016864939
0.009665484 -0.086891495 0.051590607 -0.077268444 0.06261759 0.08917023 -0.011471046 0.010610439
0.051341444 0.056929544 0.096729904 -0.0024496731 -0.08501273 0.08777866 0.02271328 0.0446387
-0.0016234192 -0.012381981 -0.09835876 -0.08123285 0.028278213 0.08853645 -0.08379571 -0.050533477
0.036863238 -0.08968562 0.091897406 0.052569814 0.09319904 -0.06760207 0.02845402 -0.08067314
0.0017485723 -0.06376884 -0.010051496 0.10209483 0.03557755 -0.055291552 -0.022125995 0.023640899
0.10666078 -0.0132118175 0.01970577 -0.00016762645 0.0930584 0.051124856 -0.08245543 -0.071698695
-0.044740546 0.005595828 -0.014388458 -0.024772303 0.048338514 0.10118997 0.035300847 -0.04351847
0.053670708 -0.021388208 0.086564615 -0.040162668 -0.030228471 0.030074663 0.02496872 0.043986835
0.05132958 0.057961266 0.00768258 -0.039339535 0.05487422 -0.043526627 0.071559705 -0.07488803
-0.03473582 -0.034877528 0.101984106 0.03624966 -0.109592766 0.037840486 0.03171845 -0.039422333
-0.024315262 0.05801124 0.018524041 -0.102152355 -0.10762454 0.069255345 -0.08240536 -0.004890561
-0.10777831 -0.11920691 0.0018255961 0.061907776 -0.06829319 0.01670682 -0.074174054 -0.027181255
-0.012903552 0.0051480453 -0.033862747 0.05854178 -0.07863293 0.046232212 0.10789742 0.010362216
-0.045000516 0.013763471 0.01573388 0.02373506 0.049493507 0.08012872 0.022172514 -0.11258855
0.005141712 -0.0076757427 -0.037193947 0.07228744 0.07726746 0.030366674 -0.05703515 0.0723083
-0.04801367 -0.10494454 -0.0864395 0.034274757 -0.0058161393 0.08317173 -0.04415894 -0.07402458
0.042721845 0.013175813 0.014564372 -0.021490417 0.013036444 0.068052314 0.08352939 0.01092474
-0.08858462 -0.12351623 -0.034725305 0.019948106 -0.08200462 -0.025805838 0.040424407 -0.073691025
-0.030381795 0.00015464959 -0.06639977 0.012999871 -0.10002476 0.029216062 -0.0872922 -0.048296496
0.039657798 -0.02529287 -0.015042975 0.0546074 -0.099073656 -0.07403394 0.05845093 -0.037135888
0.060341354 -0.06858148 0.04671214 -0.022684092 0.050699055 -0.060784813 -0.074531235 -0.081107646
0.005969386 -0.023134552 0.073167324 -0.04334517 0.012757533 -0.097514525 0.039346162 -0.082752794
-0.036871918 0.024484668 0.062082432 0.060487874 -0.04004495 0.016510017 0.03449893 -0.030184299
0.048618365 -0.095242836 -0.069460265 0.022636525 0.04182685 -0.031028096 -0.051919017 -0.10300492
-0.03728501 -0.10683342 -0.09376076 -0.03142465 -0.05164837 0.00074941036 -0.056798015 0.010580436
00000000: bd4a d23c 71a5 ddbc 0f37 29bd 3458 b3bc
00000010: a69e 80bb 4704 31bd 92f2 19bd c70d 0fbd
00000020: 4d80 553d c74a 6c3d 73fb a8bc 962c 0e3d
00000030: 5ea4 cbbd 70eb 513c 868e a93c 7712 973d
00000040: a037 b0bc b942 bebc 6bb2 89bd fbe9 9fbd
00000050: 2ebe c53c d4dd 32bc 7d8f 09bd 95fa b6bc
00000060: 02ca 333d da2a 8b3d 8e73 3d3d 85f2 b83c
00000070: dd31 7dbb 3733 563d cd13 27bc 69c3 423c
00000080: a423 823d e72c 42bd 3aa3 8e3d 09a8 883d
00000090: d331 253d 7745 92bd 3cda a7bd 16b2 a9bd
000000a0: dd42 963c 68a4 66bd 3b50 2ebd b46f bd3d
000000b0: 1813 893d 36dc 0d3b d1fa 91bd 874d c6bd
000000c0: 457c 80bd 819e 28bd 38a5 48bd c3fe 7f3d
000000d0: 4612 0c39 c039 2bbb 8e37 e3bc 5728 8a3c
000000e0: fa5b 1e3c 2bf4 b1bd ac50 533d eb3e 9ebd
000000f0: a73d 803d e29e b63d 0ef1 3bbc 68d7 2d3c
00000100: 684b 523d f42e 693d 541a c63d b28a 20bb
00000110: 271b aebd 4cc5 b33d 3311 ba3c 12d7 363d
00000120: e9c8 d4ba cbdd 4abc 5170 c9bd 695d a6bd
00000130: b6a7 e73c 9952 b53d 169d abbd 31fc 4ebd
00000140: e8fd 163d 18ad b7bd b534 bc3d 7253 573d
00000150: 23df be3d f472 8abd 6818 e93c f637 a5bd
00000160: 5a30 e53a 3d99 82bd 08af 24bc 1817 d13d
00000170: c4b9 113d 6579 62bd 9341 b5bc 8faa c13c
00000180: f870 da3d 6176 58bc ff6d a13c e2c4 2fb9
00000190: 6795 be3d 4c68 513d 64de a8bd c4d6 92bd
000001a0: dd41 37bd 355d b73b 91bd 6bbc 49ef cabc
000001b0: 9bfe 453d b03c cf3d 9f97 103d 6c40 32bd
000001c0: d1d5 5b3d 5336 afbc ca48 b13d 9c81 24bd
000001d0: b3a1 f7bc 245f f63c 338b cc3c 8a2b 343d
000001e0: f73e 523d cb68 6d3d 27be fb3b 7e22 21bd
000001f0: cac3 603d fa48 32bd e58d 923d e55e 99bd
00000200: 2647 0ebd bddb 0ebd 0bdd d03d 867a 143d
00000210: 2c72 e0bd a0fe 1a3d 35eb 013d 5079 21bd
00000220: cd30 c7bc 329d 6d3d bbbf 973c 4135 d1bd
00000230: 416a dcbd bfd5 8d3d 24c4 a8bd 0041 a0bb
00000240: e0ba dcbd c122 f4bd d748 ef3a 0293 7d3d
00000250: 4ddd 8bbd bedc 883c 91e8 97bd 39ab debc
00000260: 6b69 53bc efb0 a83b aab3 0abd 81c9 6f3d
00000270: 4d0a a1bd fd5d 3d3d 53f9 dc3d 49c6 293c
00000280: 7652 38bd 2e80 613c 57e4 803c 0770 c23c
00000290: b4b9 4a3d 871a a43d 22a3 b53c d394 e6bd
000002a0: ce7b a83b cc84 fbbb ae58 18bd 700b 943d
000002b0: 673e 9e3d 88c3 f83c b09d 69bd 6016 943d
000002c0: fba9 44bd 2aed d6bd 3107 b1bd b063 0c3d
000002d0: 5095 bebb f155 aa3d 01e0 34bd 339a 97bd
000002e0: 1afd 2e3d 5ddf 573c 679f 6e3c ac0c b0bc
000002f0: cf96 553c 035f 8b3d 7511 ab3d aefd 323c
00000300: da6b b5bd 14f6 fcbd 1f3c 0ebd 366a a33c
00000310: 0af2 a7bd c466 d3bc 1094 253d 52eb 96bd
00000320: 3ee3 f8bc 6f29 2239 9afc 87bd 69fd 543c
00000330: c8d9 ccbd 8656 ef3c 41c6 b2bd 8cd2 45bd
00000340: 3770 223d fe32 cfbc cf76 76bc 02ac 5f3d
00000350: 21e7 cabd 1b9f 97bd 3e6a 6f3d cd1b 18bd
00000360: 7f28 773d 7274 8cbd 3b55 3f3d fdd3 b9bc
00000370: d0a9 4f3d 7ff9 78bd d5a3 98bd c41b a6bd
00000380: d79a c33b ac84 bdbc c0d8 953d b48a 31bd
00000390: f904 513c b2b5 c7bd 7129 213d 4c7a a9bd
000003a0: 0207 17bd 1294 c83c 264a 7e3d 22c2 773d
000003b0: 2c06 24bd 0440 873c c04e 0d3d 1045 f7bc
000003c0: 0d24 473d ad0e c3bd 2f41 8ebd 3c70 b93c
000003d0: a252 2b3d a22e febc 09a9 54bd 3ef4 d2bd
000003e0: 2bb8 18bd 7bcb dabd a405 c0bd 22b7 00bd
000003f0: 3e8d 53bd 1474 443a 09a5 68bd 9159 2d3c

xy_encoder.flat_module.to_hidden.bias f4 [128]
-0.03607666 0.019461876 0.020417197 0.0010116263 -0.0034223453 -0.025569227 -0.018733958 -0.06600105
-0.012322158 -0.031087128 -0.0035779993 -0.013955427 -0.009119454 -0.011967111 -0.019418487 -0.06058509
-0.01363118 -0.0369119 0.023446975 -0.015795344 -0.0097562475 -0.05663094 -0.016548794 -0.071297705
-0.009670567 -0.024147045 -0.010960652 0.0002258343 -0.018542537 -0.032895267 -0.019324217 -0.00030036116
0.024174288 0.014969151 -0.031920522 -0.024951708 -0.042021565 0.013852472 -0.022091743 -0.019206485
-0.015760312 -0.046952043 -0.05913893 -0.025814664 0.0030084283 -0.0058811945 -0.0052081863 -0.047638156
-0.012796668 0.013727157 -0.011286735 -0.001153367 -0.039530143 -0.021734545 0.003324087 -0.082873434
-0.03269801 -0.011201895 -0.06555852 -0.043729078 -0.07614255 0.05063543 -0.015258693 -0.0061793635
-0.03918656 0.015637474 0.00634072 -0.006652441 -0.01827776 0.0034508053 -0.023402764 0.006428852
-0.028226156 -0.05046024 -0.014871614 -0.035290986 -0.0031977054 0.035734966 -0.007420386 -0.010296259
-0.0654491 -0.021152565 -0.008327947 -0.0069158752 -0.046110738 -0.007323832 -0.0027654327 -0.015691806
0.07282569 -0.016974395 0.057879526 -0.019966036 -0.010464687 -0.0032226555 -0.02880916 -0.007933823
0.03293044 0.008339803 0.0663507 -0.015113131 0.0082835425 -0.00825977 -0.044441164 -0.017303575
0.067310385 -0.08940836 -0.012219517 0.004595146 -0.074888535 -0.038938154 -0.009641087 -0.019013211
-0.013461302 -0.0117067555 0.06262603 -0.048688844 0.0074075907 -0.037252933 -0.0063636745 -0.036027614
-0.008510757 -0.024806237 -0.009549082 0.0006943496 -0.009492815 0.020204706 0.031580962 0.0050419075
00000000: 1fc5 13bd 836e 9f3c f741 a73c 8c98 843a
00000010: 6d49 60bb 8e76 d1bc f577 99bc 8f2b 87bd
00000020: e0e2 49bc 6faa febc de7c 6abb 4ea5 64bc
00000030: c369 15bc b411 44bc 8513 9fbc 1228 78bd
00000040: 5055 5fbc ef30 17bd df13 c03c 3d65 81bc
00000050: abd8 1fbc d8f5 67bd 5691 87bc 8804 92bd
00000060: 4c71 1ebc 06d0 c5bc 4e94 33bc efcd 6c39
00000070: 85e6 97bc 30bd 06bd d24d 9ebc cb79 9db9
00000080: 2809 c63c 2b41 753c 18bf 02bd 8667 ccbc
00000090: ce1e 2cbd 7bf5 623c bef9 b4bc eb56 9dbc
000000a0: c51b 81bc c950 40bd aa3b 72bd 4679 d3bc
000000b0: 0d29 453b 09b7 c0bb 6fa9 aabb 3a20 43bd
000000c0: 1ea9 51bc dfe7 603c ffeb 38bc 932c 97ba
000000d0: 5cea 21bd a50c b2bc edd8 593b 8cb9 a9bd
000000e0: 59ee 05bd 2788 37bc 8c43 86bd 431d 33bd
000000f0: a0f0 9bbd 1967 4f3d 99ff 79bc 427c cabb
00000100: 1682 20bd 291a 803c d1c5 cf3b b8fc d9bb
00000110: 3ebb 95bc e826 623b 27b7 bfbc 1fa9 d23b
00000120: 8a3a e7bc 66af 4ebd 12a8 73bc 488d 10bd
00000130: 9890 51bb d45e 123d b626 f3bb a4b1 28bc
00000140: 2e0a 86bd 2548 adbc f171 08bc 919e e2bb
00000150: 9dde 3cbd c1fc efbb 433c 35bb 1a8c 80bc
00000160: a325 953d e30d 8bbc 1513 6d3d d08f a3bc
00000170: 1474 2bbc 3033 53bb 3001 ecbc defc 01bc
00000180: 12e2 063d aba3 083c e0e2 873d 119d 77bc
00000190: b2b7 073c fd53 07bc f007 36bd 3ac0 8dbc
000001a0: 07da 893d bb1b b7bd 5e34 48bc e192 963b
000001b0: 295f 99bd 9d7d 1fbd a6f5 1dbc 98c1 9bbc
000001c0: cb8c 5cbc b1cd 3fbc 1342 803d f46d 47bd
000001d0: 60bb f23b 8896 18bd 5f86 d0bb b191 13bd
000001e0: b470 0bbc 7336 cbbc c173 1cbc 0305 363a
000001f0: c087 1bbc 5784 a53c 0a5b 013d 9636 a53b

xy_encoder.flat_module.linears.0.weight f4 [128, 128]
-0.08955715 0.065465644 -0.08161731 0.030982114 -0.0777114 -0.06027135 -0.04065625 0.0025692387
-0.053380035 0.060138565 0.015753953 0.014699664 -0.086036436 -0.038586944 0.037944235 -0.05621389
0.026383989 -0.030758245 -0.04481854 -0.027881287 0.0717836 -0.027556658 -0.0036490187 -0.040654667
-0.0031511467 0.039920565 -0.015519798 -0.07915358 -0.042662222 -0.06375579 0.034319796 -0.067189895
-0.09259082 -0.008438021 -0.022089826 -0.06871439 -0.024288045 -0.06726599 0.071013175 0.011169518
0.06034576 0.044968262 -0.027136585 0.0759446 -0.087590076 -0.022978405 -0.08098321 -0.054798547
-0.095954366 0.049486212 -0.06961879 -0.017323354 -0.0046680686 0.018507948 0.052681323 -0.034685366
-0.045042485 -0.093538515 0.031667925 0.074083395 -0.06935907 -0.022209778 0.051382184 -0.024714014
0.0072795693 -0.049875345 0.06408412 -0.060154084 -0.037306715 -0.010665126 0.06319564 0.059184387
-0.016018601 0.07866672 0.014707797 -0.02598641 0.017841047 0.07586975 -0.0620852 0.026747385
0.039129976 -2.2949016e-05 -0.0382592 -0.08286194 -0.06709767 0.050672792 0.039935946 0.042490877
0.035374872 -0.03948766 -0.09044486 -0.055344746 0.05165132 0.028158454 -0.027874153 -0.06948615
-0.015575951 -0.042881444 -0.052260235 -0.03575241 -0.013048493 0.020567095 -0.05797509 0.027605124
-0.009344759 -0.0371159 0.037579574 0.04509514 -0.023947945 -0.010993217 -0.050255623 0.07287622
0.033456266 -0.060627818 0.025147842 0.019823803 0.019892119 0.074171394 0.025168851 -0.045003586
0.05195146 -0.08501907 -0.07503553 -0.068185195 -0.05121144 0.04983241 0.0564164 -0.05251999
0.029098451 -0.056276586 0.040908456 0.02004605 0.08782598 -0.040416986 0.06973995 -0.086382635
-0.053458784 0.006968956 -0.0015327816 -0.07127115 0.023668507 -0.03602932 0.0690523 0.054070547
0.0015483918 0.016136425 0.10328828 0.049818814 -0.02633487 -0.08209383 -0.0014760016 -0.07732205
0.08975527 0.053875107 -0.061771218 -0.01215151 -0.030941267 -0.05024674 -0.07712638 -0.036786295
0.06453119 0.07086997 -0.059421986 0.030674357 0.012828471 -0.017162297 -0.060058516 -0.029559625
0.025870332 0.016817143 0.05414282 0.0027196927 0.05970979 -0.07586717 -0.06636108 -0.03997756
0.021272674 0.033079546 -0.037320707 0.04602547 0.05260693 0.04280526 -0.03977901 -0.02492043
-0.03861708 0.019477399 -0.021811645 0.036137965 0.0007793673 -0.034638017 0.0646475 0.03315914
0.087150715 0.08940869 -0.025346823 0.070229985 0.022026367 0.01684795 0.08229934 0.0004855697
0.031040281 0.0619481 0.09240922 -0.040118054 0.09632789 0.06798049 0.018469004 -0.07681976
0.066928506 -0.07725785 -0.07572793 -0.07129374 0.08534159 -0.077615865 -0.058883905 0.043075036
-0.02730043 0.006369143 0.055624254 -0.056544784 0.039843578 0.05439676 -0.037250493 0.02449102
-0.111740805 0.020404756 -0.054760385 0.066326156 -0.056643795 0.061786205 0.019749997 0.055883776
-0.063328095 -0.013412323 0.0522281 -0.08547453 -0.032470636 0.009076811 0.06180441 0.056633987
0.043334693 -0.042579684 0.017095674 -0.06237281 -0.037836615 -0.013182762 0.0036102987 -0.09910202
-0.07193593 -0.06315285 0.064303964 0.05800606 -0.050695945 -0.037393115 -0.046727072 0.024718419
00000000: bd69 b7bd da12 863d fa26 a7bd 34ce fd3c
00000010: 2827 9fbd 17df 76bd 2b87 26bd ac60 283b
00000020: 06a5 5abd db53 763d 6f0e 813c dcd6 703c
00000030: df33 b0bd 580d 1ebd 6a6b 1b3d 8940 66bd
00000040: 3c23 d83c b7f8 fbbc a593 37bd 4c67 e4bc
00000050: 4803 933d 80be e1bc 6024 6fbb 8285 26bd
00000060: 7883 4ebb bf83 233d c046 7ebc 461b a2bd
00000070: 95be 2ebd 6592 82bd ea92 0c3d db9a 89bd
00000080: 41a0 bdbd a03f 0abc b9f5 b4bc 21ba 8cbd
00000090: b9f7 c6bc c0c2 89bd 5b6f 913d 5b00 373c
000000a0: 1e2d 773d a430 383d 8b4d debc d888 9b3d
000000b0: 6d62 b3bd 353d bcbc 86da a5bd 7174 60bd
000000c0: b983 c4bd 0eb2 4a3d 4c94 8ebd b5e9 8dbc
000000d0: 99f6 98bb fb9d 973c 5fc8 573d 3e12 0ebd
000000e0: 787e 38bd 1f91 bfbd 3ab6 013d 09b9 973d
000000f0: 210c 8ebd 48f1 b5bc 2076 523d 0b75 cabc
00000100: 7489 ee3b 174a 4cbd 893e 833d 2164 76bd
00000110: edce 18bd c8bc 2ebc b76c 813d 546b 723d
00000120: 7139 83bc 041c a13d f9f8 703c 74e1 d4bc
00000130: 6327 923c 9961 9b3d 0d4d 7ebd 551d db3c
00000140: c146 203d a382 c0b7 aeb5 1cbd 85b3 a9bd
00000150: 816a 89bd 468e 4f3d e093 233d ea0a 2e3d
00000160: 3ee5 103d d0bd 21bd 283b b9bd 2cb1 62bd
00000170: 5690 533d 8fac e63c 5658 e4bc c14e 8ebd
00000180: 4632 7fbc 74a4 2fbd d40e 56bd 1e71 12bd
00000190: 59c9 55bc 537c a83c 4a77 6dbd 2424 e23c
000001a0: c31a 19bc d806 18bd 0aed 193d aeb5 383d
000001b0: 7b2e c4bc e51c 34bc d7d8 4dbd 2140 953d
000001c0: 7009 093d e054 78bd d902 ce3c 8765 a23c
000001d0: ccf4 a23c 2ce7 973d e82e ce3c ae55 38bd
000001e0: 0ecb 543d 7a1e aebd 3aac 99bd aea4 8bbd
000001f0: 16c3 51bd 121d 4c3d e214 673d 331f 57bd
00000200: e05f ee3c 4782 66bd a08f 273d 9d37 a43c
00000210: 1bde b33d 488c 25bd d2d3 8e3d 61e9 b0bd
00000220: 99f7 5abd d75b e43b 9ee7 c8ba 9cf6 91bd
00000230: 75e4 c13c 7b93 13bd 4b6b 8d3d 1479 5d3d
00000240: 68f3 ca3a 8930 843c ce88 d33d d00e 4c3d
00000250: 3abc d7bc cf20 a8bd 6576 c1ba 065b 9ebd
00000260: 9cd1 b73d 25ac 5c3d d103 7dbd 2117 47bc
00000270: 8a78 fdbc 87cf 4dbd 6ff4 9dbd 3aad 16bd
00000280: ee28 843d 4624 913d 7864 73bd ca48 fb3c
00000290: 822e 523c f297 8cbc ebff 75bd 0727 f2bc
000002a0: 05ee d33c 1bc4 893c ddc4 5d3d df3c 323b
000002b0: 4192 743d 3f60 9bbd 51e8 87bd 83bf 23bd
000002c0: 0844 ae3c 6b7e 073d 99dd 18bd 3485 3c3d
000002d0: 5d7a 573d 9154 2f3d 51ef 22bd ee25 ccbc
000002e0: f12c 1ebd 118f 9f3c 56ae b2bc 6705 143d
000002f0: 744e 4c3a 98e0 0dbd e965 843d e1d1 073d
00000300: 137c b23d e71b b73d 24a4 cfbc bdd4 8f3d
00000310: a470 b43c b604 8a3c 8e8c a83d 1094 fe39
00000320: 3048 fe3c 4abd 7d3d 0c41 bd3d d452 24bd
00000330: 8f47 c53d 5b39 8b3d 4f4c 973c ae53 9dbd
00000340: d011 893d 5d39 9ebd 3f17 9bbd 7402 92bd
00000350: 92c7 ae3d 11f5 9ebd 4030 71bd 736f 303d
00000360: 27a5 dfbc 3eb4 d03b 42d6 633d 819b 67bd
00000370: 0533 233d 23cf 5e3d f993 18bd 64a1 c83c
00000380: 5dd8 e4bd e027 a73c 6d4c 60bd 02d6 873d
00000390: 5303 68bd 8813 7d3d bfca a13c 63e6 643d
000003a0: 29b2 81bd 5cbf 5bbc 22ed 553d 450d afbd
000003b0: eeff 04bd e8b6 143c 9f26 7d3d 0af9 673d
000003c0: b87f 313d 0968 2ebd 3a0c 8c3c a27a 7fbd
000003d0: 91fa 1abd 83fc 57bc c39a 6c3b 00f6 cabd
000003e0: 2553 93bd 4856 81bd ccb1 833d c397 6d3d
000003f0: 8da6 4fbd 8629 19bd e364 3fbd 487e ca3c

xy_encoder.flat_module.linears.0.bias f4 [128]
-0.008915788 0.0015920933 -0.058639858 -0.0146891195 0.017559055 0.017505996 -0.008807479 -0.014452567
-0.105363354 -0.027983377 0.03249154 -0.0056872284 -0.039071538 0.027257841 -0.017712431 0.030514305
-0.013658275 -0.030845726 -0.027073322 -0.0735635 -0.06430301 -0.03892845 0.007551465 0.008231003
-0.042153195 -0.02139818 0.03424416 0.03886298 -0.048863642 -0.04874585 -0.01492843 -0.010784053
-0.008689745 -0.06803908 0.038020633 0.045048 -0.010902571 -0.10229107 -0.010677485 -0.0175152
-0.033579625 0.0 -0.053415336 -0.0018670171 0.018682932 -0.03305299 -0.04604285 -0.007349935
-0.02725141 0.03186163 -0.025022903 -0.011908999 0.067082375 -0.025583068 -0.036552068 0.012193222
-0.04909452 -0.020036444 -0.00723408 -0.011369243 -0.029407116 -0.020072918 0.004351463 -0.009184815
0.014289925 0.024268534 -0.014241478 0.025481958 -0.03445636 -0.0068010213 0.03810234 0.025769228
-0.004419592 -0.021040145 -0.015096736 0.013683227 0.015754052 0.022751065 -0.020016743 -0.027165158
-0.019704554 -0.0076721697 -0.0018785074 -0.09162496 0.026225485 -0.08165701 -0.052255165 -0.015275201
-0.006164197 -0.05420623 -0.0078857485 -0.071206406 0.009089759 -0.0005920925 0.01624323 -0.07377563
-0.029167771 -0.00012804565 0.013340478 0.0105078 0.016618023 -0.021311563 0.038325284 -0.0127675645
0.012923364 -0.014665517 0.029376509 -0.008925652 0.03242966 -0.010110218 -0.010339376 -0.0067371475
-0.00920213 -0.008060816 0.010894905 -0.0084107565 -0.0054533486 -0.031908803 0.0 0.0064920094
-0.029672712 -0.01873396 -0.013753717 -0.010461125 0.04144036 -0.003112853 -0.052526243 0.004267845
00000000: 8613 12bc c9ad d03a 5930 70bd a2aa 70bc
00000010: 02d8 8f3c bc68 8f3c 3f4d 10bc 76ca 6cbc
00000020: bec8 d7bd 653d e5bc d915 053d ee5b babb
00000030: 7a09 20bd d64b df3c a919 91bc 23f9 f93c
00000040: f5c6 5fbc 2db0 fcbc dfc8 ddbc 76a8 96bd
00000050: 4cb1 83bd 7073 1fbd 4872 f73b 54db 063c
00000060: d4a8 2cbd 3c4b afbc 9b43 0c3d ca2e 1f3d
00000070: 3e25 48bd baa9 47bd 6096 74bc 99af 30bc
00000080: 6f5f 0ebc 1358 8bbd 86bb 1b3d 4084 383d
00000090: b2a0 32bc fb7d d1bd 9ef0 2ebc 097c 8fbc
000000a0: ca8a 09bd 0000 0000 0aca 5abd b3b6 f4ba
000000b0: f30c 993c 9262 07bd 6d97 3cbd b9d7 f0bb
000000c0: 593e dfbc 5781 023d d5fc ccbc f61d 43bc
000000d0: 7c62 893d 9593 d1bc 9fb7 15bd 14c6 473c
000000e0: 5617 49bd 7823 a4bc dd0b edbb 1046 3abc
000000f0: 31e7 f0bc f66f a4bc b896 8e3b e87b 16bc
00000100: 4a20 6a3c cece c63c 1755 69bc 8abf d03c
00000110: 1d22 0dbd 1adb debb 3311 1c3d fd19 d33c
00000120: 3ad2 90bb 625c acbc 4d58 77bc 9d2f 603c
00000130: a40e 813c 7160 ba3c 27fa a3bc 7789 debc
00000140: 726b a1bc d366 fbbb 4038 f6ba dea5 bbbd
00000150: d4d6 d63c ca3b a7bd 8309 56bd d644 7abc
00000160: 08fd c9bb 5a07 5ebd 3a33 01bc aad4 91bd
00000170: 36ed 143c a836 1bba 8610 853c ad17 97bd
00000180: 40f1 eebc fe43 06b9 0592 5a3c e828 2c3c
00000190: 8522 883c 9695 aebc f9fa 1c3d 0c2f 51bc
000001a0: 84bc 533c a347 70bc 01a7 f03c e63c 12bc
000001b0: f7d4 043d 54a5 25bc 7c66 29bc 4ac3 dcbb
000001c0: 88c4 16bc 8311 04bc 8b80 323c 45cd 09bc
000001d0: 01b2 b2bb ceb2 02bd 0000 0000 ecba d43b
000001e0: 3014 f3bc f677 99bc 4557 61bc 2365 2bbc
000001f0: 5ebd 293d 0201 4cbb c225 57bd 47d9 8b3b

xy_encoder.flat_module.out.weight f4 [128, 128]
-0.17950688 -0.15245502 0.1545477 -0.12611198 0.025171323 -0.2224098 -0.0037151212 0.1140485
-0.13563392 -0.0917818 -0.04733445 0.019907955 -0.044587143 0.04885892 0.15819913 -0.13584235
0.08878545 -0.2143869 -0.02833336 -0.21275263 -0.0743312 0.13533029 -0.11051376 -0.1469039
0.11247476 -0.19535397 -0.17313957 0.20033973 -0.15644825 -0.042270347 0.031899095 -0.13859725
0.022209354 0.19197415 0.16765356 0.07854079 -0.17880702 0.09671314 0.042393304 -0.11312269
0.070477195 0.1169564 -0.14007364 0.21162459 -0.17425723 0.10494718 0.07642899 0.17688936
-0.17973924 0.206283 -0.18695764 -0.034189407 0.21820785 -0.15579765 0.17435752 0.0038342695
-0.05143096 0.1269695 -0.07641919 0.15875892 0.11831933 0.16829066 0.08792517 0.11073841
-0.08762237 -0.18165864 0.19910473 0.1257704 0.033472203 0.0014988766 -0.15318511 0.09679104
-0.13045613 -0.10385581 -0.051951326 0.032078233 0.07036749 -0.089746214 0.15721259 -0.12652783
0.16901624 0.13249932 -0.036329195 -0.15939045 -0.08392876 -0.025988245 0.023921585 -0.20412795
-0.04679662 0.037092596 0.050411604 0.1751711 -0.18475167 -0.025611779 0.07361088 -0.03753278
0.02410621 -0.01179942 -0.19459164 0.0066854707 0.11300265 0.01992116 0.18911253 0.14366975
0.17879693 0.06357361 0.21629295 -0.102055416 0.04502268 0.0823314 0.10901564 0.051805317
-0.034901816 0.046275064 0.1682162 -0.1617822 0.112177126 -0.029853586 0.19104971 0.065444544
0.210152 -0.021988615 0.037767317 0.08059681 -0.10175408 0.18069728 0.0019603565 -0.009771766
-0.10023704 -0.17583707 0.2221424 -0.0025469295 -0.18236488 -0.10216686 0.039822206 0.15333304
-0.098416016 -0.18478921 0.091557644 0.18312909 -0.097479686 -0.14242575 -0.13929923 0.11688197
-0.12981792 -0.03111002 0.033189617 0.13592945 -0.06789213 0.024157424 0.07007282 -0.1428087
0.04735406 0.064480975 0.026529416 -0.18268494 -0.12326996 -0.038742952 0.22611605 -0.15231538
-0.14383392 -0.109884 -0.06571454 -0.16011703 -0.036981665 -0.19430105 0.0115539115 0.22236921
-0.02294091 -0.02736777 0.13855287 -0.024671193 -0.06071883 -0.13396448 0.17385344 -0.15554771
0.21923858 -0.16530143 -0.21243076 0.025625788 0.1108186 -0.19095661 -0.19405787 0.05364089
0.16459742 -0.032049626 -0.20528261 0.14675811 0.061907776 0.060646325 -0.051296525 -0.009845291
0.14005665 0.021565724 -0.09921795 0.04221586 0.064081684 0.15743941 -0.027005073 -0.09776964
0.060312435 -0.11739468 0.020048242 0.20969489 0.04441176 0.13905971 -0.05238072 -0.1516857
-0.08270666 0.012253738 -0.027035259 0.007638578 0.14028214 -0.0823481 -0.052426163 0.012985606
-0.020177094 -0.055512942 0.14771254 -0.18322624 -0.09114418 0.12674978 0.17723589 0.13481201
0.06326424 -0.123626165 0.19296204 -0.07337338 0.018478347 0.06644788 0.081023924 -0.08844898
0.18973851 0.028746754 -0.20846394 -0.18850178 0.015913509 -0.15424077 -0.10259489 -0.20279984
-0.017650785 0.032214202 -0.21166384 0.10508566 -0.09223579 0.11244253 -0.010891721 0.09844937
0.019825391 0.055647623 0.099920325 -0.09582261 0.034477416 0.033354793 0.014162479 -0.053932182
00000000: a7d0 37be 2b1d 1cbe c141 1e3e 8023 01be
00000010: 1734 ce3c 65bf 63be 6479 73bb 4392 e93d
00000020: 9ee3 0abe 19f8 bbbd c5e1 41bd 0216 a33c
00000030: 02a1 36bd 4a20 483d f4fe 213e 421a 0bbe
00000040: 25d5 b53d 3d88 5bbe 5d1b e8bc d3db 59be
00000050: f53a 98bd 0694 0a3e 0a55 e2bd fa6d 16be
00000060: 2b59 e63d df0a 48be 804b 31be dc25 4d3e
00000070: f833 20be ac23 2dbd a0a8 023d 70ec 0dbe
00000080: 64f0 b53c df94 443e 60ad 2b3e fed9 a03d
00000090: 3019 37be 8a11 c63d 9aa4 2d3d deac e7bd
000000a0: 5956 903d d686 ef3d 776f 0fbe 1eb4 583e
000000b0: 7d70 32be 8cee d63d cd86 9c3d 7c22 353e
000000c0: 900d 38be da3b 533e d371 3fbe 310a 0cbd
000000d0: e171 5f3e 6b89 1fbe c78a 323e 5e48 7b3b
000000e0: 45a9 52bd 4b04 023e aa81 9cbd b391 223e
000000f0: 6851 f23d 6354 2c3e 1d12 b43d d2ca e23d
00000100: 5b73 b3bd b904 3abe 1ce2 4b3e f5c9 003e
00000110: 261a 093d f475 c43a 8fdc 1cbe 613a c63d
00000120: 4b96 05be 5bb2 d4bd eaca 54bd 7764 033d
00000130: d51c 903d ddcc b7bd 56fc 203e 8390 01be
00000140: 9812 2d3e e7ad 073e eccd 14bd 4037 23be
00000150: d7e2 abbd 4de5 d4bc 33f7 c33c eb06 51be
00000160: d0ad 3fbd 68ee 173d 667c 4e3d 0e60 333e
00000170: 8b2f 3dbe cbcf d1bc 4dc1 963d f9bb 19bd
00000180: 637a c53c 5b52 41bc 0843 47be cb11 db3b
00000190: ef6d e73d b331 a33c b7a6 413e 2a1e 133e
000001a0: 8b16 373e e132 823d e67b 5d3e 6e02 d1bd
000001b0: b469 383d 5d9d a83d 9843 df3d d031 543d
000001c0: 35f5 0ebd ec8a 3d3d de40 2c3e 3caa 25be
000001d0: 1fbd e53d 828f f4bc 89a2 433e ca07 863d
000001e0: 1632 573e 7821 b4bc e7b1 1a3d f10f a53d
000001f0: 7164 d0bd b508 393e 5379 003b c219 20bc
00000200: 1449 cdbd a20e 34be 4c79 633e 63ea 26bb
00000210: dcbd 3abe dc3c d1bd 9c1c 233d 5603 1d3e
00000220: 568e c9bd 6239 3dbe 9382 bb3d 3186 3b3e
00000230: 6ea3 c7bd 0ed8 11be 75a4 0ebe d05f ef3d
00000240: fdee 04be 71da febc d6f1 073d 1731 0b3e
00000250: 070b 8bbd cae5 c53c 5782 8f3d 723c 12be
00000260: 55f6 413d 9a0e 843d 3854 d93c c311 3bbe
00000270: f674 fcbd eeb0 1ebd f78a 673e 90f8 1bbe
00000280: 3349 13be dd0a e1bd 5895 86bd b8f5 23be
00000290: 167a 17bd dbf6 46be 9e4c 3d3c c1b4 633e
000002a0: 93ee bbbc 6032 e0bc cee0 0d3e 3e1b cabc
000002b0: 4fb4 78bd fc2d 09be a306 323e e647 1fbe
000002c0: 1480 603e c744 29be 7387 59be 2ced d13c
000002d0: ddf4 e23d 218a 43be 1bb7 46be 8db6 5b3d
000002e0: 3a8c 283e 7846 03bd 9b35 52be c247 163e
000002f0: 0293 7d3d 4868 783d 4e1c 52bd 254e 21bc
00000300: 036b 0f3e 9aaa b03c c832 cbbd 8aea 2c3d
00000310: 423d 833d cc37 213e be39 ddbc 733b c8bd
00000320: 2c0a 773d 9f6c f0bd 363c a43c 42ba 563e
00000330: 1be9 353d ab65 0e3e 2a8d 56bd 7f53 1bbe
00000340: 1c62 a9bd e7c3 483c 0c79 ddbc 094d fa3b
00000350: 1fa6 0f3e 1fa6 a8bd d1bc 56bd 94c1 543c
00000360: 6f4a a5bc 8a61 63bd f541 173e a99f 3bbe
00000370: cda9 babd b2ca 013e 537d 353e 290c 0a3e
00000380: af90 813d b72f fdbd d797 453e c844 96bd
00000390: e75f 973c d315 883d dfef a53d bd24 b5bd
000003a0: d04a 423e 507e eb3c 9277 55be 9c06 41be
000003b0: 0c5d 823c 4bf1 1dbe 451d d2bd c3aa 4fbe
000003c0: 6198 90bc 0af3 033d 68be 58be 2737 d73d
000003d0: 1ee6 bcbd 4548 e63d 3073 32bc d39f c93d
000003e0: dc68 a23c c3ee 633d 07a3 cc3d a53e c4bd
000003f0: 3138 0d3d 099f 083d be09 683c fee7 5cbd
