results/notebooks/neural_process/small_anp_noisy-matern/params.pt (torch_old, 213026 bytes, 39 tensors)

x_encoder.to_hidden.weight f4 [32, 1]
00000000: f767 b43f e84e 2dc0 bdb6 fd3f 8fd6 ba3f
00000010: 6828 f4bf a6c1 053f baf7 1240 9614 22c0
00000020: 6383 8d3f 8268 a3bf d5b5 b23f c723 a63f
00000030: 5baa 2c40 df94 4abf 6d76 01c0 4a88 283f
00000040: 72c5 66bf 640a 893f 9a83 18c0 062f 443f
00000050: aa59 203f d82f 463f dd7f 0640 a00b b5bf
00000060: 8d05 adbf 05bc b83f d9eb 303f c481 0d40
00000070: c681 8c3f 12cd 20c0 c558 8bbf 4562 aebd
1.4094228 -2.707941 1.9821392 1.4596728 -1.9074831 0.5224861 2.29637 -2.5325065
1.1055721 -1.2766268 1.3961741 1.2979668 2.6978977 -0.7913341 -2.0228531 0.6583296
-0.9014503 1.0706296 -2.3830323 0.7663425 0.62636817 0.77416754 2.1015542 -1.4144173
-1.3517319 1.4432379 0.69109875 2.2110453 1.0977104 -2.5125165 -1.0886465 -0.08514837

x_encoder.to_hidden.bias f4 [32]
00000000: 66e4 1dbf 7b1c 08be 1f22 893f 3872 cbbe
00000010: 06a5 c8bb edca eb3e 0c92 9dbe e523 0f3e
00000020: 25b6 11bf cc00 ebbe 9bbd 123f ba2e 4a3f
00000030: e785 8f3e ac71 3c3f 2a3b 403f b833 eabe
00000040: c2c6 453f 73b6 cabd 1c43 df3e f643 7bbe
00000050: 0406 febe c361 1b3f 0f11 993e cc42 2cbf
00000060: a3d7 9a3e 17cf e43e b5f3 fa3e 17ce db3e
00000070: 52f9 34bf 3a29 2abf 44bd 1e3f 0697 403f
-0.61676633 -0.13292114 1.0713538 -0.3973558 -0.006123188 0.46053258 -0.30775487 0.13978536
-0.56918555 -0.45899045 0.57320565 0.7897755 0.28031847 0.7361095 0.7509028 -0.45742583
0.77256405 -0.09898081 0.43605888 -0.24537644 -0.49613965 0.6069605 0.29895827 -0.67289424
0.30242643 0.44689247 0.4901406 0.42930672 -0.7069293 -0.66469157 0.62007546 0.75230443

x_encoder.out.weight f4 [64, 32]
00000000: 8f03 69bf aa23 113d 3024 adbd 6d1d 39bf
00000010: 45e7 c13e e26a 08bf 4af2 12bf b6d7 a53e
00000020: 3a6a acbf 80d3 1ebc 897e 06bf 1e6e 02bf
00000030: 5797 02bf 07cc 3a3e dd44 84bc daf9 f8bf
00000040: bf87 183e 05c0 dcbe 46ce 883e dc34 67bf
00000050: 9500 20c0 853c 03bf 90ca c3bd 1fc5 74bd
00000060: 730f 82be d1d5 93be 7e66 25bf 5656 1abf
00000070: 1a39 cebf 0854 73bd 74ef a0be b1d2 303d
00000080: 0b2e 9c3d fc8d 8dbd 801e a83e 7cd1 2d3f
00000090: e45e 19be 01b8 bc3e c0a5 0d3f 63d3 dcbd
000000a0: 0a4a dd3d 91fb 213f 1ad5 fb3e c290 c93e
000000b0: d05f 003f 83f4 a5be bf8a a7be f9af 7e3d
000000c0: 6fbc bfbe 7eec 7f3d c1c8 e1be 7e0f 75bd
000000d0: 56ce f33e 6456 233e e844 123f 0183 413f
000000e0: 045c b93e 0903 b63e 9680 da3d b404 7a3c
000000f0: 964d 213f 4ff6 cd3e c8fc 34bd c46a 07bf
00000100: 4f62 f33e bfbf 17bf cd14 503e 6f6c aa3e
00000110: 8862 1cbf a54d d1be acf2 ae3e c779 c4be
00000120: a76d b33d c5dc 043d 1b77 ec3d 494a b2bc
00000130: e892 d33e 5e80 53bf dd26 8fbd 32db 103f
00000140: 1c5b 5cbe a2d2 043f 00e4 09bf c108 583e
00000150: ee5e 193f c649 59bd cbc0 7e3d 5f8b de3d
00000160: 271f 44bf 254b 26bc f59d bdbe ed4c 153f
00000170: e6ba 523f 5056 1fbd 5c1f 23bf 9975 59bf
00000180: 461b 92bd d9b7 13bd 7192 91be cad2 733e
00000190: 2fb2 a0be 5a88 9c3e d67d bb3e fa9e d5bd
000001a0: 44b0 d43e 3eec 7d3e 3423 1a3e a090 32bd
000001b0: 6b7d f83c 44bd dc3e cac4 9e3e 93b0 fc3e
000001c0: d123 963d 70db 013e 2c12 903d 5236 293f
000001d0: 0db9 9e3f d278 ecbe 2f59 6d3e 2bf8 8fbe
000001e0: facc 2c3e 3354 bebe 7130 f3be 4dc0 71be
000001f0: c2a4 2a3f 73a3 97bc c319 b23c 07bc 2cbe
00000200: 83a8 6ebf 30ba e7be 4506 593e ee43 49bf
00000210: d2d7 97be f2c7 743e e7f7 3dbf 17ec e7be
00000220: f2e9 c8bf 449d 13bf 72ee 7b3e c357 b5bd
00000230: 915d 83be 5488 253f 2bbf af3c 1158 3ac0
00000240: 1a3b 60bd 5231 d93c 91e7 e33e 25b2 bdbf
00000250: de51 2ac0 89e2 0c3f d13b a43c 287d 93bf
00000260: 1d5e 463e acac 55be 0f0b ccbc b869 9abe
00000270: 6638 e5bf 4f2a 92be e282 aa3e 7075 573f
00000280: 4405 89be 22b7 273e dda9 523e 5528 93be
00000290: 841a 6dbc 3e1f fe3e b453 9dbe f8b2 973e
000002a0: 4b46 44be 4953 033e 3e2e 8f3c 7e7c 943e
000002b0: 5367 b6bd 7357 7f3f 54bf cd3e a0de c83e
000002c0: f4f9 793e fe04 4a3e e455 9e3e 96bc 50be
000002d0: 27cd 013e f402 72be 33e4 6f3d 51c7 1abf
000002e0: 515a 4cbe 3d36 95bd 5915 bcbe b83d bcbe
000002f0: 8a8c 47be 4430 89be 2463 3e3f 373f 323f
00000300: 57d3 233f dd5f a83c 4ccc 7d3e d0d0 a23d
00000310: 432f 0c3f 0e47 09bf 1d34 153e 2da5 543c
00000320: 7e67 223f 3f2f 3c3f 0e62 4a3b 11a6 11be
00000330: c587 5b3e 2220 68bf 856e 1c3e 2153 d53b
00000340: 6f54 42bf b24e dc3e d5fc 7dbe d36a fabd
00000350: c723 223f 62f6 ab3d 780d 333e 8a3f 233f
00000360: 8ab1 81be 4ab3 b33e 3995 5bbd ed79 ab3e
00000370: 1488 8ebc 61eb 033f cd4a a7be 1e37 78be
00000380: 4318 733e 3c95 3b3d fac6 023f 6051 e53e
00000390: 4516 38bd 1174 933e 144f ca3e 8261 80be
000003a0: 2164 2b3f 76ee 98be c876 013e 8a12 253e
000003b0: b951 163f bcc6 20be e045 123e dcc4 633d
000003c0: 67ca f0bd e215 bebd 4008 20be 8e85 b63d
000003d0: a09a a8bd ccbe ca3e b3b0 9fbd 73a6 f03e
000003e0: 3063 3ebe 404a 2dbe 718c 6a3e 3720 e43e
000003f0: 8891 69bd a082 913d 35a5 423e b241 93be
-0.91021055 0.035434403 -0.08454168 -0.72310525 0.37871757 -0.5328809 -0.57400954 0.32391137
-1.3469918 -0.00969398 -0.5253683 -0.50949275 -0.51012176 0.18241893 -0.016146118 -1.9451249
0.14895533 -0.4311525 0.26719874 -0.9031503 -2.5000355 -0.5126422 -0.0956012 -0.0597583
-0.25402412 -0.28874066 -0.64609516 -0.6028799 -1.6111176 -0.05940631 -0.31432688 0.04316968
0.076259695 -0.06911847 0.3283577 0.6789777 -0.14977604 0.36859134 0.5533104 -0.10782506
0.108051375 0.63274485 0.4918602 0.39368254 0.501462 -0.3241311 -0.32723042 0.06217954
-0.3744845 0.062481396 -0.44098476 -0.059829228 0.4761836 0.15950924 0.5713639 0.7559052
0.36203015 0.3554919 0.10669057 0.01525991 0.6300901 0.4022698 -0.044186383 -0.52897286
0.4753594 -0.59276956 0.20320435 0.33285853 -0.61087847 -0.4087955 0.3416952 -0.3837416
0.08761149 0.032437105 0.11546155 -0.021763938 0.41323018 -0.8261775 -0.069898345 0.56584466
-0.2151913 0.518839 -0.53863525 0.2109709 0.59910476 -0.05304887 0.06219558 0.10866427
-0.76610035 -0.010149752 -0.37034574 0.58320504 0.82316434 -0.038900673 -0.63719726 -0.84945065
-0.07134108 -0.036064003 -0.28432038 0.23810878 -0.31385943 0.30572778 0.36619443 -0.10430713
0.4154073 0.2479715 0.15052491 -0.043594956 0.030333241 0.43113148 0.31009513 0.49353465
0.0733105 0.12681365 0.07034716 0.6609851 1.2400223 -0.4618593 0.23178552 -0.28119025
0.16875067 -0.37173614 -0.47497895 -0.23608513 0.6665765 -0.018510556 0.0217408 -0.16868602
-0.9322588 -0.45259237 0.21193798 -0.7861928 -0.29656845 0.23904398 -0.74206394 -0.4529731
-1.5696394 -0.57661843 0.24602678 -0.0885463 -0.25657323 0.64661145 0.02145346 -2.9116251
-0.054743864 0.026512776 0.4451261 -1.481999 -2.6612468 0.55033165 0.020048054 -1.152257
0.19371839 -0.2086665 -0.024907617 -0.30158782 -1.7907836 -0.28547904 0.3330298 0.8416357
-0.2676183 0.16378453 0.2057261 -0.28741708 -0.014471654 0.4963321 -0.30727923 0.2962873
-0.1916744 0.1282474 0.017478105 0.2900123 -0.08906426 0.9974281 0.40185034 0.3923235
0.24411756 0.19728467 0.30924904 -0.2038444 0.12675916 -0.23633939 0.058567237 -0.6046038
-0.19956328 -0.07285736 -0.36735037 -0.36765838 -0.19487205 -0.26794636 0.74370027 0.6962771
0.63994354 0.020553524 0.24784964 0.07949984 0.54759616 -0.53624046 0.14570661 0.012978834
0.63439167 0.7350959 0.00308812 -0.14223506 0.2143851 -0.9067403 0.15276535 0.006510154
-0.75910085 0.4302879 -0.24803479 -0.12227406 0.6333584 0.08396603 0.17485607 0.6376883
-0.25330764 0.35097724 -0.053609107 0.3349146 -0.017398871 0.51531035 -0.32674256 -0.24239776
0.23739724 0.045796618 0.51084864 0.44788647 -0.044943113 0.2879949 0.39513457 -0.25074393
0.6694966 -0.2986943 0.12642968 0.16120353 0.5871845 -0.15700811 0.14284468 0.05560766
-0.11757355 -0.092815176 -0.15628147 0.08912192 -0.082326174 0.3959869 -0.077973746 0.4700199
-0.18592525 -0.16922855 0.22905137 0.44555828 -0.057023555 0.07104993 0.19008334 -0.2876106

x_encoder.out.bias f4 [64]
00000000: 1aef d7bc caae 68be 2351 fbbe 0966 91bd
00000010: 44bb 2a3f 83c9 883e aed6 15bf 2afb 913c
00000020: 98b6 61be 8c9b c5bd b907 f13e 0eb3 c43e
00000030: 8648 383e 3051 00bf 744f 72be 38c4 7d3e
00000040: d1e5 283e 5a68 2a3e c9f9 1abe ce30 2ebf
00000050: a057 073f c7d4 b03e e0b8 413e 6e45 9fbe
00000060: 2afb f8be fb41 e83d 3192 fbbd 9e77 76be
00000070: ca5b 4abe 5250 02bd c2bf f2be 5c62 1fbd
00000080: 8dee cbbc 1ae0 fcbe fd17 d9be 70db 43bd
00000090: ec7e 27bf bf24 62bc 6a7e bbbe 6107 cf3c
000000a0: 4c94 e5be e7da 6d3e b456 9e3e 3a0a a13d
000000b0: bf33 513e 214e 06bf b5e9 12bf 0f86 d53e
000000c0: 9230 91be 5ca5 203e 6d06 a23e 8861 113f
000000d0: 2fc1 a13e 0715 b6be 5a66 443d ba71 bebe
000000e0: c98f 9c3d eee6 4c3d 7d15 b93d 756b cc3d
000000f0: a0a3 2cbe 9eec b4be f1a4 163f f0a5 febe
-0.02635913 -0.22722927 -0.4908534 -0.0709954 0.66691995 0.2671624 -0.585307 0.01781996
-0.2204231 -0.09648809 0.47076204 0.38417858 0.17996415 -0.5012388 -0.23663121 0.24781883
0.16493918 0.1664137 -0.15134348 -0.6804322 0.5286808 0.34537336 0.1891818 -0.31107658
-0.48629123 0.1134071 -0.12283743 -0.24069068 -0.19761577 -0.03181488 -0.47411925 -0.038912162
-0.024894023 -0.49389726 -0.42401114 -0.047816694 -0.6542804 -0.013802706 -0.36619884 0.025272073
-0.44839704 0.23228036 0.30925524 0.07863279 0.20429896 -0.52462965 -0.5738786 0.4170384
-0.2835737 0.1568808 0.31645527 0.56789446 0.315927 -0.35562918 0.047949173 -0.3719614
0.07644612 0.05002492 0.09037302 0.09981433 -0.16859293 -0.35336775 0.5884543 -0.49735975

xy_encoder.resizer.to_hidden.weight f4 [32, 1]
00000000: df46 a13f 132b 40be de28 f6bd 5516 91bf
00000010: 62f7 fc3e d926 f53f 9403 983e a26b 9dbf
00000020: 46d3 8e3f f3c8 163f 4bc7 43bf c2b2 083f
00000030: 4700 01c0 0388 0a3e bae3 f13d f63f 3d3f
00000040: 6a4d a1be b86c f53f 212a c33f 1d09 8b3f
00000050: f602 193f 95d6 e63f 5237 cebf 1015 62bf
00000060: c8b5 c0bf 633c d5bf ed32 65bf 1a5d 3ebd
00000070: 39cd bebf b841 bebc 1c5f 5a3f 0076 e93f
1.2599753 -0.18766432 -0.120195135 -1.133494 0.49407488 1.915248 0.2969023 -1.2298472
1.1158226 0.58900374 -0.7647597 0.5339776 -2.015642 0.13528447 0.118110135 0.7392572
-0.31504375 1.9173803 1.5247232 1.0862156 0.59770143 1.8034235 -1.6110632 -0.8831339
-1.5055475 -1.6659054 -0.8953083 -0.046475507 -1.4906379 -0.023224697 0.85301375 1.8239136

xy_encoder.resizer.to_hidden.bias f4 [32]
00000000: 2d5e 4abd 169c 7bbe c769 7bbe 3675 90bd
00000010: 5739 673e 6afc b6bd 12f7 553d 23f1 debd
00000020: 3dd0 513d f635 aebe 63a2 4e3c 66fa 1dbe
00000030: e7e5 593e 880e 06be e513 23be 39f4 a23d
00000040: c6e9 843d d912 c3bd 846e 28bd 3ac0 cabd
00000050: b6a3 9cbb c19f 70bd e8ce ecbe 5070 333d
00000060: e416 2d3e 90c5 a9bd 89c3 17be d445 55be
00000070: 29c8 6dbe 816c 803e b37a b03d 0b5c edbd
-0.04940622 -0.24571261 -0.2455207 -0.07053606 0.22580467 -0.08934863 0.052237578 -0.10885837
0.051223982 -0.34025544 0.012611958 -0.1542755 0.21279107 -0.1309148 -0.15925558 0.07956738
0.06489901 -0.09525079 -0.04112102 -0.098999456 -0.004780258 -0.058746103 -0.46251607 0.04380828
0.16903263 -0.08289635 -0.14820684 -0.20827419 -0.23220886 0.25082782 0.08617153 -0.115898214

xy_encoder.resizer.out.weight f4 [64, 32]
00000000: 964e 03be 0a12 bb3e 870a 99bc 4297 ac3e
00000010: 7b33 8abe 219c c6bc f5fd 4a3e 270d ac3e
00000020: 9eff 913c 3f9c 68be ecd4 58bc 5d99 c8be
00000030: 5eb1 ca3c 0162 143e 61d3 7f3e 4359 23be
00000040: 58ce 04bd 6e89 a23e 3333 b43d 1379 c8be
00000050: 70bb 44be d99e 76be 8b0c 823e e3ea 683e
00000060: 1aff 88be 5ca1 babe 6977 5a3e 2655 92be
00000070: 52c7 1c3e ea8f 98be e64b 8b3d c23d b83e
00000080: 5dbd e63e 048b 50be 4ce5 903e 2eac 8dbe
00000090: 3dac d2be ef3e 653e 9046 adbe 5df5 823e
000000a0: e60c 96bd ae28 043c 26ac 253e acf9 90be
000000b0: dc31 cebd 4d6a 9f3e 3826 ec3e 81c7 c1be
000000c0: 6bf2 9bbe 6e35 19be 268e 59be 26df c83e
000000d0: 3389 453e f924 a3be 530c 04bd ef94 0a3e
000000e0: e406 c53e 6ee3 703e 3b7c 123e b33c b5be
000000f0: a58b 6fbe 94b2 613e 6938 35be 2824 19bc
00000100: 03ba 163e d8a9 f13d 3339 643e ba02 fbbd
00000110: d96f 643d d148 dabd 4be8 d23e 4f93 933e
00000120: 881c 5b3e 718a c13e da10 adbd 7b95 17be
00000130: 341b a03e d499 2e3e 6fef ce3e ee75 bcbe
00000140: 51b0 90bd d069 523e b340 7ebe d3ee bd3e
00000150: adc6 60be 0646 803e 29e0 303e c4c2 9a3d
00000160: 5054 023e 7eaf 143d e16e 133e 6302 56be
00000170: 5bf3 ca3e 5284 a2bd 0dff 833d 19f8 6bbe
00000180: 70a0 d2be 88da 223e 1ede 02bf b49a 933e
00000190: b811 593e f0bf 3a3d 31a4 b7be 6862 863e
000001a0: 20e3 b13d 3b4e 0abf f100 4abe e695 1d3e
000001b0: d811 363e c3b2 0cbe 7025 f8be fe55 08bf
000001c0: 9d1c 22be c9d9 a4be e6b5 1ebe 5e35 d9be
000001d0: 8356 fbbe f893 09be b5eb 9bbe 50df 1cbe
000001e0: 5400 34be 5d41 673e 4a6f 85be 2060 babd
000001f0: d97c 5ebe a778 eebc f248 f8bd 08e6 babe
00000200: da97 963e 24aa fcbd 2223 b1be 3a8a 1ebe
00000210: 9aeb abbe 7932 e53d b25b 023e 6338 c2be
00000220: 6dbb 15bf 3eac b8be 23fa 503e 4a0c 03be
00000230: 074d 0dbc 92a9 1dbf 9303 00bf 379a 1fbe
00000240: 68bc 8a3e fb3d 8a3e 16da d9be 6242 d63c
00000250: ffe3 fabe 7625 07bf 56eb 7dbe 491f 59be
00000260: d0bd 9dbe 23e7 85be caaf c2be dc84 f5be
00000270: c022 bb3e a7ac 42bf 6fbf 9cbd 70d3 923e
00000280: 30eb 8f3e 74e0 1b3d 16b0 083e 6769 a0be
00000290: cc33 19bf 1149 b8bd b95e 693c 96fa ccbd
000002a0: 33fb f2be 5cff 993a 6272 483e 2157 e0be
000002b0: 2339 e7be 951a bdbe 7866 9d3e 28ec 0cbe
000002c0: f5a2 f4be 476d f9be 8e1b edbe 62ac e8be
000002d0: 515d b5be 4aa2 00bf 258a 95be 6982 01bf
000002e0: 770d 2dbf 81a4 94be 6edf 95be 9a4f a23e
000002f0: daad 803e 92c3 99bf 6b75 5c3e 0bc2 083e
00000300: c645 7b3d 71f8 ce3d 2059 953d 735c 9bbe
00000310: e42f b8be 5a43 be3e 1211 6b3e 9609 8ebd
00000320: cc60 b4bd 4391 343e d87e 573e a7c4 e3bd
00000330: af67 b2bd 2837 023e bebc d73e 49f3 09be
00000340: 3961 323e 9fb1 7f3c f373 583e 6061 58be
00000350: fcfd 4a3e 704b 1bbd ad2b 753e 7c6d b9bd
00000360: 9ce6 9e3e e12a a23e 2c5f 223e ce53 f9be
00000370: bcb0 eebe df45 d8be ad5b 6fbe aacf 4b3e
00000380: 837e b63e 9e08 613d a7d4 5cbe 0abd 893e
00000390: 58ba d7be 107c c6be f37e fabd dc52 663e
000003a0: 1479 323e 047f 33be 1b66 773e c195 89bc
000003b0: 7a83 a6be 1992 d53d 56c9 d6be 9c97 36be
000003c0: 95f4 9dbe 8f80 7cbe 1ab9 4c3e ba08 bebe
000003d0: 4257 8fbe ec48 f53c 241a a13c 0027 03bf
000003e0: 763e 01bf b067 e23b 63f3 803e a66d cabd
000003f0: e69d 153e 2b23 87be 943d 813e 57ab b1bd
-0.12822947 0.365372 -0.018681778 0.3370915 -0.269924 -0.02424437 0.1982344 0.33603784
0.017822083 -0.22715853 -0.013234358 -0.39179507 0.024742778 0.1449051 0.24982978 -0.1595202
-0.032423347 0.31745476 0.08798828 -0.39154872 -0.19212127 -0.24084033 0.25400195 0.22745852
-0.26757127 -0.36451232 0.21334614 -0.28580588 0.1531041 -0.29797298 0.06801586 0.35984617
0.45066348 -0.2036553 0.2829994 -0.27670425 -0.41147032 0.22387289 -0.33842897 0.25577822
-0.07326679 0.008066339 0.1617895 -0.28315485 -0.10068104 0.3113579 0.4612291 -0.37847522
-0.30458388 -0.14961788 -0.21245632 0.3923275 0.19290619 -0.31864145 -0.032238316 0.13533376
0.3848182 0.23524258 0.14305203 -0.35397872 -0.23393114 0.22040778 -0.176973 -0.009346999
0.14719395 0.11799973 0.22287445 -0.122563794 0.05577073 -0.1065842 0.4119285 0.28823325
0.21397603 0.37800935 -0.0845048 -0.14803116 0.31270754 0.17050868 0.40417048 -0.36808723
-0.0706488 0.20548177 -0.24829368 0.3709627 -0.21950789 0.25053424 0.1727301 0.0755668
0.12727475 0.036300175 0.14397766 -0.20899348 0.3963879 -0.07935394 0.064451315 -0.2304386
-0.4113803 0.15903676 -0.51120174 0.28828967 0.21198165 0.045593202 -0.35867456 0.26246953
0.08685899 -0.5402562 -0.19726922 0.15389213 0.17780244 -0.13740067 -0.48466063 -0.53256214
-0.15831228 -0.32197407 -0.15499076 -0.42423528 -0.4908944 -0.13435352 -0.30453268 -0.15319562
-0.1757825 0.22583528 -0.2606147 -0.09100366 -0.21727313 -0.029110266 -0.12123288 -0.36503625
0.2941273 -0.12337139 -0.34597117 -0.15482417 -0.33578187 0.111912675 0.12730291 -0.37933645
-0.58489114 -0.3606891 0.2040792 -0.12797657 -0.008624322 -0.6158687 -0.50005454 -0.15586172
0.27096868 0.27000412 -0.425492 0.0261547 -0.49002072 -0.52791536 -0.24796805 -0.2120334
-0.30808878 -0.26152906 -0.3802474 -0.47952926 0.3654995 -0.76044697 -0.076537006 0.2867694
0.2810912 0.038055852 0.13348421 -0.31330416 -0.5984466 -0.08998311 0.014243775 -0.10008733
-0.47457275 0.0011749077 0.19574884 -0.43816474 -0.4516078 -0.36934343 0.3074224 -0.13761961
-0.47780576 -0.48716184 -0.46310085 -0.45444018 -0.35422757 -0.50247633 -0.29206958 -0.50589615
-0.6759867 -0.29031757 -0.29272026 0.31701356 0.25132638 -1.2012808 0.21529166 0.13355272
0.061345838 0.1010598 0.0729239 -0.3034397 -0.35974038 0.3716076 0.2295573 -0.06935422
-0.08807525 0.17633538 0.21044481 -0.11121493 -0.08711182 0.12716353 0.42136186 -0.13471712
0.174199 0.015606313 0.21137981 -0.21130896 0.1982345 -0.03791374 0.23942442 -0.090540856
0.31035316 0.3167334 0.15856618 -0.4869675 -0.46619213 -0.42240807 -0.23374815 0.19903436
0.35643396 0.05493986 -0.21565495 0.26902038 -0.42134356 -0.38766527 -0.12231245 0.22492546
0.17429 -0.17528921 0.24160044 -0.016795041 -0.32522184 0.104282565 -0.41950482 -0.17831272
-0.30850664 -0.24658416 0.19992486 -0.37116033 -0.2799626 0.029941998 0.019665785 -0.51231384
-0.5048593 0.006909333 0.2518569 -0.09884195 0.14611015 -0.2639402 0.25242293 -0.086752586

xy_encoder.resizer.out.bias f4 [64]
00000000: c993 c2bc 8c2e 893c 2d73 553d 9d15 c0bd
00000010: 70e0 c5be cad7 44bf fc94 6dbd 51e4 0bbe
00000020: 4992 00be 0073 5ebc 3cbf fdbe 9177 0cbd
00000030: 8f30 8abd feff 3d3d 3b54 e8bd c042 09be
00000040: 5987 a2bd 6398 0a3d 6731 66bd 171d 993d
00000050: 7caf 1abe 6901 13be 93a3 1bbe e5ce d2bd
00000060: f59d 18be d996 4abe 940e ef3a e2fc 0abe
00000070: c0f6 a5bd 2bab e2bd e169 79be 5fb3 b43a
00000080: c562 f8bd 580a 92bd 891c a9be b37c d53c
00000090: 3466 95ba 37c4 5bbd b16f f93d bff4 613c
000000a0: 64eb 8dbe ba62 f1bd 2f5a 94bd 10e6 b6bc
000000b0: fe45 c1bd 09bb d6bb a961 2bbc 8b14 efbd
000000c0: 4906 c0bd 66b9 86be feb6 afbe 0804 efbd
000000d0: d551 56be 27fb 983e 9c03 00be 1df6 243e
000000e0: 78bd f73c 0316 83bd 7868 ea3d 3892 babd
000000f0: d3fe 2ebe 6ddd debe 0a91 33be 75b0 853d
-0.02375211 0.016745828 0.052111793 -0.093791224 -0.38647795 -0.7689177 -0.05800341 -0.13661315
-0.12555803 -0.013577223 -0.49559963 -0.034293715 -0.06747543 0.04638671 -0.11344191 -0.1340437
-0.07935972 0.033836734 -0.056199457 0.074762516 -0.15106004 -0.14356007 -0.15199117 -0.10293368
-0.14904006 -0.19784106 0.0018238598 -0.1357303 -0.081037045 -0.11067804 -0.24356796 0.0013786367
-0.12128214 -0.07130879 -0.33029583 0.026060438 -0.0011398257 -0.053653922 0.121795066 0.013791262
-0.2771865 -0.11786409 -0.07243764 -0.0223265 -0.09437178 -0.006553058 -0.010460296 -0.1167384
-0.09376199 -0.26313323 -0.343193 -0.11670691 -0.20929654 0.29879114 -0.12501377 0.1610951
0.030241713 -0.06400683 0.11445707 -0.0910992 -0.17089395 -0.4352831 -0.17535797 0.06527797

xy_encoder.flat_module.to_hidden.weight f4 [64, 64]
00000000: 7434 b03d 2cbd 833d 9900 95be f9a0 91be
00000010: 4f8c 553e bb94 123e 2619 ebbe 7428 78be
00000020: b81b e83d 0b58 8abe 6df0 06be cdab 713d
00000030: 8bdb 1cbe f52a 8ebd 3c67 91be 2340 a4bd
00000040: 973a dcbd 00d9 b43d 857f fcbd 4aeb 883d
00000050: 3a6f 09be cb26 393e 51d3 433e 62ab 813e
00000060: 82e1 633e f3f0 73be 35b2 87be cd4e 853e
00000070: 95ad 67bd 6ec5 3dbd 1bfc 073e 3b7a d83d
00000080: baaf 143e a8bb 113e f73b 0c3e 9744 563e
00000090: a622 553e c27f e83d 3890 e3bd bd19 493e
000000a0: 4391 c13d c1ef 04be 26c7 26be 33b2 54bd
000000b0: 3fc0 243d 663e 3ebe c838 e73d 3521 973d
000000c0: e421 3fbd 884c b9bd d571 77bd 55ee 2fbd
000000d0: 6452 003e 9ac0 803d 5523 5cbd 7d98 29bd
000000e0: b87a 5cbd 762d 1d3e 293b 943e 1ba5 c83d
000000f0: d86b 7fbe cb17 01be 8967 83be 165b 16be
00000100: b0ad a7be 69de 5b3d e683 203e 5a5b 85bc
00000110: bf63 9cbe 73f9 093e 392b e03d af2a d3bc
00000120: 2644 8c3e cc0d 14bd 79c4 753e c396 6d3d
00000130: 5649 f23e a49c 51be 5aa8 62be fef6 c23d
00000140: a650 8d3d 3d8c a03d 802a 45be 6273 a4bd
00000150: ab82 b2bb cefc b93d 52bf 7bbe 609e 77be
00000160: eabb cf3c 259c 863d 0c37 763e 681d 68bd
00000170: 768a 6a3e ab20 d63d f3f5 c8bd ae40 fabc
00000180: 2888 343d 1f5c 73be 9ad0 13be a73f 47be
00000190: 7384 413e 684a 94be c483 abbe c356 893b
000001a0: ea17 bd3e 7cde 7cbe 885d 91be b42e 15be
000001b0: 29c9 8a3e 1f23 7c3e 80fd 98bd c879 efbd
000001c0: f5f8 163e 5b0e a53e 98e1 64bd a218 f6bd
000001d0: 0151 cb3b 7ba6 58be eed9 1fbe 3323 01be
000001e0: f444 9cbe ffc8 583e 1067 9f3e b302 b8be
000001f0: 4331 45bd 88ae d6bc f7d2 97bd c80a 7fbd
00000200: 99cb a23e 2457 9f3e 0c61 a53c baba 8d3e
00000210: 9d6d 663c 5c83 40be 7157 84bd 331b 7ebd
00000220: 65ca b0bc f511 a9bc 1f1c 353e ab38 a2be
00000230: 1028 033e 7bd3 85bd 2079 573d d272 bcbd
00000240: d7e8 a53d 399e b8bd b6ad a03e 4847 f43d
00000250: ebf8 99be 8a9a f4bd 55a7 2fbc 3bd9 503e
00000260: 8193 7c3d 79c0 65be 1742 6bbe f8cf 9b3e
00000270: 9a5e 19be 33b0 e83c 0540 133e 6567 623d
00000280: fd4b f8bd fef3 503e d811 a83d 922d a9be
00000290: a9ad 183e b9b6 0a3e aefe 973e 575f 4abe
000002a0: 5791 283e 314b b5bd fd57 c03d 501e 86bd
000002b0: d037 9a3e 91b5 893d 08a5 33bc 8f0b 29be
000002c0: 45f1 363e 7289 3ebe 250e 123d c303 623b
000002d0: 5ba6 0a3e ca1f 533e ae4e a33d f533 52be
000002e0: d372 d73d cafe ad3e 1ec3 98bd 96cb a13e
000002f0: b04d 143e 998d 57be d33b 56bc 5428 68be
00000300: 4a17 783e d570 99bd 2c50 563c 59f8 fbbd
00000310: 1340 603d 3626 1a3e 2069 abbe cff5 293e
00000320: 196c 433e b00e 4ebe c287 3dbe c3fb 1abe
00000330: 61d7 67bd 2f0d 2b3e 3675 b5bc 2ae7 58be
00000340: c56a 523d 6681 603e 3046 10be 87fb 98be
00000350: 2308 85bd 55c9 173e 6ecc 993a be23 2a3e
00000360: 740d 3a3d 5fc1 b9bc 017e 863d 512c 243e
00000370: 0695 963d 3c82 09bd 5df4 0abe 8041 a93a
00000380: bacc 6abe 3110 a73b 0974 5cbd 04ff adbe
00000390: 33de 5cbe 3710 58be 72ca 1abe 4923 7cbe
000003a0: db6e a3be d43d ef3d 0dc2 a53d 8860 9a3d
000003b0: b65e 30be 2f01 39be d946 8bbe 9003 05bd
000003c0: 649f 7a3e 6b17 603e ecae 04be 2c0d e73d
000003d0: 4761 aabe 4460 22be 1dda 773e 561f aebe
000003e0: 842a 423e ecfe 47bc 543b 953c e430 afbe
000003f0: 93a2 8b3e a067 ed3d 1e5f 26bc 730a 95be
0.08603755 0.06432566 -0.29102018 -0.28443125 0.20854305 0.14314549 -0.45917624 -0.24234182
0.11333412 -0.27020296 -0.13177653 0.059001733 -0.15318124 -0.06941787 -0.28399074 -0.080200456
-0.107533626 0.08830452 -0.1232901 0.06685503 -0.13421336 0.18081205 0.1912358 0.25326067
0.22253993 -0.23822384 -0.2650315 0.26036683 -0.056562025 -0.04633086 0.13279764 0.105701886
0.1452016 0.14231741 0.1369475 0.20924602 0.20813999 0.11352493 -0.11111492 0.19638725
0.094515346 -0.12982084 -0.16286907 -0.051927757 0.040222403 -0.1857849 0.11290127 0.073793806
-0.04666318 -0.090478 -0.060411293 -0.0429519 0.1253143 0.06286736 -0.053744633 -0.04140519
-0.05382797 0.15349373 0.28951386 0.09797116 -0.24943483 -0.12606733 -0.2566493 -0.14683184
-0.327497 0.053678904 0.15675315 -0.016278911 -0.3054485 0.13474064 0.10945744 -0.025777189
0.27395743 -0.03614597 0.2400073 0.058005106 0.47321576 -0.2046991 -0.22134534 0.09519766
0.06900148 0.07839248 -0.19254494 -0.0802982 -0.0054477057 0.09081422 -0.24584702 -0.24181509
0.02535816 0.06572751 0.24044436 -0.05666867 0.22904381 0.1045545 -0.09812536 -0.03054842
0.04407516 -0.2376561 -0.14435044 -0.19457875 0.18898182 -0.28963017 -0.33498967 0.004191251
0.36932307 -0.24694246 -0.2839167 -0.14568597 0.27106598 0.24622773 -0.07470226 -0.1169315
0.14743407 0.32237515 -0.055879205 -0.12016417 0.006204725 -0.21157257 -0.15610477 -0.12611084
-0.30521357 0.21170424 0.31133318 -0.3593956 -0.048142683 -0.02620627 -0.07413285 -0.06226614
0.31795958 0.3112117 0.020187877 0.27681524 0.01406422 -0.1880011 -0.064619906 -0.062037658
-0.021580884 -0.020638445 0.17686509 -0.3168386 0.12808251 -0.06534477 0.05260575 -0.09201588
0.08101051 -0.090145536 0.3138253 0.11927658 -0.30072722 -0.119435385 -0.010721047 0.20395367
0.06166411 -0.22436704 -0.2297443 0.30432105 -0.14977494 0.02840433 0.1437989 0.055274386
-0.121238686 0.20405576 0.082065284 -0.3304258 0.14909996 0.13546266 0.29686493 -0.19762932
0.16461693 -0.08852232 0.093917824 -0.065487504 0.30120707 0.06724084 -0.0109646395 -0.16508316
0.17865475 -0.18607119 0.03565802 0.0034487105 0.13540022 0.20617595 0.07973991 -0.20527633
0.10519948 0.3398345 -0.07459091 0.31600636 0.1448276 -0.21050109 -0.013075787 -0.22671634
0.24227634 -0.07492224 0.013080638 -0.12303228 0.054748606 0.15053639 -0.33478642 0.16597675
0.19084205 -0.2012279 -0.18508819 -0.15135102 -0.056601886 0.16704248 -0.022150617 -0.21181932
0.051371355 0.21924362 -0.14089274 -0.298794 -0.064956926 0.14822896 0.0011733898 0.16615197
0.045422986 -0.022675214 0.06567002 0.1603253 0.07352643 -0.033571467 -0.1356978 0.0012913197
-0.2292966 0.0050983657 -0.053821597 -0.33983624 -0.21569137 -0.21099935 -0.1511629 -0.24622835
-0.31920514 0.11681715 0.08093653 0.07537943 -0.1722363 -0.18066858 -0.2720249 -0.0324741
0.24474865 0.21883933 -0.12957352 0.11281809 -0.33277342 -0.15857035 0.24204297 -0.34008282
0.18961531 -0.012206774 0.018216766 -0.34216988 0.27272472 0.115920305 -0.010154514 -0.29109535

xy_encoder.flat_module.to_hidden.bias f4 [64]
00000000: 6b29 b7bd addf 00be 2274 113c c1f4 eebd
00000010: 831f 1d3d 0a5e a9be c265 febd 7a51 00bd
00000020: 42e4 87bd 17d7 d43c b63b 60bb 3b9f 27bd
00000030: 2d17 bdbc d7c0 1dbf a0a4 c7bc 45f5 09bd
00000040: 6226 6bbd fbf6 3dbd 2162 e6bc 7690 bcbd
00000050: 6751 3ebe 0bd4 0bbe a7fb 15bc 7334 d7bc
00000060: fe30 36bd 49ab 17be 429f bebd 6b24 a63b
00000070: 7b8b 82bb 751d b2bc 125b b0bd 83b1 cdbd
00000080: c0c6 8abd 1c90 78bc cf42 a4bd d1dc 743d
00000090: 20b0 683d adb2 10bd 78cb 21bd e067 b1bc
000000a0: 8962 4dbd 26e9 8ebd 3903 5fbd e785 4fbd
000000b0: cc7b 00be c103 02bd a9f0 99bb e1e6 7b3a
000000c0: 8641 62bd 8c18 08bd aa68 fa3b 952d 21bd
000000d0: a529 94bd 70c5 eb3d 8120 6bbd 610e f1be
000000e0: 1826 04be f2b8 40be 4fcd f4bc 2e7e b8bd
000000f0: 6dc9 923c fa1c 23bd 8064 0bbe faa8 02bd
-0.08943447 -0.12585326 0.008877786 -0.11667777 0.03836013 -0.3307956 -0.124217525 -0.031327702
-0.066353336 0.02598147 -0.0034215278 -0.04092334 -0.02308234 -0.61622375 -0.024370492 -0.033681173
-0.05740965 -0.046378117 -0.028122963 -0.09207241 -0.1858574 -0.13655107 -0.009154237 -0.026270127
-0.044480316 -0.14811434 -0.0930772 0.0050702593 -0.0039839125 -0.021742562 -0.0861112 -0.10043623
-0.0677619 -0.015171077 -0.08020555 0.0597809 0.05680859 -0.03532665 -0.039500684 -0.021655977
-0.0501428 -0.06978063 -0.054446433 -0.05066481 -0.12547225 -0.03174186 -0.0046978784 0.0009609294
-0.05523827 -0.033226535 0.0076418715 -0.03935011 -0.072345056 0.115122676 -0.057404045 -0.47081283
-0.12905157 -0.18820551 -0.029883055 -0.09008442 0.017918313 -0.039822556 -0.13612556 -0.03189943

xy_encoder.flat_module.linears.0.weight f4 [64, 64]
00000000: 4551 173d 87ab f6be a658 80be c675 0abd
00000010: c9ec b93c ebb7 acbe 7329 f03c 729a 20be
00000020: 34c7 853d f0bd 0fbe 307e ebbe ab4e 82be
00000030: 1213 97be 47b1 b53c 2bf2 2ebd 8c55 07be
00000040: 0110 09be b134 4dbe f6a3 8ebe 8781 fabd
00000050: 1fec 3bbe 1495 143d ca6d 563e 6d3c cb3e
00000060: 0cc4 ac3c f3f4 913e 6a48 09bc 9413 e5bd
00000070: 4c94 833e a584 03be 8fdb f43d 44f5 a23e
00000080: 812f b43d 68ea 923c 7e74 cabc 754d 0f3e
00000090: 121d b03e 66c5 cf3d 01bf 583e e6ed bdbc
000000a0: 6d77 97be 159f c9be f1b3 06bf cb65 c3be
000000b0: e085 56be aa72 41be 6e6c 403e 0a79 fbbe
000000c0: ac98 1ebe 53b5 653e adb8 e83d f90a cbbd
000000d0: 56c3 073d d0e5 d03d d055 183d e072 89bd
000000e0: b590 183d b5a7 59be ce0d 813d 3b63 d2be
000000f0: e1a1 1abf aa63 f8bd dd39 68be e6bd 313d
00000100: 46ff d03e 2d17 a8be 4a29 a43e 81d9 883e
00000110: 8327 e7be b1a8 813d fab4 7ebe c49e 98bd
00000120: 7b6a a0bd c6e9 5bbe c3c0 17bd 8f96 213e
00000130: 982a 933d 98f5 033e f8d7 333c c7b1 2dbe
00000140: 7d33 9ebd 939b e5be 9c1d a2bc 0a2e 323e
00000150: 0fb2 bcbe bdd7 44be 1686 4f3e 97c1 9fbd
00000160: b8ca 24be 99b6 4f3e b041 663e c887 19bc
00000170: 7a80 1cbf f5df 8dbe 99fd 9a3d 492f 63be
00000180: d822 553e 1641 47be 2261 bfbe 7703 14be
00000190: b9a8 23bd 236f 44bb 39ba 14be c2f5 8f3b
000001a0: 2a58 67be 58b3 5abd 5f47 fb3c 2b25 41be
000001b0: fbed e83d b8fe 8c3d 7683 f23d 0d0c a53e
000001c0: 2770 99bd fd50 cfbd 96eb 2b3d c532 84be
000001d0: 52ef 4f3b e391 78bc c99e 83be bf2b 86bc
000001e0: bf07 533e 9ce8 513e c4fd 573e 591d 6abe
000001f0: 81b3 8d3d 388d 55bd afee c3be 4033 2e3e
00000200: ba46 78bd d3ed 1cbd beee f7bd 7202 063e
00000210: 5f8a 05be bd4d d7bd fff3 90bd 3eaa b43d
00000220: 5479 a73d 54be 013e c922 bfbd ea4a 58be
00000230: 5c11 0dbc fbc9 9ebd 0877 25bf 34cc 773e
00000240: 9d26 bb3e 95ba 9e3e 7bb9 2dbe 98c2 433e
00000250: a7c1 31bd 786b 35bc e82e 44be 8be4 d0bd
00000260: 67e4 993d 8924 aa3c 04c3 753e 32c9 e83d
00000270: e7f2 8c3e e541 b9be 6fc2 66be a8b9 943d
00000280: 1eb3 12be 2e08 213e e239 0f3e 222f e03e
00000290: d6b4 d93d 7568 58be 359d 58be 8089 39be
000002a0: 46c3 093e aa9d 713c 1508 0d3e 05d6 663d
000002b0: 8668 abbe de3d 2a3e 8eeb 9b3d 179f 483e
000002c0: 364d 91be c32c 6b3e 33aa ba3d f1f4 8b3e
000002d0: f8d0 20bd 9a0b f6bc cfe3 2e3d fb34 fe3e
000002e0: 1fd0 0f3d 068d 89bd be71 743e e140 c1be
000002f0: be1b 08be 18df 34bd e247 b3be 3eff ca3d
00000300: 5e27 113e 9448 04bf ceb6 0fbe 70e8 8dbd
00000310: 0933 56bd 8900 f1be 0c95 3abe 15c4 183d
00000320: cc81 1ebe aee5 13be cb71 79bd c833 103e
00000330: b1ec 6abd d35a 873e d677 50bd 803b 03bf
00000340: 7a55 b53d 6c3d 7dbe 2fd5 43be fa16 d9bd
00000350: 63a3 203e 2ced 0dbe f500 8c3e 8f58 793d
00000360: ac0c 04be 90ac e2bd 9ec5 bcbd 09c1 a4bd
00000370: c97e b63d 58f9 d3be 06fd 80be 0636 97be
00000380: 204a 713e 7114 46be efc4 84be 3295 2cbc
00000390: 7373 1bbd 82ee 333c 8d27 903d b52a 433e
000003a0: e874 8fbe f23f 9e3d 0318 5f3e a877 51bf
000003b0: baae 89be b627 593e 9da8 993d 77ad 81be
000003c0: 8ae2 07bd 2e3f b1bd 3c18 033e 4fe3 d43d
000003d0: fb42 303a e9fc a83b f666 e2bd 0f86 17be
000003e0: f410 78be cb2b c2bd 18d5 dcbd 9218 a6bb
000003f0: 6656 453a 0a1d 64be 02f0 0c3e 7d6f 89bd
0.03694274 -0.4817774 -0.25067633 -0.033803724 0.022695916 -0.33734068 0.02931664 -0.15683916
0.065321356 -0.14037299 -0.4599471 -0.25450644 -0.29506737 0.022179259 -0.042711418 -0.13216227
-0.13385011 -0.20039631 -0.27859467 -0.12231737 -0.18351792 0.036274984 0.20940319 0.3969454
0.021089576 0.28507194 -0.008379081 -0.11185375 0.2569908 -0.12843569 0.1195594 0.31827748
0.08798123 0.01793404 -0.02471375 0.13994391 0.3439718 0.10145073 0.21166612 -0.023184728
-0.29583302 -0.39379182 -0.5261832 -0.381636 -0.20949507 -0.18891397 0.18791363 -0.49115783
-0.15487927 0.22432451 0.11363349 -0.09914202 0.03314527 0.10200083 0.037191212 -0.06711364
0.03724738 -0.21255381 0.06301461 -0.41091332 -0.6040326 -0.121283844 -0.22678323 0.043393992
0.40819758 -0.32830182 0.3206275 0.26728442 -0.45147333 0.063310035 -0.24873725 -0.07452157
-0.078328095 -0.21475896 -0.037049066 0.1578009 0.071858585 0.12886655 0.010976784 -0.16962348
-0.07724664 -0.44845256 -0.01978951 0.17400375 -0.36854598 -0.19222923 0.20265993 -0.07800596
-0.16092956 0.20284499 0.22485995 -0.009370752 -0.6113354 -0.27709928 0.07567901 -0.22186007
0.20814073 -0.19458422 -0.37378794 -0.14454447 -0.03995583 -0.002997347 -0.14524163 0.0043933103
-0.22592226 -0.05339369 0.03067368 -0.18861835 0.11373516 0.06884521 0.118414804 0.32235757
-0.074920945 -0.10122869 0.04197272 -0.25819984 0.003172834 -0.015171501 -0.2570708 -0.016378282
0.20608424 0.2049889 0.21092898 -0.22862758 0.06919003 -0.05213663 -0.3826804 0.17011738
-0.060614325 -0.038312744 -0.12106083 0.1308687 -0.13041066 -0.10512874 -0.070777886 0.088215336
0.081774384 0.1267026 -0.093328066 -0.21122327 -0.008610096 -0.077533685 -0.6463475 0.24198991
0.36552897 0.31001726 -0.16965286 0.191172 -0.043397572 -0.011072986 -0.19158518 -0.10199841
0.075142674 0.020769374 0.24000174 0.113665 0.2752907 -0.36183086 -0.22535108 0.072619736
-0.1432614 0.15725777 0.13986924 0.4378596 0.10630195 -0.21133597 -0.2115372 -0.18118858
0.13453397 0.014747063 0.13772614 0.05635645 -0.33478183 0.16625163 0.07613288 0.19591938
-0.2837922 0.22966294 0.09114494 0.27335313 -0.039261788 -0.030034829 0.042697724 0.49649796
0.03511059 -0.06716351 0.23871514 -0.3774481 -0.13291833 -0.04415807 -0.3501578 0.09911965
0.14175174 -0.51673245 -0.14034578 -0.069290996 -0.052294765 -0.4707072 -0.1822092 0.037296373
-0.15479201 -0.14443085 -0.060899537 0.14082253 -0.057354633 0.2643648 -0.050895534 -0.51262665
0.08854194 -0.24730462 -0.19124292 -0.106000856 0.15687327 -0.13860005 0.2734448 0.06087547
-0.12895459 -0.1106807 -0.0921738 -0.08044631 0.08910901 -0.41401172 -0.25193042 -0.29533404
0.23563433 -0.19343735 -0.25931498 -0.010533618 -0.037951898 0.010982158 0.07038794 0.1905926
-0.2801888 0.0772704 0.21786503 -0.81823206 -0.26891118 0.21206555 0.075028636 -0.25327656
-0.03317503 -0.08654629 0.12802213 0.10394918 0.0006723848 0.0051571024 -0.110547945 -0.14797233
-0.24225217 -0.09481009 -0.10782832 -0.005068847 0.0007527828 -0.22276703 0.1376343 -0.06710718

xy_encoder.flat_module.linears.0.bias f4 [64]
00000000: e1e7 b8bc 0fe4 0abe 87c2 923c 6899 2639
00000010: d223 74bd f367 79bd dbd4 e5bc 2274 323e
00000020: da64 0abe ae31 403c 837c b3bd 4708 873c
00000030: 2dc1 2ebd e90e ddbc 0c86 2dbe ec88 82be
00000040: 397a 723d f490 8cbd a06d cc3c fc6c 13be
00000050: 7a87 e53a 2ef2 01bd e05b 7dbc 16e2 ffbc
00000060: e0cb febc 1376 fdbb c192 973c 0240 66bb
00000070: 99ce 34be 2757 103c b653 c1bc 5694 e1bc
00000080: a6ca 093e 6b73 bdbd 08df 2ebd 4b5a 453a
00000090: 2fea 8d3d f759 b5bd e4d0 023b a837 cabd
000000a0: 23da 4bba a31b 27be 84ff c8bd 9d91 0bbe
000000b0: 5a25 ae3d 0346 58bd 6e3b 2bbd 1215 a3bd
000000c0: 17cc 0dbd 6bba 8ebd 3c8a ea3b f86a 3b3c
000000d0: 9a62 88bd b647 05bf d58b e5bd 4eca 173d
000000e0: c2ed 7cbe 06f2 2abc e370 533d 7819 c9bc
000000f0: d761 7d3d f68c e3bd 06e7 18be d873 0a3e
-0.022571506 -0.1356356 0.017915023 0.00015888142 -0.059604473 -0.06089015 -0.028055599 0.17427114
-0.13515034 0.011730595 -0.08763983 0.01648344 -0.042664696 -0.026984649 -0.16945666 -0.25495088
0.05919859 -0.06863585 0.024954617 -0.14397043 0.0017511689 -0.0317251 -0.015463799 -0.031235736
-0.031103075 -0.007735023 0.018502595 -0.0035133366 -0.17656936 0.008809841 -0.023599487 -0.027536552
0.1345621 -0.0925053 -0.042693168 0.00075284083 0.069294326 -0.0885505 0.0019960934 -0.09873897
-0.00077763404 -0.16319136 -0.09814361 -0.13629766 0.08503218 -0.052801143 -0.041804723 -0.07963003
-0.034618463 -0.0696915 0.007157592 0.011439078 -0.06659432 -0.5206255 -0.112083115 0.037058167
-0.24700072 -0.010433679 0.05162133 -0.024548277 0.061860885 -0.111108705 -0.14931878 0.13520753

xy_encoder.flat_module.out.weight f4 [64, 64]
00000000: 1305 1bbe 3ef8 9c3e 8d4d c9be 1b8f aabc
00000010: 943d 87bd 101e 813d ceff 47be 77bf 16bc
00000020: 4060 263e 6aa9 07be e5bd f63c d68f 92bd
00000030: 7b65 c5bd b65e d6bd 3dda 44ba 216a f7bd
00000040: c762 6bbe b737 98be 469e 0f3e a04e a6bd
00000050: 35b3 3dbe 8ba7 573e a617 f3bd 5d69 3b3d
00000060: e5e5 93be 437b 583e d720 83be 0f93 25be
00000070: f6c8 93bd 9096 27be 8e97 46bc 9e12 073e
00000080: 7d75 fcbe 441a 51be 2766 b63d cd8a 053d
00000090: 32c4 5a3e 3725 50be 4a99 bebd 5598 913e
000000a0: 563b e2bd 162a 5f3e 0ff6 9abd 58ce 1b3e
000000b0: 00eb 2ebe 3d65 823e 3c93 18be 6b3a 593e
000000c0: 5df2 e9bd 0126 043e e113 f0bd ebac 0b3b
000000d0: 1e90 ef3c c483 f2bd 94f9 afbd 6cf4 3dbd
000000e0: 68a5 25be 76d0 89be aea4 6fb9 ed39 3dbc
000000f0: abaa 6f3d c541 ba3d 4097 3c3e 8c10 a6be
00000100: 1394 f43e 655e ad3e 76d9 0c3e 8e39 303e
00000110: 8bcc b6bc bb2e 50be 9e50 55be 114d 4b3d
00000120: 35a9 ca3c 44b6 9abb 0572 ebbb 46b1 77be
00000130: e846 6bbe 6a44 afbc 5501 913e 21be 2f3f
00000140: 472d a0bc ef79 dcbd 0367 21bd 9c36 ec3d
00000150: 3b92 d63e 504e 3f3d 04d3 85be ed7f 8d3c
00000160: 5a2d d8bd f613 7d3d c855 a1be 7d2d 283e
00000170: 99e6 ef3e 33b8 783e 36e7 853c 957f 2f3e
00000180: d928 ddbe 40e0 013e ff27 ac3a 3f11 393d
00000190: 46c1 923e 9c9e c13e c3f3 dcbd 48a2 043e
000001a0: 9c3d 8ebb 2f9b 0f3e d9c3 02be 73f5 943e
000001b0: e4b5 093e 033e 673d f26f 58bd 9726 953e
000001c0: 045c 793e 0918 33bd 0bb5 113d 453f 253e
000001d0: 9871 1e3b 4dc9 573e edbe 63bd fa70 98bc
000001e0: 4e5a 803e 6aa2 193e f0b1 2a3e 837c bdbd
000001f0: 4516 18be de86 8f3e ee4e 26be 48d5 783d
00000200: 7764 363e b9bb 503e 3e92 483e 8deb 813c
00000210: 24b3 9dbd e15b 043e 6067 25be 7d63 063e
00000220: a0ae 203e ab85 53be 95fa f3bd 4f8e 393e
00000230: 6128 71be 9d91 7ebe f667 51bd 8e63 b8bc
00000240: 5f70 663e a06b 2d3d 656a 26be c3c5 0f3e
00000250: 24bd 443e c02c 433e aacb 1fbe 6ffb 00bd
00000260: 7526 4e3d 5821 5f3e e0f7 4cbe 1a40 653e
00000270: 0f6d 243e 1f37 53be 2af9 2ebd d3b7 4e3d
00000280: 4fe1 303d 29e5 b23e 4e33 213e 1a71 59be
00000290: 85db 70bd ba61 8ebc 28b7 8bbe 1d91 47bd
000002a0: 1d24 863e 9aad abbb 3593 833e fea6 adbd
000002b0: 4bea 67be b1aa 26be cb03 2ebe a925 9d3e
000002c0: ff7f d53c c5ff 11ba 2a6b d7bb 8a6f 3e3e
000002d0: 369a 043e 92d8 98bd 5227 113d de82 ba3b
000002e0: e676 d1bd 86a2 d33d 878b 653d b6bd 4cbe
000002f0: b7e7 853e 9349 b03e 9e86 02be d263 d6bd
00000300: 870f 54be b3cf a2be 2d70 b73b 0940 5f3e
00000310: 109c 17be e756 19be b3bc 9cbe cc19 53be
00000320: 0908 ddbd c376 123e 6ff8 a8be 6a29 09bc
00000330: 1128 98be e81e 82be 95b7 84be f913 003d
00000340: 3943 7b3e 5deb 543d e7e0 85bd 8df8 073e
00000350: ed19 f53c bc0c a1bd f208 f43d c28c 093e
00000360: 92ad 77be db28 0f3e daa8 923d 317c 5a3e
00000370: be5f 19be 8c04 5fbe 8f6d 1d3e c9e2 773d
00000380: 3d2b 4cbd 4060 7cbe 0fc1 47be 09bb b3bd
00000390: 5cc3 4d3e 51a5 9dbe c7c3 cebd f7a6 24be
000003a0: e5c4 bebe 4b9c 39be e057 3a3d 5fbb 18be
000003b0: 1119 3ebe 1c2b 52be 8fea 1d3d b7c0 383d
000003c0: 70fe 89be fd84 493d edc6 893d d1ea bcbd
000003d0: 80d1 f5bd f8b7 29bd b2b1 a03e e994 5abe
000003e0: 20c0 fd3d 7b5b 4ebe bce6 2fbd 3de8 17be
000003f0: 4ff1 0e3e 7407 233c 038e 823d 1674 a73d
-0.15138654 0.30658144 -0.3931698 -0.020820191 -0.06603542 0.06304562 -0.19531175 -0.009200922
0.16247654 -0.1324822 0.030119846 -0.07156341 -0.096384965 -0.104672834 -0.00075093267 -0.12080789
-0.229869 -0.29730007 0.1402522 -0.08120465 -0.18525393 0.21060006 -0.11869745 0.04575478
-0.28886333 0.2114077 -0.25610992 -0.1616938 -0.07216065 -0.16366029 -0.012121094 0.13190696
-0.49308386 -0.20420176 0.08906203 0.032603074 0.21363905 -0.20326696 -0.09306581 0.28436533
-0.11046474 0.21793398 -0.07566463 0.15215433 -0.17081833 0.25467864 -0.14899915 0.21213691
-0.1142318 0.12905122 -0.117225416 0.0021312784 0.029243525 -0.118415385 -0.08592525 -0.046375677
-0.16176379 -0.26916856 -0.00022854164 -0.011549455 0.05851237 0.09094576 0.18417072 -0.324345
0.47769222 0.3386108 0.1375483 0.17209455 -0.02231433 -0.20330326 -0.20831534 0.049634043
0.024738887 -0.004721435 -0.007185223 -0.24188718 -0.22976267 -0.021394927 0.2832133 0.6864949
-0.01955284 -0.107654445 -0.03940488 0.115338534 0.4190844 0.046705544 -0.26137555 0.017272914
-0.10555525 0.061786614 -0.31510758 0.16423602 0.4685562 0.24289016 0.016345602 0.17138512
-0.43195227 0.12683201 0.0013134478 0.045182463 0.2866308 0.37816322 -0.10788681 0.1295253
-0.0043408405 0.14024042 -0.12770022 0.29093513 0.13448292 0.056455623 -0.052841134 0.29131004
0.24351507 -0.043724094 0.035573047 0.16137417 0.0024176594 0.21072884 -0.055602003 -0.018608559
0.25068897 0.15003362 0.1666944 -0.09252264 -0.14852245 0.28032583 -0.16241047 0.060750276
0.17811762 0.2038411 0.19587037 0.01585939 -0.07700184 0.12925674 -0.16152716 0.1312389
0.15691614 -0.20656459 -0.11913029 0.18120693 -0.2355056 -0.24860235 -0.051124536 -0.022508409
0.22503804 0.042338967 -0.16251524 0.14040284 0.19212776 0.1906004 -0.15605035 -0.031489786
0.050329644 0.21790063 -0.20016432 0.22387734 0.16057228 -0.20626496 -0.04271809 0.050468277
0.04318362 0.3494046 0.15742227 -0.21234551 -0.0588031 -0.017380584 -0.27288175 -0.048722375
0.26199427 -0.005239201 0.25698248 -0.08479117 -0.2264797 -0.16276051 -0.16993634 0.30692795
0.02606201 -0.00055694237 -0.0065740542 0.18597236 0.12949452 -0.074631825 0.03543789 0.00569187
-0.10227756 0.10333733 0.056041267 -0.19994244 0.26153347 0.34431133 -0.12746665 -0.10468258
-0.20709048 -0.31799087 0.005598089 0.21801771 -0.14805627 -0.14974557 -0.30612716 -0.2061531
-0.10792548 0.14303117 -0.3300204 -0.00837169 -0.29718068 -0.25414205 -0.25921312 0.031269047
0.24537362 0.051982272 -0.06537037 0.13278408 0.029919589 -0.07863757 0.11915769 0.13432601
-0.24187306 0.13980429 0.07161112 0.21336438 -0.14977929 -0.21779078 0.15373825 0.060519014
-0.049845923 -0.24646091 -0.1950724 -0.087759085 0.20094055 -0.3079019 -0.10095935 -0.16079317
-0.37259594 -0.18126027 0.04549396 -0.14915226 -0.1856425 -0.20524257 0.03855377 0.045105662
-0.26951933 0.049199093 0.06727395 -0.09224475 -0.120028496 -0.041435212 0.3138557 -0.21345867
0.123901606 -0.20152085 -0.042944655 -0.14834686 0.1395924 0.009950507 0.06374743 0.081764385

xy_encoder.flat_module.out.bias f4 [64]
00000000: 85c8 a8bd d5bf 47bd 25b8 483d e889 653d
00000010: e306 e5bd af8c 913d ec4c 863d 65ae b1bd
00000020: 5d3d 27bc 8a11 883d bc40 88bc 49b3 be3d
00000030: 9a26 b43d 20cf 0a3e d17b ad3d e854 32be
00000040: 000d 92bc 9edf 933d 5492 79bd b8c9 973c
00000050: ec17 cfbd ce40 0d3e f48d bf3d ee5c 343d
00000060: b056 8cbd 013e 52bd b17c 123c 7c7e cfbd
00000070: 2ab7 ea3d 47de 033e 9505 1c3e a060 2f3e
00000080: 98b6 2ebe 85a9 7abc b94d d23d cd34 ee3c
00000090: 8117 5b3c f9ff 46be c21e 3a3d 5963 87bd
000000a0: 7f4f d63c 8d70 b13d 4666 fabd 0d0a adbc
000000b0: 7484 66bd a18a 113d 0af9 643d 93cd e33d
000000c0: 9c1a e73d 4d1d 08bd 2eb6 5b3e 77e0 e0bc
000000d0: a5c2 1bbd 1828 46bc 7a46 b5be 7e33 d23c
000000e0: e3d5 d5bd d517 68be c7ba b73d 695f 1b3d
000000f0: 8a3a 59be 6e06 21bc 34e7 113d d602 7c3d
-0.08241371 -0.04876693 0.04900374 0.05603972 -0.11182954 0.071069114 0.065576404 -0.08675841
-0.010207501 0.0664397 -0.01663243 0.0931154 0.08796425 0.13555574 0.08470882 -0.17415202
-0.017828465 0.07220386 -0.060930565 0.018528804 -0.101119846 0.13794252 0.09353247 0.044033937
-0.06852472 -0.051328663 0.008940862 -0.10131547 0.11460717 0.12877761 0.15236504 0.17126703
-0.17061841 -0.015299206 0.10268731 0.029077912 0.013372303 -0.19433583 0.04543949 -0.06610746
0.026160954 0.086640455 -0.12226538 -0.021122957 -0.05627866 0.035532597 0.055901565 0.111231945
0.11284372 -0.03323107 0.21456215 -0.027450783 -0.038027424 -0.01209452 -0.35405332 0.025659319
-0.10441186 -0.22665341 0.08971172 0.037932787 -0.21213737 -0.009828193 0.035620883 0.061526142

decoder.resizer.to_hidden.weight f4 [64, 64]
00000000: 2ee9 8b3d 9048 f7be 1f37 28bf 5fe7 3fbe
00000010: 0531 38be 969f 2cbd 38b9 923d 532e 5bbe
00000020: 3737 62be b5db dabd 44ee 053e 9296 81bd
00000030: 172b a7be b623 12bd 688f 523e edcb 37be
00000040: 8838 0a3d 3e69 f13d 7c1d cdbe 62b4 693e
00000050: bd6f 73be 6238 cb3d 82b6 a13e 4fd5 05be
00000060: 340f 16bd c4a0 003f b104 a7bd 8caa 843f
00000070: 814d ddbb f383 71be 3e65 a8bd c537 ebbe
00000080: d0da 093d 563a 443e d8cb 9c3d b8eb 4fbe
00000090: 8fed 41bd 89b8 6ebe 6888 b83e e1f7 6dbd
000000a0: cb6b c8bd c9f0 20bf facb 5a3e 4948 3abe
000000b0: 8f46 943e 7819 a63e 212b ec3d 37b6 3e3e
000000c0: dd1f 213f 6efa 773d 5b66 b8bd dde2 afbe
000000d0: 01ec ccbe 6343 84be f413 08be 20c4 563e
000000e0: 59be adbc a95b e93b a35a 9b3e 38bb f2bc
000000f0: a5be 9c3c e4de 9b3d 3cb9 8c3e 164c e83c
00000100: 45f1 183e 7381 42bc 6830 e93d 3b20 f53b
00000110: 5b05 193f 1327 013d b47a 05be e243 543e
00000120: 398e 06be 1f9a 8f3e bffa 803e 83c4 8c3e
00000130: 312f d13e 590f 083b 42cb c1bd 4eb4 a93e
00000140: 35f0 8ebe 0d2b 4fbc 51bd 71be a31e 0abe
00000150: 687a f5bc 3753 9fbd 12f1 043f 0659 3abd
00000160: e9ec 533d c69b 103e 0153 1ebd 310a 003e
00000170: 2c98 ca3e a4d3 12be 9b3f 3bbe ee4b a4be
00000180: 9e81 053e 66a8 9dbe e151 84be 8487 5f3e
00000190: 9702 80be fc62 b8bd d115 5abd 08a5 be3e
000001a0: ee91 5c3e 2164 8fbd f8aa 853d e387 783e
000001b0: 3414 6d3d 4304 f7bd 0a28 ca3b 2d92 bc3d
000001c0: 1957 5bbe d67f b7be 7087 563d c41e 6b3d
000001d0: 1d4c bcbc 1068 12be 971c 1b3d 4765 d43e
000001e0: 4d2d c33e ad96 82be 6aa1 7ebd 0a0c 9fbe
000001f0: 02a5 a63e 34c9 50bf 3e3c 833e 0110 823d
00000200: 64a3 aa3e b808 23bf 7ab1 8c3d 632a 6fbe
00000210: 9aab 6a3d 084f 1f3c feb7 1bbe 1ee6 663d
00000220: 890e d03d 1ece 81be 0b41 c83e 0d91 b8bd
00000230: ccda 2a3e ef23 64be 505e ff3e 49f2 b4be
00000240: a4d4 fabe 385c 71bd f01b 263f 0345 363e
00000250: 20d1 cebd 8642 a6bd 7f2c d93d 2ad5 aabe
00000260: ecf3 fa3c 57c2 7abe f9e9 9bbd 0767 8bbd
00000270: e2e0 343e 08b1 703e 29b5 903d 3a11 093e
00000280: 6382 0d3e 3dd0 8bbe 9ec0 47bd ed37 7ebe
00000290: 4b28 77bc e723 763c 72c8 eb3e 4e04 f6bc
000002a0: a208 b63e bb2c afbe 03c9 9abd a7a7 46be
000002b0: dced 1d3d e499 4bbe 0903 5f3e 36d8 02be
000002c0: 0fd2 41be dedf 03be 6d52 483e ec57 9cbd
000002d0: 7737 113e 34e6 a43e e31f b8be 7a58 5d3e
000002e0: 81fa c53d 3715 b53e 1d7c 0c3e 9b2f 69bd
000002f0: 566c 0dbf 4307 02be 6a51 abbd 0712 55be
00000300: 7628 fd3c 3d6c 9dbe a035 0d3d 9440 633e
00000310: 9619 2abe d881 c83d e98a 9c3e 28b6 34bb
00000320: e5fb 953c aa6c 88bc 1f12 623c 9643 40be
00000330: 04bf 1c3d 3ac4 babe c554 8ebd f588 703d
00000340: 3d53 25be 0be7 a83c 22c9 ee3d 031e 533d
00000350: 18bc 7e3e f326 403e a1ac 8a3d 6f52 f9bd
00000360: 83cc 5fbe aaef 12bd 6ee7 b7be 4bcb d83c
00000370: 40e8 1dbc 75d6 8b3d e1d3 553e 5de7 1abd
00000380: 0641 d9bd 7aa5 5fbe 4b17 f6bd d904 38bd
00000390: 5382 3ebe 1fcd b73e c894 e93e f7da 80be
000003a0: a27b a0be ae44 623e d1fe 50be 23d8 ebbd
000003b0: a29e a33e 53a2 3ebe 5ef1 7ebe df43 e8be
000003c0: 53ce 1cbc d95d d3bd f576 6dbe df15 b9bd
000003d0: 3ffb ac3e 003b 35bd fc93 eabd 54d6 403e
000003e0: 1a8b a5be 9850 b93e b6e8 b53e cdc1 0d3d
000003f0: 5d4e f5bd 3f4e 743e a7aa f93d d970 9cbe
0.06831585 -0.48297548 -0.6570911 -0.18740605 -0.1798745 -0.04214438 0.07164234 -0.2140439
-0.22091375 -0.10686437 0.13079172 -0.06327547 -0.32650062 -0.035678588 0.20562518 -0.17948885
0.03374532 0.117876515 -0.40061557 0.22822717 -0.23773094 0.099228635 0.31584555 -0.13069652
-0.036635593 0.5024531 -0.08155192 1.0364547 -0.006753624 -0.23585491 -0.082224354 -0.45940986
0.03365594 0.19162878 0.076560676 -0.20304763 -0.047345694 -0.23312582 0.3604157 -0.058097724
-0.09786185 -0.6286741 0.21366873 -0.18191637 0.28960082 0.32441306 0.11531664 0.18624197
0.62939245 0.060541563 -0.09003898 -0.3435277 -0.40023807 -0.25832662 -0.13288862 0.20973253
-0.021208929 0.0071215224 0.30342588 -0.029630288 0.019133875 0.076108724 0.27485073 0.028356593
0.14935787 -0.011871683 0.11386186 0.007480649 0.59773797 0.031531405 -0.13035089 0.2072902
-0.13140191 0.28047273 0.25191304 0.27493677 0.40856317 0.00207611 -0.094625965 0.33145374
-0.27917638 -0.012644541 -0.23607375 -0.1348825 -0.029965594 -0.07779544 0.51930344 -0.045495056
0.051739607 0.14121923 -0.038653377 0.12503888 0.39569223 -0.14338547 -0.18285982 -0.3208918
0.13037726 -0.3079254 -0.2584372 0.21829039 -0.25001976 -0.09003255 -0.053243462 0.37235284
0.21540043 -0.0700152 0.0652675 0.24270587 0.057880595 -0.1206136 0.006169324 0.09207568
-0.21419944 -0.3583972 0.052375257 0.057402387 -0.022985512 -0.14297509 0.037869062 0.41483518
0.381205 -0.25505581 -0.062165655 -0.31063873 0.32547766 -0.8155701 0.256319 0.06350709
0.33327782 -0.6368518 0.068697885 -0.23356013 0.05729256 0.009723432 -0.15206906 0.0563718
0.10159022 -0.25352567 0.39112124 -0.09012041 0.16685027 -0.22279333 0.49876642 -0.353411
-0.48990357 -0.058925837 0.6488638 0.17799763 -0.10098481 -0.08118157 0.1060419 -0.33365756
0.03063389 -0.24488197 -0.07612986 -0.0680676 0.17663911 0.23505032 0.070658036 0.13385478
0.1381927 -0.2730731 -0.04876768 -0.24826021 -0.01508529 0.015023208 0.46051365 -0.03003135
0.3555346 -0.34213814 -0.07557871 -0.19399892 0.03855692 -0.19882923 0.21778502 -0.1277779
-0.18927787 -0.12878367 0.19562693 -0.07633957 0.14181314 0.3220688 -0.35961828 0.21615782
0.096669205 0.35367748 0.1371922 -0.056930166 -0.5524343 -0.12698083 -0.08365138 -0.20807658
0.030903082 -0.30746642 0.03447497 0.22192603 -0.16611323 0.09790391 0.3057473 -0.0027574394
0.01830859 -0.016653378 0.013798266 -0.18775782 0.038268104 -0.36477834 -0.06949762 0.058724362
-0.16145034 0.020617982 0.11659457 0.051542293 0.2487644 0.18764858 0.067712076 -0.12173926
-0.21855359 -0.035873093 -0.35918754 0.026464125 -0.009637892 0.06828014 0.20881607 -0.0378183
-0.10608105 -0.21840468 -0.120161615 -0.044926498 -0.18604402 0.35898682 0.45621324 -0.25167057
-0.31344324 0.22096512 -0.20409705 -0.11515834 0.31956965 -0.1861661 -0.24896762 -0.45364282
-0.009570676 -0.103206344 -0.2318991 -0.09037375 0.33785436 -0.04424572 -0.11454007 0.1883176
-0.3233269 0.361943 0.35529107 0.03460865 -0.11977837 0.23857974 0.121907525 -0.30554846

decoder.resizer.to_hidden.bias f4 [64]
00000000: 31a1 e53d 271f 82bc 32df 1dbc d746 0c3d
00000010: 6997 f73d 7a49 1e3e 6613 903c 45e8 553d
00000020: 4969 2b3d 318f 1d3d 3ce4 0e3d 7784 25bd
00000030: 404b 123e b52b cb3d dd8d 0a3d 6835 24bc
00000040: 3225 f6bb 4850 fe3c ff41 91bd 6fdd be3d
00000050: 89a0 c5bd e618 d03d 58a4 a83d f5c5 233d
00000060: 5569 013d 880d a13d 3475 513d d03a d83d
00000070: 8480 8b3d fe9e bd3d 1cc1 103d be23 cfbd
00000080: 1b37 a5bd c0c8 83bc e38c c53d 2b86 dd3d
00000090: 349d b63c 741a cf3d 7892 12be 54be 823d
000000a0: b793 bfbd 6ef0 89bd b3e4 073d a958 1f3e
000000b0: d78a 01bd 3ca1 94bc d0c9 6d3b 5be6 4bbd
000000c0: a93f a43d 2886 193c 8408 723c a158 933d
000000d0: 7dda b33d a5c4 763c 58ae 4bbd 0e3a 093e
000000e0: 0b94 f23d e670 e1bd 925a 10bc abb6 ca3c
000000f0: 2757 c33d 9df3 143d 7a71 84bd 5852 713d
0.112123854 -0.015883995 -0.009635733 0.034247246 0.12089426 0.15457717 0.017587375 0.052223463
0.041848455 0.038466636 0.03488563 -0.04040953 0.14286518 0.09920446 0.033826698 -0.010022499
-0.0075117582 0.03104414 -0.07092666 0.09319579 -0.0964976 0.10160999 0.08234471 0.03998371
0.031594593 0.07863909 0.051137164 0.105580926 0.06811622 0.09258841 0.035340413 -0.10114239
-0.08067151 -0.016086936 0.09646013 0.10816606 0.022291757 0.101124674 -0.14313686 0.063839585
-0.09354346 -0.067353114 0.03317709 0.15561165 -0.03162655 -0.018143289 0.003628362 -0.04978023
0.08019955 0.009370364 0.014772538 0.07194639 0.08781908 0.015061532 -0.049726814 0.13401052
0.11844643 -0.11007862 -0.008810656 0.024745306 0.09538107 0.03636514 -0.064669564 0.05891642
