results/notebooks/neural_process/cnp_rbf/params.pt (torch_old, 399468 bytes, 28 tensors)

x_encoder.to_hidden.weight f4 [32, 1]
000000 1a 32 24 40 c6 df 71 3f ca 24 22 3f 16 40 e8 be
       2.565558 0.94482076 0.63337386 -0.45361394
000010 f9 ac 1e c0 33 33 43 bf 71 2c 0b 40 1d 9d da be
       -2.4793074 -0.7625 2.1745875 -0.42697993
000020 79 b2 90 3f 3a b4 e2 3f 13 0f 07 c0 39 df 56 bf
       1.1304466 1.7711251 -2.110295 -0.8393436
000030 a0 73 36 3f 33 61 4a 3f 46 f2 11 40 ac a2 b1 3e
       0.7127018 0.79054564 2.2804122 0.3469442
000040 49 68 d1 3e 76 d1 28 3f 48 ab d0 3f 96 be ab bf
       0.40899876 0.6594461 1.6302271 -1.3417537
000050 fe a0 11 40 5e d1 7c 3f b5 e6 d4 3f 37 46 68 3f
       2.2754512 0.9875697 1.6632906 0.9073214
000060 f6 c7 a1 bb 0a 11 05 c0 b9 e9 bb 3e 37 52 69 bf
       -0.0049371673 -2.079165 0.36701754 -0.91141075
000070 f4 ef 08 c0 41 73 b4 3f 8a 04 05 c0 94 17 99 bf
       -2.1396456 1.4097673 -2.078402 -1.196032

x_encoder.to_hidden.bias f4 [32]
000000 aa 8c 21 be 71 31 06 bf 9c b5 96 bb 33 8b 33 be
       -0.15776315 -0.5241919 -0.0045992862 -0.17533569
000010 45 c9 43 bf 24 66 43 be 2c 7a a8 bc a7 30 ca 3d
       -0.7647899 -0.19081932 -0.020566069 0.09872561
000020 5d aa 0a bf 26 90 ed be de ec 0d be 8d ac 46 3e
       -0.54166204 -0.4639904 -0.13859889 0.1940176
000030 f3 46 09 be f0 45 33 3e 83 75 4b bf e7 5e 5e 3d
       -0.13405971 0.17507148 -0.79476184 0.054289725
000040 f9 86 e4 3d 58 85 3d 3e d0 57 87 3e 7d 6f 31 be
       0.111585565 0.18507898 0.26434183 -0.17327686
000050 15 2e bd be 0b 18 46 bf 24 81 14 bf fb 80 0e bc
       -0.3694922 -0.77380437 -0.5800955 -0.0086977435
000060 70 7b 35 bc 39 08 c5 be 26 06 67 3d 75 70 2d be
       -0.011076793 -0.38482836 0.056402348 -0.1693743
000070 1d 90 11 bf 7d 4a 04 bf 0d 4b 4f bf 94 61 14 3d
       -0.56860524 -0.5167616 -0.80973893 0.03622587

x_encoder.out.weight f4 [128, 32]
000000 cc e9 f3 bd 0d 6f 06 3e 30 60 1c be bd 3d 38 bf
       -0.119098276 0.131283 -0.15271068 -0.71969205
000010 31 db cc be 75 13 f8 be ed c3 16 be d7 a3 c1 be
       -0.4001098 -0.48452345 -0.14723177 -0.37820312
000020 43 bf d6 be 8b 80 a2 bd 53 6a d2 3d dd 08 85 3e
       -0.41942796 -0.07934674 0.10274186 0.25983325
000030 fc 67 94 3e 4f 6b 30 3e 73 d5 d1 be 54 d2 da 3e
       0.28985584 0.17228435 -0.4098316 0.42738593
000040 b8 1b a4 3e 21 d1 9c 3d 40 a1 ac 3e 13 df 02 bf
       0.32052398 0.07657076 0.33716774 -0.51121634
000050 a6 d8 88 be b8 a5 fe be 0b b5 8f 3d 84 3c d6 3d
       -0.2672779 -0.49735808 0.07016953 0.10460761
000060 60 1f 92 3e 41 74 72 be 66 4e ef 3d 6e 7c 01 bf
       0.28539562 -0.2367716 0.11684875 -0.5058049
000070 3c f1 f0 be 99 f2 c5 3d 29 84 23 3d b5 dd c4 3c
       -0.47059047 0.096654125 0.03992096 0.0240315
000080 fd 72 4e bf c7 fd ba be b9 fb 99 be 49 69 c3 3e
       -0.8064421 -0.36521742 -0.30074862 0.38166264
000090 19 19 f8 3d d9 0c 92 be 6a 94 b3 be 01 22 39 3e
       0.12114162 -0.28525427 -0.35074168 0.18079378
0000a0 fb 15 ad be 9d 13 35 bf fa 0e 6a 3e 64 be e2 3d
       -0.33805832 -0.7073305 0.22857276 0.110714704
0000b0 20 1f b0 bf 17 27 12 be 33 31 dd be 74 09 bf bd
       -1.3759499 -0.14272724 -0.432016 -0.09327975
0000c0 ab 6b 50 3e ba 95 81 3e d4 0a 15 bf 04 42 10 bd
       0.20353572 0.25309545 -0.5821965 -0.035219207
0000d0 d6 3c 58 bf b5 a4 28 be f7 49 82 3e ff e0 f3 bd
       -0.8446783 -0.16469081 0.25447056 -0.11908149
0000e0 d2 20 c2 3d 33 ef 7e 3e 11 5d f4 be a1 05 bd 3d
       0.09478916 0.24895935 -0.47727254 0.09229589
0000f0 a1 13 38 be aa ac e2 be 32 39 8f 3e 4b 9b a8 be
       -0.17976238 -0.44272357 0.27973324 -0.3293098
000100 03 4c a3 3e 39 41 20 3f c5 4a 52 3e 58 4c d0 3e
       0.3189393 0.6259952 0.20536335 0.40683246
000110 0a 5f de bd 80 3e af be 20 bc 0f bd d6 42 5d bf
       -0.10857971 -0.3422737 -0.03509152 -0.8643011
000120 b6 f5 c6 3e b5 0a ec 3e 72 85 c9 bd cd 91 ac bf
       0.38859338 0.4610192 -0.09839906 -1.3481995
000130 8a 2d 32 be db 27 56 be 5e b5 1f 3f 8c a4 00 be
       -0.17400184 -0.20913641 0.6238612 -0.1256277
000140 64 d1 94 bd 87 cf 2c be 44 7e 0d bc cd 28 b7 be
       -0.072665006 -0.1687604 -0.008636061 -0.35773316
000150 da d1 4a 3e e8 dd 63 3f d2 d5 9f 3e 0e e1 83 3e
       0.19806615 0.8901048 0.3121782 0.2575764
000160 bf e9 97 be 64 19 73 bd 36 df 9c 3e 13 89 8a 3e
       -0.29670522 -0.059350386 0.30639046 0.27057704
000170 2f 5c a5 3e 72 ab 24 3f d0 c2 b3 be 72 9c 71 be
       0.32296893 0.64324105 -0.35109568 -0.23594835
000180 22 2a 11 c0 b7 c2 53 3e 1e 6a 2b bf fa b9 5f bd
       -2.2681966 0.20679747 -0.66958797 -0.05462072
000190 cd a8 33 3d 95 0d 65 3e 0e e4 95 bf 54 09 3f 3e
       0.043862153 0.22368462 -1.1710222 0.18655902
0001a0 24 a4 d3 bd 54 f5 96 bf fe 27 58 3e ca 21 d4 be
       -0.10334042 -1.1793618 0.21109006 -0.4143203
0001b0 56 14 b1 3d c5 e5 b5 be c7 6d 8d be 6d 5e 1f be
       0.08646457 -0.35526863 -0.27622816 -0.15563364
0001c0 5b bf 96 be 77 f1 f4 be 6e 72 cb be bd 90 66 3d
       -0.29442868 -0.47840473 -0.3973574 0.056290377
0001d0 41 90 d3 bf 70 68 e7 be f6 93 06 bf 56 2d a6 bf
       -1.6528398 -0.45196867 -0.5256952 -1.2982585
0001e0 48 9b 77 3e a2 68 ae 3e 6f b2 12 bf 46 ba 9f 3e
       0.24180329 0.34064204 -0.5730352 0.31196803
0001f0 65 5a 8c 3e ab 2f 4e bf 3a 33 66 3d cc 9a 84 be
       0.27412716 -0.80541486 0.056201197 -0.2589935
000200 94 c2 32 bf 8d 8e 5b bf b4 80 a0 bf ab 74 fb be
       -0.6982815 -0.8576439 -1.2539277 -0.49112448
000210 d7 5f db 3d ae 19 8d 3e 7b 53 31 bf 6b ca ad 3e
       0.107116394 0.27558655 -0.69268006 0.33943495
000220 ff bd 96 bf 81 cb 02 bf 08 7f 21 be 25 d5 9f 3a
       -1.1776732 -0.5109177 -0.15771115 0.0012194259
000230 dc 3c cf be 4e cc 19 bf bc d2 e8 bf 28 3a e0 be
       -0.4047612 -0.6007737 -1.8189311 -0.4379437
000240 eb 57 0d bf 3f 57 22 bf 9c 4f 67 bf 0e 4b 03 3e
       -0.5521228 -0.63414377 -0.9035585 0.128216
000250 b0 ad 60 bf e0 0e 9e be fd 22 81 bf 54 fa 2e bf
       -0.87765026 -0.30870724 -1.0088803 -0.6835072
000260 a3 b5 58 3e 9f e6 2d be 40 b3 8a bf ac b2 c2 3e
       0.21163039 -0.16982506 -1.0835953 0.3802694
000270 af b4 b5 bd 97 9e d6 bf ba 8a ce 3b 0a 54 5e 3e
       -0.08872353 -1.6767148 0.0063031586 0.21711746
000280 35 8f 2d be 82 88 c1 3d 8c 90 94 3e c0 b9 3e 3e
       -0.1694916 0.09449865 0.2901653 0.18625546
000290 14 7d 36 3e 0b cd 4f bd 06 8d 1e be 0d ed 24 be
       0.17821151 -0.050732654 -0.15483484 -0.16106053
0002a0 78 c3 80 bd f9 0a 90 be 56 bf 2e be 64 e4 ee 3c
       -0.06287283 -0.2813337 -0.17065176 0.02916164
0002b0 a8 72 9b 3e b7 a2 d4 bd e1 6c 88 3e 42 21 9c be
       0.30360913 -0.10382598 0.26645568 -0.30494124
0002c0 25 b1 4e 3e 77 7c 60 3e b2 e8 f4 3c e8 f5 38 3d
       0.20184763 0.2192248 0.029896114 0.04515639
0002d0 54 7c 1e 3e b0 78 ad be 22 d3 25 3d da 6e 07 be
       0.15477115 -0.3388114 0.040484555 -0.1322588
0002e0 66 b8 8d 3e 92 1f c5 be 3e b6 5f 3e e5 12 bc be
       0.27679747 -0.3850065 0.21846864 -0.36733165
0002f0 03 9f ae 3e c1 8d 3a bb df 6d aa 3e fa ad b7 3d
       0.3410569 -0.002846584 0.3328695 0.0896873
000300 f6 bb 6e be 4a 97 0b 3f d8 5d 4e 3e 32 83 b0 3e
       -0.23313889 0.54527724 0.20152986 0.34475094
000310 af fb 12 3f cd b7 9f 3e aa bf 02 bc 72 ce 65 be
       0.5741529 0.31194916 -0.007980267 -0.22442034
000320 66 c2 b8 3e ff c2 51 3c c6 bd cd be e7 fa 35 3d
       0.36085814 0.012802838 -0.40183848 0.044428732
000330 1f d2 89 3e 10 6a 1d 3d c6 f0 14 3f 4c a6 03 be
       0.26918122 0.038431227 0.5817989 -0.12856406
000340 50 60 ef be 38 1d 94 3e 01 58 3f 3d fa 22 8f be
       -0.46753168 0.28928542 0.046714786 -0.27956372
000350 cd 1f ed bd 89 ba 29 3f 8e fd 90 3e b5 9c 22 bd
       -0.11578331 0.66300255 0.28318447 -0.03970023
000360 13 c7 57 3e 12 41 ec 3e 44 02 f9 3d 81 43 01 bd
       0.21072035 0.46143395 0.12158635 -0.031558517
000370 c3 2a d8 bc 24 19 97 3c 8e f5 db 3e ae d1 1c bc
       -0.026387578 0.018444605 0.4296078 -0.009571476
000380 4c fb e6 be 36 44 09 bf 7a a0 80 3e d1 33 ee bd
       -0.451136 -0.53619707 0.25122434 -0.11630977
000390 fe 35 b8 bf 0a 02 dc bf b0 1d ed 3a 50 07 70 be
       -1.4391477 -1.7188122 0.0018090513 -0.2344029
0003a0 aa 37 88 bf cf 4b 36 bf 23 2e 25 be 88 89 ae 3d
       -1.0641987 -0.71209425 -0.16130881 0.08522326
0003b0 71 e7 8f bf 7b 02 50 3f 93 e6 09 c0 a4 cc 12 3f
       -1.1242505 0.81253785 -2.1546981 0.57343507
0003c0 98 db f1 bc 71 b1 a7 3e a7 32 1b be 54 a5 70 bf
       -0.029523656 0.32752565 -0.15156041 -0.9400227
0003d0 bc 61 11 bf 98 ca 16 bf 8d 87 67 bf 0d c6 cb be
       -0.56789756 -0.58902884 -0.9044121 -0.39799538
0003e0 5f 08 67 be a1 f6 0a bf 11 0f f4 3e 0c 21 04 bf
       -0.22561787 -0.54282576 0.47667745 -0.51612926
0003f0 fe d7 a6 bf c1 cd f3 bf e3 53 67 bf 34 98 a4 3c
       -1.3034666 -1.9047166 -0.90362376 0.020092107

x_encoder.out.bias f4 [128]
000000 59 eb ef 3d cf 9d 8c bd c2 42 2f be 00 10 8f bb
       0.11714811 -0.06866037 -0.1711531 -0.004365921
000010 4b 80 70 3d db a3 b5 bc a4 ac b7 be cd 0d e8 bb
       0.0587161 -0.022172859 -0.35873902 -0.0070817233
000020 96 be 77 be 2d 89 09 3d 49 b9 56 be 8c be 94 3d
       -0.24193797 0.033578087 -0.20969118 0.072629064
000030 de fa a9 bd fe a4 5b be 29 5a c2 bd 1e 33 0e be
       -0.08299802 -0.21449658 -0.09489853 -0.13886687
000040 6e 1a 51 be 7b 47 b5 3e 68 f9 08 3e 99 3b ce bd
       -0.20420238 0.35406098 0.13376391 -0.10069961
000050 a6 52 a7 be ed b4 c6 be dc 44 84 3e e5 15 d1 be
       -0.32680243 -0.3880991 0.25833786 -0.40837017
000060 13 25 d5 be 50 00 b6 3d 41 23 2f be 4a 2d 00 ba
       -0.41629848 0.08886778 -0.17103292 -0.0004889561
000070 eb 7e 51 be 38 20 a0 3d db 68 06 be 6d 57 02 3e
       -0.20458572 0.07818645 -0.13125937 0.12728663
000080 2e 1d 84 be 37 9b 7d bd bd 63 47 3e 72 06 7f be
       -0.25803512 -0.061915603 0.19471641 -0.24904802
000090 2f 68 30 3e 76 cf e2 b8 b5 d9 32 bf ce b1 58 bd
       0.17227243 -0.000108151624 -0.69863445 -0.052903943
0000a0 bd 17 ac bd b3 88 c4 be 92 da 3f 3e 2c e4 48 bd
       -0.08402965 -0.38385543 0.18735722 -0.049045727
0000b0 c2 f4 3b be 91 0e af bd 1e 99 87 3e 5c 24 28 be
       -0.18355086 -0.085477 0.26484007 -0.1642012
0000c0 91 a0 f8 bd c2 19 d3 3d 59 8f 94 3d de 5f 23 be
       -0.121400006 0.10307647 0.07253904 -0.15954539
0000d0 6b 02 b7 3d 61 12 b4 be 28 97 e0 bd ed 94 2f 3e
       0.08936008 -0.35170272 -0.10966331 0.17146654
0000e0 ee ee a9 3d c4 5d 56 bd 9e 43 6f be 43 82 79 bc
       0.08297525 -0.052335516 -0.23365638 -0.015228811
0000f0 49 c6 5e 3e 16 7e e4 bd 51 68 86 be 0f d5 1f be
       0.21755327 -0.111568615 -0.26251462 -0.15608619
000100 20 58 2a be 19 99 c4 be bf ab 18 bf 9b d4 8a be
       -0.1663518 -0.38398054 -0.59637064 -0.2711533
000110 73 f6 a7 3d d9 e6 29 3e 38 61 f0 bd 73 77 ae 3d
       0.08201303 0.16591968 -0.11737293 0.08518877
000120 8f f1 ad 3b 0e 14 38 be b6 7b 1a be 48 a3 d2 bc
       0.005308337 -0.179764 -0.15086254 -0.025712624
000130 c5 f1 e1 be d6 69 93 3e 0f 5e 51 3e 1c a9 33 bf
       -0.44129768 0.28791684 0.20446037 -0.70179915
000140 3e 23 5e 3e a3 e0 82 3e db ec c8 3a 97 a2 08 3c
       0.21693131 0.2556201 0.0015329377 0.008339546
000150 78 4b 5d be e8 01 0a be c6 d5 91 3d 37 7e 15 bc
       -0.2161082 -0.1347729 0.07120852 -0.00912433
000160 de 5f be bd 8c 4f 63 be 5b 35 76 bb 91 a7 c0 3c
       -0.09295629 -0.22198313 -0.0037568423 0.023517402
000170 43 8f 87 be 0a 2c 63 be 2e cd 49 3c 01 7d 96 3e
       -0.26476488 -0.22184768 0.012316985 0.29392245
000180 0d 45 81 3d 51 48 57 3d 7e e7 0e be d8 92 35 bf
       0.063119985 0.0525592 -0.13955495 -0.7092719
000190 18 bf aa bd 70 71 e5 be a1 4c cb 3d f8 82 da be
       -0.083372295 -0.44813108 0.09926725 -0.42678046
0001a0 ca 6d 85 3c d9 6f 8e bd f7 5a 42 be 0d f3 3a be
       0.016287703 -0.06954927 -0.18980013 -0.18256779
0001b0 92 5a 0f be 15 b7 40 3d d6 21 aa 3d fb c3 ea 3e
       -0.13999394 0.0470496 0.08307235 0.45852646
0001c0 c4 e8 61 3d 8a 87 8a be fb 05 ae bd c6 69 fb be
       0.055153623 -0.27056533 -0.084972344 -0.49104136
0001d0 90 ed 23 bf 10 aa 4e be cc 1a 41 be ea e9 f3 bd
       -0.64034367 -0.20182061 -0.18857878 -0.1190985
0001e0 24 df d6 39 5d 4d da 3d 93 86 ca 3e 7b c7 a1 bd
       0.00040983513 0.10659287 0.39555797 -0.07899376
0001f0 91 e8 36 3e 54 63 c5 bc 70 6f d5 3d fc 27 ab be
       0.17862155 -0.024095215 0.10421646 -0.33428943

xy_encoder.resizer.to_hidden.weight f4 [32, 1]
000000 7f 83 08 3f 54 d0 b2 3e 36 44 a2 3f 9d 0b b1 3f
       0.5332565 0.34924567 1.2677066 1.3831669
000010 a1 41 7a bf 95 de 50 3e 47 3b 0e bf 26 a6 de bf
       -0.9775639 0.20397408 -0.555592 -1.7394454
000020 84 84 bb bf c7 80 a9 bf da 68 b1 bf d5 ca 90 bf
       -1.4649816 -1.3242425 -1.3860123 -1.13119
000030 88 e2 c8 3f 39 03 ab 3f 30 2b c7 3f 9b 7a 0c bf
       1.5694132 1.3360358 1.5560055 -0.5487458
000040 fa 4e 6a be 13 8b ff 3e ec b4 61 bf 9a ae b7 3f
       -0.2288169 0.49910793 -0.8816669 1.4350159
000050 80 b4 8f 3e e1 34 a0 3f 16 fd b4 bf 02 1a c2 bf
       0.28067398 1.2516137 -1.4139736 -1.5164187
000060 54 ac dd bf a2 28 f4 3e 9d 92 b3 bf 2c 57 74 bf
       -1.7318215 0.4768725 -1.4029118 -0.95445514
000070 6b b2 91 be 6c bf 52 be eb d6 d4 3f f4 6a 01 3f
       -0.28456435 -0.20580834 1.6628088 0.5055382

xy_encoder.resizer.to_hidden.bias f4 [32]
000000 ca 6b 2f 3d 6f 49 f6 be 02 70 cd be 60 33 d9 bd
       0.042827405 -0.481029 -0.40124518 -0.10605502
000010 0e c1 a2 3e ad f2 f3 be 13 b8 ea 3d 44 7d 77 be
       0.31787914 -0.47646084 0.114608906 -0.24168879
000020 00 58 2c bf d8 de b8 be 3d fd 92 be fa a9 41 be
       -0.6732178 -0.36107516 -0.2870883 -0.18912497
000030 59 77 db be 74 6f 3c bf 9d ef 81 be 41 33 55 be
       -0.42864493 -0.73607564 -0.25378123 -0.20820333
000040 e1 da 96 be e0 46 dc be 81 fa 44 3e 81 bd ae be
       -0.29463866 -0.43022823 0.19236185 -0.34128955
000050 39 6f f4 be 3d 3c 01 bf 2d 53 f6 be f3 6e 88 bd
       -0.47741106 -0.5048254 -0.48110333 -0.06661787
000060 eb c4 b6 be 81 f0 f3 be 99 12 f2 3d 27 d8 f2 be
       -0.3569711 -0.47644427 0.118199535 -0.47430536
000070 dd e1 11 be c3 bb d6 be e7 d0 7b 3e e9 84 c6 3e
       -0.14246316 -0.41940126 0.24591409 0.38773277

xy_encoder.resizer.out.weight f4 [128, 32]
000000 97 f5 a3 bd ae 8f 91 be 73 34 d7 be aa d2 9c 3e
       -0.08005827 -0.2842993 -0.42032203 0.30629474
000010 f4 ce 4a be 2d 4e ef be d4 17 c9 3e a9 5b 2f 3e
       -0.19805509 -0.4673933 0.39275992 0.1712481
000020 5d be ba be dd 4e c1 be 8a 49 f3 bd 89 e3 d9 be
       -0.3647336 -0.3775548 -0.11879261 -0.42556408
000030 43 2e c9 be 4c 64 87 3d 1d d2 9b 3e 12 2d 9b be
       -0.39293107 0.06610927 0.3043374 -0.30307823
000040 ce 85 f6 be 4d 0b 1a bd 8b 66 c6 3e f3 31 72 be
       -0.4814896 -0.037608434 0.3875011 -0.23651867
000050 02 e8 b2 bd 6a 4d 21 3c e0 9f 00 be 37 c5 eb 3d
       -0.08735658 0.009845117 -0.12560987 0.11512225
000060 84 ef 3f 3e d9 db 4c be 17 c5 6c 3d b0 cd a6 bd
       0.18743712 -0.2000574 0.057805147 -0.081447005
000070 68 29 68 be b0 31 56 3e 5c 86 2c 3d c1 b6 ab 3e
       -0.22672045 0.20917392 0.042120323 0.33537868
000080 c7 67 5f 3e 3b 3d 2e 3e 40 ad 5e be 9c 0a f7 be
       0.21816932 0.17015545 -0.21745777 -0.48250282
000090 8e 49 ac 3d 76 46 b1 3e c0 06 bc 3d b3 0c 18 3e
       0.08412467 0.3462407 0.09180975 0.14848594
0000a0 98 6e 26 be 9f d2 a8 3e 1b d0 da 3e 35 2b 98 be
       -0.16253126 0.3297319 0.42736897 -0.29720464
0000b0 ab 82 80 be 23 87 0e 3d 46 da b5 be 72 f9 c3 bd
       -0.25099692 0.034796845 -0.35518092 -0.09569062
0000c0 9d a7 55 bf 82 ca f1 be c8 8d 91 3e 24 67 92 be
       -0.8345888 -0.47224814 0.28428483 -0.28594315
0000d0 72 08 73 be 30 f7 16 bf 8e e2 b3 be 97 09 f4 bc
       -0.2373369 -0.5897093 -0.35133785 -0.029789729
0000e0 1a d2 b0 be 2a 89 cb be 1a 3f bd be 0e 1c a2 be
       -0.34535295 -0.39753085 -0.36962205 -0.3166203
0000f0 d1 e8 8e bd e4 1c 8b 3d d4 0b f2 3d d2 1c cc be
       -0.06978 0.0679262 0.11818662 -0.39865738
000100 2a 32 a7 3e bb a2 91 be 87 77 59 be f0 b4 f0 3d
       0.3265546 -0.28444466 -0.21237002 0.11753261
000110 41 ff 9d bc be 4b 0e bf 3d f4 32 3e 2e 94 be be
       -0.019286754 -0.55584323 0.17475982 -0.37222427
000120 fb 78 b6 b9 63 2d a8 bb 39 e7 d9 be 27 cc 52 be
       -0.00034803883 -0.0051323636 -0.4255922 -0.2058569
000130 05 44 9d 3e d3 af 07 be 06 62 91 be 58 e4 0b 3d
       0.30715957 -0.13250665 -0.28395098 0.034153312
000140 e2 21 1e bf 54 32 d6 bb a0 74 92 3e 68 f5 fd 3d
       -0.6177045 -0.0065367613 0.28604603 0.12400323
000150 c3 67 2a 3d 5c 44 54 3e 40 52 4e 3e d1 2e 05 3e
       0.04160286 0.20729202 0.20148563 0.1300614
000160 d0 43 47 3d ad b4 02 bf 6e 2a b1 3d 10 f0 50 3e
       0.048648655 -0.5105694 0.08650671 0.20404077
000170 c7 f7 b3 3e 32 e0 b8 3d d9 0d d0 bc 7d a7 b0 be
       0.35149977 0.09027137 -0.025397228 -0.34502783
000180 c9 e2 a0 be 79 fd ed 3c 8a 0b 69 3e 25 30 9b 3e
       -0.31423023 0.02905153 0.22758308 0.3031017
000190 3a d7 8b 3e 8c 43 02 be cd 73 cc be 78 03 89 be
       0.27312642 -0.1272108 -0.399321 -0.2676046
0001a0 57 46 6f be 85 58 7f be 4e 07 8e be 8b 45 91 be
       -0.23366676 -0.24936111 -0.27739948 -0.2837337
0001b0 57 fb bc be d5 1a 70 be b1 33 4c be 89 5d d9 3e
       -0.36910507 -0.23447736 -0.19941594 0.42454174
0001c0 5b 84 09 3f 9d ac cf bd 87 67 a3 be 40 c7 60 3e
       0.53717583 -0.10140345 -0.31914923 0.21951008
0001d0 3f ac b4 be 38 08 50 be fb de 93 bd c2 32 41 bd
       -0.35287663 -0.20315635 -0.072202645 -0.047167547
0001e0 b5 68 6a be ba a2 0e be b6 ec 8b 3e 1a 43 c2 3e
       -0.22891505 -0.13929263 0.27329034 0.3794182
0001f0 d9 be cc 3e a4 ff 4e bf 89 76 db 3d a9 d0 b2 3e
       0.39989355 -0.80858827 0.10715968 0.3492482
000200 68 b9 25 3e 82 72 80 3e 6d 44 8c bd 9a a9 ae 3d
       0.16184008 0.25087363 -0.06848989 0.08528443
000210 08 ef 1d be bb 14 87 3e 7f 3b e1 be ee be b4 be
       -0.15423214 0.26383004 -0.43990704 -0.35301918
000220 49 6b 34 bd 54 4a b9 3d a4 e0 1f bd e8 97 19 3e
       -0.044047628 0.0904738 -0.039032593 0.14999354
000230 39 0c 8a 3e d5 c1 85 be 4e 32 11 3e 04 f1 cd be
       0.2696245 -0.26124445 0.14179346 -0.40222943
000240 d4 08 b8 be 9e 25 aa 3d 6f d6 42 3d a8 18 ff 3d
       -0.35944235 0.08307956 0.04756778 0.12455875
000250 d7 43 fd b7 13 a1 3f 3e 48 70 f9 be 3e 16 3b bf
       -3.019154e-05 0.18713789 -0.48718476 -0.73080814
000260 0c c9 0c 3e 92 ae ef be 8e 2d d0 bd 8f e1 95 be
       0.13748568 -0.46812874 -0.10164939 -0.2927365
000270 61 6d 58 be 8f 31 d4 be 98 b4 ed 3d ad b0 87 3e
       -0.21135475 -0.4144406 0.11606711 0.2650198
000280 bf e5 f0 3d e6 03 59 be f3 61 9f bd 93 44 4a bd
       0.117625706 -0.21192893 -0.07782354 -0.049381804
000290 3e 9f 27 bd d9 24 7e be 8f 7f 87 be 15 87 b9 be
       -0.04092335 -0.24818744 -0.26464507 -0.36235872
0002a0 21 19 e0 be c4 90 7f be e0 58 19 be c5 d1 7d 3e
       -0.43769172 -0.24957567 -0.1497531 0.24787052
0002b0 25 6e 81 be fd 0a 05 be 5f 0a 2f 3e ce 01 5c be
       -0.25279346 -0.12992473 0.170938 -0.21485063
0002c0 99 4f 61 be 5a f3 8e be 04 05 04 bf 90 97 13 bf
       -0.2200302 -0.27920038 -0.51570153 -0.5765314
0002d0 f5 a4 2c bf 12 24 4f 3e f9 fe 1d bd a6 a9 b5 3e
       -0.67439204 0.20228603 -0.03857324 0.35480994
0002e0 5b 8a d6 be a7 c3 c4 be 00 99 e9 3d 9d e1 a8 3e
       -0.41902432 -0.3843052 0.114061356 0.3298463
0002f0 6f bd 6b be c5 98 f6 bd 79 fc 54 3e 75 5e c5 be
       -0.23021482 -0.12040857 0.20799436 -0.38548627
000300 eb 1c 49 3e 87 67 64 be 66 cb 73 bc 68 3a ce 3d
       0.19639938 -0.22305118 -0.014880037 0.10069734
000310 48 23 a7 be 21 d9 e8 3e f4 9d 84 3e 1b f4 22 3b
       -0.32644105 0.45478156 0.2590176 0.0024864736
000320 b2 45 f1 3e 54 c3 df 3e ec d6 e7 bc d2 74 cb be
       0.47123486 0.4370371 -0.028300725 -0.39737564
000330 cb 76 db bd 31 89 60 be 4b 71 ee be 22 02 65 3e
       -0.10716017 -0.21927334 -0.4657081 0.22364095
000340 e8 52 00 3f fa 01 1d be a9 4d c9 be f8 db 7c 3e
       0.50126505 -0.15332785 -0.39317062 0.24693286
000350 ab ea 72 3e 7a f9 67 3e ce 1c b9 3d 7e 99 a8 be
       0.23722331 0.22653762 0.09038697 -0.32929605
000360 6c f5 15 3e b6 69 ee 3d 4b 23 a8 3e 97 64 7e 3e
       0.14644402 0.116412565 0.32839426 0.2484306
000370 5d 27 87 3e ae 2a 9f 3f 14 f5 8f 3e 95 70 98 be
       0.2639722 1.24349 0.28116667 -0.29773393
000380 1f c0 b7 be 34 dc 9a 3e 95 24 4f be 21 dc 63 be
       -0.35888764 0.30246127 -0.20228799 -0.22251941
000390 aa 72 49 bd 20 14 2f 3d d6 ad 82 ba 76 10 4d 3e
       -0.049181618 0.042743802 -0.000997002 0.2002581
0003a0 65 ac d1 be 43 58 df be 30 8e 02 3e c0 16 aa be
       -0.4095184 -0.43622026 0.12749553 -0.33220482
0003b0 d7 10 24 3e c0 d0 1d be 5d df 94 3e 05 7b 8a 3e
       0.16022049 -0.15411663 0.29076663 0.2704698
0003c0 9a 51 8c 3e 9c b3 ec be 33 43 38 be 2d 8e 44 3e
       0.27406007 -0.4623078 -0.17994384 0.19194861
0003d0 6a ed 46 3e e2 6b 6a be 4b cf 60 3e 7b ff 85 3e
       0.19426504 -0.22892717 0.21954076 0.2617148
0003e0 93 d1 a9 be 8b 51 d5 be 9a bc ed be ef 13 50 3e
       -0.33167705 -0.41663775 -0.46432954 0.20320104
0003f0 71 59 b1 be 6a 81 e5 be a9 7d 15 3d e8 43 ef be
       -0.3463855 -0.44825298 0.036496792 -0.46731496

xy_encoder.resizer.out.bias f4 [128]
000000 cf 05 4c 3e fa 97 c7 be 99 23 b7 bd 69 3d 9b bb
       0.19924091 -0.38983136 -0.089423366 -0.0047375453
000010 98 c7 49 bd 2c a6 29 be d6 24 ec be c2 e8 3b bd
       -0.049262613 -0.16567296 -0.46121854 -0.045876272
000020 12 ff 88 be 2b 84 e0 3d 65 c9 fb bd 15 68 35 3e
       -0.26757103 0.10962709 -0.12294272 0.17715485
000030 19 b0 94 be ef 5c 01 bf 5d d6 ab bd e2 20 0c be
       -0.29040602 -0.5053243 -0.08390496 -0.13684419
000040 14 df b1 be 3d 06 54 3e 1e 81 ed bd c2 29 ba bd
       -0.34740508 0.20705505 -0.11596893 -0.09089996
000050 aa e5 92 be 9f d6 cf be 57 cf b5 3e c2 4c bb be
       -0.28690845 -0.4059343 0.3550975 -0.36582
000060 38 7e c6 be 69 4b 10 bd 15 e3 ec 3c 16 65 94 bd
       -0.38768172 -0.035228167 0.028916875 -0.07245843
000070 78 2d 08 bf 54 7b b5 bd 3b 24 bb bc c9 66 00 bd
       -0.5319438 -0.088614136 -0.022844424 -0.031348024
000080 47 0e 0f bf 06 c6 f6 bd be b4 74 3e 18 bf 7e be
       -0.5588116 -0.12049489 0.23897073 -0.24877584
000090 97 e7 b2 be 8c b7 ea 3c df 5b 32 bf 8f a1 bc bd
       -0.34942314 0.028651975 -0.69671434 -0.09210502
0000a0 cf 85 0c bd 94 82 c4 be 15 28 78 3e 6c a6 5f be
       -0.034307297 -0.38380873 0.2423404 -0.21840829
0000b0 ac 3b b1 3d 78 0e 07 bf e1 a7 8d 3e c2 d9 b0 bd
       0.0865396 -0.5275645 0.27667144 -0.08635284
0000c0 8e cb f4 bd d6 7d 34 bd 18 a4 3c be f6 3c a5 ba
       -0.119528875 -0.04406532 -0.18421972 -0.0012606669
0000d0 a9 0c 2d bd ec 4a c9 be 74 75 92 be 57 c0 e1 3b
       -0.0422484 -0.39314973 -0.28605235 0.006889384
0000e0 70 3a ad 3d 3f 41 b6 be 13 10 6d be 99 0a 98 be
       0.08458412 -0.35596654 -0.23150663 -0.29695585
0000f0 7c e1 bf 3e bb 4d f5 be 88 88 f8 be db fc 3b be
       0.37476718 -0.47910866 -0.48541665 -0.18358175
000100 02 e1 1b 3c b6 77 c5 be 69 30 db be a3 a6 e3 be
       0.009514095 -0.38567895 -0.42810372 -0.4446307
000110 f3 38 8d bd 74 85 9a 3e e3 2d 6b be 3b 0e 7d bc
       -0.06895628 0.30179942 -0.22966723 -0.015445287
000120 2c f6 8d be a3 6d 0b bf c4 d4 9e be c5 7c 84 bd
       -0.27726877 -0.5446417 -0.31021702 -0.064691104
000130 8e 1b de be 71 41 89 3e da 4c 40 bd 93 8c 18 bf
       -0.43380398 0.2680774 -0.04694829 -0.595895
000140 0d ee f0 3d 5f 84 f1 3e 0e 52 2e 3d 5c b7 33 bd
       0.117641546 0.47171304 0.042558722 -0.043876037
000150 e7 f4 18 be ef e1 3a be c3 24 29 3e 64 b6 bb be
       -0.14937173 -0.1825025 0.1651793 -0.3666259
000160 14 ac 6a bd c0 54 00 bf 79 13 f6 3c 93 ca 1d 3d
       -0.057293013 -0.5012932 0.030038582 0.038523268
000170 6d 28 d9 be 21 4c 1d be ba 6e 85 be fe 55 98 3e
       -0.42413655 -0.15361072 -0.2606104 0.29753107
000180 16 a0 ad bd da 18 e5 bd 00 1c 95 be e9 f8 cf be
       -0.084777996 -0.11186381 -0.29122925 -0.4061959
000190 00 00 00 00 a8 71 55 bf e8 c4 5d 3e 51 34 b0 be
       0.0 -0.8337655 0.21657145 -0.34414914
0001a0 af 65 89 bd 67 fd 89 be 49 89 3f bd d5 26 3e be
       -0.06708848 -0.26951143 -0.046761785 -0.185695
0001b0 66 4b 13 3d 16 24 4d 3d ee 0f 08 3e d9 a7 08 3f
       0.035960577 0.050083242 0.13287327 0.53381115
0001c0 99 b1 23 3e 8c 31 ce be 94 11 2a bc d4 b8 04 bf
       0.15985717 -0.40272176 -0.0103801675 -0.51844525
0001d0 ad 96 23 bf 8e 5e 4b be 3e 74 9b be 2b 9b 84 be
       -0.6390179 -0.19860289 -0.30362123 -0.25899634
0001e0 f7 f5 8f bc e2 50 8c bd e3 cc e6 3e 50 c6 34 bd
       -0.01757334 -0.06851365 0.4507819 -0.044134438
0001f0 a6 03 80 bd 8d b8 a2 bd 03 5a 03 3e 41 5e cd be
       -0.06250696 -0.079453565 0.12827305 -0.40110973

xy_encoder.flat_module.to_hidden.weight f4 [128, 128]
000000 33 b2 9e be 53 13 48 be 0a 11 ac 3d 49 18 1f 3e
       -0.3099533 -0.19538622 0.084016874 0.15536608
000010 02 ba 17 be 9a b1 c1 3d 6e 10 a5 be 1a 13 6f 3d
       -0.1481705 0.09457703 -0.32239097 0.058367826
000020 50 31 db 3c 18 cf de bb 63 7e 96 3d ab 4d af be
       0.026756912 -0.00679959 0.07348325 -0.34238943
000030 67 ca af 3d cd 3c c0 3d 32 86 1f 3e 0b 8f c2 bd
       0.08583527 0.09386597 0.15578535 -0.094999395
000040 e9 a6 b2 bd b8 6b 03 be b4 c0 fe 3d 15 02 fe bd
       -0.08723242 -0.1283406 0.12439099 -0.12402741
000050 50 57 85 be 88 37 ea bd 3c 89 90 3b 85 2a df 3c
       -0.26043177 -0.11436373 0.004410891 0.027241955
000060 6c 7f 94 be 61 8d 59 be 5c d4 0c be 6d 34 92 3e
       -0.29003465 -0.21245338 -0.13752884 0.28555623
000070 dc fb 0b bd 4d 5a 06 be 45 fb f4 3d 24 ac 1c bd
       -0.03417574 -0.13120385 0.11961988 -0.038250104
000080 24 38 8b bd ac 16 15 3e 94 e5 90 bc 0e b6 b6 3e
       -0.06797817 0.1455943 -0.017687596 0.35685772
000090 e4 0a ae be c4 a3 6f 3e c9 6a 2b bf 60 d2 e9 bd
       -0.33992684 0.23402315 -0.66959816 -0.11417079
0000a0 b5 b3 83 be 89 90 a4 be 98 4d 4b 3e 6f 58 02 be
       -0.25723043 -0.32141522 0.19853818 -0.12729047
0000b0 91 ff 12 3e 10 23 94 bd fd 40 9c 3d a1 b1 52 be
       0.14355303 -0.0723325 0.07629583 -0.20575573
0000c0 ec f8 0d bf 9a a8 3b 3e 20 89 71 3d 55 6b 3c 3e
       -0.5545795 0.18326035 0.058968663 0.18400319
0000d0 47 9f f9 3c b9 35 57 3d 4d b9 5e be 4e 10 7a be
       0.030471457 0.05254147 -0.21750374 -0.24420282
0000e0 c4 27 45 3e 24 b7 f5 3c d0 84 24 be 0c 9e 99 3e
       0.1925345 0.029994555 -0.16066289 0.30003393
0000f0 2c 8a 19 3e 14 37 10 be 48 ae 14 3e 01 25 16 be
       0.14994115 -0.1408351 0.14519608 -0.14662553
000100 d7 53 01 3e d1 0a ed be f9 74 10 be 13 41 24 be
       0.12629639 -0.46297315 -0.14107122 -0.16040449
000110 49 03 cf bd cd f5 12 be ee ba 10 3d cc da 81 bd
       -0.101080485 -0.14351578 0.03533452 -0.0634056
000120 b5 df 86 3c ff 1c c2 be 66 1e dc bd 84 70 f5 3d
       0.016464094 -0.37912747 -0.107479855 0.11984351
000130 ef c5 29 3e 47 05 18 3e 7c 8e 0a 3d 8e 26 ab bf
       0.16579412 0.14845763 0.03382729 -1.3371141
000140 f9 a8 8c be 2e 70 a2 bd f9 41 a6 bd 8e 86 15 3e
       -0.27472666 -0.07931553 -0.08118052 0.1460211
000150 48 39 84 3c 71 b4 5f 3d b2 d9 6c be eb 29 19 be
       0.016140595 0.05461544 -0.23129919 -0.14957397
000160 60 07 2c 3d 71 f3 cf bd b7 5c 46 be bc d0 84 bd
       0.04199922 -0.10153855 -0.19371305 -0.064851254
000170 99 bb 92 bd 25 4e e9 3d fa 3d 7c be 13 55 37 be
       -0.07164688 0.11391858 -0.24633017 -0.17903547
000180 45 9f a0 be 9c a0 8c bd 4c d7 88 be 4c 0c 69 bf
       -0.31371513 -0.06866571 -0.26726758 -0.9103439
000190 6f e1 01 3e 3a fb 0d bf ca 92 c8 bd 85 b1 8b be
       0.12683652 -0.55461466 -0.09793623 -0.27283874
0001a0 cb 36 76 be 67 d7 84 be 91 7d 00 bf fc 27 5b 3d
       -0.2404434 -0.2594559 -0.501916 0.05350493
0001b0 c5 67 47 3e 10 2e a7 bd ec 1d 6b bd a3 67 62 3c
       0.19473179 -0.081630826 -0.057401583 0.013818654
0001c0 e7 64 0c 3e 56 b1 e0 be 09 e1 80 3e 80 a5 f5 be
       0.13710366 -0.43885297 0.25171688 -0.4797783
0001d0 39 9c 02 bf d3 a8 61 3d 34 37 50 bd b7 5c 13 be
       -0.51019627 0.055092644 -0.050833896 -0.14390837
0001e0 dc e8 ec 3c 54 85 27 bb 1b d9 a7 bd be c2 b3 3d
       0.02891963 -0.0025561647 -0.081957065 0.087773785
0001f0 7d 38 a3 bd 2f 6d 1a be 19 17 8d be e5 70 e9 bc
       -0.07969759 -0.15080713 -0.27556685 -0.028496215
000200 84 4a ac 3d d8 40 40 be ef 93 dc be 2d 5b 37 be
       0.0841265 -0.18774736 -0.43081614 -0.17905875
000210 2b 8e 8e bd 32 cb 15 3e 71 d1 bc 3d 52 00 1b be
       -0.0696071 0.14628294 0.09219635 -0.15136841
000220 d5 7d 95 bd 04 14 69 be 12 a3 9e bd 71 cb ce bd
       -0.07299391 -0.22761542 -0.07745947 -0.10097397
000230 e0 e8 e9 3d cc 3d 29 bd b9 44 da bd c7 97 97 be
       0.114213705 -0.0413187 -0.10657639 -0.29607984
000240 12 07 7b be f0 8b 0e 3c 66 f7 91 be 6f e7 4f bb
       -0.24514416 0.008700356 -0.28509063 -0.0031723639
000250 5e 3f a1 bf 88 71 4c 3e b4 98 9d 3d a7 91 92 be
       -1.2597463 0.19965184 0.076951414 -0.2862675
000260 6f 6b 91 be 65 04 4b 3e cf 56 80 3e 1b e3 3c be
       -0.28402278 0.19825895 0.2506623 -0.18446009
000270 00 42 59 be 0e 03 86 bc b7 9f 3e be 3d c4 fe bd
       -0.21216583 -0.016358878 -0.18615614 -0.12439773
000280 f3 36 08 3d 70 ce 52 be 37 11 dc 3d c0 e7 a5 bd
       0.03325553 -0.20586562 0.10745471 -0.081008434
000290 38 25 33 be ce bc e6 3d 79 c1 5f be de 0f 87 3d
       -0.17494667 0.112664804 -0.21851148 0.06594823
0002a0 19 d6 95 3d b2 0a 9c be ee c7 44 be d4 77 bf bd
       0.073162265 -0.3047691 -0.19216892 -0.09349027
0002b0 b3 49 1d 3e dd 1a 8f be 3c fe 04 bc 8f 0b 23 bd
       0.15360145 -0.27950183 -0.008117255 -0.039805945
0002c0 1c cf 63 3e 6e 1c 32 3e 6c 81 d5 3d 9e 86 8e be
       0.22246975 0.17393658 0.10425076 -0.2783708
0002d0 6a a4 89 be 10 f1 44 be 90 67 ff bd 83 8c 21 be
       -0.2688325 -0.19232583 -0.12470925 -0.15776257
0002e0 22 a4 8c bd a7 98 c9 bd 19 6c 14 be 4d 9e e9 be
       -0.06867243 -0.09843569 -0.14494361 -0.45628586
0002f0 67 5e 87 be a2 27 3a be c2 d9 19 bf 91 9a 8f be
       -0.2643921 -0.18179181 -0.600979 -0.28047612
000300 ba 7e 86 3d 9a 39 b3 3d 24 4c c0 bd 1c a4 08 bd
       0.0656714 0.08751221 -0.09389523 -0.033359632
000310 13 8a 20 3e cd b2 f2 3d d9 09 ba be 26 87 20 bf
       0.15677671 0.1185051 -0.36335638 -0.6270622
000320 e8 ba fd 3c 60 56 2f bd 40 ce 78 be 60 97 36 be
       0.030972913 -0.042806983 -0.24297428 -0.17831182
000330 7b bb 80 be 26 97 69 3e e6 d1 de 3d 1d eb 4c 3d
       -0.25143036 0.22811565 0.10879879 0.05002891
000340 50 d8 97 be c8 7a 1e 3e 73 6f 78 be 33 73 33 3e
       -0.2965722 0.15476525 -0.24261265 0.17524414
000350 66 54 b3 be 54 26 30 be a3 0d 52 bc 22 ec 21 be
       -0.35025328 -0.17202121 -0.012820634 -0.15812734
000360 1c f8 d1 be 80 03 22 be 8f 00 25 3e a7 9d dc bc
       -0.41009605 -0.15821648 0.16113494 -0.026930643
000370 7e 32 8f bc dc ab 51 be 23 36 b6 be 03 96 1c be
       -0.017480131 -0.20475715 -0.35588178 -0.152916
000380 9d 75 a4 3d 60 ad 05 bd f4 6d 14 be 6c 91 36 bc
       0.080302455 -0.032636046 -0.14495069 -0.01114307
000390 4b 2f 3d be 5c cb 09 3c af 70 31 3e 79 59 bc be
       -0.18475072 0.008410301 0.17328142 -0.36787012
0003a0 53 62 89 be d6 fb 33 3e fe 8d 32 bf cc a8 d9 be
       -0.26832828 0.17576537 -0.6974791 -0.42511594
0003b0 2d 22 b6 3d 24 96 e0 3d 74 8f 68 be 0a 5e 3b 3e
       0.08893237 0.10966137 -0.22710973 0.18297592
0003c0 b4 84 9e bd bc c0 e8 bd a8 6f 8b bd fe 33 28 bf
       -0.07740155 -0.11364886 -0.06808406 -0.65704334
0003d0 ea eb 13 be 8a d5 3f 3d d0 e7 2a bf ee fd 43 be
       -0.14445463 0.046834506 -0.6675997 -0.19139835
0003e0 06 67 e9 3d 02 be d9 bd 42 ef 85 be 99 a9 21 3e
       0.11396603 -0.10631944 -0.26159102 0.15787353
0003f0 51 01 fe 3b 1a bb 34 be 8a b1 29 bf 66 77 ee be
       0.007751622 -0.17649499 -0.6628653 -0.4657547

xy_encoder.flat_module.to_hidden.bias f4 [128]
000000 19 dc 93 3d f0 66 d5 3d 8b 78 4e 3d 99 a6 ec 3c
       0.07219715 0.104200244 0.050407927 0.028888034
000010 ac 5c b4 bd 6f a8 e1 3d b5 25 ee bd 85 cc 1d be
       -0.08806738 0.11018454 -0.11628286 -0.1541005
000020 4c 22 8f bd 6a 64 70 3d 90 b1 09 bf 2a 21 02 be
       -0.069889635 0.058689512 -0.53786564 -0.12707964
000030 13 41 4d 3e 8c 38 0e be 07 b4 b7 be a1 23 94 be
       0.20044355 -0.13888758 -0.35879537 -0.28933433
000040 ca b4 9b 3d bd af 1a be 88 b2 bc be 80 0d 0f bd
       0.07602842 -0.15106101 -0.3685496 -0.034924984
000050 7e 88 b7 bd 18 e1 0e bf 51 cc bc bd 40 df cb bd
       -0.08961581 -0.55812216 -0.09218658 -0.09954691
000060 50 b2 14 be e8 79 90 bd 3f 0c 0e be 4d 5e ce 3c
       -0.14521146 -0.07054502 -0.13871859 0.02519145
000070 d2 e1 a5 bb bc 68 df bd ee bd c3 be 35 aa f5 bd
       -0.0050623203 -0.10908648 -0.38230842 -0.11995355
000080 ef f4 38 bc cb e8 17 bf ae aa df bd c0 38 0f be
       -0.0112888655 -0.5933959 -0.109212264 -0.13986492
000090 95 d2 60 bd 0e 07 79 bb 19 eb fe bd e2 38 c1 bc
       -0.054888327 -0.003799859 -0.12447185 -0.023586694
0000a0 7a 6d d6 bd 49 19 0f 3d 96 21 bb 3d 04 af 35 3d
       -0.104701 0.034936223 0.091372654 0.04435636
0000b0 d0 10 bc bd 54 1e 3c 3d 24 dd d6 bd 85 62 b0 bd
       -0.09182894 0.04592736 -0.10491398 -0.08612541
0000c0 22 0f f9 be 43 b6 75 3c 18 79 8b bd 6e e0 02 3d
       -0.48644358 0.014997068 -0.06810206 0.031952314
0000d0 dd 77 63 be 3a 5a 01 bd c0 c4 b6 3d fd bb 5c bc
       -0.22213693 -0.031580187 0.08924246 -0.013472554
0000e0 2e d9 08 3e 25 5b 01 be 2b 8b f0 bd 02 6b c9 3c
       0.13364097 -0.12632425 -0.11745294 0.024587158
0000f0 05 15 0b be 21 a4 ac ba f8 e5 99 bd f8 8d 0b 3d
       -0.13582237 -0.0013171473 -0.07514566 0.03407094
000100 5e 4d c2 bc 7a e3 49 be 63 ef c6 3d cc 80 0f 3d
       -0.023718532 -0.19715682 0.09713628 0.03503494
000110 47 53 e6 bd 64 ab b6 bd 74 a9 68 bc 5a be ac bd
       -0.11246353 -0.08919409 -0.014200557 -0.08434744
000120 6e 0a 8d be ac a4 0e 3d a6 24 01 be 37 c5 69 3d
       -0.2754702 0.034825012 -0.12611637 0.057072844
000130 fd 1b ca bd 3a 1c bf bd ae 6f 15 3d 97 85 ec be
       -0.098686196 -0.09331556 0.03648346 -0.4619567
000140 e3 1e f0 bd a9 e4 0d bf a0 74 96 be 0e 43 9f be
       -0.11724641 -0.5542703 -0.29385853 -0.31105846
000150 1d 99 2b be ed 7f a1 3e c6 ca ab bd e0 c2 9b 3d
       -0.16757627 0.31542912 -0.08388285 0.07605529
000160 3e d0 e2 be 38 68 54 bd 71 cf f8 bb d8 bb d3 bd
       -0.442995 -0.051857203 -0.0075930883 -0.10338563
000170 11 03 4b bd 3a 03 12 bf 89 04 05 3e b2 5f 4b bd
       -0.04956347 -0.57036173 0.12990011 -0.04965181
000180 7d 1e fa 3d 49 e0 1d be 62 2d b4 be 43 10 93 bd
       0.122128464 -0.15417589 -0.35190874 -0.07180836
000190 8f 84 cf bd 7c 12 15 3e 36 28 46 3e 70 41 b6 3c
       -0.101327054 0.14557832 0.19351277 0.022248
0001a0 a4 bb 38 3d 57 72 15 3e e2 ac 72 bd 71 9d a5 3d
       0.045100823 0.14594398 -0.059246905 0.0808667
0001b0 cd 73 1a 3e f3 90 24 be 97 af 25 ba 23 ba 93 bd
       0.15083237 -0.16070919 -0.00063204154 -0.07213237
0001c0 33 ca b5 bd ee 45 a5 bd 56 e0 d9 bd f8 96 e8 bd
       -0.08876457 -0.08069979 -0.10638492 -0.1135692
0001d0 c2 51 01 3e 28 89 96 bc b5 b3 7e be b3 6c 65 3d
       0.12628844 -0.018375948 -0.2487324 0.056011867
0001e0 53 05 9d 3d 8b 6b 21 3d df e2 82 3d 2b 25 ed 3c
       0.07667031 0.0394092 0.063909285 0.028948387
0001f0 d4 80 85 bd 76 38 95 be ce 59 08 be c1 9e 4e be
       -0.06518713 -0.2914464 -0.13315508 -0.20177747

xy_encoder.flat_module.linears.0.weight f4 [128, 128]
000000 73 66 86 3e db 6c 1e bf 83 bb 39 3c 83 16 d0 bd
       0.26250038 -0.6188485 0.01133621 -0.10160544
000010 16 ac f9 bd d4 44 e6 3d c2 87 0c bd 88 ca a0 3d
       -0.12191026 0.11243597 -0.034309156 0.0785113
000020 58 fd 03 bc da 32 4d bf 9f ee aa 3d 0d e5 34 bc
       -0.008056007 -0.8015572 0.083462946 -0.011040938
000030 5c 61 ac bd 2e b5 80 3c 84 7d d0 bd cb 95 3f bf
       -0.08417007 0.015711393 -0.1018019 -0.7483794
000040 09 d6 5b be 4f fa ef bb a5 8f ec bc ea 7f 03 be
       -0.21468367 -0.0073235403 -0.028877089 -0.12841764
000050 ad 49 05 3d a9 41 1d be 1b 03 4e bd 82 11 a7 be
       0.032540966 -0.15357079 -0.05029593 -0.32630545
000060 7a b2 82 be 00 71 9e 3a 91 af af bd 46 f8 de be
       -0.25526792 0.001208812 -0.085784085 -0.43548793
000070 57 29 8d 3d 3a 2c 0a 3e c3 86 5c 3e 8f be cc 3c
       0.068926506 0.13493434 0.21535783 0.02499321
000080 05 93 83 bd 11 08 d7 bc 40 d5 d1 be a2 bb ec 3c
       -0.06424526 -0.026248964 -0.4098301 0.028898064
000090 c6 32 8a bd 2f df 94 bc 56 4a 99 3b 45 65 76 be
       -0.067479655 -0.018172828 0.004678051 -0.24062069
0000a0 de 53 29 be 58 1d bc 3d 2f f4 db be a2 3d 18 be
       -0.16535899 0.091852844 -0.42959735 -0.14867261
0000b0 fe f6 31 be 7f 3c 46 3e ed c1 bc bc d6 f2 1b be
       -0.17379376 0.19359015 -0.02304169 -0.15229353
0000c0 0e b8 d9 3d 2c 16 51 3d b1 85 28 3e 6c 50 0c 3c
       0.10630809 0.051046535 0.16457249 0.008564096
0000d0 32 b4 47 be a8 8c a3 bc 46 85 07 3e 41 24 a6 be
       -0.19502333 -0.019964531 0.13234434 -0.32449535
0000e0 55 85 52 be 49 7a 91 3d 1b e9 ed bd 4e c7 19 3c
       -0.20558675 0.07103402 -0.11616727 0.009385897
0000f0 91 c1 11 be f1 4d 1c 3c b5 28 2e be 18 44 d1 bc
       -0.14233996 0.009540067 -0.17007716 -0.025545165
000100 25 23 78 bd c8 db 06 be 57 64 0d 3e 98 a9 1f 3e
       -0.06058039 -0.13169777 0.13807808 0.15592039
000110 46 cd 64 3e bc d5 b9 3d dc 9a 2f bc 74 f4 3b be
       0.2234393 0.0907397 -0.010718074 -0.1835497
000120 8d 5f 73 be 09 ab 5f be 01 a2 8f 3e 4b 09 3d bc
       -0.23766918 -0.21842588 0.28053287 -0.01153786
000130 d3 c0 81 be 40 97 98 bd cf f9 13 3c 5c 2d 94 be
       -0.25342426 -0.07450724 0.009031727 -0.28940856
000140 47 e1 4a be 99 42 b0 3b 36 4e fa 3d 5f 7c f4 bd
       -0.19812499 0.005379033 0.12221949 -0.119377844
000150 a2 e3 92 3d 3d ae 1d bf c6 c2 3c be 3a 05 d3 3d
       0.07172324 -0.6159399 -0.18433675 0.10303731
000160 48 80 81 3c 03 03 a1 3d 2d 09 21 3d aa 19 e0 bd
       0.01580824 0.078619026 0.03931539 -0.10942395
000170 b4 69 4d bd 2a 6a 58 bf 55 6b ad ba 8e 24 6e be
       -0.050149634 -0.84536994 -0.001323084 -0.23256132
000180 a0 17 0a bd f2 3d 54 3d de fd 69 be 05 62 93 bc
       -0.033713937 0.05181689 -0.22850749 -0.017991075
000190 bc d5 02 be b9 8b bf be b9 98 c5 bd 42 cf cd bd
       -0.12776846 -0.37411287 -0.0964827 -0.10049297
0001a0 12 a5 68 3e f8 74 99 3d 18 17 4a be d5 d1 d8 be
       0.2271922 0.07493013 -0.19735372 -0.4234759
0001b0 26 4f 15 bf cf f0 41 be b9 97 bf be 20 7a 78 bc
       -0.58323896 -0.18939517 -0.37420443 -0.015165836
0001c0 d7 54 28 be 56 d4 03 3d da 7d b2 bd f8 04 10 be
       -0.16438614 0.03218492 -0.087154105 -0.14064395
0001d0 6f 6a 1a 3e 93 44 d2 3c cd b2 68 bd 27 62 34 bd
       0.15079664 0.025667464 -0.056811143 -0.044038918
0001e0 6f de 21 3e 01 b4 3e 3e 5a b1 4e be 34 18 13 be
       0.15807508 0.18623354 -0.20184842 -0.14364702
0001f0 63 9a 19 3e f4 15 f6 be 2d 35 4e be 1a 6f c4 3d
       0.150003 -0.48063624 -0.20137472 0.095915034
000200 ca 6f 72 be 73 a8 21 3d ae 95 c2 bd d2 79 e4 bd
       -0.23675457 0.039467286 -0.095012054 -0.11156048
000210 77 fa 37 3e 1c dd 51 be 51 c3 1c 3e 07 28 99 be
       0.17966639 -0.20494503 0.15308882 -0.2991335
000220 9a 72 44 bc 06 73 ed 3b a5 f1 43 3d b9 4b 1e 3d
       -0.011990214 0.007246378 0.047837872 0.038646434
000230 15 a4 43 be 27 37 29 3d 93 d4 51 3e 38 69 44 be
       -0.19105561 0.041312363 0.20491247 -0.19180763
000240 15 94 e5 bc b0 b7 37 3e 88 33 2d be f7 86 9f 3d
       -0.028024713 0.17941165 -0.16914189 0.077894144
000250 53 f0 19 be f0 3b cb bc 53 81 79 bd 66 06 90 be
       -0.15033083 -0.024808854 -0.06091435 -0.28129882
000260 af 76 4c be 8c 96 35 3d da 42 38 be 7f c6 d6 bb
       -0.19967149 0.044333026 -0.17994252 -0.0065544243
000270 5f dd c9 bc 35 61 ec 3d 44 5c 39 3d 02 6e 10 be
       -0.02464169 0.11541978 0.045254007 -0.14104465
000280 26 4c b6 3d 77 79 24 bd 89 8b de bd 18 fc 26 3e
       0.08901243 -0.0401549 -0.10866458 0.16307104
000290 bb db 03 be 30 46 3e be d4 50 c0 bc 40 2f cc 3d
       -0.1287679 -0.18581462 -0.023476042 0.0996995
0002a0 88 3a 47 be a9 a8 01 be c9 90 04 3e 5a 1d db 3d
       -0.19455922 -0.12661995 0.12945856 0.10698958
0002b0 27 35 e9 bd 5c 49 5d be 64 70 1d 3d 12 bc 5e bb
       -0.11387091 -0.21610016 0.038437262 -0.003398661
0002c0 61 41 dc 3b 24 de 18 3e 30 23 bf bd a2 32 ce 3b
       0.006721661 0.1492849 -0.09332883 0.006292657
0002d0 74 0c cb bd 5e 26 94 bd f4 a8 45 3d ab 6f ef bc
       -0.099144846 -0.072338805 0.04825683 -0.029228052
0002e0 be 0b 1e be 1e 82 8f 3b 41 8e 27 3d f5 7f 34 be
       -0.15434167 0.004379525 0.04090715 -0.17626937
0002f0 f3 e3 a7 bd 3e 45 02 bd ba 96 31 3e 1d 04 87 be
       -0.08197775 -0.031804316 0.17342654 -0.26370326
000300 a7 e5 c7 3c ce 69 81 3c 40 53 1e 3b 2f c4 e7 bd
       0.024401499 0.015797522 0.0024158508 -0.11316716
000310 c7 b8 f5 bd 55 1f 6c be 08 68 c3 bd 27 c7 7a be
       -0.11998134 -0.23058827 -0.09541327 -0.24490033
000320 87 a0 e7 3c ca 7b 63 be 16 d1 93 be 94 8b ec bd
       0.028274788 -0.2221519 -0.28870457 -0.1155006
000330 58 fe 86 bd 21 52 18 3e 6a 6c 30 3e 05 25 7e bd
       -0.06591481 0.1487508 0.17228857 -0.062047023
000340 56 a4 0f be 24 7b ad 3d e1 47 2b be 71 6c c1 bc
       -0.14027533 0.08470753 -0.16726638 -0.02361128
000350 9d f5 24 3e 68 bf 54 bd c8 da 90 bd 03 c4 9f 3d
       0.16109319 -0.05194035 -0.07072979 0.07801058
000360 e3 ed 80 be b5 4e 08 3d 2b d6 e1 bc e0 7b 3c bd
       -0.25181493 0.033278186 -0.027567944 -0.046016574
000370 f6 97 57 3d 4b 8e c5 bd 41 9d 1b bd 18 a2 23 3e
       0.052635156 -0.09646281 -0.037991766 0.15979803
000380 a7 39 2f bd 38 ab 94 3c 80 6c 24 3e 51 a2 5d be
       -0.04277959 0.01814805 0.16057014 -0.2164395
000390 2b 29 17 be dd 0f 33 3d 09 e4 35 be 85 fd 3b 3b
       -0.14761798 0.0437163 -0.1776277 0.0028685045
0003a0 18 ef f9 3d 1b 80 35 3d eb 0e 66 bb 7a 4a 52 3d
       0.12203807 0.044311624 -0.0035104107 0.051340558
0003b0 64 40 27 be 80 64 78 be 9d e7 00 be ed e3 55 3e
       -0.16333157 -0.24257088 -0.12588353 0.20887728
0003c0 f4 e3 52 be e5 c1 f2 3d f6 97 8e bd d0 10 b9 3d
       -0.2059477 0.11853389 -0.06962578 0.0903641
0003d0 9e f6 11 be bc e8 0e be 0c 4f f7 bd d0 ca 54 be
       -0.14254233 -0.13955969 -0.12075624 -0.20780492
0003e0 1e 22 ec 3d 80 fe 1b be 42 8c 93 be 7d 56 f0 bd
       0.11529945 -0.15233803 -0.28817946 -0.11735246
0003f0 f4 5d 70 3d d3 2e 13 be 65 79 54 bc e6 71 3f 3d
       0.05868335 -0.14373331 -0.012968396 0.04673948

xy_encoder.flat_module.linears.0.bias f4 [128]
000000 97 e2 49 bd 01 6a bd bd 2a cd 2b 3d a8 71 34 bd
       -0.04928836 -0.09248734 0.041943707 -0.044053704
000010 58 38 9b bd 05 3e 98 bd 1f b0 84 3c 78 39 41 bd
       -0.07579106 -0.07433704 0.016197262 -0.047173947
000020 77 30 99 bd bf 6c cb bd 5d b7 9c bc d9 1a 97 bc
       -0.07479947 -0.09932851 -0.019130403 -0.01844542
000030 75 e9 ab bd 0c 8c 87 3d bd e0 8c bd 4b 06 26 bd
       -0.08394138 0.06618509 -0.06878803 -0.040533345
000040 0e 9a 3c 3d 98 a4 82 bd 86 84 cb 3d cd 31 f1 bd
       0.046045355 -0.0637905 0.09937386 -0.11777077
000050 16 9c d8 bd 08 55 f6 bd e9 3b 21 bd 7c 58 5b 3d
       -0.10576646 -0.12027937 -0.039363775 0.053551182
000060 48 3c 46 be 41 da 03 bf e6 9a 22 be 6a 5f 36 ba
       -0.19358933 -0.51504904 -0.15879402 -0.0006956967
000070 3f 91 69 bd 87 15 26 3d 58 59 6b 3d 0f 13 a2 bd
       -0.057023283 0.040547874 0.05745825 -0.079137914
000080 30 05 3a bd 27 77 0f be cd fe 3e bd 55 33 37 be
       -0.045415103 -0.14010297 -0.046629716 -0.17890675
000090 9a 88 02 be 0d a8 93 3d 55 aa 0e bb 1c 64 63 bd
       -0.12747422 0.072097875 -0.0021769006 -0.055515394
0000a0 e0 98 b1 bb 55 0e 81 bc 20 91 23 bd 92 9e 70 be
       -0.0054198354 -0.015753904 -0.039933324 -0.2349799
0000b0 5b 9f 06 3d 15 84 3c bd f7 20 0e be 39 44 81 bd
       0.032866817 -0.0460244 -0.13879763 -0.063118406
0000c0 df 39 ba bd 24 8f 0d be 0e d3 09 be 16 ed 86 bb
       -0.09093069 -0.13824135 -0.13459417 -0.0041176183
0000d0 2d f1 c5 3d 0f 44 a2 3d c4 ed 12 be d7 26 5a be
       0.09665141 0.079231374 -0.14348513 -0.21303879
0000e0 b7 5f 89 bd 5f 1d 96 be 9a 91 ba 3d 66 2a 7d 3d
       -0.06707709 -0.29319283 0.091098025 0.061808012
0000f0 99 d1 97 bd 74 9f 16 3d d2 cc 86 be 45 1c e7 3d
       -0.074130245 0.03677316 -0.2632814 0.11284689
000100 12 1b 5d bc 58 42 17 bd e6 70 9c bd 80 3f 05 be
       -0.013495224 -0.036928505 -0.07638721 -0.13012505
000110 a9 06 42 bd 51 cc f9 bc 6c d9 00 be fd 9a fe bd
       -0.047369633 -0.030492933 -0.1258294 -0.124319054
000120 5c 70 9e 3c a6 b8 2e bd 91 e4 c0 bc ff 99 96 be
       0.019340687 -0.042656563 -0.023546489 -0.29414365
000130 46 0c e4 3c df a1 94 3d c7 65 03 be f3 93 8a be
       0.027837884 0.07257437 -0.12831794 -0.27066
000140 98 cf f7 3b 30 9c 39 3d 57 77 9c bc 27 bd 39 bd
       0.007562589 0.045314968 -0.019099874 -0.045346405
000150 0e 34 82 3c 02 8e 89 3d b4 a0 92 be c7 dd 11 be
       0.015893962 0.06716539 -0.28638232 -0.14244758
000160 53 7d 1b be 47 b8 19 be 81 db 96 bc fa 7f 69 be
       -0.15184526 -0.15011702 -0.018415214 -0.22802725
000170 2e f2 2f be 4f c3 cb bc 44 c0 de bd f1 27 b3 3d
       -0.17182228 -0.024873404 -0.108765155 0.087478526
000180 f5 19 f0 bd 78 ca 88 be 69 7a b6 bd a7 3e 11 be
       -0.11723701 -0.2671697 -0.08910067 -0.14184056
000190 f5 18 9f 3c 6d 34 81 bd f5 90 ef 3c 6f 49 9d bd
       0.01942108 -0.063088275 0.029243926 -0.07680022
0001a0 d9 07 1d bb 62 01 36 3d e4 c3 af bd 1f 37 67 be
       -0.0023960976 0.044434913 -0.08582285 -0.22579621
0001b0 b8 e4 83 bd c7 70 72 3d 25 97 f9 bd 43 c5 39 bd
       -0.06440109 0.059189584 -0.12187032 -0.04535414
0001c0 25 df eb bd 5b ad a1 3c b4 e5 c5 3c e8 06 1e bd
       -0.11517171 0.019735983 0.024157383 -0.038580805
0001d0 90 e2 15 3c 0f 38 11 3c f1 15 25 be 6b ea 84 bd
       0.009148255 0.008863463 -0.16121651 -0.06490024
0001e0 c2 f2 45 be 5e 36 95 be be 33 83 3b 8f 1e ed bd
       -0.19330886 -0.2914304 0.004003971 -0.11578094
0001f0 1e 4b b0 bb 24 c9 c9 bd 11 f1 06 be 60 b0 c0 bd
       -0.0053800484 -0.09852818 -0.13177897 -0.09408641
