results/notebooks/neural_process/cnp_periodic/params.pt (torch_old, 399464 bytes, 28 tensors)

x_encoder.to_hidden.weight f4 [32, 1]
00000000: 39c6 0ec0 288c 45bf 263d 0e40 43f1 0ebf
00000010: 5412 043f e58e 173c a44c 763f 3dad 0dc0
00000020: 2ac2 1440 ac71 a13f 678b c5bf 4995 823e
00000030: 1535 56bf 763c 1540 293b 0dc0 63b3 cb3f
00000040: 90be 15c0 b5ad d8bf 6538 453f 2722 18c0
00000050: 57d3 fbbe f95f 03c0 9a77 0440 632d 553f
00000060: 2e86 2c40 ed95 54bf 0372 00c0 44d8 903f
00000070: a9ca c23f 1304 93bf 11e3 c3be b6b7 733f
-2.2308486 -0.77166986 2.2224822 -0.55836886 0.51590466 0.009250377 0.96210694 -2.2136986
2.3243508 1.2612815 -1.5433167 0.2550452 -0.83674747 2.3318152 -2.2067358 1.591412
-2.339756 -1.6928011 0.77039176 -2.3770845 -0.49184677 -2.0527327 2.0698 0.8327238
2.6956897 -0.8304127 -2.0069587 1.1315999 1.5218097 -1.1485618 -0.38259175 0.95202196

x_encoder.to_hidden.bias f4 [32]
00000000: c178 7bbe 13a9 ff3d f08e b0bd 9c3f 7abd
00000010: e90f fabc 3752 1fbc 85fb f8be b16c d2bd
00000020: 8f7c 40be 6f9f 3c3d 7f80 78be 6235 623f
00000030: 7a9b afbe 2513 05bf f8ca bebe 386c 3abd
00000040: b715 2bbf 079a 95be 95e4 f9bd 1652 2dbc
00000050: b83b 82be 275a 26be cfdb fdbe 014c b43c
00000060: 08fd 30bf c576 aebe 5f2c afbe 8a2d 03bd
00000070: a0df 25bf 2dae f2be 9401 e3bd aac3 abbe
-0.24557783 0.1248342 -0.08621013 -0.06109582 -0.030525165 -0.009724191 -0.48629394 -0.102746375
-0.18797515 0.046050485 -0.24267767 0.88362706 -0.34298307 -0.5198234 -0.37264228 -0.04551336
-0.6683001 -0.29219076 -0.12201802 -0.010578653 -0.25436187 -0.16245328 -0.49581763 0.022008898
-0.69136095 -0.3407499 -0.3421354 -0.03202585 -0.6479435 -0.4739851 -0.110842854 -0.33547717

x_encoder.out.weight f4 [128, 32]
00000000: c039 003e 767e adbe 5a2d 583e 80d6 aabe
00000010: 4426 e3bd accf d8be 2ebe 3c3e 65a2 86be
00000020: 81f8 adbe 5cf9 2d3d cd54 633e 817e 653e
00000030: af7b 7cbd fe7f d8be 0b79 b7be 6e82 ba3e
00000040: f0da ccbe f3ad aabd 0e71 bcbd 20ca 31be
00000050: 6599 20bf 54d9 0a3e 0816 22be 0359 e4bc
00000060: d8f9 02bf 28a3 91be 4f9b 23be 9989 103e
00000070: 588d 223e 34cf 09be 4e61 afbe 8c91 82be
00000080: d000 b8bc f17f b23c 3b5a 4c3e 6794 243e
00000090: 7641 443c 6ed3 c1be bc78 a53d e7bb a9be
000000a0: 9ccf e6be e193 35be 9e2b 2abe 9267 53be
000000b0: f629 233d 3674 e8bd d07b 0d3c 6594 613e
000000c0: 4cfa 64be 30c4 333c abd3 f4be ae64 913d
000000d0: cb37 853e a070 3cbe dd3c 4bbe e00f 963e
000000e0: 0f38 bebd 72d4 903e 3e03 773d 263e 1cbe
000000f0: dffa eabe 4cc2 aabd 060e 0a3e 9a53 d83d
00000100: fef6 1a3e a579 8e3e 4943 36be 202f 3a3e
00000110: f2e2 cbbf cb4f d8be a137 3dbe 25a0 9a3d
00000120: bdeb d5be c9a8 32c0 7728 743e 2e37 91be
00000130: 7ed0 01bd a9ff 2f3e f8cc 503d 4313 7dbf
00000140: 3ec7 4f3e ce3f 133e aa85 19bf 3ac8 c53e
00000150: d2a0 8c3e 0d65 e73d d0c4 493e 6956 ecbf
00000160: 72d4 8f3e d819 2f3b 24d6 fc3e c0ca 2ac0
00000170: 6fe0 dc3d 18f5 24be e03d 6cbe 08a3 1fbe
00000180: d163 1dbe fac5 e03b 008f 253d b023 913d
00000190: b89d 4d3e 7cde 7fbe 3704 65be 6ab7 9c3e
000001a0: b802 96be e422 023f d2b0 bc3c 9af2 ccbd
000001b0: 9055 87bc 146c 3dbc 13ad 533e 5e72 923d
000001c0: 34ef fbbe 0003 78bd e7e6 aebd b9af 5f3e
000001d0: 6f36 b03b 116b 733e 5ae1 ae3e 5c3b 87bd
000001e0: 3a36 2abe 6d7d 9ebe dea3 8abe 315f 2cbe
000001f0: 2b37 e33c 48ba ea3d e0d2 f7be 97a6 3c3c
00000200: 4d08 cfbf bbda b3bf 11a4 7bbe 3d69 53c0
00000210: cfdb 193e 42ed 87be 9919 203f 4082 3dc0
00000220: aa3f 383e faf0 a3bd 5012 0dbf 4111 a4be
00000230: 2cac 69bf 60b3 9d3e 21d7 07bf c3dd c03e
00000240: 8e85 5b3e 73ed 00c0 0d41 d43e 0986 a3c0
00000250: 5132 b9bf ac36 78c0 df27 c33e cd8d 0abe
00000260: 3a1b dd3e b9ba 92bf 97e9 22bf bcf4 dcbd
00000270: df64 96bd 1a5d 4b3e 7961 8ebd e27f 063e
00000280: 7b7f 95be 2934 e5bd c08c a2be 547f 903e
00000290: 15e3 dfbf 236f 01bf 250e a33e 5dde 053e
000002a0: e0c9 b5be d612 89bc eb34 81be 9a21 bbbe
000002b0: a4a7 423e c840 38c0 aaea b63e 15e0 a6be
000002c0: 7ec7 573e 0e71 853e 8701 7ebf dcd4 7fbe
000002d0: 3ff8 b5be e7a4 97be 7140 84be d63b c53d
000002e0: 47e5 79c0 5254 b93e 98fd 9cbe a9ca 67be
000002f0: aaad eabd 7613 c23e 09d1 433c 3be8 e9bd
00000300: ec2f 403e a555 39be 30e7 c1be 9631 0ebe
00000310: 8f62 52be 982f 70bd 4c74 0cc0 6877 f73d
00000320: 3f8c 29bd b69f 8c3e 4c70 913d 4b73 3b3e
00000330: e943 00be dfd8 763e ce25 a8bd 8533 acbe
00000340: c31f f3be 8363 2dbd bc8e b1be 1fea aebe
00000350: 98e3 a63e 743d 8fbe fe47 c2be 8ad0 7abc
00000360: b8f5 b8be 5f4d dabd 554a 953e c292 bd3e
00000370: 67b6 2abf c275 173c 9012 6bbc 7ea3 00bf
00000380: a84c a9bd 0ada a6b9 7077 cebe 124b 09be
00000390: 0ebc e2bd 1279 20be dbd7 c83c 5f62 9e3e
000003a0: 16d1 8c3e af1a 87be 1a69 bbbd 1a68 57bd
000003b0: a29d 673d 9f36 a2bd f74e 023e 9a7c c5be
000003c0: f814 b0be aa4c 3f3e 1212 34be 79cf 893e
000003d0: 6be4 65be 38f4 90be e108 803e 74ca ce3e
000003e0: 53a5 993e d21c 693e a502 cfbe e946 cf3d
000003f0: c2d5 b73d 1ea7 ea3d 4980 7fbe 0bd8 05be
0.1252203 -0.33885545 0.2111105 -0.33366776 -0.11091283 -0.4234594 0.18431923 -0.26295772
-0.33978656 0.042474136 0.22200318 0.22411539 -0.06164139 -0.4228515 -0.35834536 0.36427635
-0.40010786 -0.083339594 -0.09201251 -0.17362261 -0.6273406 0.13559467 -0.15828717 -0.027874475
-0.5116248 -0.2844479 -0.15977214 0.1411499 0.15874231 -0.13457948 -0.34253925 -0.25501668
-0.022461325 0.021789523 0.19956295 0.16072236 0.011978498 -0.3785662 0.08079669 -0.3315117
-0.45080268 -0.17732193 -0.16618201 -0.20644978 0.03983494 -0.113502905 0.008635476 0.22029264
-0.22361106 0.010972068 -0.4781774 0.07099281 0.2601913 -0.18402338 -0.19847436 0.29308987
-0.09288036 0.28287083 0.060305826 -0.15258083 -0.45894524 -0.083378404 0.13481912 0.10562821
0.15133283 0.27827182 -0.17799105 0.1818204 -1.5928633 -0.42248377 -0.18478252 0.075500764
-0.41781417 -2.7915518 0.23843561 -0.2836241 -0.031692974 0.1718737 0.050976723 -0.98857516
0.20290849 0.14379808 -0.5996958 0.38629323 0.27466446 0.11298571 0.19703984 -1.846387
0.2809177 0.0026718285 0.49382126 -2.6686249 0.10784995 -0.16109121 -0.23070478 -0.15589535
-0.15370108 0.006859538 0.04041958 0.07086885 0.20079696 -0.24987215 -0.22364889 0.30608684
-0.2929895 0.5083449 0.023033533 -0.1000721 -0.016520292 -0.011561412 0.20671491 0.0715072
-0.49205935 -0.060549736 -0.08540135 0.21844377 0.0053775827 0.23771311 0.34156305 -0.06603119
-0.16622248 -0.30955067 -0.27078146 -0.16833188 0.027736267 0.114613116 -0.48403072 0.0115143275
-1.6174408 -1.4051126 -0.24574305 -3.3032982 0.15025257 -0.265482 0.6253906 -2.9610748
0.17993036 -0.08004947 -0.5510607 -0.32044414 -0.9127834 0.30800915 -0.53062636 0.3766919
0.21437666 -2.0144928 0.4145588 -5.1101117 -1.446848 -3.878337 0.38116357 -0.13530655
0.43184835 -1.1463233 -0.6363768 -0.10788867 -0.073434584 0.19859734 -0.06952185 0.13134721
-0.29198822 -0.111915894 -0.3174801 0.28222144 -1.7491175 -0.50560206 0.3184673 0.13073106
-0.3550558 -0.016732614 -0.25235686 -0.36549073 0.19009262 -2.878954 0.3572591 -0.32592836
0.21072194 0.26062816 -0.9922108 -0.24983543 -0.3554096 -0.29617998 -0.25830415 0.096305534
-3.904619 0.36197144 -0.30662227 -0.22635902 -0.11458905 0.37905473 0.011951693 -0.114212476
0.1876828 -0.18099077 -0.37871695 -0.13886103 -0.2054541 -0.05863914 -2.1945982 0.12083322
-0.041393515 0.274656 0.07101497 0.183057 -0.12525906 0.24106167 -0.08210336 -0.33633056
-0.4748517 -0.04233123 -0.3467921 -0.34162995 0.32595515 -0.27976573 -0.3794555 -0.015308509
-0.3612497 -0.106592886 0.29158273 0.3702603 -0.66684574 0.009244384 -0.014347687 -0.5024947
-0.08266574 -0.0003182444 -0.403255 -0.13407543 -0.11071025 -0.15671185 0.02451699 0.30934426
0.2750327 -0.26387545 -0.09150906 -0.052589513 0.056546815 -0.079205744 0.12725435 -0.38571626
-0.34390998 0.18681589 -0.17585018 0.26916102 -0.22450416 -0.28311324 0.25006774 0.40388834
0.30008945 0.227649 -0.40431705 0.10120947 0.08976318 0.11457656 -0.2495128 -0.13070695

x_encoder.out.bias f4 [128]
00000000: b3ae 473e 77b0 28bd 74b0 5cbe 65a5 4c3d
00000010: d87e b6be 0b08 fc3c 70f1 183e 97b0 3e3d
00000020: 5936 12bd a2b2 073e aeef 1e3e 3fdb c83d
00000030: 29a1 9d3e 1c06 e7be a2c7 01be 36e0 e13d
00000040: f390 8b3b be75 a13d e5f3 fdbe 7d2f 36be
00000050: ebec a5be a2a1 30be 56a3 263e a356 15be
00000060: 3b58 96be bd3b dbba 059e 003b 28bd 3cbb
00000070: 93a1 3fbd 5b8f 3a3d 3e5a a43d 76d9 f4be
00000080: 449d 5dbd 2bc7 e63e 1962 4dbd bb89 ff3c
00000090: 0652 2cbc 3d04 9fbe 01af 5a3d 5ef8 be3d
000000a0: 35fa fa3d 1913 373d 9349 babd ed70 473e
000000b0: ab40 c33e f57c 14be d3c9 cabd ed25 8abd
000000c0: 6a22 94be 7868 ff3d 36a5 acbe 4cd9 e5be
000000d0: a535 8dbb f6ce a93d 3d7f 31bd fc62 5fbd
000000e0: ae87 fdbd 85c0 8c3d f939 63bb 5dd6 02be
000000f0: 59c0 233e 8a59 343e 4c05 88bd 7d3f 913e
00000100: aa7b 1e3d a0ca b73b ca18 e7bd c0c3 933d
00000110: 8ade 543c 45bb 7fbd 93c3 febd 18cd 353d
00000120: 42bc e43d b684 02be 08f7 57be 7056 21be
00000130: af3f 02bf a69c 4d3d 4160 2e3e eb5e 46be
00000140: 1f20 183d 3b51 97bd 460e 14be a323 99bd
00000150: aba3 113c 01a6 d73c 79f3 a8bd e90c 8fbe
00000160: 5056 aabb d7ca 0b3e 7db6 1c3d 72bc 48ba
00000170: bfe8 8f3d b79a 0fbf 65ff e63d a119 ec3c
00000180: 7425 41be f8af 45bf 323e b7be 2b2c 25be
00000190: ef54 5fbe e2a6 3dbe 6f25 e83c bbfd 6c3c
000001a0: 5a20 31be b550 063f ca94 e1be 2e29 65be
000001b0: fe1a 823d 3c57 bb3d 21df a3be ab9d d83c
000001c0: 9481 9fbc 4cc3 f03c 2259 e5bd f7f0 10bf
000001d0: fac4 94be 3e42 f13d 2448 a3bd 0e5f 3ebd
000001e0: a7b1 0f3d c8a0 42bf 71c9 343c 993d b2be
000001f0: ed8a f83d 0f84 81be 60ff 573d 732c abbd
0.19500236 -0.041183915 -0.21551687 0.04996242 -0.3564365 0.030765554 0.14935851 0.046555128
-0.03569636 0.13251737 0.15521118 0.09807443 0.30787018 -0.4512185 -0.1267381 0.11029093
0.0042592227 0.07883786 -0.4960014 -0.17791553 -0.32407317 -0.17249158 0.16273245 -0.1458383
-0.2936419 -0.0016726177 0.0019625437 -0.002879927 -0.04678495 0.04554687 0.08025025 -0.4782216
-0.05410506 0.45073828 -0.05014238 0.031193605 -0.010517603 -0.3105792 0.053389553 0.09324716
0.122547545 0.044695947 -0.090960644 0.19476672 0.38135275 -0.14500792 -0.09901776 -0.06745515
-0.28932506 0.12471098 -0.33719796 -0.44892347 -0.0043093734 0.08291428 -0.043334235 -0.05453776
-0.123793945 0.06872658 -0.0034672006 -0.12777086 0.15991344 0.17612281 -0.06641635 0.2836875
0.038692154 0.0056088716 -0.11284025 0.07215071 0.012992511 -0.062434454 -0.124396466 0.044385046
0.1116872 -0.12745938 -0.21090329 -0.1575563 -0.50878423 0.05019822 0.17028905 -0.19372146
0.037140008 -0.0738854 -0.1445857 -0.074775 0.008889119 0.026324274 -0.08249564 -0.27939537
-0.0051982775 0.13651596 0.038259972 -0.0007657475 0.07026815 -0.5609545 0.112791814 0.028820815
-0.18861943 -0.7722163 -0.3578964 -0.1613013 -0.21809743 -0.18520692 0.028338162 0.014464791
-0.17297497 0.524669 -0.4405883 -0.2237899 0.063528046 0.09147498 -0.3200617 0.02644237
-0.019470967 0.02939 -0.11198641 -0.56617683 -0.2905653 0.11780213 -0.07972744 -0.04647737
0.03508153 -0.7602658 0.0110343555 -0.3481262 0.12135873 -0.25296065 0.05273378 -0.083580874

xy_encoder.resizer.to_hidden.weight f4 [32, 1]
00000000: 102d 9cbf 3eb4 f13e 3579 1dbf 6674 843f
00000010: 5ed5 d33c e0dc b73e 5a98 a6bc c65a 40bc
00000020: cb52 83bf 07c4 b33f 2264 3ebd 63cc 80bf
00000030: a44c 013b 28d7 5d3f 0439 1e3f 31b3 dabd
00000040: d9d2 d13d 86c4 a1bf c3f9 67bf 7d6b 85bf
00000050: 7afe 3cbf 972c 0c3e 4ab7 28bf a567 abbe
00000060: ba73 043f 58ef f4bc 2f2b 1dbe 4d87 a8bd
00000070: 4eb5 eaba 7997 83bf 3350 9dbf bb19 d5bf
-1.2201252 0.47207826 -0.6151307 1.0348022 0.025858577 0.35910702 -0.020336319 -0.011740392
-1.0259641 1.4044198 -0.046482213 -1.0062374 0.001972952 0.8665643 0.6180575 -0.10678709
0.10245294 -1.2638099 -0.9061548 -1.0423428 -0.738258 0.13688885 -0.65904677 -0.33477512
0.51739085 -0.029899284 -0.15348504 -0.082289316 -0.0017906816 -1.0280601 -1.22901 -1.6648477

xy_encoder.resizer.to_hidden.bias f4 [32]
00000000: b62c 26bf 730d 653e 5f10 09bf 4a6a 1bbf
00000010: 03af ee3e ab51 15bd 2b89 0fbe 59c7 c5bd
00000020: f0ce ee3d a474 f6be 2678 7fbe 12aa 9ebe
00000030: bc22 36bc b29d d53d 944f c0be e9da 7f3e
00000040: 57f6 3a3e ff4d 24bf d5bc 21bf 4eb1 08be
00000050: 70e1 96be 87b5 023d 4865 44bf 1927 593e
00000060: aa3c cfbe 5470 22be f829 87be d976 a43c
00000070: 34f0 38bc d0d7 f4be bf3a 13bf e129 2cbf
-0.64911973 0.22368412 -0.53540605 -0.6070906 0.46617898 -0.036454838 -0.14017169 -0.09657163
0.11660564 -0.48135865 -0.24948177 -0.30989128 -0.01111668 0.104304686 -0.37560713 0.24985851
0.18258034 -0.6418151 -0.6317876 -0.13348886 -0.2946887 0.0319114 -0.7671704 0.21206321
-0.4047597 -0.15863162 -0.26399207 0.020076202 -0.011287738 -0.47820902 -0.57511514 -0.672514

xy_encoder.resizer.out.weight f4 [128, 32]
00000000: 58dc 31be 975b 1fbf ad0f 79bd a67f 93be
00000010: 8ae1 023e 6a15 0abe f7e1 3c3e aa98 19be
00000020: 2526 e4bd b155 78be 152d 0fbe 10f4 7abd
00000030: 0cb2 93be 9e67 98be 5096 aa3d 0939 e5be
00000040: f131 fbbe 8545 76be 805d 033e 071e dfbd
00000050: 3777 98be 963d 193d 3ea8 b7be 0f86 f2bd
00000060: d55e 3cbe 915d e4be f509 c53e 04f7 48be
00000070: a686 89be 4681 36be add2 3ebe b643 7bbe
00000080: 95eb c3be 1109 aabe fccc c2bd 1a19 19be
00000090: 6b28 93be 3205 abbe 3935 a53e c546 c0be
000000a0: e65c d23d 9055 9d3c e07d 653e 69aa 65be
000000b0: 2032 3cbd 9c36 8f3d 078e ef39 285a 76be
000000c0: 5eb9 313e ec87 7dbe 0cb0 52be acb3 c43e
000000d0: 5820 38bd f4e3 3abe 3058 82bc 4043 cfbe
000000e0: f4e9 eebd 40e2 833e 5ce2 b83d cdca df3e
000000f0: 031e 64be 0524 dcbe 8e33 3dbe 9e12 d5be
00000100: 4659 81be b407 fd3d d5f4 7e3f a1df af3d
00000110: 00c5 4e3e ae74 04be b07f 2e3e 8626 2ebd
00000120: 7a73 03bf 0d12 993e 38ba f5bd 28ae d5ba
00000130: de17 dabc d511 98be 94e2 353e b926 babe
00000140: 54f5 80bb 98d1 afbe c888 0a3f 9c9e eabe
00000150: 0d2a cfbd 0459 a83e dc6d 923f 0cec 13bf
00000160: e045 d4be 354d ee3e f7fd 563e ccac c7bd
00000170: 0022 b5be ec28 69be 257e 803c 5ad4 cebe
00000180: 0365 72be 2ed2 933e 580f a13e 9d7f 5dbe
00000190: 9afd 25be 3b1c bbbe 21f4 53bd 2a11 86be
000001a0: 027b 13be 60a0 93be c23f cbbe 1166 d5be
000001b0: 0db9 6e3e 9e14 0e3e 39d7 573d 72bc 43be
000001c0: 00bf 24be 3e00 85bd 65cb 563e 04c5 0abf
000001d0: 3d16 4b3e ec98 58bc 1bd3 abbd d476 133e
000001e0: cab4 a8be 33c2 84bd 1ec4 863d 64a1 38be
000001f0: 6f36 5a3e b8fe edbd 99a1 0abf 01cc 73be
00000200: 3a8f 433e 293d e6ba cbf2 a43e 9d66 b03e
00000210: 10ca a5be 66ae 02bf 191e bfbe e202 e53e
00000220: 08a9 49bd 7ae3 143e 1a1d 7ebc 3fbb 42be
00000230: 9a28 31be 5edd dabe b56d 1c3e dfa2 d03e
00000240: 3e8a 13bf 5b94 c03e 09c9 15be 8734 c2bd
00000250: c097 5bbd f590 13bf dbfc 07bc 0f5b f33d
00000260: 5894 a0be 2ce0 543e 919d 04bf 33a0 bb3d
00000270: cec8 18bd 83b0 1f3d 98a7 913e 6762 2ebe
00000280: c1ea bf3d d3cf d8be 90ce 3cbe b9ab b4be
00000290: d547 36be 6952 8fbe 7e16 983e f040 95be
000002a0: bd66 b6be 19d7 733e a835 65be 8659 c5be
000002b0: 7692 48be fb8c 01be 144a 89bc a6e6 bb3e
000002c0: 4df1 91be a658 e63b db6a 823e f21c 74be
000002d0: 6cfc ecbd 3353 adbe f551 8d3e 4190 1e3e
000002e0: b309 66bd a658 8abe 6486 c13d 6a4d 7fbe
000002f0: 9ef6 1fbf 1388 0fbe 6480 8c3e 6a4d a53e
00000300: 2f5c 3bbd 4938 053e 4244 10bf 90a4 113c
00000310: 2189 703e b855 fbbe 4c80 b83d 44d9 76bd
00000320: 7741 f7bd d38e a0be 7128 9bba 6e87 64be
00000330: 3320 e83c 8d2b f6be 5fb5 01bf 09ed dbbe
00000340: 0ae5 0fbd 89fd 98bd 24c5 193e 730c 1ebe
00000350: 9ec5 c4be 4269 e4be b5e8 cbbe 3a06 6ebd
00000360: 57b8 06bf 6517 b0be 9a11 76bd 64f7 7c3e
00000370: 260b 6fbc 03d5 8cbe 955c 55be e744 9f3d
00000380: b44d debe 533a 363e 6735 fc3b efd3 2e3d
00000390: 424e 9cbd 92e5 8b3c dc7c 32be 9c06 7a3e
000003a0: b2f8 773e 53c9 09be 478d a73e 620f e1be
000003b0: 088b 4dbd 38f2 d13d c9a1 e3bd f94d bfbe
000003c0: a90f ccbe c0aa 613e 1ad6 bebe 0f3d a73e
000003d0: ee4c 8c3e 5706 9f3d cf36 933e 8f16 07bf
000003e0: 1c7b e3be 39a6 a23d fa05 8a3e fea8 02be
000003f0: cf8c 383d d5ea 7b3e ec09 61be e759 bb3d
-0.1736921 -0.6224913 -0.060805965 -0.28808326 0.12781349 -0.13484731 0.18445574 -0.14999643
-0.11140088 -0.24251439 -0.13982041 -0.061267912 -0.28846776 -0.29766554 0.08329451 -0.44770077
-0.4906154 -0.24049957 0.12828636 -0.10894399 -0.29778454 0.03741225 -0.35870546 -0.11841976
-0.1839555 -0.44602636 0.3848416 -0.19625479 -0.2686054 -0.17822751 -0.18635054 -0.24537548
-0.38265672 -0.33210042 -0.09511754 -0.14950982 -0.28741774 -0.334024 0.32267168 -0.37553993
0.10271625 0.019205838 0.22411299 -0.22428288 -0.04594624 0.06992838 0.0004569145 -0.2405783
0.17355868 -0.24758881 -0.20574969 0.3841833 -0.04495272 -0.1825102 -0.015911192 -0.40480995
-0.11665717 0.25758553 0.090275496 0.43709412 -0.22277074 -0.4299623 -0.18476698 -0.41615766
-0.25263423 0.12354985 0.99592334 0.08587576 0.20192337 -0.12935135 0.17040896 -0.042517208
-0.5134808 0.29896584 -0.11998409 -0.0016302513 -0.026622709 -0.29701105 0.17762214 -0.36357668
-0.0039354954 -0.34339595 0.5411496 -0.45824134 -0.101154424 0.32880414 1.1439776 -0.57782054
-0.4145956 0.4654328 0.20995317 -0.09749755 -0.35377502 -0.22769517 0.01568515 -0.40396386
-0.23671345 0.28871292 0.3145702 -0.21630712 -0.16210023 -0.36544976 -0.05174649 -0.2618497
-0.14402393 -0.28833294 -0.3969708 -0.41679433 0.23312779 0.13875052 0.052695487 -0.19114855
-0.16088486 -0.06494187 0.20976026 -0.5420687 0.19832702 -0.013220053 -0.083898745 0.14400798
-0.3295043 -0.06482353 0.06580375 -0.18030316 0.21309827 -0.11620849 -0.5415283 -0.2380829
0.19097605 -0.0017565835 0.32216486 0.34453288 -0.32380724 -0.5104736 -0.3732765 0.44728762
-0.049233466 0.145399 -0.015509868 -0.19016741 -0.17300645 -0.42747015 0.15276225 0.4074926
-0.57632816 0.37613186 -0.1462747 -0.09482675 -0.053611517 -0.5764306 -0.008300032 0.118826024
-0.31363177 0.2078864 -0.5180293 0.09161415 -0.037300877 0.038986694 0.28448176 -0.17029725
0.09370948 -0.42346057 -0.18438172 -0.35287264 -0.17800839 -0.2799256 0.2970466 -0.29151106
-0.35625258 0.23812522 -0.2238375 -0.38544863 -0.1958712 -0.12651436 -0.016758956 0.36699408
-0.2850441 0.0070296107 0.2547215 -0.23839167 -0.11571583 -0.33852538 0.2760159 0.15484716
-0.056161594 -0.27020758 0.09449461 -0.24931875 -0.6248568 -0.14016752 0.27441704 0.32285625
-0.04574221 0.13009752 -0.56354153 0.008889332 0.2348981 -0.49088836 0.09008846 -0.060265794
-0.12073033 -0.31358966 -0.0011837614 -0.22317287 0.028335666 -0.48080102 -0.50667375 -0.4295428
-0.035130538 -0.07470233 0.1501661 -0.15434437 -0.3843202 -0.44611555 -0.3982598 -0.058111407
-0.5262503 -0.3439285 -0.06007538 0.24703747 -0.01459006 -0.27506265 -0.20836098 0.07776814
-0.43418658 0.17795686 0.0076967957 0.042682584 -0.07632114 0.017077241 -0.17430443 0.24416584
0.24215963 -0.13455705 0.32724974 -0.4395705 -0.05018142 0.10251278 -0.111148424 -0.37364176
-0.39855698 0.22037792 -0.37272722 0.32663772 0.27402443 0.07764881 0.28752753 -0.52768797
-0.44429862 0.07941861 0.26957685 -0.12759778 0.04505616 0.246013 -0.21976441 0.09148007

xy_encoder.resizer.out.bias f4 [128]
00000000: a1c4 8dbe 816e f93c 5854 7cbb c34a b0bd
00000010: 685b 8cbe 4342 26bd 95fe 77bd 1f81 5dbe
00000020: 6e6f c33d f67c 2abe 497c 7c3e b43b 40bc
00000030: 33b5 d33e 6736 e5be bdf3 6bbd ac2a bb3d
00000040: a241 40bc 9d6c c13b 7142 bfbe 86ec a3be
00000050: 19ab eebc 62db 1fbf c58d 4d3c 7e9f cfbe
00000060: 7452 5fbf 8e92 74be 417e 1dbe 34e3 e1ba
00000070: f67f c2bd 2fc3 8cbd 3f26 e2bb 4a92 f4be
00000080: 6e73 f7be fffd fd3e c97c 4bbd 6bd9 693c
00000090: e9ae f5bd 5396 96be 9db1 08be 70ad 7e3d
000000a0: c342 aabd 4fef e1bd d2c3 71be f08a ca3e
000000b0: a997 ed3e 62db fbbd 3779 0ebf 856b 7fbd
000000c0: d16e e6be 1255 023e 4816 80be 7d3b ebbd
000000d0: 96d0 d6be c009 4abe d361 03be 919c 1fbd
000000e0: ad06 0cbe 4f44 a1bc 041b d4bd b0ff 10be
000000f0: 5421 1b3d 1f43 90bc 74bf fabd 70e2 b33e
00000100: 7c9d f1bd 7596 b0bd dda1 7bbe 70dd 8bbd
00000110: 0539 a43d 39fa 54bc d2f3 a0be e591 74be
00000120: 81cb 2c3d 7ba7 01be 3448 56be f573 aebe
00000130: 16d0 01bf 5f4e dbbc 74d5 3c3c 9b89 40be
00000140: 5b6d 0bbd 3638 b1be 3ae0 13be 0ea2 a4be
00000150: f2fd 383d 0220 eb3c 510e 2abe 3597 1fbe
00000160: 6517 89be 2c5c 88be 877a 50bc e28c 30be
00000170: 07bf 6c3d d5c1 0abf 975a e73d e5b0 24be
00000180: 8ccc 49be 37b9 23bf 74c4 5cbe 7768 543b
00000190: d867 b9be 8ed7 fd3c df7a 4dbe 9ef4 04be
000001a0: 7b11 2bbe aefb 2f3f d52e d3be 3dd7 b9be
000001b0: df7c 703e 272b 273d 516f 8cbb 0ae2 87be
000001c0: dba8 d1bd b285 41bb 5f53 e3be d10e f1be
000001d0: bd8e 27bf 6bcf fb3e f66e 94bd aeb7 48bd
000001e0: 00eb c5bd 791a 34bf 3c25 75be 5343 febe
000001f0: 522b f93d fbf0 78be 43af 833d 82bb afbc
-0.27689078 0.0304482 -0.0038502421 -0.0860801 -0.27413487 -0.040590536 -0.060545523 -0.21631287
0.09542738 -0.16649231 0.24656786 -0.011732984 0.41349182 -0.44768068 -0.057605494 0.091389984
-0.011734398 0.0059028403 -0.37355378 -0.3201639 -0.02913432 -0.62444127 0.0125460075 -0.4055137
-0.8723519 -0.23884031 -0.15380193 -0.001723385 -0.09497063 -0.06873166 -0.006901532 -0.4776786
-0.48330253 0.49607846 -0.04967955 0.014273028 -0.11996252 -0.29411563 -0.13349004 0.06217712
-0.08313515 -0.110319726 -0.23609856 0.39559126 0.4640477 -0.12297703 -0.5565371 -0.062358398
-0.4500642 0.12727764 -0.25017 -0.11485956 -0.41956013 -0.19730282 -0.12830286 -0.038967673
-0.13674422 -0.019685892 -0.10356715 -0.14160037 0.03787358 -0.01761013 -0.12243548 0.35133696
-0.11797616 -0.086224474 -0.24573465 -0.06829345 0.08018688 -0.012999111 -0.3143602 -0.2388378
0.042186264 -0.12661545 -0.20925981 -0.34072843 -0.5070814 -0.026770769 0.011525501 -0.18802492
-0.034039836 -0.34613198 -0.14441004 -0.32154888 0.045164056 0.028701786 -0.16607024 -0.15585025
-0.2677566 -0.26632822 -0.012724525 -0.17241243 0.057799365 -0.54202014 0.112965755 -0.16083105
-0.19706935 -0.6395449 -0.21559316 0.0032410899 -0.3621204 0.030986574 -0.20066403 -0.12983939
-0.16705887 0.6874341 -0.41246668 -0.36297026 0.23485135 0.040812638 -0.004285731 -0.26539642
-0.10237285 -0.0029529152 -0.44399545 -0.47081617 -0.65452176 0.49181685 -0.072477266 -0.049003296
-0.09663963 -0.70352894 -0.23939985 -0.4966074 0.12166466 -0.24310677 0.06429913 -0.021451715

xy_encoder.flat_module.to_hidden.weight f4 [128, 128]
00000000: 6c16 323c a4e3 5cbd a04a 93bf c785 87be
00000010: 6ac9 94be e994 f83c 1163 c6ba fda3 fe3d
00000020: db43 49be b200 d83e f619 d8bf 00a5 0c3e
00000030: 19fc 573e d5f7 1c3e 375b eabe d985 8fbf
00000040: 3771 b6bd fc48 9e3e db5d 1fbd 1fec 44be
00000050: 1ea2 4fbf c381 573d 3b42 79bd ec29 e7bd
00000060: d84c 413e c279 13be f10b 893e 6b62 36bc
00000070: b0cf f73d 14aa 3fbe 2d98 2bbe 8053 39be
00000080: d804 cb3d ef83 433c 5568 1c3d 4b21 5cbd
00000090: cfec 123d 7d68 4cbe 0334 883d ab69 c8be
000000a0: 47a1 05bf ebb6 12bd aee3 5bbe 5f43 2dbe
000000b0: b9d5 2c3e 9b15 e73d 379c 86bf 8a1a 223e
000000c0: de3e a9be 27cd b33e d4b3 acbd 3a1a 13be
000000d0: d486 423e 374f 79bd 73c6 a9bd 89fd edbd
000000e0: 3e11 0cbc 070b 26be 8caa 3ebd 4ebe f33d
000000f0: 896b c93e e958 4fbd 5b3b a83d 30d1 d73e
00000100: 444f 3f3e b3a1 e9bb 2d90 18bf e1eb 1fbe
00000110: deaf 1dbe bebc ddbd 54f0 b53e 626a 563e
00000120: 927e af3c d11d 66be 99ca 8ebe 9627 04be
00000130: c648 8fbe 9e02 39be 2fbb 9d3e 98bd 68bc
00000140: 2cb7 12be 2b21 20be d308 a3be c3f2 4fbe
00000150: 945d 1abe 3719 163e d1f6 4cbf 84a8 1ebe
00000160: f9f5 0dbe 0890 3a3b 82eb 29be 0958 49bd
00000170: e24f 5abe 8c49 513e 6a47 843e e9ec b43d
00000180: 8266 00be b761 4cbe 3415 2dbf 3103 d7be
00000190: 0196 1abe 3e2b 88be ba50 e2bd 83d2 a23b
000001a0: 7cd0 1b3e 5804 c53c 1975 83be 8efd bbbe
000001b0: a987 61be bfb6 2c3e c291 37bf 51c1 a3bd
000001c0: eda1 70bb 25bd 3d3e 0a22 afbe 0791 4ebe
000001d0: ddb1 28bf 1874 af3e da76 a4bd 0e6b 03be
000001e0: af85 1bbd 4551 b4bd e4ac 8c3d ba00 5b3e
000001f0: 9467 d2be f294 3dbf 0be7 2fbf a5eb 67bf
00000200: acd0 d9bd 5a8b a3bd 0475 5b3c c83a c2be
00000210: ec9b cc3d bff3 3ebe 9232 26be b041 c3bd
00000220: f1db 243c c4fd fabe 548c f5be 62ba 84be
00000230: 9584 a5be 59b9 bcbd 0229 1c3d ae0e 42bd
00000240: a3d2 b33c 1e99 9dbd 7e09 893d 264f b93d
00000250: a8a9 583d 1b56 4b3d a33a 88bd 0935 38be
00000260: 8575 43bf 5983 1f3e d827 8c3c 798c f4be
00000270: 40ee a4be be14 403d dc0e 903e 6e49 903d
00000280: fc28 913d 5d8a 60be 9f03 80be 9883 b73d
00000290: 5c9e bcbe b8a7 20be 6400 fb3d ebae 10bf
000002a0: b148 dbbd 2862 fdbd bbd0 a63c fd6e 41be
000002b0: 0a6c 32be aaf5 1fbe e4a8 dc3c ebf3 3ebe
000002c0: 4cc5 e13c 0e89 01bf 73b1 bdbe c833 083d
000002d0: 00dd 42be 736c 5a3e 5e70 63be a9c4 debd
000002e0: c616 343d 3979 5e3e 81ca fe3d 250c c0bd
000002f0: aad4 88be 56a9 97be 95a2 7f3d 6654 39be
00000300: 185e fabd 4965 a83d 4ae1 1cbe b978 c63e
00000310: ad03 bebd e59e 803d 3977 24be 433f 90bd
00000320: cc13 763c 4ecd 9dbd f0c1 57bd 06e0 24bc
00000330: 2bf0 2abf 2c28 91bd 64df 7dbe babf e8bd
00000340: 5d30 403d 3059 8fbe c70f 323e 1997 3fbf
00000350: a906 063f 63de 7e3e dcdb 64bd ea45 a03d
00000360: 017b 06bf abd8 373e 54a7 1fbe 181d 3d3d
00000370: c407 8abe a8cb 28bd 4b0f 273e 3dd3 eb3d
00000380: 8b9b 73bd be9a 84bf df1d a23d e175 293e
00000390: 529f c5be 9ce1 33bf ac0b 51bd 2c4d e2bd
000003a0: 89ec 91bd 3703 223e 9a8f febd c167 6c3e
000003b0: 7b3f 26be ccf8 b5bd 8fa4 c9be 1eb9 07be
000003c0: fcfc f53d fcfc 7ebd b2d7 e2be 62b0 babd
000003d0: 0fc6 f1bd d875 3dbe 851d 5dbd d067 fd3d
000003e0: 8904 9cbd d2e3 2ebf 5758 d8bd a5d9 8bbd
000003f0: 9455 8cbe dc26 15bc c17a 84be a3c1 213d
0.010869604 -0.053928033 -1.1507149 -0.26469252 -0.29059917 0.030344443 -0.0015135725 0.12433622
-0.19654791 0.4218803 -1.6882923 0.13734818 0.21092261 0.15328915 -0.45772716 -1.1212722
-0.08908313 0.30915058 -0.038907867 -0.19230698 -0.81106746 0.052613985 -0.060854178 -0.11287293
0.1887697 -0.14401916 0.26766923 -0.011131863 0.1210016 -0.18717223 -0.16757269 -0.18098259
0.09913033 0.011933311 0.038185436 -0.05374269 0.03587037 -0.19961734 0.066505454 -0.39143118
-0.52199215 -0.035818975 -0.21473572 -0.16920231 0.16878404 0.11283418 -1.0516423 0.15830436
-0.33055776 0.35117456 -0.08432737 -0.14365473 0.18996745 -0.06086656 -0.08289804 -0.116206236
-0.008549033 -0.16215144 -0.046549365 0.11901532 0.39339855 -0.0506219 0.08214446 0.42151785
0.18682581 -0.0071298718 -0.59594995 -0.15617324 -0.1539912 -0.10827015 0.35534918 0.2093902
0.021422658 -0.22472312 -0.27888945 -0.12905726 -0.2798521 -0.18067405 0.30806872 -0.014205359
-0.14327687 -0.15637653 -0.3184267 -0.2030745 -0.1507476 0.14658056 -0.8006411 -0.15493971
-0.13863362 0.0028467197 -0.16593745 -0.049156222 -0.21319535 0.20438212 0.25835735 0.088342495
-0.12539104 -0.1995915 -0.6761048 -0.41994622 -0.15096284 -0.2659549 -0.110505536 0.0049689426
0.15216249 0.024049923 -0.25675276 -0.36716884 -0.22024406 0.16866587 -0.71706784 -0.079958566
-0.003671761 0.18529184 -0.34205657 -0.20172511 -0.658964 0.3426826 -0.08030482 -0.12833807
-0.037969287 -0.088045634 0.06868914 0.21386996 -0.4109465 -0.740554 -0.6871192 -0.9059394
-0.10635504 -0.079855636 0.013394598 -0.37935472 0.09990677 -0.1864767 -0.16230229 -0.09534013
0.010062204 -0.49021733 -0.47958624 -0.2592345 -0.32327715 -0.0921504 0.038125046 -0.04737728
0.021951025 -0.076952204 0.066912636 0.090482995 0.05289617 0.049642663 -0.06651809 -0.17988981
-0.76351196 0.15577449 0.017108843 -0.47763422 -0.3221302 0.04689478 0.28136337 0.070452556
0.07087895 -0.21927781 -0.25002763 0.089606464 -0.3683957 -0.1568898 0.12255934 -0.56516904
-0.10707224 -0.123722374 0.020363202 -0.18889995 -0.17424026 -0.15621057 0.026936002 -0.18647735
0.027559899 -0.50599754 -0.37049446 0.033252507 -0.19029617 0.21330433 -0.22210833 -0.10877354
0.04396703 0.2172593 0.12440968 -0.093773164 -0.2672475 -0.2962138 0.06241091 -0.18098602
-0.12224978 0.082224436 -0.15320316 0.3876398 -0.09278045 0.06280307 -0.16061105 -0.07043316
0.015019368 -0.077051744 -0.052675188 -0.010063177 -0.6677272 -0.0708774 -0.24792248 -0.11364694
0.046921123 -0.27997732 0.17388831 -0.7483993 0.5235391 0.24889521 -0.055873737 0.07825835
-0.5253144 0.17953746 -0.15591174 0.046170324 -0.2695905 -0.041209847 0.16314428 0.115149
-0.05947451 -1.0359724 0.07915854 0.16548873 -0.38598114 -0.7026613 -0.05103652 -0.110498756
-0.071251936 0.15821539 -0.124297336 0.23086454 -0.16235153 -0.08885345 -0.3938336 -0.1325421
0.120111436 -0.062252983 -0.44305187 -0.091156736 -0.11805355 -0.18501985 -0.05398323 0.12373316
-0.076180525 -0.68316376 -0.105637245 -0.06828622 -0.2740904 -0.009103503 -0.25874904 0.039491307

xy_encoder.flat_module.to_hidden.bias f4 [128]
00000000: 7c4e f7bd 2b9e 873d 052e 86bd 7c6d 873d
00000010: 6a61 55be 7cb5 a0bd 88ad 863c bda3 ec3d
00000020: 8068 33be d767 93bd c255 d63c 7d98 dbbd
00000030: 87dc afbe b3e1 94bd 06e6 163d f77e 03be
00000040: 84f5 18bb ba7a 21bc 14b0 08bd a751 9bbe
00000050: 5b8d e83d 3bcf ecbe e94f dfbd 9f39 3ebc
00000060: 7068 40be 1c8f 40bd 8929 09bd 76cd 79bd
00000070: c386 2fbd fcfe c0bd 20fd 83be bc82 d8be
00000080: bac9 b73c c536 09bd 9bfa 393b bae2 0dbe
00000090: 450e 6dbd d855 c33d 1aa9 a3bb cd8f 96bc
000000a0: fb0f ad3c 63dd 0cbf e2d3 6b3d 4691 c5be
000000b0: e84a ddbd e0bc 83bd 7db0 fc3c 2055 80bd
000000c0: 34dc f3bd d0ea 75bc 89ab c63d 0c39 4bbe
000000d0: f883 0dbe f584 9ebd bc02 dbbd 647f 41bc
000000e0: c92c 26bd 2766 1abf bea5 a3bd 03e7 563e
000000f0: 4622 f63c 43aa 0bbe 5b8e d83d aa30 78bd
00000100: caa3 4c3d 446d 13bf af5b 7cbc c2ea a53c
00000110: 7299 52be 7209 40be 9825 9e3d 87c3 7c3d
00000120: 372d 053e be65 95be ea1a a73d 65f4 36be
00000130: a3fd c9bd abe6 b6bd eaeb 87be e62d d8bd
00000140: bf2a 46bd 47f3 4ebd 7fe7 1ebc 8d36 99bd
00000150: ea75 4abd 2551 afbd 23f1 aebb 532e 4abb
00000160: ab68 aabe d37d debd 862e 133c 0c5e 9a3d
00000170: 3e51 94be 3425 b83d 8c19 11bf 829d 003e
00000180: b752 3dbd 66ca b83d c0dd cebd 2f8f 59bd
00000190: ef80 a3bd 52fa 1c3d b5cd 543d a555 7abd
000001a0: cb8b cabc a2bd 78be 7300 a4be ac16 7cbd
000001b0: 9ed5 52bd 7620 4b3e 8507 d1bc a055 14bf
000001c0: 099f b1bd 8cf7 103c 0330 853c 5620 3abe
000001d0: c0a3 26bd 8387 703d 13b9 303d ba41 0cbc
000001e0: 5bd3 29be d7d5 4ebe fdbc e13d 3a66 133d
000001f0: 7ada 713d 5f52 8abe 59a4 2eba 9546 923d
-0.120755166 0.06621965 -0.06551746 0.06612679 -0.20837942 -0.078471154 0.016440168 0.11554668
-0.17520332 -0.0719754 0.02616394 -0.10722444 -0.34347937 -0.07269611 0.03684046 -0.12841402
-0.0023339698 -0.00985592 -0.033371046 -0.30335733 0.113550864 -0.46251854 -0.109039135 -0.011610418
-0.1878984 -0.04701148 -0.033486877 -0.06098696 -0.04285313 -0.094236344 -0.25779057 -0.42287242
0.022435058 -0.033499498 0.0028378132 -0.1385602 -0.057874937 0.09537858 -0.0049945237 -0.018379116
0.021125784 -0.5502531 0.057575114 -0.38587397 -0.10805303 -0.064325094 0.030845875 -0.06266236
-0.11907235 -0.015009597 0.097006865 -0.1984598 -0.13819873 -0.07740203 -0.10693881 -0.011810157
-0.040570054 -0.6031212 -0.07990597 0.20986561 0.03004564 -0.13639168 0.10574027 -0.060593285
0.04996089 -0.575886 -0.015402718 0.020253543 -0.20566347 -0.18753603 0.07722014 0.061709907
0.1300553 -0.29179186 0.0815943 -0.17866667 -0.098628305 -0.08930715 -0.26547176 -0.105556294
-0.04838061 -0.050524976 -0.009698748 -0.07481108 -0.049428858 -0.08560399 -0.0053388043 -0.0030850365
-0.3328298 -0.10863843 0.00898326 0.07537469 -0.28968233 0.08991471 -0.56679606 0.12560084
-0.04622146 0.090229794 -0.10100889 -0.053115066 -0.079835765 0.03832466 0.05195399 -0.061116833
-0.024724862 -0.24291089 -0.32031593 -0.06154506 -0.051473252 0.19836602 -0.02551628 -0.57943153
-0.08672912 0.008848082 0.016258245 -0.18176398 -0.040683508 0.058722984 0.04314525 -0.008560592
-0.16584532 -0.20198761 0.11022375 0.035986163 0.059046246 -0.2701597 -0.0006662063 0.07142369

xy_encoder.flat_module.linears.0.weight f4 [128, 128]
00000000: 48ce c93d 7b0a 5bbe 0a3e b5bd 73a8 013d
00000010: 8631 1ebe 0ab1 0cbe 9dda af3d fd21 29be
00000020: 31f5 4cbe 6822 38be e3a0 04be 6aa6 5fbd
00000030: f51a 3dbd b703 53be 128f 16be 864c 03be
00000040: c0b3 2fbb b713 003e db62 613d ebc3 a6bd
00000050: b6c4 55be a0d3 603e e43d b2bd 8489 86be
00000060: e5d7 f9bd decd 133d 70da 7fbd 2ae8 74bd
00000070: 2ab6 e7bd 5e97 a33d 093c 15be 727d 81bd
00000080: 4e55 df3c fbbf 96be 5de9 9f3c 4e44 6fbe
00000090: 5e26 cc3d e335 17be c38a 3abe c06e 12bb
000000a0: cf0b 02be 225a 37be 0107 2bbe 9ae1 7cbd
000000b0: 7e49 17be ca2c 2c3d bca1 5ebe ae95 05be
000000c0: bead 963d f831 003e 50e2 89bd f2e5 26be
000000d0: e847 4bbe 2e6c 0abe 83e9 113e 6735 0e3e
000000e0: 3e15 a43d 1a80 ad3c 897b 0d3d 6876 32be
000000f0: 433d c03c 2d5d 67be 34fe 6a3d 48d3 12be
00000100: ad05 09be 967a 4dbe 09b1 8b3d e862 1dbe
00000110: e537 7f3d f798 153e ad7b 44be 1146 6fbe
00000120: 29cd 2dbe 1e2e 9d3d 0ed4 9cbd 1d13 82bd
00000130: 1304 09be 574c 393e 0ad1 ab3c f0bb 02bd
00000140: c097 65be 2f87 013e 627a 84bb cd70 d8bd
00000150: db01 40be 2317 65bc 2459 f1bd aba5 923d
00000160: a005 31be 5cac 783d 3183 47bd f3ff 0bbe
00000170: 19d6 19be 8f18 56be bbf1 353c 84b9 aebd
00000180: 10da 55bd 6e6e d33c 6094 9bbe 7d8d 173e
00000190: 9c01 493d 300f 09be ca81 803d 705a fabc
000001a0: 0549 bd3d c6a6 febd 4e7a 4ebe 2939 9dbc
000001b0: 2075 db3c 7c5e 26be 3933 77bd 6fa1 edbd
000001c0: 7912 05bd 18db f83b 7e6e 733d cfc4 19be
000001d0: 5d3b 143e 52da febd d747 173e 50fa be3c
000001e0: eb6c b7bc cdb6 023e d770 a13d b014 05bc
000001f0: a99a c13d 3087 453d dfd0 cfbd e402 36be
00000200: 43c1 0abf 6fb3 ae3d 072f fdbe 6c57 5c3d
00000210: 968b 03be 0463 133c e11f 663c 160b aebd
00000220: c25c b3be 197a 25be cbef 1d3e 6cf1 d9be
00000230: 8aae 4dbe 3343 053d eac8 883e 70a5 ca3d
00000240: 7cf9 73be 1033 e33c aca9 17bf 1b3a 32be
00000250: a5d5 b33d 2a24 143d 6677 71bd 6199 7d3e
00000260: 1227 483c 4f91 e23d 6fbc 9bbe 12bd 1dbe
00000270: 65d7 d93c 6c7f 983d b062 8239 89bd 19be
00000280: 6a5b bd3d 2034 0abd ed65 b43d a649 fe3d
00000290: a94e c6bd 3844 923d 7a14 28bf 8ff1 853d
000002a0: fd45 2cbf 4d4f a3be 0746 62bf f35e 013e
000002b0: b592 403e c02d cabd ad2c 1dbd 7fcd 85bd
000002c0: 7220 003d e77d 113e 0d14 b93c 9a1f 913d
000002d0: a4cf 78be 7fec 37bd e88e 01be c116 f5bb
000002e0: 7d9f 29bd 08e3 a13e 507a 0dbf 62bd 70be
000002f0: 449b acbe 188e 8fbe 1dbb 2dbb fb69 07bd
00000300: 7ab1 44be 23d1 14be 2ebc beb8 8704 d63c
00000310: 54d0 fbbd 4497 71be 7505 67be f697 b5bd
00000320: 9a7e 1dbf 4dd7 fc3d 9e3f 543d 9b77 14be
00000330: e97a a6be 473f 47be 7061 32be 27f0 3c3e
00000340: 6f47 88bc 6670 c9bd e618 103e e45b d13d
00000350: e3bb fcbc 13a4 91bd c74f 3cbe e1ab a83e
00000360: 61f2 79be 9b73 c93d 6d58 c6bd b2a9 a3bd
00000370: f2df f6bf 9776 f0bc ed3f 953b 60e4 fc3c
00000380: 5c2e cb3d 9418 89be 2465 38bf fda2 8a3d
00000390: f81e 72be 4aca c33d 00bc a53d 374e 69bd
000003a0: f2f9 6f3e 33e2 ddbd 380a a13d 369c 123e
000003b0: fa35 a5bd 3a91 7ebe e98d 423d 09f2 04bf
000003c0: ec84 94bb 9f3e 40bc 5ce9 61bd 93a3 91be
000003d0: 80f1 e53d d0f4 cebe e7ec 8fbd 6912 11bd
000003e0: f289 e6bc 4763 243d ab71 9d3d 45ea 9e3d
000003f0: 4254 bcb9 2b7d 9fbd 5487 8fbe 0b4f 833e
0.09853798 -0.21390717 -0.08849724 0.031654786 -0.15448579 -0.1373941 0.08586619 -0.16516872
-0.20015408 -0.17981875 -0.12951998 -0.054602064 -0.046168286 -0.20606886 -0.14703014 -0.1282216
-0.002681002 0.1250752 0.055025917 -0.08142837 -0.2087582 0.21955729 -0.08703211 -0.2627679
-0.12199382 0.036085002 -0.062464178 -0.05979172 -0.11314042 0.079878554 -0.14573683 -0.06322755
0.027262356 -0.29443344 0.019520456 -0.233659 0.099682555 -0.1476665 -0.18216996 -0.0022343844
-0.12699817 -0.17905477 -0.1670189 -0.061738588 -0.14774129 0.0420349 -0.21741384 -0.1304538
0.073573574 0.12519062 -0.06732619 -0.16298655 -0.19851649 -0.1351783 0.14249234 0.13887559
0.08011864 0.021179248 0.03454164 -0.17427981 0.023466712 -0.22594137 0.057371333 -0.1433841
-0.13381071 -0.20066294 0.06820876 -0.15369761 0.062309165 0.14609133 -0.19187804 -0.23366572
-0.16972794 0.07674812 -0.07657634 -0.06351302 -0.1338046 0.18095528 0.020973701 -0.031917512
-0.2242117 0.12649225 -0.0040429095 -0.1056839 -0.18750708 -0.013982567 -0.1178458 0.07160505
-0.17287302 0.06071125 -0.0487091 -0.13671856 -0.15023078 -0.20907806 0.011104996 -0.08531478
-0.052209914 0.025809493 -0.3038664 0.14800067 0.0490738 -0.133847 0.06274755 -0.030560702
0.09242443 -0.12434153 -0.20163843 -0.019192295 0.026789248 -0.1624698 -0.060351584 -0.11603057
-0.03248832 0.0075944774 0.059431545 -0.15016483 0.1447577 -0.12443985 0.14773498 0.023312718
-0.022390803 0.12765045 0.078828506 -0.008122608 0.09453327 0.048224628 -0.10147261 -0.1777454
-0.54201144 0.08530318 -0.49449942 0.05379431 -0.12846217 0.008995775 0.014045686 -0.08498208
-0.35031706 -0.16159858 0.15423505 -0.42567003 -0.20086113 0.03253479 0.26715785 0.09894836
-0.2382564 0.02773431 -0.59243274 -0.17404978 0.08780984 0.0361673 -0.058951758 0.2476554
0.012216346 0.11062872 -0.304172 -0.15404156 0.026591966 0.07446179 0.0002486906 -0.15013708
0.092459515 -0.033741117 0.08808503 0.12416391 -0.09682972 0.07141918 -0.65656245 0.06540214
-0.67294294 -0.3189644 -0.88388103 0.12633877 0.18805964 -0.09872007 -0.038372684 -0.06533336
0.031280942 0.14208184 0.022592569 0.07086106 -0.24297959 -0.044903275 -0.1265217 -0.007479519
-0.041411866 0.31618524 -0.5526476 -0.23509744 -0.33712208 -0.28038096 -0.0026509233 -0.033060055
-0.19208327 -0.14532904 -9.094957e-05 0.026125206 -0.12295595 -0.2359286 -0.22560675 -0.08866875
-0.61521304 0.12345753 0.051818483 -0.14498751 -0.32515648 -0.19457732 -0.17419982 0.18450986
-0.016635625 -0.098358914 0.14071998 0.10222605 -0.03085131 -0.07111373 -0.18389808 0.32943633
-0.24408866 0.09836503 -0.09684835 -0.07991351 -1.9287093 -0.029353423 0.0045547397 0.030870616
0.09920952 -0.26776564 -0.7202933 0.06769369 -0.23644626 0.09560068 0.08092499 -0.056959357
0.2343519 -0.1083416 0.07863277 0.14317402 -0.08066936 -0.24860087 0.047498617 -0.51931816
-0.004532447 -0.01173368 -0.05515419 -0.2844511 0.11227703 -0.40421152 -0.070276074 -0.035417948
-0.02814195 0.04013374 0.07687696 0.07759527 -0.0003592093 -0.07787546 -0.28032935 0.25646242

xy_encoder.flat_module.linears.0.bias f4 [128]
00000000: 9b46 29be ee21 9dbc 53f7 02bf 4990 f93c
00000010: 1961 00be 32de 533d 8767 94bc 5927 ebbd
00000020: adc5 ebbc 2766 243d f81c 7abe 5716 90bd
00000030: c82a a7bd 055f 50bd 9aee 863d b099 9fbe
00000040: a4b3 d53d 6754 fdbd 02e4 59be 9d26 4bbe
00000050: e7fc dcbd a09b 4ebd 5591 1abe 9b07 02be
00000060: 5d7b e5bd d664 1cbe 7e8c 383d a270 aebb
00000070: 28a5 0cbe 35ef acbd cff7 f1bd 2f30 9abd
00000080: cb9c 61bd d40d afbd b7b9 bbbd cac6 76bc
00000090: 73ab 31be f6b9 a6bc dce9 22be 913b 5ebe
000000a0: 9234 02bd 31da 04be 1886 0fbe 44af 43bd
000000b0: 0d12 953d bad2 8bbd 2b8d a53d 6d72 41be
000000c0: 6f35 0abe 3e07 023d 36e6 24be cf2b 0abf
000000d0: b40f 55be caa0 5abe 719a 39be 6a03 b13c
000000e0: c9a1 debd 4698 46bd d112 f1bc 8017 edbd
000000f0: d7f9 04be a1ec 0bbe 2799 76bd 12d0 febd
00000100: b913 a3bd f8b1 89be d871 a8bd 7143 8fbe
00000110: 6772 94bd 5da7 37bd 4f10 80be e922 ecbd
00000120: 4605 cfbd 7299 27be 4035 10be 3dec 3fbe
00000130: 69f6 bbbe e641 b4bb 8f71 42bd 2347 a4bd
00000140: 812c bfbd 87bd d8bd 0acf 11be fcab f83d
00000150: 490d 02be 787f bbbd 578d fbbd 9377 8d3c
00000160: d849 913c 7ead 21be 6091 f3be 7906 efbd
00000170: d36f 6fbd 5adf 2cbe 65e6 55be 04e5 38be
00000180: 4aff abbd 1786 053c c117 13be d306 c2bd
00000190: 32fe 5fbe 3e51 43be 7d4f b0bc 7e8d 29be
000001a0: 5696 4ebf 343d 2dbd af03 0dbe a8b5 c2bc
000001b0: c381 1abe 04b9 55be 798e a3be cf41 13bd
000001c0: b757 24be 41c3 e3bc faa7 dcbe 4e3b 2fbe
000001d0: a34c 90be be5a 11be 3bd9 32be 890e 6cbd
000001e0: db8c a6be a2ac 93bd 4678 d7bd 5b8e c4bd
000001f0: 98d5 3d3d 3011 ccbd aece 91be bdd9 5abe
-0.1653084 -0.019181218 -0.51158637 0.030464308 -0.1253704 0.051725574 -0.018115772 -0.11482114
-0.028780783 0.040136483 -0.24425113 -0.07035511 -0.08162457 -0.050871868 0.065884784 -0.31171942
0.10434654 -0.12369614 -0.21278384 -0.19838949 -0.10790425 -0.050441384 -0.15094502 -0.12698214
-0.1120517 -0.15272841 0.04505586 -0.0053234855 -0.13734877 -0.084440626 -0.11814844 -0.075287215
-0.05508117 -0.085475594 -0.09166282 -0.015062043 -0.17350559 -0.020352345 -0.15909523 -0.2170241
-0.031788416 -0.12973858 -0.14015996 -0.04777457 0.072788335 -0.06827302 0.08083566 -0.18891306
-0.13496946 0.031745188 -0.16103444 -0.53973097 -0.20806772 -0.21350399 -0.18125321 0.021608073
-0.10870702 -0.048485063 -0.029427918 -0.11576748 -0.12985931 -0.13664486 -0.06020465 -0.1244203
-0.07962746 -0.26893592 -0.08224839 -0.2798114 -0.07248383 -0.044837344 -0.25012442 -0.11530096
-0.10108428 -0.16367128 -0.14082813 -0.18742462 -0.36711434 -0.00550102 -0.04747158 -0.08021381
-0.0933466 -0.105830245 -0.14239135 0.121421784 -0.1270038 -0.09155172 -0.12282818 0.017268931
0.017735407 -0.15788838 -0.4757185 -0.116711564 -0.058456253 -0.16882077 -0.2088867 -0.18056113
-0.08398302 0.008149645 -0.1436453 -0.09473958 -0.21874312 -0.1907396 -0.021522278 -0.16557881
-0.80698144 -0.042294696 -0.13770936 -0.023768261 -0.15088563 -0.20871359 -0.31944636 -0.03595143
-0.16049086 -0.027803065 -0.43096906 -0.17112467 -0.2818347 -0.14194772 -0.1746568 -0.05763105
-0.3252934 -0.072106615 -0.10520987 -0.09597465 0.046346277 -0.09964216 -0.28477997 -0.21372123

xy_encoder.flat_module.out.weight f4 [128, 128]
00000000: dab0 c43d 09dc 33be 1941 a1be 4f94 a23e
00000010: 42ff 18be 3caa 2f3e cc88 91bd f467 cebd
00000020: 6fe3 cabd 00c6 0c3e ee39 733d 9640 5b3c
00000030: 1858 34be 83fa 37be 7549 633a 0b54 24be
00000040: 1c86 563c b37d db3d b10e e63d 158e 533e
00000050: 2c83 ec3c 1a83 1dbe 1cb1 683e 7e37 7cbe
00000060: dfde 75bd 9595 78be 493c fb3d a2d4 8e3d
00000070: b114 3fbe 9dff b73e 2986 ecbb 6b84 ba3d
00000080: aab4 ba3e 544a 19bd a251 9fbe 56ec 293e
00000090: d896 3ebe 25e0 5e3b 71ce 23be 60e1 06be
000000a0: 11a4 033f c853 11be 1385 a23c a2c9 3abe
000000b0: ed2d c1be 7008 483d 3231 0d3f d1bc af3e
000000c0: 51a3 cdbc 556a cfbd f8c9 d2bd 1a78 783e
000000d0: 3819 383e 8399 2ebe b0dc a23e 287a 97bc
000000e0: d454 01be 3d4f 6a3c 2c6f 97bd 0069 37bd
000000f0: e2dd 1dbe 9520 4e3e ef66 063e cd93 053e
00000100: 89fb ccbd 8d54 0e3e 2ee7 7a3c 4cbd f93d
00000110: 0f22 3b3e 6585 823d c2d2 b03d bc0d cabd
00000120: 0e28 39bc 2981 db3d c5e2 0f3d 9274 823e
00000130: 4208 523e 242c ebbd 55e4 953e 66e8 1bbe
00000140: 41de ddbd 3a2b c1bc 00f4 923e 17c2 3cbe
00000150: 2b4a 3ebe 92c5 d63e 6386 eb3d a6cb 8ebd
00000160: 27b0 d7bd d67f a8be 5973 093e 7341 453e
00000170: f04d 543e 33cd 2fbe 8992 26bc a0fa 4d3b
00000180: 01eb b5be cd8d 143e 27a6 e5bc 25b9 17bd
00000190: 5ae7 eebd c9d1 9dbe fe08 453e e38d 60bc
000001a0: 7dae 8cbb ee66 f8bd c2ee 0fbe 4a53 d53b
000001b0: 32a7 993c 23e0 43be badb e73d 6320 86be
000001c0: da98 163e 2832 fb3d 5b75 013e 8744 e0be
000001d0: 9ce3 79bd da99 bdbb 8157 cdbd 93de 3e3e
000001e0: dbd0 683e a2a3 9d3c 0d6c 843e 25af 0f3e
000001f0: 2f42 b6be 04c0 043d 06ae a93e 7372 cb3d
00000200: 0f35 d53d 4e94 a8bc b3f4 a33e 15ce ebbd
00000210: f1fb 963d d6db b5bd 0e3c 533c b58c 4ebe
00000220: 5ba6 d5bd 0800 febe 9beb ad3d 2bcc 723e
00000230: f7be a03d 6017 f1bd a0ab 51be 1462 4dbe
00000240: 8f57 803e 151f 083f 6a4f 8c3d f95b ea3d
00000250: d6fd 2b3e aa32 eb3c 9b4e d73d 7ab3 11bd
00000260: 2dcc 41be 574e 4fbd d178 b43e 06f3 9d3e
00000270: b5ad 87be 8b26 aebe 21fc 65bd 7430 20be
00000280: be68 d63c 510a ea3c d11c ccbc 46fb 623e
00000290: 5630 293e 0b0e e03d 81ee 29be 9b52 403e
000002a0: f6db c03e 3475 833e bcb4 fc3d 3544 6f3d
000002b0: 2295 7c3e 2f06 113e 0769 fabd 9743 bdbd
000002c0: da02 ddbd 1f39 01bf 18ec 21bd 5a43 4e3e
000002d0: 6d8b a73d 0156 97bd 7652 b33d df1a 50be
000002e0: 092b 863e 025e d63d 340f 85be 258a a7be
000002f0: 210b 5dbd 6a16 c23e 08bc a03c acf4 a7bd
00000300: b7fb 733e 524b 263e d28e 9b3e 6cab e7bd
00000310: 9af6 863e 9fa7 0b3d f245 f73c 5ca7 70be
00000320: 6570 7bbe 311b 303e f638 83bd 6d0e 4f3d
00000330: ea9f 80bd 8ea6 15bf eb9c afbc d436 cc3d
00000340: c8d8 36be 0a2f 4bbd d451 133d 442d aa3e
00000350: 4960 4d3e 894f 623e 9af2 013e ea61 fabc
00000360: 8ba2 683c 9f0a 783e 7a4f 853e ce17 8abe
00000370: 520d 943e da1b c0bd c530 223f 108e 0cbd
00000380: dd9c 273e 078a 10be 4100 443d 2f31 083e
00000390: 36e3 1c3c 7257 dd3e 58bf adbd 783e a33b
000003a0: 4c93 e1bd 81b6 f8bd 3e92 803e e1a8 583d
000003b0: f32b 4e3e 6075 e63d 0c34 7a3e a59d 883e
000003c0: e2ff 4d3e 1694 36bd 477f 79be 9acc 28bd
000003d0: 3c34 98bd 59ce 8ebe bbff f23a df35 5cbe
000003e0: c2e2 153e 594e 8a3e c5a0 d43d 3d07 bbbd
000003f0: fdc2 053e 9e7e 8bbd 5e94 6fbe 90e2 7cbe
0.09604044 -0.17564406 -0.31494978 0.31753775 -0.14941123 0.17154783 -0.0710617 -0.10078421
-0.09906661 0.13747406 0.059381418 0.013382098 -0.1761173 -0.17966656 0.0008670309 -0.16047685
0.013093498 0.107173346 0.11233271 0.20659669 0.028871141 -0.15382043 0.22723812 -0.24630544
-0.060027 -0.24275811 0.12267358 0.0697415 -0.18660237 0.35937205 -0.0072181416 0.09107288
0.3646596 -0.0374244 -0.31116968 0.16594061 -0.1861223 0.0034008112 -0.1599672 -0.13171911
0.5142222 -0.14192116 0.019838845 -0.1824098 -0.3773035 0.04883617 0.5515319 0.34323743
-0.02510229 -0.10127703 -0.10292429 0.24264565 0.1797837 -0.17050748 0.31808996 -0.018490866
-0.12630016 0.014301118 -0.07394251 -0.04477787 -0.15416673 0.20129617 0.13125204 0.13044663
-0.10008914 0.13899441 0.015313907 0.12194309 0.18274711 0.06373099 0.08633949 -0.09865901
-0.011301054 0.10717995 0.035128374 0.2547956 0.20510963 -0.114830285 0.29275766 -0.15225372
-0.10833407 -0.023580182 0.28701782 -0.18433414 -0.1858298 0.4194761 0.115002416 -0.069724366
-0.10531645 -0.3291003 0.13422908 0.19263248 0.20732856 -0.17168121 -0.010166773 0.0031429902
-0.35530856 0.14507218 -0.02803333 -0.037041802 -0.116652206 -0.30824116 0.19241711 -0.013705703
-0.0042932616 -0.12129007 -0.14055923 0.006510173 0.018756483 -0.1912847 0.113212064 -0.26196584
0.14706746 0.12265426 0.12642424 -0.43802282 -0.06100808 -0.005786163 -0.10026456 0.18639593
0.22735922 0.019243065 0.25863686 0.14031656 -0.3559737 0.032409683 0.33140582 0.09933939
0.10410511 -0.02057853 0.32022628 -0.115139164 0.07372273 -0.08879821 0.012892736 -0.20170863
-0.104321204 -0.496094 0.08492204 0.23710696 0.07848924 -0.117720366 -0.20475626 -0.20056945
0.25066802 0.5317243 0.068510845 0.11443324 0.1679605 0.028710682 0.1051304 -0.035571553
-0.18925543 -0.05061182 0.35248426 0.30849475 -0.26499715 -0.3401378 -0.056148652 -0.15643483
0.026172992 0.028569372 -0.024916084 0.22166166 0.16522345 0.109401785 -0.16594888 0.18781511
0.37667817 0.25675356 0.1233916 0.058414657 0.24666265 0.14162515 -0.122270636 -0.09241407
-0.107915595 -0.50477785 -0.039531797 0.2014288 0.0818089 -0.07389451 0.087559626 -0.2032275
0.26204708 0.10467149 -0.25988162 -0.32722583 -0.05396569 0.37907726 0.01962091 -0.08200964
0.2382649 0.1623967 0.303824 -0.11311993 0.26360017 0.034095403 0.03018472 -0.23501343
-0.24554594 0.17197873 -0.06407349 0.050550867 -0.06280501 -0.5845727 -0.021437129 0.09971395
-0.17856133 -0.049605407 0.03596671 0.3323766 0.20056261 0.22100653 0.12690201 -0.030564267
0.0141989095 0.24222802 0.26037198 -0.26971287 0.28916413 -0.09380312 0.63355666 -0.03431517
0.16368432 -0.14115153 0.047851805 0.13300012 0.009575656 0.43230778 -0.084837615 0.004981812
-0.11014423 -0.12144185 0.25111574 0.05289543 0.20133953 0.11252856 0.24433917 0.26682773
0.20117143 -0.04457482 -0.24364959 -0.04121075 -0.07431838 -0.27891806 0.0018539348 -0.21504925
0.14637282 0.270129 0.10382227 -0.0913224 0.13062663 -0.0681126 -0.23396441 -0.24695802

xy_encoder.flat_module.out.bias f4 [128]
00000000: f789 8ebc 9895 fdbc 9347 a03c 9496 a53c
00000010: 9d90 653c 9a5e 013d 59bf 32bb 4600 e2bc
00000020: 6fa8 7dbc 271e f6bc e70f 40bd 54b9 f3bc
00000030: bc4e 1ebd 2f91 d1bc 1a5c 453a 21be 7dbd
00000040: 6da3 083d 7094 453d a6ea 2fbd 669d b03c
00000050: d914 863b 67ac a7bc f516 943d 842b 1dbd
00000060: ad5c fe3c d88e cebb 778b 4cbd b2fe 9bbc
00000070: 4401 0dbb b70a b83c ed9f 6c3c 1066 98bd
00000080: ba84 2d3d a569 0dbe 6b9b 593d 605f 873b
00000090: b530 b43c 1c88 44bd a557 1d3d d1fb 9dbc
000000a0: ad98 2abd 66d6 16bd 44e8 2e3d a99e 7f3d
000000b0: dfd9 993c 2ddc fb3c 3bae c8bd e0f2 75bd
000000c0: 0704 32bd 31ba ec3c 1b7a 4c3c 4398 543d
000000d0: f922 853c 4b70 52bd 98d4 29bd 88dc 383d
000000e0: 6032 83bd 5f38 67bd 57ef 52bc 8276 6e3d
000000f0: 9b95 933d 06ad b33c 3d57 403d 2942 673d
00000100: c473 6ebc bdb4 663d 73e3 953c e2ac 333d
00000110: 5748 cfbc 3cb8 0fbd 920d 2fbd 7dac 73bd
00000120: bea6 bebc 6944 de3c a07c 8e3d 72f8 153d
00000130: f158 4dbd afcf e1bc 4bf3 5dbd eafd d3bc
00000140: 4f1d 33bd 3e10 c4bc b6c9 e23c 5672 6bbc
00000150: d314 6e3d 52c3 b83c a6b0 9c3c 4333 ec3c
00000160: fc96 913c 92e3 933c 27ae d63c 253e 2f3d
00000170: 8f69 033d 0725 f23b 6ca3 013c ddc6 8e3c
00000180: 207b 87bd 8281 b73d d4c1 ae3c 17b0 5b3d
00000190: 057e 20bc 0857 f73c ecd3 48bd cdc7 92bc
000001a0: 8f2a 99bd 8a2d dc3c bf08 193e bfe8 863d
000001b0: 8fd4 26bd 8e40 c93c c69c 333b c6f5 2abc
000001c0: 5851 ad3b 14d0 9abc 5745 79bb 4d8e e53c
000001d0: c4f4 9bbc aceb f73c c812 bdbc 7d04 6e3d
000001e0: 45af 7ebd bb60 a33c 31bb 41bb b47b 393c
000001f0: f6a5 17bd 0068 febc e3cf 143d e1c0 8bbd
-0.017399771 -0.03095512 0.01956538 0.020213403 0.014011529 0.03158436 -0.0027274697 -0.027588021
-0.015482052 -0.030043675 -0.046890166 -0.029751457 -0.038649306 -0.025581924 0.0007528678 -0.0619489
0.03335898 0.048237264 -0.042948388 0.021559428 0.0040918407 -0.02046795 0.07230941 -0.038371578
0.03105005 -0.0063036494 -0.04993769 -0.019042347 -0.0021515647 0.022466047 0.014442426 -0.07441342
0.042362906 -0.13809831 0.053126734 0.0041312426 0.021995882 -0.047981367 0.038413662 -0.019285114
-0.04164951 -0.03682556 0.042701975 0.06240717 0.018780647 0.030744636 -0.09798857 -0.060046077
-0.043460872 0.028897377 0.012480284 0.05190302 0.016252028 -0.051376622 -0.04146251 0.04513219
-0.06406093 -0.056450244 -0.012874446 0.058218487 0.07206269 0.02193309 0.046958197 0.05645958
-0.014553968 0.05632471 0.018296933 0.043866046 -0.025303049 -0.03508781 -0.04273755 -0.05949067
-0.023272868 0.02713223 0.06957364 0.03661389 -0.05013365 -0.027564852 -0.0541871 -0.025877912
-0.043729123 -0.023933526 0.027684074 -0.0143705215 0.05812533 0.022554073 0.019127201 0.028833037
0.01777219 0.01805285 0.02620609 0.042783875 0.03208309 0.007389668 0.007912498 0.01742881
-0.06615281 0.089602485 0.021332659 0.05363473 -0.00979567 0.030192867 -0.04903023 -0.017917538
-0.074788205 0.026877183 0.14944743 0.065873615 -0.040730055 0.024566915 0.0027406677 -0.0104345735
0.005289238 -0.018898048 -0.0038035715 0.028021956 -0.019037612 0.030263744 -0.023080245 0.05810975
-0.06217887 0.019943586 -0.0029561038 0.011320997 -0.037023507 -0.03105545 0.03633107 -0.06823898
