results/notebooks/neural_process/Matern_Kernel/CNP/run_0/params.pt (torch_old, 419642 bytes, 24 tensors)

x_encoder.to_hidden.weight f4 [32, 1]
000000 5d 78 59 bf 78 7c 98 3c 5e 70 2f bf 01 79 17 3f
       -0.84949285 0.018614039 -0.68530834 0.5916901
000010 8e df 74 bf 9f e0 82 3f d5 5a 87 bf 26 fc 6b bf
       -0.9565362 1.0224799 -1.0574595 -0.92181623
000020 52 40 4c bf c1 5b 22 3f 3f 2f c4 be 12 a3 6b 3f
       -0.79785645 0.63421255 -0.38317296 0.920457
000030 a4 47 7c bf c0 d7 6a bf 86 38 1b bf 4d 5c 1c bf
       -0.98546815 -0.9173546 -0.6063312 -0.6107834
000040 a9 74 60 bf 15 10 46 3f c5 ba a2 be 88 ac 0b 3f
       -0.8767801 0.7736829 -0.3178312 0.54560137
000050 66 aa 71 3f 52 87 2f 3f 6a 28 bb 3e 4e a1 82 3f
       0.9440063 0.6856586 0.3655427 1.0205476
000060 67 20 1e bf 08 e5 18 3f e0 e4 e2 be 89 84 4c 3f
       -0.6176819 0.59724474 -0.44315243 0.7988973
000070 de b6 8c 3f 7a 1c af bf 61 ce 7e 3f 96 4c 72 3f
       1.0993307 -1.3680565 0.9953366 0.9464811

x_encoder.to_hidden.bias f4 [32]
000000 2c fb a8 be 39 4f b6 bc 33 86 1f 3e 54 84 0c be
       -0.3300413 -0.022254573 0.15578537 -0.13722354
000010 d3 ed 8d bd 8e 18 1d bc 75 4f 9e be 22 ad 11 3d
       -0.06930127 -0.009588374 -0.30919996 0.035565503
000020 0b d4 cb bc e4 6e 3d be 58 4c 3a 3f 3e 0f a6 be
       -0.024881383 -0.18499333 0.7277274 -0.32433504
000030 3d 5d 08 3e c4 b4 66 be df 03 7f be 5b 25 b6 be
       0.13316818 -0.22529894 -0.2490382 -0.35575375
000040 3f 84 f5 bd b3 0c 29 3e 2d 37 0a 3e 6a c5 db bd
       -0.119881146 0.1650875 0.1349761 -0.10731013
000050 c4 67 1a be a6 fa 87 be 29 be 93 3e ff a0 ae 3e
       -0.15078646 -0.26558417 0.28856018 0.34107205
000060 4e cd 62 be 6b 59 16 be a3 3f 1d 3d 01 46 cc 3d
       -0.2214863 -0.14682548 0.038390767 0.0997429
000070 b0 6e d6 bd e9 2a 63 be 36 28 9d 3d 4a 2d c4 be
       -0.10470331 -0.22184338 0.07673685 -0.38315803

x_encoder.out.weight f4 [128, 32]
000000 6c 6e 3d bf 88 d9 9d bd 98 31 81 3d 78 78 bb be
       -0.73996615 -0.077075064 0.063082874 -0.36615348
000010 a7 b5 d5 be 07 d4 47 be c6 e5 62 be 41 3d f5 be
       -0.41740152 -0.19514476 -0.22157964 -0.47898296
000020 64 6a 10 be 50 90 65 3e c0 c3 84 3e 7c d3 2a be
       -0.14103085 0.22418332 0.25930595 -0.16682237
000030 b4 82 b8 bd 9e 0f 38 bf 7e 35 44 bf 8f e4 45 be
       -0.09009305 -0.7189883 -0.7664412 -0.1932547
000040 24 13 33 bf ac 0c 68 be a1 f6 40 be b4 be a4 bd
       -0.6995108 -0.22661084 -0.18844081 -0.08044186
000050 4c 54 6a bd d5 d1 57 3e 16 02 29 3e bf 37 bc bc
       -0.057209298 0.21076138 0.16504702 -0.0229758
000060 6d dc 88 be 41 d7 c0 be cd ce 3e be a1 10 77 3e
       -0.26730672 -0.37664226 -0.18633576 0.24127437
000070 c2 6a 85 3e ea 69 47 bf be d6 a9 be 83 17 0d 3e
       0.26058012 -0.7789599 -0.33171648 0.137785
000080 68 75 a7 3d 78 63 23 3d 23 ab 62 be a9 41 eb bd
       0.0817669 0.039889783 -0.22135596 -0.11487133
000090 bb 04 09 3e f0 ab 01 3e 68 d4 19 be 33 fc e2 bd
       0.13380711 0.12663245 -0.15022433 -0.110832594
0000a0 d5 e7 d6 be 96 fa 43 be 8e 2b fe 3e 8c 07 54 bf
       -0.4197375 -0.1913856 0.49642605 -0.82824016
0000b0 8c 85 dd be c1 df 2a 3e c1 b6 c7 be 65 81 78 3e
       -0.4326595 0.16686918 -0.39006618 0.2426811
0000c0 f5 f4 d9 be 1c e0 b3 3e cf f2 f4 bd 44 96 a6 3d
       -0.425697 0.3513192 -0.119603746 0.0813413
0000d0 79 22 fe be 4d 33 a8 bf 76 6b 8b be 67 7f bb be
       -0.49635676 -1.3140656 -0.27230424 -0.36620638
0000e0 4a 93 5e bd d1 48 ed be 88 74 e9 be 44 7c e7 3d
       -0.054339685 -0.46344617 -0.4559672 0.11302999
0000f0 b6 b2 00 bf b1 53 19 3e c3 e5 81 3e 73 62 3e bf
       -0.5027269 0.14973332 0.25370607 -0.7436897
000100 3c 82 75 3e 20 6b 4e 38 63 44 3e bf dc 88 74 3c
       0.23975462 4.9213995e-05 -0.743231 0.014925208
000110 b7 4d 07 bf 72 c2 cf 3e 03 2f 12 bf 65 aa d1 be
       -0.5285296 0.40578038 -0.57102984 -0.40950313
000120 b9 1a 64 3d 7b 90 ce be 92 9e 21 3e 3b dc 87 be
       0.055689547 -0.40344605 0.15783146 -0.2653521
000130 1d 7f 8a be 4c 30 44 be b2 35 65 be 71 fc e7 3c
       -0.27050105 -0.19159049 -0.22383764 0.028318616
000140 00 08 59 bf c8 5e d8 3e 2f 68 02 bf 9f d8 13 be
       -0.8477783 0.42259812 -0.5094022 -0.14438103
000150 86 d5 b7 be 93 a8 4b be b2 dc 1b be 20 72 80 3e
       -0.35905093 -0.19888525 -0.15220907 0.2508707
000160 b1 a3 f6 be 1c 3e 26 bf ee a7 e8 bd 66 ac 94 3e
       -0.48171762 -0.6493852 -0.11360155 0.2903778
000170 e1 0d 9f 3d c0 5f 3e bf df b3 bb be 73 7b 53 be
       0.07766319 -0.7436485 -0.36660668 -0.20652561
000180 98 bc 93 3d 87 b1 cb 3e bb da b3 3e 42 d7 8b be
       0.07213706 0.3978388 0.35127816 -0.27312666
000190 08 70 75 be 1f 46 c3 be e8 52 09 3e e4 64 bb 3e
       -0.23968518 -0.38139436 0.13410532 0.3660041
0001a0 80 4a 19 3d 49 12 b4 be 18 2c e7 3c 87 64 0f be
       0.037424564 -0.351702 0.028219268 -0.14003192
0001b0 df d2 5f be 81 07 f8 3d a5 ea cf 3e 43 df 55 bf
       -0.21857785 0.12110806 0.40608707 -0.83543795
0001c0 ed a9 00 3f 64 6b da bd 04 0c cf 3e 81 a8 6e bf
       0.50259286 -0.106650144 0.40438855 -0.93225867
0001d0 6a 7f 0f bf 71 85 0d bc fa 14 88 bf 6f 2f 40 bf
       -0.56053793 -0.008637772 -1.0631402 -0.7507238
0001e0 d2 af ed bd 5a cc f3 be 20 ae 3f 3e 1a fe fb be
       -0.11605801 -0.47616845 0.18718767 -0.49217302
0001f0 56 37 a2 bf a3 28 07 3f 59 31 a1 bd 61 b6 6d 3c
       -1.2673137 0.5279638 -0.078707404 0.014508815
000200 20 06 09 3e df 24 a0 bd 62 c0 a6 3e 47 da 9c 3e
       0.13381243 -0.078195326 0.3256865 0.30635282
000210 eb a8 54 3e c9 19 75 3e 58 e5 dc 3e 49 c3 a9 3e
       0.20767562 0.23935618 0.43143725 0.33156803
000220 21 e5 e8 be b8 3d b8 3e 4d 6f 09 bf 2d f7 92 3e
       -0.4548731 0.35984588 -0.53685457 0.28704205
000230 1f 87 56 3e b3 ce 6a be 21 d0 a1 bd ed 1a cf 3d
       0.20949982 -0.22930412 -0.079010256 0.101125576
000240 77 99 e2 be f3 29 ae 3e b7 2c 59 be af 7a cd 3e
       -0.4425771 0.3401638 -0.21208464 0.40132663
000250 c2 4f 8c 3e 0a 72 32 3f 2b 94 a9 be 72 fa 75 be
       0.274046 0.6970526 -0.33120856 -0.24021319
000260 d8 a7 2d 3e 54 53 b2 3e c1 76 81 3d 4c 0e 75 be
       0.16958559 0.348292 0.06321479 -0.23931235
000270 d8 68 83 3e 88 79 b1 3d 7f a1 9c 3e a9 5a 13 3f
       0.25665927 0.08665758 0.30591962 0.5756021
000280 0f f0 20 3d 76 54 53 3e 93 f0 71 be da 5a d8 3e
       0.039291438 0.20637688 -0.23626928 0.42256814
000290 a3 c1 85 be 62 b8 99 3d 26 14 39 bf a7 32 77 be
       -0.26124296 0.07505871 -0.7229637 -0.24140416
0002a0 32 c0 fe 3d 71 26 49 bc 16 0e 8d 3e c6 99 bd 3d
       0.12439002 -0.012277232 0.2754981 0.092578456
0002b0 da a7 e0 be 3a de 0c be c6 a4 93 bd 91 c3 f7 be
       -0.4387806 -0.13756648 -0.072091624 -0.48391393
0002c0 24 0f 48 be b9 1e 98 be f9 d3 91 3e 84 e5 7b be
       -0.19537026 -0.2971094 0.28482035 -0.24599272
0002d0 e1 17 ed 3d a7 33 c6 3e 63 2a 09 3e 24 a6 a2 be
       0.1157682 0.38711283 0.13395076 -0.3176738
0002e0 b0 28 c8 be 98 34 aa be 62 5b 83 bd a1 d4 ed 3e
       -0.39093542 -0.3324325 -0.06413914 0.46451285
0002f0 b8 44 ad 3d 6f 76 a4 3d ce be ab be 6a d5 86 3e
       0.08460373 0.08030402 -0.3354401 0.26334697
000300 22 10 f4 bd 2b 46 12 3e 81 86 20 bf 06 1a 1e bf
       -0.119171396 0.1428458 -0.62705237 -0.6175846
000310 be e0 94 bf 90 b4 89 bd 98 bb 37 bf 12 5d dc bf
       -1.1631086 -0.06723893 -0.7177062 -1.7215903
000320 62 2d 22 c0 25 a6 92 3d 10 25 70 3e 40 38 f1 be
       -2.53402 0.07160596 0.23451638 -0.47113228
000330 65 83 61 bf cd 23 51 bf 54 f5 7e be 5c 1d 01 bd
       -0.8809112 -0.8169525 -0.24898273 -0.03152214
000340 79 22 a6 bf dd eb 89 bd 75 6c d1 bd d9 2a d9 3b
       -1.297927 -0.067344405 -0.10225765 0.0066274223
000350 cd e9 60 be b5 98 94 bd 19 8d b0 3e ee 38 b4 3d
       -0.21964188 -0.07255689 0.3448265 0.08799921
000360 17 7e b5 be 99 e0 61 3c 0a cb a8 bf 4f f2 b1 be
       -0.3544776 0.013786458 -1.3186963 -0.3475518
000370 ed 52 09 3e af e1 4e bf a2 f1 7b 3a 86 91 c1 be
       0.1341054 -0.80813116 0.0009610896 -0.37806338
000380 84 b4 e2 be 91 10 4c 3e af f3 1b 3e 19 8f b7 bd
       -0.44278347 0.19928195 0.15229677 -0.089628406
000390 59 aa ec be a1 69 8e be 1d dc ee bd 23 55 ac 3e
       -0.46223715 -0.27814963 -0.11663077 0.33658704
0003a0 6e f6 da be d6 9f 4f 3d 54 60 0b be 6c 2a 72 bd
       -0.42766136 0.05068954 -0.13610965 -0.059122488
0003b0 6d e1 be bd c8 9f c3 3d 29 24 81 3e a4 e4 a3 3e
       -0.0932034 0.0955196 0.252229 0.32010376
0003c0 c7 c2 f5 be d7 5c 18 3e 03 e9 67 3e 19 cd b5 be
       -0.48000166 0.14879166 0.2264748 -0.3550804
0003d0 0e 48 a9 be 33 44 b5 be 01 38 83 3e 0c fb c0 be
       -0.33062786 -0.35403594 0.25628665 -0.37691534
0003e0 13 bc 28 3d 0f 03 e7 be 28 01 2c bd f5 c1 b9 bd
       0.041194987 -0.4511952 -0.04199329 -0.090701975
0003f0 86 37 3b be 82 03 aa bd 2f 6d 83 3d fc 11 5b be
       -0.182829 -0.0830145 0.064173095 -0.21393579

x_encoder.out.bias f4 [128]
000000 72 6d 8a 3d 76 45 0f 3e 6c 62 42 3d 1d bb ce bd
       0.06759156 0.13991341 0.047457144 -0.10094283
000010 d1 35 a5 be 82 dc 97 bb b8 46 bd 3d 80 62 11 be
       -0.3226762 -0.004634441 0.09242004 -0.14197731
000020 8d 92 12 be f2 10 8a be 4c 17 ae bd 26 1d 54 bd
       -0.14313717 -0.26966053 -0.08500537 -0.05178561
000030 3c 92 08 bf ce 97 d9 3b 09 c8 54 be bf 95 a3 bd
       -0.53348136 0.006640411 -0.20779432 -0.07987546
000040 e6 8d 5a be f7 72 27 be c9 8d 5f 3d 37 3c ac bd
       -0.21343192 -0.1635245 0.054578576 -0.084099226
000050 80 e4 7a 3d e9 17 99 bd 56 66 d6 bd a7 d3 39 be
       0.06125307 -0.074752636 -0.10468738 -0.18147145
000060 b8 88 4e bd da 37 07 be f5 9f 55 be 1e 67 0b bd
       -0.050423354 -0.132049 -0.208618 -0.034033887
000070 c3 2d 04 be 2e b5 cb 3d 2a f6 a0 3d 8f 59 c8 bd
       -0.12908082 0.09946667 0.07859452 -0.09782707
000080 20 00 7c bb d4 91 41 bc a9 3a 87 3c 36 81 1b be
       -0.0038452223 -0.011814553 0.016507464 -0.15186009
000090 c9 8f c2 3d 35 98 68 3d 8d 57 36 be 50 64 ef bd
       0.09500081 0.05678578 -0.17806835 -0.11689055
0000a0 98 36 cf 3c ae 37 a9 be 97 d4 09 bd 3e 77 56 be
       0.025294587 -0.33050293 -0.033650007 -0.20943925
0000b0 72 3d 64 be 8f 26 07 3d ed e1 32 be ef 93 16 be
       -0.22289065 0.032995757 -0.17468996 -0.1470487
0000c0 4d 52 4c bc f7 19 49 bd 73 91 4e be 18 af 07 3d
       -0.012470794 -0.049097028 -0.20172672 0.033125967
0000d0 1c 79 c0 3d 9e b4 74 3e aa 5a 3c bd 0f 51 fd 3d
       0.093981 0.23897025 -0.0459849 0.12368976
0000e0 1a 91 5a 3d 27 3c 00 be b7 6b 49 be d9 2f 08 be
       0.053361036 -0.12522946 -0.19669996 -0.13299502
0000f0 02 72 00 be d4 56 1e 3d 8b ff 2a be ca 3c 8d 3e
       -0.1254349 0.038657025 -0.16699044 0.2758544
000100 38 66 e4 3d aa 77 4f 3d 7b 24 05 be bc 7b 28 3c
       0.11152309 0.05065123 -0.13002197 0.010283407
000110 01 ed c1 bd bb ae 18 3e 47 99 a1 be 40 7a 78 3d
       -0.09469033 0.14910404 -0.31562254 0.06066346
000120 80 0d 82 bc 18 0f af be 0c 31 6b be 16 9b 48 bd
       -0.015875578 -0.34191203 -0.22967929 -0.048976026
000130 5b 90 92 be a7 94 15 be a6 2e 7f 3d 08 b4 a0 be
       -0.2862576 -0.14607488 0.062300347 -0.31387353
000140 fb 04 98 bd 78 e2 ae 3c 1c 5a 3c ba 8e bf da 3d
       -0.07422825 0.021348223 -0.0007185058 0.106810674
000150 b2 22 65 3c c2 31 70 be f5 8a ef 3d 45 8c 98 bc
       0.013985323 -0.23456481 0.11696426 -0.018621573
000160 af 1c a5 bd 62 28 87 be 85 48 a5 3d 64 53 19 3e
       -0.080621116 -0.26397997 0.08070473 0.14973217
000170 0b 51 84 3d 8b f5 34 bd 5c ce ba 3c b1 54 02 bd
       0.0646077 -0.04417948 0.022803478 -0.03181905
000180 33 28 25 3d dd d7 b0 3e 32 f5 90 3d f3 a1 e9 bc
       0.04032154 0.3453969 0.07078017 -0.028519606
000190 02 6c 4a bd 53 77 f3 bd 81 41 4b bb 5f d2 3f bd
       -0.04941941 -0.11887994 -0.0031014385 -0.046831485
0001a0 94 12 80 be d3 b7 07 3e 7b 17 8f bb 46 a3 bf 3d
       -0.25014174 0.13253717 -0.0043668128 0.09357314
0001b0 ae 8c 0c be eb 09 22 be 50 19 bc bd 59 0e ae be
       -0.1372554 -0.15824096 -0.091845155 -0.3399532
0001c0 48 91 38 3d 1b d4 bc be 6e 12 c1 bd 48 b9 59 be
       0.045060426 -0.36880574 -0.09427343 -0.21262085
0001d0 41 87 6d be dc 4c e9 bc 2b 5f 4c 3d 1e 8a 94 bd
       -0.23196127 -0.028479032 0.049895447 -0.07252906
0001e0 29 29 84 be 40 f7 90 be 3d cf 01 bf 0a c4 47 3e
       -0.25812653 -0.28313637 -0.50706846 0.19508377
0001f0 f9 84 f3 3d 49 18 e8 bc 8f 86 82 be 76 86 fb 3d
       0.11890597 -0.028331893 -0.25493285 0.12281506

xy_encoder.resizer.to_hidden.weight f4 [32, 1]
000000 20 4c 03 3b a8 ff 2d bf 37 67 ed 3e 47 6e aa 3e
       0.0020034388 -0.67968225 0.4636781 0.3328726
000010 a9 3c 06 3f ff 93 03 3e 1e 20 04 3f da 57 ca 3e
       0.5243631 0.12849425 0.51611507 0.3952015
000020 a1 00 91 be ac 91 d4 3e c2 b3 39 bf 6e 3b a4 3d
       -0.28320792 0.4151739 -0.72539914 0.08019148
000030 42 4b ef 3e 3d 04 01 3f 45 1b 8c 3e b2 b4 a8 3e
       0.46737105 0.5039709 0.27364555 0.3295036
000040 11 41 20 3f 32 85 f8 be 95 97 25 3f 7d 5e 83 be
       0.62599283 -0.4853912 0.6468442 -0.25658026
000050 7b 53 30 bf 93 b2 1c 3e e9 ae 12 3d 65 85 f8 39
       -0.6887738 0.15302496 0.03581134 0.00047401633
000060 3f 82 de 3d d3 c8 25 3f 86 e6 7a 3e e9 e7 73 be
       0.10864686 0.6475956 0.24502 -0.23818935
000070 59 a5 3b bf 7d d8 87 be 93 9e c8 3c b6 66 da 3d
       -0.73299176 -0.26532355 0.024489677 0.10664122

xy_encoder.resizer.to_hidden.bias f4 [32]
000000 4d 26 57 bc 52 05 52 bd 69 52 6a be be c0 70 be
       -0.01313169 -0.051274605 -0.22883 -0.23511025
000010 fe 44 88 3c a1 97 71 bd a0 1f 10 be c9 46 42 be
       0.01663446 -0.058982495 -0.14074564 -0.18972315
000020 d3 18 72 be 7f 17 d3 be 22 b4 f8 bd 16 a8 ed 3d
       -0.23642282 -0.41228864 -0.121437326 0.116043255
000030 82 90 1b 3e f6 74 52 bd c4 88 66 be 42 7d ba be
       0.15191844 -0.051381074 -0.2251311 -0.3642369
000040 c8 c2 9b be 2b 5a 58 be 43 89 45 3d ca e0 ad be
       -0.30422044 -0.21128146 0.048226606 -0.33960563
000050 60 2b a4 bd 6c 6e 84 be f3 32 0c bd 12 54 aa bb
       -0.080160856 -0.25865495 -0.034228276 -0.0051980102
000060 83 f2 91 be 79 d2 f2 bd 26 f8 9e be 22 fd a8 bb
       -0.28505334 -0.11856551 -0.31048697 -0.005157129
000070 9e 0d e8 3c be 81 f4 3d 11 bf 04 be 36 69 61 be
       0.028326806 0.11938809 -0.12963511 -0.22012791

xy_encoder.resizer.out.weight f4 [128, 32]
000000 3c 85 cc 3d d7 3a c0 be 99 32 6c bd b8 ee 2f 3e
       0.0998635 -0.3754489 -0.05766544 0.17180908
000010 97 d0 d8 be 7c d8 90 be 01 ab bf be fc bc 85 be
       -0.4234664 -0.28290164 -0.37435153 -0.26120746
000020 ee c5 b8 bd e3 35 f5 bd 92 d9 3b 3e a0 70 41 bd
       -0.09022127 -0.11973169 0.18344715 -0.04722655
000030 bb cc 8d 3e ce c7 9e bd d2 18 0d bd 83 11 83 3e
       0.2769526 -0.077529535 -0.0344475 0.25599298
000040 b8 30 af be f8 cc bf 3d ad 5d a8 be b8 73 61 3e
       -0.34216857 0.093652666 -0.3288397 0.220168
000050 d4 6e 91 be 9c 8d d0 bd 24 29 c1 be 4f 3c 6f be
       -0.28404868 -0.1018326 -0.377267 -0.2336285
000060 48 0b c1 3e 49 61 d1 bd 0a c4 99 3c 9b d1 20 3e
       0.3770392 -0.10223634 0.018770237 0.15704958
000070 6f c2 5c 3d f3 3d af 3e bc 8a 65 bd 0d e0 3c be
       0.053896364 0.3422695 -0.05604051 -0.18444844
000080 7e 6e 6a 3e 7f f9 a0 bd 7c 88 d6 be d0 91 8a 3e
       0.22893712 -0.078600876 -0.41901004 0.2706437
000090 cf c3 dc be 97 34 83 3e ae 8d e6 3d f0 65 95 bd
       -0.4311814 0.2562606 0.11257492 -0.07294834
0000a0 cf 46 c9 3b cf 9e 88 3b b1 d0 d4 be 6c 61 1e bf
       0.0061424742 0.004169322 -0.4156547 -0.61867404
0000b0 81 f1 83 be 9a fc 85 be 66 85 8c 3d 56 26 a3 be
       -0.2577019 -0.26169282 0.06861381 -0.31865185
0000c0 f4 3c ea be 7f 1d a0 be e9 fd d4 be 6b 3d 06 3e
       -0.4574963 -0.31272504 -0.41599968 0.13109367
0000d0 3f f1 c0 be be 21 5c 3e d1 84 4e 3e b0 b7 f5 be
       -0.37684056 0.21497247 0.20167853 -0.47991705
0000e0 61 26 88 be 74 6b 72 3e aa 5e d1 3e f0 4e 2c bd
       -0.2659178 0.23673803 0.40892535 -0.04206747
0000f0 a2 a8 53 3e 31 85 07 bf 8e ff 1c 3e b0 a7 34 3e
       0.20669797 -0.5293761 0.15331861 0.17642093
000100 ac de 1c 3e 07 f3 eb bc 5b 0e 49 be ea 65 5b be
       0.15319318 -0.028802408 -0.19634382 -0.21425596
000110 8f cb dd 3d d8 71 2d 3e 5d e2 7f 3d b3 f4 bf 3e
       0.10829841 0.16937959 0.062471736 0.37491378
000120 58 41 ef bd 5b 5e 77 bd 1f 6a b0 3e c0 90 cf 3e
       -0.11682385 -0.06039272 0.34455964 0.40540123
000130 a7 48 82 3b 84 d9 c2 bd af 37 11 be 7a 79 26 be
       0.003975946 -0.09514144 -0.14181398 -0.16257277
000140 fc 13 3e bd 54 1e cc bd f4 73 ce 3e cc 5c 38 bf
       -0.046405777 -0.09966722 0.4032284 -0.72016597
000150 c8 24 c3 be 80 2a e2 be 88 84 74 be cc 04 05 3e
       -0.38114 -0.4417305 -0.23878682 0.12990111
000160 53 69 9d be 9d 75 b6 be d6 70 cc 3d 45 cf 7a bd
       -0.30744419 -0.35636607 0.09982459 -0.061232824
000170 85 17 ad be 0b 31 92 be 6f 00 16 be ab bc 53 3e
       -0.33807006 -0.28553042 -0.14648603 0.2067744
000180 79 92 cb be 64 28 59 3e df c5 42 bc 38 cb 09 be
       -0.39760187 0.21206814 -0.011887996 -0.13456428
000190 0e e5 3a be 0d 2b b1 be 73 46 be 3c 4a e1 b1 3e
       -0.1825144 -0.34603158 0.023226952 0.34742194
0001a0 dc d6 27 3e b2 3e d9 be 51 b7 85 3e 69 ef bb bd
       0.16390556 -0.42430645 0.26116422 -0.09176523
0001b0 6f b8 18 bc 3a 99 b8 bd 7e 8b 78 3d b3 38 b4 be
       -0.009321316 -0.09013601 0.060679905 -0.35199508
0001c0 1c c8 b2 be 32 dd b2 be 93 76 1a 3e c1 2c 49 be
       -0.34918296 -0.34934384 0.15084295 -0.19645979
0001d0 67 fb 8f 3c 5a df d9 3d ca 5e 6e 3d e6 ed a1 3e
       0.017575933 0.10638304 0.058195867 0.31626815
0001e0 b5 94 9b 3d bb 62 81 be 76 db e0 bd 53 c2 a8 3e
       0.07596723 -0.25270638 -0.10979359 0.32960758
0001f0 0c 05 a1 bd f0 e3 08 3f 26 52 72 be 64 d9 fd 3b
       -0.07862291 0.53472805 -0.2366415 0.0077468622
000200 ff fc 5b be 12 a2 a7 be 2f c9 d0 3d 23 94 c3 bd
       -0.21483229 -0.32740837 0.10194623 -0.09549739
000210 96 44 72 3e 71 d1 34 bd b7 74 e9 3e d2 65 18 3e
       0.23658976 -0.04414505 0.4559686 0.14882591
000220 ff fd 00 3f a2 88 8d bc 7a df 83 be 87 23 20 be
       0.5038757 -0.017277066 -0.25756437 -0.15638553
000230 f1 ed 33 be 72 b7 98 3e 06 64 28 be d6 39 46 be
       -0.17571236 0.29827458 -0.16444406 -0.19358
000240 88 b9 54 be 83 cb cc 3e 0a 2b 86 be dc ed 5d 3e
       -0.207739 0.39999017 -0.2620471 0.21672767
000250 72 f8 9e 3e 69 99 83 be 78 61 94 bc 9a e2 13 be
       0.31048924 -0.2570298 -0.018112883 -0.1444191
000260 db 79 bd 3e 04 8e c0 bd 53 0a 2c 3e e6 e7 6d 3d
       0.3700703 -0.09402087 0.16800813 0.058082484
000270 2f ac c9 be e5 f9 2b 3e fc eb 00 be 7a 45 b7 3e
       -0.39389178 0.16794546 -0.12590021 0.35795194
000280 93 5a a8 3e 85 1e d8 3d 51 98 52 be 84 05 b2 be
       0.32881603 0.10552696 -0.20565917 -0.34769833
000290 51 5d 80 3e 33 7d f8 bc 2c 66 a3 3e a1 10 2a be
       0.25071195 -0.030333137 0.31913888 -0.16607906
0002a0 51 e9 b7 be 7a 4e 96 3e 2c 17 2b 3e c5 65 68 3e
       -0.35920194 0.29356748 0.16708058 0.22695072
0002b0 20 8b e1 be b7 38 74 bc d0 f0 e2 be 6d 01 4f 3d
       -0.44051456 -0.0149061 -0.4432435 0.05053847
0002c0 7f 18 7b 3e 4f 9e 16 3e ce 1c 7b be 3d d9 c1 be
       0.24521063 0.14708827 -0.24522707 -0.37861052
0002d0 2b 4e a4 3d 91 b0 23 3e 28 a8 69 be 4f f4 be be
       0.08022722 0.15985323 -0.22818053 -0.37295768
0002e0 84 ab e0 3d 6c cd 99 3d 75 8b 66 be f9 46 e4 be
       0.10970214 0.07509884 -0.22514136 -0.44585398
0002f0 d9 7e ea be ca 02 be 3e 80 49 c3 bc d6 dc 9c 3e
       -0.45799902 0.37111503 -0.023838758 0.30637234
000300 3d 49 1c 3e 73 2c 8f bc 8a da 91 be 10 3b 09 bf
       0.15262313 -0.01747725 -0.28487045 -0.5360575
000310 a8 00 37 3e 78 18 e5 bc 80 3b 5f 3e c7 33 9e bd
       0.17871344 -0.02796577 0.21800041 -0.077247195
000320 4f ef f7 be 26 5f f6 be dd 12 8a 3e 37 1a 9d 3c
       -0.48424765 -0.48119467 0.26967517 0.01917754
000330 33 ec b2 3e e6 c7 61 bd ed 00 1e be f2 3b 72 be
       0.3494583 -0.05512228 -0.1543004 -0.2365568
000340 87 c0 80 3e c7 5d 84 be e6 9b 8d be 3a a9 0e bf
       0.25146887 -0.25852796 -0.27658004 -0.5572697
000350 bb 5b 57 3e 33 2a 0f bf 50 86 93 bd fc ff 1b be
       0.21031086 -0.55923766 -0.072033525 -0.15234369
000360 a4 0e 8f be 4e 5d d1 be c0 95 24 bf fb 8b a3 be
       -0.27940857 -0.40891498 -0.64291 -0.31942734
000370 87 d8 44 be 6e 4a 9d be c4 e5 57 3d f9 db b6 be
       -0.19223224 -0.30720848 0.052709356 -0.357147
000380 34 3c 09 be 5d 7c d8 be db 47 49 3e 8d 1f a6 be
       -0.13401872 -0.42282382 0.19656317 -0.32445946
000390 b5 53 9d be 12 76 3e be 93 16 9d 3c 05 e0 71 be
       -0.30727926 -0.18599728 0.019175803 -0.23620613
0003a0 ae 46 ca be 2c 32 4b be 43 9d bb 3e 22 db fe be
       -0.3950705 -0.19843358 0.3664342 -0.4977656
0003b0 50 0f f4 3b 8f 83 aa bd aa 6f 43 bd b1 e7 e5 be
       0.0074481145 -0.08325874 -0.047713913 -0.4490333
0003c0 6b 8c ca 3b 6b 0f b0 3e 8c 87 31 3e f4 c0 ec 3b
       0.00618129 0.34386763 0.17336863 0.0072251502
0003d0 33 cb a7 be bc 75 b0 3d 99 af 91 3e 02 5e b6 3d
       -0.32772216 0.08616206 0.28454283 0.08904649
0003e0 fc a1 fc 3d 2c 3e 99 bc 5a 35 b6 be b6 fe 38 be
       0.123355836 -0.018706404 -0.3558758 -0.18065915
0003f0 cb 8b aa 3e 09 1b c7 be a9 2b 8d bd 1a f6 4c 3e
       0.3330978 -0.38887814 -0.06893093 0.20015755

xy_encoder.resizer.out.bias f4 [128]
000000 14 a0 a2 bd 7a a6 5c be 0f c7 4f 3e 16 85 a0 3d
       -0.07940689 -0.21547881 0.20290779 0.07837884
000010 bc 6b bf be ca 91 40 be 43 e2 1c 3e 63 36 99 bd
       -0.37386882 -0.18805614 0.15320687 -0.074810766
000020 c7 62 b0 bc 4b 68 a6 be 89 d9 80 3d 33 d7 8d be
       -0.021531476 -0.32501444 0.062914915 -0.27703246
000030 12 59 e6 be d6 b1 d0 bc c7 4e c4 be b8 19 21 be
       -0.4498983 -0.025475424 -0.38341352 -0.15732467
000040 52 b4 6a be e0 14 0e bb fb 79 80 3d 63 62 cc bc
       -0.22920349 -0.0021679923 0.06273266 -0.024949258
000050 ca 9e 15 be 33 e4 24 be 3f 64 12 be bd b1 4f be
       -0.14611354 -0.16102676 -0.14296053 -0.20282646
000060 43 a5 08 be d5 de 7d bd bf 4b 73 bd 79 d2 89 bd
       -0.13344292 -0.061980087 -0.05939841 -0.067295976
000070 28 44 90 be 70 26 06 3d 4c 08 66 3e d3 e6 9d be
       -0.28177 0.0327515 0.22464103 -0.30840167
000080 94 35 07 bc 8a 60 e9 bd 84 a5 b4 bd c9 52 e3 3c
       -0.00825252 -0.113953665 -0.08820632 0.027749436
000090 84 dc 43 3e 01 23 df 3d 9f 3f aa bd ac 47 42 be
       0.19127089 0.10895348 -0.08312916 -0.18972653
0000a0 79 4f 90 bd 29 14 9d be 11 38 79 3c fa 85 5a be
       -0.07046408 -0.30679443 0.015211121 -0.2134017
0000b0 88 90 69 be f2 be a1 bc d8 bb 85 3d 54 9f c8 bb
       -0.2280904 -0.01974437 0.06529969 -0.006122509
0000c0 47 b2 b3 3d 2e ee 48 be b4 69 88 bd f4 7e b0 bc
       0.08774238 -0.19622108 -0.06660786 -0.021544911
0000d0 0f 6c 07 3e 52 36 13 3e 0c 4b 71 bc 11 01 be 3c
       0.13224815 0.1437619 -0.014727365 0.023193868
0000e0 1c 05 ae bc 52 f8 9e be 1a bf 3e be 28 e1 62 be
       -0.02124267 -0.31048828 -0.18627587 -0.22156203
0000f0 05 2f 38 bd a8 e4 3d be 11 1c 5d 3d fd 4e 9a 3e
       -0.044966716 -0.18544257 0.053981844 0.30138388
000100 88 66 7e 3e df e2 28 be e9 33 33 be 32 3d cd 3c
       0.248438 -0.16492794 -0.17500271 0.025053594
000110 f4 64 3d be 2d 67 c6 bd 73 1d 7e be 41 ac 26 be
       -0.18495542 -0.09687648 -0.24815921 -0.16276647
000120 4c ad cc 3c 7e ef 7d be 9b f7 51 be 80 eb 1f bd
       0.024984978 -0.2479839 -0.2050461 -0.03904295
000130 b5 3d 7f be fb dd ce bd 9a 36 7f 3e d3 11 89 be
       -0.24925883 -0.10100933 0.24923173 -0.2677141
000140 0b e2 15 bd ed ef e5 bc 37 7a 96 bc d9 e2 bc 3d
       -0.036592524 -0.028068507 -0.018368823 0.09222955
000150 1a 71 02 be aa a9 a5 3d 00 00 00 00 0f 9b 8a 3d
       -0.12738457 0.080890015 0.0 0.06767856
000160 80 8e 1a be b9 52 00 be f9 c4 6e 3e 84 cd dd 3c
       -0.15093422 -0.12531556 0.23317327 0.027075537
000170 63 60 b3 bd 3d b6 fe bc 76 08 13 3d d7 0a 56 bd
       -0.08758619 -0.031092757 0.03589674 -0.05225643
000180 60 03 06 3d 3f dc ef 3e 4c 22 25 3e f2 b9 1a 3d
       0.032718062 0.46847722 0.16126364 0.037774988
000190 58 1d 43 bd 54 bd 8c be 17 26 0b be eb 89 c4 3b
       -0.047635406 -0.27488196 -0.13588749 0.0059978864
0001a0 a7 81 16 be 36 a9 5d bd 44 18 dd bc 31 23 57 bc
       -0.14697896 -0.05411645 -0.02698911 -0.013130949
0001b0 cc 34 58 be de af 9d bd 66 e2 12 be d8 d5 d7 be
       -0.2111389 -0.0769956 -0.14344177 -0.42155337
0001c0 a7 09 55 3d 8d 58 1b be 91 5d b4 bd 23 4a 7a be
       0.05201116 -0.15170498 -0.08806909 -0.24442343
0001d0 5c e1 15 be 41 c3 f5 bc 45 18 76 be 5e be 21 be
       -0.14636749 -0.03000033 -0.24032696 -0.15795276
0001e0 cb e3 be be e9 73 24 be 95 b0 b9 be 74 00 14 3e
       -0.37283167 -0.16059841 -0.36267534 0.14453298
0001f0 77 a8 b4 bc ee 13 72 be 91 43 52 be c7 7f bc bd
       -0.022052987 -0.23640415 -0.20533587 -0.09204059

xy_encoder.flat_module.to_hidden.weight f4 [128, 128]
000000 87 5f 86 bc 8b 1e 30 bd 17 ad 3f bd 20 7e 36 bd
       -0.016402973 -0.042997878 -0.04679593 -0.044553876
000010 af 97 2b bb 5b 8c 3f bd 89 ef 1b bd c7 0d 0f bd
       -0.002618294 -0.046764713 -0.038070235 -0.03492525
000020 b7 4e 9d 3b b2 98 9a 3c c0 83 05 bd ea f0 ba 3a
       0.0048006433 0.018871639 -0.03259635 0.0014262472
000030 15 74 d9 bd 70 eb 51 3c 7b 09 13 bc 7b 45 23 3d
       -0.10617844 0.01281248 -0.008974428 0.039861184
000040 95 5a 64 bd 3c d3 78 bd 36 6b 8e bd cf c1 99 bd
       -0.05575045 -0.060748324 -0.069540426 -0.07507669
000050 2b 27 fc bc 81 0d fa 38 a1 e4 9c bd 75 69 e9 bc
       -0.030780395 0.00011923444 -0.07660795 -0.028492669
000060 b8 3f 36 3d 70 6f 5c 3d e8 9c e3 3c d3 16 f2 3c
       0.04449436 0.053817213 0.02778478 0.029551899
000070 14 c2 09 bc f0 9c 64 3c 2d a3 34 bd 3b d3 bd bc
       -0.008408088 0.013953432 -0.04410093 -0.023172012
000080 ec 4d 7c 3d 58 ec a2 bd 3a e6 2a 3d de 6e 96 3d
       0.06159775 -0.07955235 0.041723467 0.07345365
000090 da 35 17 3d a3 23 9f bd c7 1e 95 bd 52 a8 af bd
       0.03691659 -0.07770469 -0.07281261 -0.085770264
0000a0 a4 1d 4c 3c 90 e5 c7 bd b3 0b 85 bb 58 9b 67 3d
       0.012458239 -0.097605824 -0.0040602325 0.05654463
0000b0 7c 39 e1 3c f2 7d 9a bc f3 5a 79 bd 99 c4 bd bd
       0.027493231 -0.018858884 -0.06087775 -0.09266014
0000c0 fd 04 d9 bd c5 f8 9e bd 1b 8a eb bc f0 6c 00 3d
       -0.105966546 -0.07762293 -0.028752377 0.03135389
0000d0 09 54 50 bd 38 1e 0d bd 42 1f c6 bc 24 20 5f bd
       -0.050861392 -0.034452647 -0.024184827 -0.05447401
0000e0 55 7d 3d bc a9 c3 c5 bd 04 8a af 3a 94 be 89 bd
       -0.011565526 -0.0965646 0.0013392572 -0.06725803
0000f0 f8 ee 7d 3d 2f 86 4b 3d c8 d4 c7 bc 72 c9 fe bb
       0.061995476 0.049688514 -0.024393454 -0.007775479
000100 55 c0 4b 3d 82 31 3d 3d 15 fe 5e 3d e4 79 90 bb
       0.04974397 0.046189792 0.05444153 -0.0044090617
000110 a2 a5 b3 bd 27 30 4b 3d 36 71 40 3b 12 d7 36 3d
       -0.08771826 0.04960647 0.0029364354 0.0446387
000120 55 9c 00 bd d3 6a 43 bd a0 3e ae bd bb 8a a8 bd
       -0.03139909 -0.047709297 -0.085080385 -0.08229586
000130 9a a3 80 bd 0d f6 58 3d 16 9d ab bd a1 8a a7 bd
       -0.062812045 0.052969027 -0.08379571 -0.08180738
000140 b5 b3 17 b9 12 56 c1 bd 2d 3a 3d 3d 65 f7 9f 3a
       -0.00014467428 -0.09440245 0.04619806 0.0012204467
000150 ca 03 28 3d 06 c2 98 bd 68 18 e9 3c e8 f5 54 bd
       0.04101924 -0.07458882 0.02845402 -0.051992327
000160 8e 96 c8 bb ac 25 a8 bd 17 b2 eb bc 15 31 82 3d
       -0.006121463 -0.0821031 -0.028771443 0.06357018
000170 9c 13 08 3d b2 2f a9 bd 95 96 8d bc e0 01 d7 38
       0.033221826 -0.0826105 -0.017283717 0.00010252348
000180 fe f8 7d 3d ba e3 0c bd 0d 02 f6 ba 3a 11 a5 bc
       0.062005036 -0.034396864 -0.0018768922 -0.020149816
000190 40 64 56 3d fd 8d 7c 3c a1 fa bb bd ef b1 7b bd
       0.0523417 0.015414712 -0.09178663 -0.061448988
0001a0 c9 fb de bc 6e b3 9a bc 34 11 56 bd 88 0d 2e bc
       -0.02721967 -0.018884387 -0.0522625 -0.010623343
0001b0 88 61 84 3c 40 2d 74 3d 06 fd e8 3c 30 9d 9f bd
       0.016159788 0.059613466 0.028440963 -0.07793653
0001c0 54 79 58 3d 18 81 03 bd 80 ff 25 3d 0c 39 89 bd
       0.052850083 -0.032105535 0.040526867 -0.06700334
0001d0 aa 6a 60 bd 42 6a 5d 3c b5 9c 42 bc bf 14 05 3c
       -0.054789223 0.013514103 -0.011878182 0.008122622
0001e0 6f 90 48 3d d6 91 65 3d 10 4c 1e bc 9c 98 fe bc
       0.048965868 0.056047283 -0.009661689 -0.03107863
0001f0 ca c3 60 3d 43 b8 b0 bd 06 66 39 3d 47 ae ce bd
       0.05487422 -0.08628895 0.045263313 -0.100918345
000200 09 bc c2 bc dc 68 4b bd e9 f1 32 3d f3 c5 7a 3c
       -0.023771303 -0.04966055 0.043687735 0.015305984
000210 72 e2 88 bd 1a 20 69 3d 12 e2 f8 3c 04 9f 1f bd
       -0.06683816 0.05691538 0.030381236 -0.03897001
000220 0c 0f 82 bc 25 a0 97 3d 3c a3 28 3d 95 66 d3 bd
       -0.015876316 0.07403592 0.041171297 -0.103223
000230 7b 41 a0 bd bf d5 8d 3d d8 7f 4a bd 5f 25 bb bc
       -0.078249894 0.069255345 -0.049438328 -0.022844968
000240 17 1d c9 bd 8a 42 9d bd 76 d4 13 bc 02 93 7d 3d
       -0.098200016 -0.07678707 -0.009022823 0.061907776
000250 b8 b7 54 bd d2 90 5f 3d 3e 4c 89 bd 56 f7 5a bb
       -0.05193302 0.05458147 -0.06703995 -0.0033411584
000260 fb 14 1e 3c 23 32 3a bb ef 81 84 bd 15 c4 d3 3c
       0.009648557 -0.0028411231 -0.06470095 0.025850335
000270 ba ba 3c bd e3 d2 18 bc ff 0b fc 3c 5f 88 96 3c
       -0.046076514 -0.009327623 0.030767439 0.018375574
000280 ff 2d a4 bd d0 70 c7 bb 7e 50 6a bc fa 06 10 3d
       -0.080165856 -0.0060864463 -0.014301417 0.035162903
000290 66 41 85 3d f1 79 48 3d 30 bb 83 3c e3 bf 8f bd
       0.065066144 0.048944417 0.016080469 -0.07019021
0002a0 da 53 4f 3d 27 11 07 3d fb 07 75 bd 22 04 61 3d
       0.050617076 0.032975342 -0.059822064 0.054935582
0002b0 2e 4a 9f 3d 88 c3 f8 3c 74 5d ba bd a1 f8 97 3d
       0.077778205 0.030366674 -0.09099856 0.07420469
0002c0 0a bf 89 bd f7 18 dd bd 95 07 c7 bd 4c c3 cf 3c
       -0.06725891 -0.10795777 -0.09718243 0.02536168
0002d0 af 8b b7 bc c8 cb 14 3d 7d 81 71 bc b9 54 03 be
       -0.022405474 0.036327153 -0.014740345 -0.12825288
0002e0 06 66 ea bb 0c fa 1e 3d 42 20 b9 3c b1 ba 7e 3c
       -0.0071532754 0.038812682 0.02259839 0.01554744
0002f0 f6 be 4e 3d 47 e7 88 3d c8 63 11 3d a1 a6 10 bd
       0.050475083 0.06684738 0.03549555 -0.03531516
000300 ef 24 cf bd 3d 21 bb bd 32 ab f6 bc e0 6d 14 3d
       -0.101144664 -0.09137199 -0.03011093 0.036237597
000310 77 18 4a bd e5 53 6d bc 48 0b d2 3c 52 eb 96 bd
       -0.049339738 -0.014485334 0.025640145 -0.073691025
000320 c4 db 40 bd 40 a1 fb 3c 03 21 24 bd bc 5d 32 3d
       -0.047084585 0.030716538 -0.040070545 0.043546423
000330 3d 4b b3 bd 46 4b 77 3d fa 70 bd bd 3d a1 7c bc
       -0.08754585 0.06037452 -0.09250064 -0.015419302
000340 af 72 54 3b c6 b1 ae bb 33 f7 63 bc a5 e9 2b 3d
       0.003241699 -0.005331251 -0.013913917 0.041970868
000350 f0 5e ab bd c2 15 a2 bc 3e 6a 6f 3d 18 39 33 bd
       -0.08367717 -0.019785766 0.05845093 -0.04375562
000360 ba a8 91 3d 9a ce 3a bd f3 a5 c7 3c f4 75 22 bd
       0.0711226 -0.045607187 0.024371123 -0.03966327
000370 69 45 a1 3d 58 7e ec bd ee 22 6b bd c1 5f eb bd
       0.07874567 -0.11547536 -0.05740636 -0.11492873
000380 26 8b 10 bd ab f4 6d bd 3b 12 80 3d 4f f1 a1 bd
       -0.035288952 -0.05809466 0.06253477 -0.07907354
000390 38 47 d6 bc 60 ff cf bd 04 27 59 3d ec ff be bd
       -0.026157007 -0.10156131 0.053015724 -0.09326157
0003a0 4e 6c 96 bc 15 c8 9a bc 69 9e 3c 3d ba c2 6a 3d
       -0.01836219 -0.018894235 0.04604951 0.057314612
0003b0 24 3e 24 bd 5b f5 e1 3b 4e 01 3f 3d 04 27 24 3b
       -0.040098324 0.0068957037 0.046632104 0.002504767
0003c0 81 9d 99 3d 76 78 3e bd 54 3f 4c bd 03 09 1b 3d
       0.075007446 -0.0465016 -0.049865082 0.03785039
0003d0 59 b5 89 3d fe d4 b1 bc 55 ae b2 bd cf 7a fd bd
       0.067240424 -0.021708008 -0.087246574 -0.123769395
0003e0 eb 0e 4e bd 74 e5 9e bd 0a 1e f6 bc 9e 6f d2 bc
       -0.050307196 -0.077586085 -0.03004362 -0.025687989
0003f0 3e 8d 53 bd e5 5c 84 3c f4 0b 37 bd 69 34 11 bc
       -0.05164837 0.016157577 -0.044689134 -0.008862593

xy_encoder.flat_module.to_hidden.bias f4 [128]
000000 9a 47 0c bd 36 a8 54 bd e3 e2 0a be c4 fd 66 bd
       -0.034247972 -0.05191823 -0.13563113 -0.056394354
000010 9f 90 18 bd 7c ec 9f bd 73 5b 31 3d 7c a1 ac 3a
       -0.037247296 -0.07808778 0.043300103 0.0013170685
000020 6c 77 40 be a3 f1 2c bd 08 82 ce bc 9f b8 37 3d
       -0.18795556 -0.04222263 -0.025208488 0.044853803
000030 39 03 7d bc 25 fa 22 bd 0c 19 8a bc b1 11 77 3d
       -0.015442663 -0.039789338 -0.016857646 0.060319606
000040 db 71 58 bd ef 55 c0 bd 2b 15 55 be 0f 03 e5 bc
       -0.052842956 -0.093913905 -0.20808856 -0.02795556
000050 58 47 42 bd f9 6d ca bd 8e 32 70 bd 7d 5e 5e 3d
       -0.04743132 -0.09884257 -0.058641963 0.05428933
000060 63 5f a1 be f9 a0 0f be 9d ff 9f be 5c a8 fe bc
       -0.31518087 -0.1402625 -0.31249705 -0.03108614
000070 59 f0 db bc b6 60 6d 3d 6b 26 d8 bc 35 25 da 3c
       -0.026848005 0.05795356 -0.026385507 0.02662907
000080 ab b6 c9 be c9 a1 33 3d 33 7a 2e 3d d4 f0 87 bd
       -0.39397177 0.043855462 0.042597007 -0.06637731
000090 bf 14 a1 3d e7 09 f7 3d a2 ef 1b be 70 68 64 bd
       0.07865285 0.120624356 -0.15228131 -0.05576366
0000a0 9b 4b 47 bd 91 83 b3 3d b8 29 49 be cf e3 98 3d
       -0.048656087 0.08765329 -0.1964482 0.07465326
0000b0 a4 be 9f bd 84 56 83 bd 90 51 5c be 77 6c 6b be
       -0.07800034 -0.06412986 -0.21515489 -0.22990595
0000c0 6a 64 17 be 90 f3 0b bd 6f b6 7d bd bc 22 bf 3c
       -0.14784399 -0.034167826 -0.06194156 0.023331992
0000d0 9f 97 3e be 61 ea 46 bd d1 14 6b bd 00 d3 54 be
       -0.18612526 -0.048563365 -0.0573929 -0.20783615
0000e0 3f 80 dc 3c f2 e8 20 be 62 c0 88 be d5 3a 65 be
       0.026916621 -0.15713862 -0.26709276 -0.22385724
0000f0 0a 73 1c 3b c2 30 4b bd 3b b9 cd bd 2c fe 3d 3e
       0.002387228 -0.049607046 -0.100450955 0.1855399
000100 af 42 39 3d 89 df 39 bc c1 aa 04 3d ec 4b 09 3e
       0.04522961 -0.011344799 0.032389406 0.13407868
000110 ea 7e 33 bd 4e 78 6c bd c7 5d b3 bc 0e 9d f6 bb
       -0.043822207 -0.05773192 -0.021895302 -0.0075260466
000120 b4 a0 6b be c3 59 59 3d 6a 5a 50 be 43 92 cd bb
       -0.23010522 0.05306412 -0.2034699 -0.0062735393
000130 27 52 17 3d 8a df 97 bd 61 41 84 bd b0 5c 05 3c
       0.03694358 -0.074156836 -0.064577825 0.008139774
000140 8c 5b 17 bd a8 a4 a5 bd a7 2e 40 be 81 f5 be bd
       -0.03695254 -0.08088046 -0.18767796 -0.0932417
000150 37 aa 2b bd a8 5a 24 bd de e9 56 3d 7a 42 53 3d
       -0.041910376 -0.04012552 0.052469127 0.05157707
000160 3a 6a 09 bd 8c 6b 51 bd 71 3b c6 3d bd a6 66 bd
       -0.03354857 -0.051127955 0.09679306 -0.056311358
000170 d8 16 26 bd 84 9e d2 3d f3 26 af 3c 33 51 48 bd
       -0.04054913 0.10284141 0.021380877 -0.048905563
000180 d1 8c 3b 3c a2 68 99 be 37 fc 45 bb 1e 75 ea bc
       0.0114471475 -0.2996264 -0.0030210146 -0.028620299
000190 74 0f 23 be 81 42 2d 3d 91 4b 36 be a8 64 96 bd
       -0.15923864 0.04229975 -0.17802264 -0.073434174
0001a0 0c 6f 31 be ef ad 4c 3d ad ab 1c 3e eb e5 40 bd
       -0.17327517 0.049970564 0.15299864 -0.047094267
0001b0 1e 67 07 be a6 aa 52 bd 5b ec 8c bd e8 ee 2c 3d
       -0.1322293 -0.051432274 -0.06881019 0.042220026
0001c0 09 80 24 bd 9a 88 71 bd 37 8d 56 bd 02 82 9f bc
       -0.040161166 -0.058968164 -0.052380767 -0.019471172
0001d0 04 d7 b0 3d 12 bf 8b bd 74 73 fe bd 02 5b e4 bd
       0.08634761 -0.06823553 -0.12424365 -0.11150171
0001e0 18 c7 65 bd 61 bc 1e 3c 83 4f 89 bd 49 ea 7e be
       -0.056098074 0.009688468 -0.06704619 -0.2489406
0001f0 89 a8 a6 3c 1a da c9 3d 95 1f b8 be 4a 76 71 3d
       0.020344036 0.09856053 -0.35961595 0.0589507

xy_encoder.flat_module.linears.0.weight f4 [128, 128]
000000 cd 6b b8 bd f5 5d 87 3d 34 b1 a8 bd 39 a2 f7 3c
       -0.09004936 0.06609718 -0.08236924 0.030228721
000010 28 27 9f bd 44 61 71 bd f7 12 94 bd e8 da c5 bc
       -0.0777114 -0.05893065 -0.0723018 -0.024152234
000020 04 94 64 bd ef 31 76 3d 02 ef 75 3c 2c e3 8b bc
       -0.05580522 0.060106214 0.015010597 -0.017076097
000030 c5 14 f1 bd 07 ee 17 bd fa 2c 1f 3d 59 86 67 bd
       -0.117715396 -0.037092235 0.038861252 -0.05652461
000040 f3 7c a0 3c a6 2f 00 bd da 3c bf bd 4c 67 e4 bc
       0.01959083 -0.03129544 -0.093377784 -0.027881287
000050 f4 f7 91 3d 40 02 ec bc 60 24 6f bb 70 39 88 bd
       0.071273714 -0.028809667 -0.0036490187 -0.0665158
000060 9e 6a 2a bb 15 56 bc 3b ec 14 76 bc 16 57 a3 bd
       -0.002600349 0.0057475665 -0.015019637 -0.07975595
000070 0d 87 ae bd 56 c1 8a bd ea 92 0c 3d 1c 9d cc bd
       -0.08521853 -0.06775157 0.034319796 -0.09990904
000080 bd 37 c0 bd c1 d3 3b bd 24 9d 60 bd c5 ca a6 bd
       -0.09385631 -0.04585624 -0.05483736 -0.08144144
000090 53 d0 57 bd 03 9e c0 bd a6 75 8f 3d d3 65 2b 3c
       -0.052688908 -0.09405138 0.070048615 0.0104612885
0000a0 28 bf 70 3d 3b ca 26 3d 8e 81 dd bc 8b 06 32 3d
       0.05877605 0.040720206 -0.027039316 0.04346327
0000b0 fa 05 bc bd 69 2a ba bc 55 2e c0 bd db 90 9d bd
       -0.091808274 -0.0227253 -0.09383837 -0.076936446
0000c0 30 f3 c2 bd 0e b2 4a 3d 90 64 8f bd f7 ab 4a bd
       -0.095190406 0.049486212 -0.07001603 -0.049480405
0000d0 a7 b7 d6 bb ee ed 65 bc 7f 43 56 3d 7a b7 89 bd
       -0.006552655 -0.014033778 0.052310463 -0.067244485
0000e0 7b ae d2 bd be 05 c1 bd fb 55 c7 3c bd 8f 2c 3d
       -0.10287186 -0.09424923 0.02433299 0.042129267
0000f0 70 a5 8f bd 9f ad 5c bd 3f 12 4b 3d 00 21 0c bd
       -0.070139766 -0.053876515 0.049577948 -0.03421116
000100 29 f1 94 3b 80 1c e5 bd b5 6d 77 3c 5d 59 78 bd
       0.00454535 -0.111870766 0.01510184 -0.0606321
000110 ed ce 18 bd 01 b3 36 bc 58 40 f9 3c bf 80 71 3d
       -0.037306715 -0.011151076 0.03042619 0.058960672
000120 cf 82 86 bc 21 e3 9e 3d f3 43 67 3c 2b c4 5c bd
       -0.016419796 0.07758165 0.014115321 -0.053898018
000130 7f 14 8c 3c 83 7e 85 bc 7e 03 7e bd 74 18 d1 3c
       0.017099617 -0.016295677 -0.06201505 0.025524355
000140 92 af 17 3d 11 d7 de b7 ae b5 1c bd 8d f2 ad bd
       0.03703267 -2.656461e-05 -0.0382592 -0.084935285
000150 82 64 8c bd 8c a5 4d 3d ae 11 1a 3a b5 fd 27 3d
       -0.06855108 0.050206706 0.0005877268 0.04101344
000160 e9 75 15 3d 3c 94 79 bd 36 0c a2 bd 56 87 66 bd
       0.0364894 -0.060932383 -0.07912485 -0.05628141
000170 56 90 53 3d 2f c1 9d 3c 56 58 e4 bc c1 4e 8e bd
       0.05165132 0.019257156 -0.027874153 -0.06948615
000180 10 de 83 bc 81 5b 2b bd 83 68 85 bd d5 01 10 bd
       -0.016097099 -0.04183531 -0.06514075 -0.035157997
000190 c7 bb 6b bc b7 0b a5 3c 06 12 7b bd 24 24 e2 3c
       -0.014388031 0.020147188 -0.061296485 0.027605124
0001a0 ed dd 31 bc 04 7e 8c bd 58 0a 43 3d fa ac 54 3c
       -0.010856134 -0.06859973 0.047617286 0.012980694
0001b0 24 eb 63 bd d9 c7 25 bc de 8c 56 bd a8 46 0a 3d
       -0.05564417 -0.010118448 -0.052380435 0.03375879
0001c0 70 09 09 3d e0 54 78 bd d7 02 c8 3c 95 b3 a9 3c
       0.033456266 -0.060627818 0.024415417 0.020715514
0001d0 cc f4 a2 3c 48 79 26 3d 0e d8 cb 3c bb c3 3a bd
       0.019892119 0.040643007 0.024883296 -0.04559682
0001e0 0e cb 54 3d ba 54 a8 bd 3a ac 99 bd e0 64 ce bd
       0.05195146 -0.08219285 -0.07503553 -0.10077834
0001f0 1e 58 51 bd 8f 9d 53 3c 67 f0 31 3d 09 51 ac bd
       -0.051109426 0.012915983 0.043442156 -0.08413894
000200 1e cf a7 3c 14 de 44 bd 8f a1 5e bc 6f 25 23 bd
       0.020484503 -0.048063353 -0.013588323 -0.03983062
000210 96 62 a6 3d a8 1e 37 bd cc cb 82 bd e0 1e 34 bf
       0.081242725 -0.04470697 -0.063865274 -0.7035961
000220 9b 3f a9 bd 08 6d 01 3c 3a ba c7 bb 76 0d 5d bf
       -0.08264085 0.00789953 -0.006095198 -0.86348665
000230 c2 39 cf bc af 69 5e bd 25 29 c6 3d c3 ac f6 3d
       -0.025296096 -0.054300006 0.096758164 0.120446704
000240 9c 5e b3 bd 02 43 09 3e 90 ec 1f 3c ad 41 aa 3d
       -0.0875828 0.13404468 0.009760991 0.08313308
000250 7c e7 d5 bc b3 9e c7 bd 4e 96 cb ba b9 0c f6 bd
       -0.026111357 -0.09747066 -0.0015532465 -0.120141454
000260 61 9b a5 ba ce df f5 bd fa aa a8 bd 34 86 36 bd
       -0.0012634807 -0.12005578 -0.08235736 -0.04456158
000270 c3 62 80 be cd a3 82 bb 1f e9 8d bd 61 0e 46 be
       -0.2507535 -0.0039868117 -0.0692923 -0.19341423
000280 11 85 df 3c b5 56 45 3d de 00 f9 3d ad 40 bf be
       0.02728513 0.048178393 0.121583685 -0.3735403
000290 3e 71 e8 bd a7 d0 3f be 5c d1 58 3d ea e3 a6 bd
       -0.11349724 -0.18731938 0.052934036 -0.0814894
0002a0 7f c0 d9 3c 82 d2 62 3d dd 4d a0 3b f5 a5 75 3d
       0.026581047 0.055376537 0.0048920945 0.059972722
0002b0 0c 4d aa 3c 54 9e 6e bd 21 cf 2b be 6f d2 fd bd
       0.020788692 -0.058256462 -0.16778232 -0.12393653
0002c0 cc 0c 32 be 0a e9 5f bd 0e 37 0e bd 59 61 b6 3d
       -0.17387694 -0.054665603 -0.034720473 0.08905286
0002d0 c0 bc 95 bb 8b e4 2a 3e 84 e4 62 bd ac 94 8a bc
       -0.00456962 0.16688745 -0.05539371 -0.016916595
0002e0 b4 23 10 be 6d ac 22 bd c5 7f 40 bd f2 2f 38 bc
       -0.1407612 -0.03971522 -0.04699685 -0.0112419
0002f0 29 d8 32 3a 85 d1 39 be c4 73 2b 3d ae e4 82 3c
       0.00068223715 -0.18146332 0.04185845 0.015978184
000300 0f d2 fa 3d 7b dc b0 3c bd 03 bf bd 67 e0 89 3d
       0.12247097 0.021589508 -0.09326885 0.067322545
000310 55 1b 00 bd 03 c1 2e bc 46 b4 53 3d 39 79 42 be
       -0.031276066 -0.010666135 0.051685594 -0.18991555
000320 1f 2f 45 bd 3b 54 4b 3d bc 69 9d 3d cf 19 d3 bd
       -0.04814064 0.049640875 0.07686183 -0.10307657
000330 14 fa 89 3d 4b 9a 95 bd 6e da 63 3c 38 d5 46 be
       0.06737152 -0.0730482 0.013907058 -0.19417274
000340 32 ad d6 be 01 82 ba bd af 6a e9 bd 93 e9 75 bd
       -0.41929013 -0.091068275 -0.113973014 -0.060037207
000350 8e 97 f6 3d 19 78 b4 bd 19 11 c3 be 6b ef 43 3d
       0.120406255 -0.08811969 -0.38098982 0.04783575
000360 7b 92 1a 3a dd 1b 96 bd 7d f6 b6 3d 69 f5 21 bd
       0.0005896461 -0.07329533 0.08933733 -0.039540682
000370 34 d2 1b 3d 95 a3 43 3b e4 75 a1 bd 89 43 68 3d
       0.038042262 0.002985214 -0.07883814 0.05670503
000380 09 53 81 be 14 7c b8 bd b6 5b 33 be 74 e5 d2 3c
       -0.25258663 -0.09008041 -0.17515454 0.025744177
000390 af bb 94 bc f7 83 ec bd 12 19 1e be 01 ea b0 3d
       -0.0181559 -0.11548608 -0.15439251 0.08638383
0003a0 95 0e ab bd b9 8f 91 be dc 48 81 3d cf cb 4f be
       -0.08352391 -0.28429964 0.06312725 -0.2029259
0003b0 e6 58 3e bd b2 d6 be bc d6 42 b0 bd 5d 2c 97 bd
       -0.0464715 -0.023295734 -0.08606498 -0.073815085
0003c0 f1 24 47 3d 7c 7e 31 bd e0 5b 8d bd 23 fd a4 bd
       0.048619214 -0.043333516 -0.069022894 -0.080560945
0003d0 61 8e 12 be af 35 2c bd 7b a0 32 bd 91 bb 16 be
       -0.14312126 -0.042043384 -0.043610077 -0.14719988
0003e0 bc 01 8c bd 7e 3c 11 bf 64 ec 49 3d a8 bb 01 be
       -0.06836268 -0.5673293 0.049297705 -0.12669241
0003f0 f0 00 f3 bd 41 8c 45 bc 16 0b 87 bd 30 54 91 bc
       -0.11865413 -0.012057365 -0.06593911 -0.017740339

xy_encoder.flat_module.linears.0.bias f4 [128]
000000 59 b9 71 bd 8a bc f4 bc b7 10 62 3e 14 f9 25 be
       -0.059014652 -0.029875059 0.22076689 -0.16208297
000010 fb a0 04 3e da 6b d0 3d c2 23 9b 3d 3a d3 c8 bc
       0.12952034 0.10176821 0.0757518 -0.024514783
000020 3e a0 17 be 8c f3 7b bd 00 10 6e bc ee 7f 9d bd
       -0.14807221 -0.06151156 -0.014530182 -0.07690416
000030 52 eb 30 be 59 c1 b5 bc 9d ae e9 bd 62 c6 87 bc
       -0.17277268 -0.022186922 -0.11410258 -0.016574088
000040 ca 20 7e bd aa fc 40 bd 9e e2 87 bd d1 68 11 bd
       -0.06204299 -0.04711596 -0.06635021 -0.03550035
000050 98 7f 8a 3a db 8b 6b bd 81 77 74 bd 4f 71 18 bd
       0.001056659 -0.057506423 -0.05968428 -0.037217434
000060 85 90 91 bd ae 2d 20 bd 03 b3 42 bd 14 90 1d bd
       -0.07107643 -0.039106064 -0.047534 -0.03846748
000070 a3 68 90 bd 1e bb 55 bc fb 69 81 bd fe c8 00 3c
       -0.07051208 -0.0130451005 -0.06319042 0.00786042
000080 37 a5 b9 bd de db 30 3d f8 d8 0a be 80 19 b6 bd
       -0.09064715 0.04317843 -0.1355933 -0.088915825
000090 0a 7a bd 3d bd 73 07 bd f0 50 9d bd 31 43 04 3c
       0.09251793 -0.03306936 -0.07681453 0.00807266
0000a0 01 2b 7b be f2 31 1d bd 35 20 62 be f1 8f 0b bd
       -0.24528123 -0.03837771 -0.22082599 -0.03407282
0000b0 15 c4 52 bd e5 02 94 bd 75 39 9b 3b 22 18 95 3d
       -0.05145653 -0.072271146 0.004737074 0.072799936
0000c0 1f c2 cf bd ae 08 3e bd 1d 42 7a bd 50 06 f9 bb
       -0.101444475 -0.046394996 -0.061098207 -0.0075996295
0000d0 a9 8b ad bb 56 7e 55 3d 3c 8c 84 bd b7 4d c5 bc
       -0.00529619 0.052122436 -0.0647206 -0.024084909
0000e0 78 ac ab bd b4 ad 05 be 88 0c 1a bd dd 1d 85 bc
       -0.08382505 -0.13054544 -0.037609607 -0.016249591
0000f0 69 56 e9 3d 08 6b 30 bd 1f 55 2e bd 7e 22 4e be
       0.113934346 -0.043070823 -0.042561647 -0.20130345
000100 16 0f 89 bd 5a 1a c9 bd 41 85 3c bd 74 7b 2c be
       -0.066923305 -0.09819479 -0.04602552 -0.16843969
000110 b0 b2 cb bc 56 11 0a be 01 e2 45 bd b4 49 21 3e
       -0.024865478 -0.13483176 -0.048311237 0.15750772
000120 aa 78 a3 bd 49 80 a6 bb 8a 4a af bc d0 99 81 bd
       -0.07981999 -0.0050812108 -0.021397848 -0.063281655
000130 85 8f 01 be 1d 81 92 bd 8c 2f 03 be 5f d2 9d bd
       -0.12652405 -0.07153533 -0.12811106 -0.07706141
000140 9c 08 4d bd 48 20 8c bd a8 aa e4 bd 85 a2 f6 3d
       -0.05005704 -0.06842095 -0.111653626 0.12042717
000150 47 69 88 be ea 3b 84 bd 00 c1 df bc 7d 9f 00 3d
       -0.2664282 -0.0645674 -0.02731371 0.0314021
000160 af d1 bb bd b3 30 fe 3d 6e 39 2e be f4 a6 d7 bd
       -0.09170853 0.124116324 -0.17014095 -0.10529891
000170 fd 8f e6 bc 2a 54 5b be 77 e8 3d bd 46 a1 56 3d
       -0.02814483 -0.21418825 -0.046364274 0.052399896
000180 9b e7 ab bd 6f 8c 3f 3c ee 7f 99 bd d2 45 cf bd
       -0.083937846 0.011691197 -0.07495104 -0.10120739
000190 ed 86 15 bd 9c ed 05 bd 23 97 53 bd 36 b4 99 bd
       -0.03650563 -0.032697305 -0.051657807 -0.07505076
0001a0 75 53 bb bc dc d3 8d bd 91 9a 50 bd 02 71 8e bd
       -0.022866944 -0.069251746 -0.050928656 -0.06955148
0001b0 c5 fb 57 bd b7 a1 9e bd 5c f4 e2 3d d8 7d 90 bd
       -0.05273034 -0.077456884 0.11081764 -0.07055253
0001c0 08 0b 42 be ab 4d 5d be f6 b1 b7 3c 94 da 6c bd
       -0.1894952 -0.21611659 0.022423726 -0.05782564
0001d0 2c 3d c1 3c 03 f7 34 be 4b 6b 36 3c 32 4b ba 3d
       0.02358874 -0.17672352 0.011133979 0.090963736
0001e0 b7 b4 55 bd 43 7e 5d be b8 c3 8a bc 82 f4 5d be
       -0.052174296 -0.21630196 -0.01693903 -0.21675304
0001f0 8f 85 19 be 25 f5 4f 3d f4 7d 88 3c 11 ec 0c 3d
       -0.14992355 0.050770897 0.016661622 0.034404818
