results/notebooks/neural_process/small_anp_periodic/params.pt (torch_old, 213042 bytes, 39 tensors)

x_encoder.to_hidden.weight f4 [32, 1]
2.307683 2.4668899 2.444091 -0.69800305 -2.3837357 1.9198564 -2.4958475 2.038381
-1.4648767 2.4947891 -0.9292228 -1.7376183 -1.4478916 -0.67589617 -1.6591601 -0.9670042
0.79388034 -0.6907712 -2.1744957 1.2844485 2.5234656 0.40478063 1.3426405 -1.732675
-2.545347 2.6678905 2.0912166 -0.63261384 -2.3468776 1.5052333 -2.3603318 -1.482167
00000000: 14b1 1340 86e1 1d40 fd6b 1c40 54b0 32bf
00000010: 208f 18c0 dbbd f53f f7bb 1fc0 d674 0240
00000020: 1481 bbbf a0aa 1f40 8ce1 6dbf 476a debf
00000030: 8354 b9bf 8807 2dbf 5c5f d4bf 968d 77bf
00000040: be3b 4b3f 62d6 30bf f02a 0bc0 cf68 a43f
00000050: 7680 2140 683f cf3e a5db ab3f 4bc8 ddbf
00000060: f7e6 22c0 b8be 2a40 7ed6 0540 fbf2 21bf
00000070: 3e33 16c0 7cab c03f ad0f 17c0 a6b7 bdbf

x_encoder.to_hidden.bias f4 [32]
-0.09240829 -0.20303293 0.6599672 0.46319833 -0.49914852 0.3317727 -0.32421187 0.79990965
0.087666705 -0.27500018 0.7280422 0.46963215 -0.02295534 0.5939127 0.6927108 -0.43708655
0.6701183 -0.5132202 -0.22352292 -0.6566075 -0.3645953 -0.28883106 -0.8013977 0.89078826
-0.011649569 -0.5343795 -0.70026785 -0.40169203 -0.14240025 0.7789456 0.5734007 -0.48224887
00000000: 8f40 bdbd dde7 4fbe 9cf3 283f 5528 ed3e
00000010: 6590 ffbe 1dde a93e 19ff a5be e1c6 4c3f
00000020: 9a8a b33d d3cc 8cbe f960 3a3f a073 f03e
00000030: d60c bcbc aa0a 183f 7f55 313f cfc9 dfbe
00000040: df8c 2b3f 6662 03bf 31e3 64be 6e17 28bf
00000050: 3cac babe aae1 93be 6628 4dbf b30a 643f
00000060: d5dd 3ebc 18cd 08bf c144 33bf 94aa cdbe
00000070: 5fd1 11be fb68 473f 63ca 123f 53e9 f6be

x_encoder.out.weight f4 [64, 32]
0.48409978 0.46735838 0.14059755 0.24598481 0.55735767 0.4087382 0.54123557 0.10373795
0.4137104 -0.014219556 -0.001969687 0.46554807 0.74115205 0.21833998 0.24346854 0.47894338
-0.011040203 1.3149186 -0.09412106 0.6549624 -0.0016199938 3.166264 0.7587426 0.14049403
0.28651786 0.77761656 0.89903235 1.4607226 0.1915734 0.32109717 0.15979227 0.1595141
0.2563154 0.33285704 -0.1344346 -0.17478803 0.13681664 -0.026708648 0.29979634 -0.22449733
-0.4558114 0.079509415 -0.29198 -0.3212173 -0.41895998 -0.06804006 -0.4271945 0.22006364
0.087542 0.5868998 -0.27546373 -0.19539276 0.3030967 -0.03358178 -0.029101543 0.10088073
-0.32365397 -0.4902111 0.054640904 0.12453095 -0.4093547 0.46825656 0.075215474 -0.11986486
0.36226138 -0.27248034 0.26278132 -0.45273024 0.47509497 0.1544087 0.3496075 0.58719134
0.11225448 -0.3505341 -0.6509557 -0.18111789 -0.009886201 -0.6065016 0.059673075 0.87172633
0.31624636 0.85966665 0.2700518 -1.6415722 0.13163719 -2.4458508 -0.65687436 0.17515816
-0.05615037 0.010801512 -0.86793375 0.83156335 -0.15584055 0.024533989 0.11762018 0.34899977
-0.22250487 -0.44362503 -0.17862664 0.0013860214 -0.22071424 -0.43547153 0.15070793 -0.51894814
0.014251233 0.21138017 0.68065596 0.34293544 -0.5595444 0.22965303 0.53238577 -0.03628288
-0.7272606 -0.17889805 -0.34531283 0.6013846 0.41080448 1.3041275 0.30337638 -0.011609395
-0.14669032 -0.29162988 0.23049837 -0.5246132 -0.009690493 -0.4773362 0.11557685 -0.46977493
0.43386668 0.20666799 -0.18154575 -0.48437488 -0.08417251 -0.015967928 -0.17625745 0.057181604
-0.57268804 -0.34463593 -0.49848902 -1.1202347 -0.09154453 -0.8133751 -0.8224989 -0.39283034
0.30420947 -0.40067765 -0.3177691 -0.45294645 -0.26156163 -1.5305197 -0.32004967 -0.6701571
-0.46774623 -0.2829443 -0.11704157 -1.1459424 -0.10092688 0.43326214 -0.8167438 -0.6787339
0.43126863 0.37295493 -0.034757312 0.03266706 -0.2509535 -0.38012606 -0.44676054 -0.017000645
-0.14822738 0.022044899 0.5212722 -0.61202556 -0.6278382 0.36930925 -0.35171714 -0.980854
0.46184337 -1.1088258 -0.16796252 -0.68406636 -0.2702286 -0.04217282 -0.0897726 -0.45843896
0.274639 0.2013359 -0.42113337 -1.0564672 -0.59277034 -0.14224996 -0.107508264 -0.10594621
0.15872838 0.37366244 -0.24515477 -0.6194684 0.012039429 -0.34062603 0.49525726 -0.21541724
0.3480132 -0.39570296 -0.5842439 0.10548925 0.2469612 -0.794711 -0.110221446 0.85006374
0.10625483 1.487182 0.35442105 0.1815786 0.33696938 -1.8106394 -0.42436042 -0.19046105
0.16452263 0.07954997 0.22959372 1.3901035 0.40605727 0.11945234 0.39712164 1.0458183
-0.28346157 0.34951645 0.09975725 -0.63324755 0.730905 0.25853676 0.6353199 0.39094657
-0.1462267 0.27927932 -0.81937575 -0.35754895 -0.18892118 -1.063531 0.2580519 0.44316626
0.2432544 1.2478901 0.040711813 0.54018116 0.10261594 0.43811226 0.053483117 -0.3628592
-0.027585551 0.124775715 -0.20046993 1.2672974 0.17395544 0.025168786 0.10578558 0.7108051
00000000: eddb f73e 9949 ef3e cef8 0f3e 71e3 7b3e
00000010: feae 0e3f 2246 d13e 6a8e 0a3f 9074 d43d
00000020: d9d1 d33e 24f9 68bc dd15 01bb 515c ee3e
00000030: 24bc 3d3f 8494 5f3e d14f 793e 1138 f53e
00000040: f8e1 34bc 414f a83f 8bc2 c0bd 9eab 273f
00000050: f955 d4ba 12a4 4a40 f43c 423f abdd 0f3e
00000060: 78b2 923e e111 473f fc26 663f f5f8 ba3f
00000070: d12b 443e d966 a43e 96a0 233e aa57 233e
00000080: c63b 833e 3d6c aa3e 39a9 09be a2fb 32be
00000090: a919 0c3e 18cc dabc e87e 993e a1e2 65be
000000a0: 1d60 e9be d5d5 a23d 677e 95be 9876 a4be
000000b0: ec81 d6be 9658 8bbd 3db9 dabe 5d58 613e
000000c0: 3849 b33d 113f 163f 9509 8dbe 0a15 48be
000000d0: 7e2f 9b3e 0c8d 09bd 5c66 eebc 8e9a ce3d
000000e0: f9b5 a5be f3fc fabe 24cf 5f3d 150a ff3d
000000f0: f096 d1be 53bf ef3e 920a 9a3d b57b f5bd
00000100: 537a b93e 8b82 8bbe 468b 863e 42cc e7be
00000110: a63f f33e 501d 1e3e c1ff b23e 2c52 163f
00000120: ade5 e53d 3579 b3be 08a5 26bf f876 39be
00000130: bbf9 21bc b043 1bbf c16b 743d 7529 5f3f
00000140: 0beb a13e 1d13 5c3f 3b44 8a3e 0a1f d2bf
00000150: e6cb 063e d288 1cc0 eb28 28bf a95c 333e
00000160: eefd 65bd d3f8 303c e830 5ebf 56e1 543f
00000170: aa94 1fbe 81fb c83c d9e2 f03d 19b0 b23e
00000180: 51d8 63be d222 e3be e7e9 36be 29ab b53a
00000190: ea02 62be 20f6 debe 2e53 1a3e c9d9 04bf
000001a0: 017e 693c 0b74 583e 783f 2e3f 3c95 af3e
000001b0: 4d3e 0fbf 2a2a 6b3e 6f4a 083f 5b9d 14bd
000001c0: c02d 3abf 0d31 37be d8cc b0be 57f4 193f
000001d0: f754 d23e a6ed a63f 2654 9b3e 5535 3ebc
000001e0: fd35 16be 8350 95be c407 6c3e 0d4d 06bf
000001f0: e0c4 1ebc 6965 f4be 8eb3 ec3d 5786 f0be
00000200: c623 de3e c6a0 533e 21e7 39be fcff f7be
00000210: a362 acbd 2ccf 82bc d57c 34be 4237 6a3d
00000220: af9b 12bf 1f74 b0be f439 ffbe da63 8fbf
00000230: b37b bbbd 5a39 50bf 4a8f 52bf 0f21 c9be
00000240: 58c1 9b3e 9f25 cdbe a2b2 a2be 99e8 e7be
00000250: 68eb 85be 12e8 c3bf 8ddd a3be 6a8f 2bbf
00000260: 6f7c efbe 13de 90be 7eb3 efbd 3eae 92bf
00000270: c1b2 cebd 89d4 dd3e 1f16 51bf 81c1 2dbf
00000280: 3ecf dc3e f3f3 be3e af5d 0ebd e5cd 053d
00000290: fa7c 80be e29f c2be ccbd e4be f044 8bbc
000002a0: ebc8 17be 8197 b43c 1872 053f b5ad 1cbf
000002b0: 01ba 20bf 1a16 bd3e 4514 b4be 3f19 7bbf
000002c0: bc76 ec3e 01ee 8dbf 5efe 2bbe f91e 2fbf
000002d0: 675b 8abe 68bd 2cbd b2da b7bd 83b8 eabe
000002e0: 7c9d 8c3e 002b 4e3e cb9e d7be 513a 87bf
000002f0: ccbf 17bf f9a9 11be 4b2d dcbd 54fa d8bd
00000300: b189 223e af50 bf3e da09 7bbe 7b95 1ebf
00000310: 0641 453c 8966 aebe 5c92 fd3e 5696 5cbe
00000320: c92e b23e 9499 cabe 0291 15bf bf0a d83d
00000330: 66e3 7c3e 2e72 4bbf c8bb e1bd c79d 593f
00000340: 229c d93d fb5b be3f ad76 b53e beef 393e
00000350: 4087 ac3e 08c3 e7bf c545 d9be 3908 43be
00000360: 9f78 283e 18eb a23d 9e1a 6b3e e9ee b13f
00000370: bde6 cf3e 6ea3 f43d 8753 cb3e 60dd 853f
00000380: e021 91be d2f3 b23e 874d cc3d 831c 22bf
00000390: 971c 3b3f ee5e 843e 53a4 223f 262a c83e
000003a0: 74bc 15be b3fd 8e3e 9cc2 51bf a810 b7be
000003b0: 8e74 41be c921 88bf 611f 843e b0e6 e23e
000003c0: ae17 793e ddba 9f3f 6ec1 263d 5049 0a3f
000003d0: 4e28 d23d 4050 e03e 1d11 5b3d aec8 b9be
000003e0: 18fb e1bc 698a ff3d fd47 4dbe cd36 a23f
000003f0: 6021 323e c52e ce3c 1ca6 d83d 53f7 353f

x_encoder.out.bias f4 [64]
-0.65873986 0.069760144 -0.06987309 -0.0390635 0.30228788 0.58799994 -0.35966533 -0.52538925
-0.23495317 -0.07812097 -0.11975026 -0.59598964 -0.37965435 -0.041240565 0.6244837 -0.9271396
0.3234433 -0.42194894 0.27343112 0.15336525 -0.49754798 -0.4989838 0.19588129 -0.31880668
0.3504451 0.09188245 0.24990746 -0.413017 0.92710906 -0.10418743 -0.17437643 -0.85225666
-0.5168739 -0.13518904 0.096997924 0.44257542 -0.043659847 0.22201237 0.26226246 -0.4117022
-0.56480974 -0.21434584 0.20965281 -0.13389675 -0.59893185 -0.32184076 0.34647077 -0.64325964
-0.13080843 0.15054941 0.49823502 -0.14849795 0.3673527 0.6026806 -0.55887264 -0.35379764
-0.55317384 -0.31960157 -0.29426128 -0.49467158 0.34345654 -0.031103685 -0.22794825 0.108425856
00000000: 2da3 28bf 68de 8e3d 9f19 8fbd 0c01 20bd
00000010: 7ac5 9a3e 2a87 163f 0e26 b8be e97f 06bf
00000020: 9097 70be e3fd 9fbd a03f f5bd c792 18bf
00000030: 0e62 c2be deeb 28bd 2ade 1f3f 0559 6dbf
00000040: 5c9a a53e b109 d8be 2aff 8b3e c80b 1d3e
00000050: 9cbe febe ce7a ffbe 1b95 483e a13a a3be
00000060: 8a6d b33e de2c bc3d bee7 7f3e f776 d3be
00000070: 0557 6d3f 3860 d5bd bc8f 32be 7e2d 5abf
00000080: d951 04bf ff6e 0abe d9a6 c63d 3f99 e23e
00000090: abd4 32bd 3657 633e 4447 863e a1ca d2be
000000a0: 5f97 10bf 7a7d 5bbe 3aaf 563e 3b1c 09be
000000b0: 9953 19bf 50c8 a4be 9e64 b13e aaac 24bf
000000c0: a5f2 05be a029 1a3e a918 ff3e d90f 18be
000000d0: a715 bc3e 4749 1a3f 4712 0fbf f724 b5be
000000e0: cd9c 0dbf d1a2 a3be 6aa9 96be 9845 fdbe
000000f0: 89d9 af3e 28cd febc 446b 69be 600e de3d

xy_encoder.resizer.to_hidden.weight f4 [32, 1]
-2.0224674 -1.0222058 0.04105143 -1.6742986 0.23481128 -0.14357023 -1.2031095 1.3588291
-0.65670425 0.06908447 0.7242544 0.5495584 -0.29195276 0.87879235 0.27339712 -0.03061335
-0.28741014 1.2514577 0.014373346 1.1513171 -1.1926484 -1.285097 0.16273521 -0.7595017
1.4404413 -1.4865232 -1.5033586 -1.608027 0.035473768 -0.8842787 0.5075652 -1.713485
00000000: 1b70 01c0 a4d7 82bf 8b25 283d 6b4f d6bf
00000010: 5e72 703e 1304 13be 7eff 99bf 1dee ad3f
00000020: c51d 28bf 297c 8d3d bd68 393f dcaf 0c3f
00000030: d57a 95be 89f8 603f b5fa 8b3e d9c8 fabc
00000040: 6c27 93be c42f a03f 2f7e 6b3c 5c5e 933f
00000050: b4a8 98bf 0f7e a4bf 0fa4 263e b46e 42bf
00000060: 6160 b83f 6446 bebf 0e6e c0bf d4d3 cdbf
00000070: f14c 113d 1760 62bf cbef 013f 7a53 dbbf

xy_encoder.resizer.to_hidden.bias f4 [32]
-0.2521551 0.07429296 -0.06035361 -0.28448182 -0.16257533 0.26719964 -0.15214974 -0.18713422
-0.14394526 0.1213361 -0.18820226 0.41456664 -0.26924124 0.094147824 -0.21579602 -0.16793507
0.10478879 -0.067758776 0.20205985 0.012073189 -0.30615613 -0.42830983 -0.21021989 -0.25455955
-0.4093168 -0.35047522 -0.045487612 -0.29290777 -0.18812 0.1514033 0.015978597 -0.29500774
00000000: 791a 81be e826 983d 5935 77bd 9aa7 91be
00000010: 267a 26be 64ce 883e 24cd 1bbe 1da0 3fbe
00000020: 6366 13be 107f f83d 18b8 40be 1442 d43e
00000030: fdd9 89be 93d0 c03d a2f9 5cbe 2cf7 2bbe
00000040: 819b d63d 1dc5 8abd c7e8 4e3e a0ce 453c
00000050: 7fc0 9cbe 6d4b dbbe e243 57be a155 82be
00000060: f991 d1be 7d71 b3be 3851 3abd 02f8 95be
00000070: 87a2 40be 7709 1b3e 8ce5 823c 410b 97be

xy_encoder.resizer.out.weight f4 [64, 32]
-0.04037524 -0.1745594 -0.27203456 -0.08989 -0.23920776 0.06970814 0.47426504 -0.043970287
0.025699573 0.1096307 0.17815447 -0.009493446 -0.24146053 0.033475917 0.47248346 0.44707307
-0.27314633 -0.40554646 0.25721776 0.026428742 -0.13057339 -0.24374694 0.29473722 0.039336286
-0.299941 -0.22125615 -0.21720181 -0.03498816 -0.012897655 0.021251787 0.087527156 0.26496467
-0.2949771 -0.33100733 -0.47504148 0.24125357 -0.7486643 -0.059780665 -0.15610807 0.00029354234
-0.066293985 0.035660736 -0.04675451 0.3757325 0.17168634 0.32205644 -0.2752669 0.30437005
0.037632525 -0.48915717 -0.40339231 0.28167143 -0.25118908 -0.38483423 0.043834344 -0.018940952
-0.37343055 -0.22545826 -0.26996768 0.30470046 -0.33232537 0.2206561 0.24964795 0.28104204
-0.39276737 -0.014894162 -0.06477216 0.21146326 -0.31472343 -0.4727011 0.16410705 -0.48684156
0.23052445 -0.4850093 -0.07984686 -0.34189206 -0.3842119 0.158415 -0.31513652 0.2785543
0.30291933 0.0984765 0.098779224 -0.066161305 0.12430754 -0.4357741 -0.1543286 0.028243192
0.09680839 0.2589743 -0.2908366 0.28464147 -0.48220116 -0.37180626 -0.4170944 -0.45122945
-0.07368448 0.2733075 0.19331737 -0.22912337 -0.12772496 0.06471367 -0.110189535 -0.36736906
-0.4015043 -0.47811586 -0.47859827 -0.5063058 -0.37915924 0.1015729 0.7290895 -0.18272331
-0.3804131 0.10329097 -0.4201221 0.08102659 -0.314889 0.29952073 0.7754428 0.2205333
0.24100013 0.34076813 0.37560079 0.17779055 0.48418328 0.27874124 -0.42365283 0.12347963
0.1444541 0.12757507 -0.46419415 -0.50503516 -0.05513957 0.21962073 0.16719264 -0.77543044
-0.2779673 0.4438129 0.0528731 0.22149462 0.20785123 -0.7038674 0.081171304 -0.08537067
0.08562334 -1.2118739 -0.08970096 -0.86000717 0.13180022 0.22516212 0.36440644 0.12699905
-0.1597039 -0.14315352 0.26964387 0.06800749 0.06147957 -0.32055587 -0.89290017 0.16088022
0.087433994 0.07629208 0.29301995 -0.15294276 -0.16954388 -0.3703171 -0.25185058 -0.018759396
-0.15511653 -0.45011228 0.056682058 -0.33187068 -0.19890144 -0.4889047 0.10890771 -0.34147578
-0.43954858 -0.19293559 -0.27021214 -0.7072717 0.16483727 -0.14273511 -0.39426866 -0.36574826
-0.033634987 0.10296571 0.08953593 -0.14167382 0.2378082 0.04744348 -0.47191828 -0.37983075
-0.26827365 -0.34830755 -0.32173407 -0.1840013 -0.24315605 -0.51623625 -0.27401173 -0.15312131
0.2828542 0.01716279 0.25986215 -0.09206445 0.35693395 0.24103078 0.4919662 -0.13786583
-0.027469523 -0.017092312 -0.5557111 0.015150308 -0.008779427 -0.16261965 0.34686407 0.18470493
-0.014107781 0.067184374 0.29038295 -0.09306827 -0.14027819 -0.1666724 -0.23381096 -0.12760432
-0.14222108 -0.05405534 -0.3307701 -0.30398175 -0.4326793 -0.3815057 0.3303023 0.26524737
-0.15298438 -0.021571714 -0.122407496 -0.15357774 0.18641938 -0.44943458 -0.76029223 0.18791433
0.044718508 -0.24851936 0.008172357 0.25803086 -0.17879333 -0.2614452 -0.39877442 -0.07895473
-0.3271978 -0.118865915 -0.27770442 0.07345526 0.13633466 0.13356745 0.11891713 0.12745342
00000000: 8260 25bd b3bf 32be 1d48 8bbe 4018 b8bd
00000010: e1f2 74be 24c3 8e3d ded2 f23e 301a 34bd
00000020: e987 d23c 0f86 e03d 206e 363e 668a 1bbc
00000030: 6e41 77be 0b1e 093d 5ae9 f13e c3e6 e43e
00000040: d6d9 8bbe c9a3 cfbe 0cb2 833e 1781 d83c
00000050: 08b5 05be cc98 79be cce7 963e 161f 213d
00000060: de91 99be f990 62be 276a 5ebe bf4f 0fbd
00000070: b050 53bc 3a18 ae3c 7041 b33d 73a9 873e
00000080: 3d07 97be cb79 a9be a338 f3be 2d0b 773e
00000090: 77a8 3fbf 92dc 74bd cbda 1fbe 96e6 9939
000000a0: 24c5 87bd fe10 123d a881 3fbd 0360 c03e
000000b0: 8bce 2f3e 95e4 a43e c8ef 8cbe 64d6 9b3e
000000c0: 9024 1a3d cf72 fabe 7089 cebe 3d37 903e
000000d0: db9b 80be fe08 c5be a48b 333d 0e2a 9bbc
000000e0: 4a32 bfbe 88de 66be 3439 8abe b301 9c3e
000000f0: 8d26 aabe acf3 613e b6a3 7f3e bee4 8f3e
00000100: ce18 c9be a506 74bc 44a7 84bd d389 583e
00000110: 6e23 a1be e105 f2be ae0b 283e 4c43 f9be
00000120: 9a0e 6c3e 2453 f8be c086 a3bd 7a0c afbe
00000130: 6cb7 c4be 8b37 223e 9359 a1be ab9e 8e3e
00000140: 3e18 9b3e 0cae c93d c34c ca3d 947f 87bd
00000150: f494 fe3d c81d dfbe 5108 1ebe 445e e73c
00000160: 7a43 c63d 4898 843e 89e8 94be 87bc 913e
00000170: 12e3 f6be 645d bebe 668d d5be 8c07 e7be
00000180: e3e7 96bd f6ee 8b3e fdf4 453e 519f 6abe
00000190: 55ca 02be 9a88 843d 0dab e1bd cc17 bcbe
000001a0: f991 cdbe 9acb f4be d50a f5be 429d 01bf
000001b0: 2921 c2be 7405 d03d 9ca5 3a3f d21b 3bbe
000001c0: 81c5 c2be 378a d33d 3e1a d7be 45f1 a53d
000001d0: 2239 a1be c85a 993e 6b83 463f 7bd3 613e
000001e0: bdc8 763e 2979 ae3e bf4e c03e ba0e 363e
000001f0: dfe6 f73e 2cb7 8e3e 06e9 d8be e3e2 fc3d
00000200: c7eb 133e 0aa3 023e dbaa edbe fc49 01bf
00000210: 08da 61bd 42e4 603e 8c34 2b3e 9c82 46bf
00000220: bb51 8ebe 723b e33e 7791 583d 7ccf 623e
00000230: f4d6 543e a730 34bf 243d a63d d1d6 aebd
00000240: 4a5b af3d af1e 9bbf 23b5 b7bd 6e29 5cbf
00000250: a3f6 063e e690 663e 7b93 ba3e 0a0c 023e
00000260: 6b89 23be d696 12be c30e 8a3e 8347 8b3d
00000270: 00d2 7b3d e61f a4be 1b95 64bf c9bd 243e
00000280: 9810 b33d 063f 9c3d b606 963e 079d 1cbe
00000290: e99c 2dbe 349a bdbe 8ff2 80be 4ead 99bc
000002a0: ded6 1ebe 1e75 e6be 722b 683d f4ea a9be
000002b0: d2ac 4bbe b851 fabe 010b df3d ead5 aebe
000002c0: 830c e1be e890 45be 3f59 8abe c20f 35bf
000002d0: 1acb 283e 2729 12be 95dd c9be 5b43 bbbe
000002e0: d7c4 09bd b0df d23d 9d5e b73d f112 11be
000002f0: fe83 733e 1854 423d 469f f1be 2d79 c2be
00000300: 2a5b 89be 5e55 b2be 54ba a4be d66a 3cbe
00000310: e6fd 78be 0f28 04bf 444b 8cbe d5cb 1cbe
00000320: 44d2 903e fb98 8c3c a70c 853e 498c bcbd
00000330: 0cc0 b63e c6d0 763e fee2 fb3e b32c 0dbe
00000340: c407 e1bc 2d05 8cbc 1543 0ebf ff38 783c
00000350: 96d7 0fbc c485 26be 2b98 b13e 4a23 3d3e
00000360: 5324 67bc f697 893d 13ad 943e 949a bebd
00000370: 16a5 0fbe 2bac 2abe 246c 6fbe b5aa 02be
00000380: 67a2 11be 2269 5dbd b35a a9be 7fa3 9bbe
00000390: 2488 ddbe b754 c3be 621d a93e 81ce 873e
000003a0: f0a7 1cbe 2ab7 b0bc c8b0 fabd 7c43 1dbe
000003b0: b9e4 3e3e 4a1c e6be 83a2 42bf 9d6c 403e
000003c0: c12a 373d dc7b 7ebe 5ae5 053c 9f1c 843e
000003d0: 9915 37be 25dc 85be 292c ccbe 04b3 a1bd
000003e0: 7886 a7be f96f f3bd 462f 8ebe b66f 963d
000003f0: 509b 0b3e e8c5 083e d38a f33d 2683 023e

xy_encoder.resizer.out.bias f4 [64]
-0.10143494 -0.10660826 -0.21811898 0.03814351 -0.13436127 -0.32454973 -0.6323273 0.040438455
-0.08847985 -0.3516548 0.17571917 0.2932332 -0.009457335 -0.10330992 0.020517975 -0.2793505
0.22415735 -0.21269855 -0.021516543 -0.46168533 -0.25896353 -0.18841438 -0.46165308 -0.19889684
-0.113704294 -0.12935115 -0.0035564902 -0.03646523 -0.03474419 -0.170273 -0.024363248 -0.32568046
-0.46341234 -0.29774716 -0.20306835 -0.11794799 -0.23212573 -0.078737095 0.21182877 -0.3027314
-0.2279716 0.0 -0.109217115 -0.17158128 -0.20137326 -0.01496452 -0.7905056 -0.04270936
-0.19497721 0.1380776 -0.7806017 -0.051080335 -0.2923411 -0.23308791 -0.19390337 -0.06280033
-0.30403903 -0.06522134 0.03162264 0.15798871 -0.8468662 -0.01955192 0.19498816 -0.24721555
00000000: 1fbd cfbd 6e55 dabd 955a 5fbe 5f3c 1c3d
00000010: 0096 09be 622b a6be 34e0 21bf cba2 253d
00000020: ec34 b5bd 190c b4be baef 333e a922 963e
00000030: f0f2 1abc 2794 d3bd 5015 a83c 0707 8fbe
00000040: 8189 653e a6cd 59be 7643 b0bc 0562 ecbe
00000050: de96 84be b3ef 40be cb5d ecbe 9dab 4bbe
00000060: ccdd e8bd a174 04be 0114 69bb 915c 15bd
00000070: ec4f 0ebd 0c5c 2ebe 6f95 c7bc 97bf a6be
00000080: 6244 edbe 5172 98be 26f1 4fbe b78e f1bd
00000090: 5eb2 6dbe ea40 a1bd a4e9 583e 9cff 9abe
000000a0: 6371 69be 0000 0000 39ad dfbd 01b3 2fbe
000000b0: cb34 4ebe bf2d 75bc 935e 4abf 03f0 2ebd
000000c0: 1ba8 47be 3764 0d3e 83d5 47bf 9d39 51bd
000000d0: bcad 95be 99ae 6ebe 9b8e 46be 769d 80bd
000000e0: 01ab 9bbe c492 85bd be86 013d cbc7 213e
000000f0: 39cc 58bf 592b a0bc faaa 473e 1326 7dbe

xy_encoder.flat_module.to_hidden.weight f4 [64, 64]
-0.048089053 0.10822836 0.41638187 -0.2054848 0.03079319 -0.023837691 0.197722 -0.01355255
0.1392581 0.14130288 0.014885439 -0.14272845 -0.08875958 0.16799605 -0.24722427 0.15557852
0.2026444 -0.21899092 -0.12170296 -0.33029184 -0.29732192 -0.04621205 -0.014685936 0.19954462
0.23325393 -0.24187882 0.10036461 0.07712257 0.16354202 -0.1657327 0.11397172 -0.21846049
-0.45799574 0.23165274 -0.22495124 0.005267167 0.24923804 -0.27131057 -0.43356052 -0.042284742
-0.34661764 -0.22047031 -0.0064949854 -0.110341355 -0.027750783 0.43104452 -0.0005198691 -0.58187646
0.028798018 0.31114104 -0.062813714 -0.15985692 -0.37755522 -0.099517405 0.008618704 -0.016360378
0.13751784 0.1437348 0.017550493 -0.07222333 -0.24436522 0.14344719 -0.12106816 -0.019266177
-0.32114545 0.28244182 0.08219 -0.3042681 -0.061692778 0.23417985 -0.10828704 -0.053968903
0.41108006 -0.29096243 -0.14175059 0.040201444 0.14666912 -0.03237933 -1.2878225 0.29135346
0.3172018 -1.222003 -0.0061786473 -0.080640726 -1.1246138 0.08178983 -0.003952906 0.1523322
-0.3473352 -0.15039805 -0.099776536 0.13745564 -0.27175382 0.02521985 0.14038815 -0.11441398
-0.7449129 0.07438452 -0.033262715 -0.07315919 -0.40840742 -0.6743579 0.09999444 -0.17574842
0.23401363 -0.053836226 -0.13310325 -1.3596433 0.16426674 -0.094439186 -0.18972982 -0.9047683
-0.51927567 -0.38264132 -0.30682096 0.09747624 -0.20971629 0.21251182 -0.18821754 -0.051356405
-0.13607998 0.14199942 0.19497702 -0.21358123 -0.065168284 0.18389171 -0.10139173 -0.09302671
0.21646433 -0.051873807 0.07529427 0.2483611 0.22181264 0.003878301 -0.116406 -0.33019537
0.20114763 0.091580406 -0.024172222 0.22620738 -0.15658832 0.20191287 -0.14892198 0.14341335
-0.19551007 -0.22086914 0.14402226 -0.123811 0.0757021 0.026722586 0.022948412 0.37633216
0.38528538 -0.15947872 -0.24860552 -0.14691718 -0.32414243 -0.3348794 0.0822629 0.09089852
-0.22527632 -0.2656025 -0.027078375 -0.27762374 0.24593215 -0.089625716 -0.055190906 -0.3672172
-0.16159943 0.075728804 0.12706399 0.046612427 0.23408091 0.10079825 -0.14623691 0.10887735
-0.21218729 0.08647441 -0.60699344 -0.09874502 0.031581335 -0.12112983 -0.103508666 0.07100542
-0.20410138 -0.096981935 0.024659978 -0.25905424 -0.09233357 0.36419356 -0.050231505 -0.24099782
-0.19243285 -0.27473268 -0.17822918 -0.4556345 0.3497498 0.125676 0.06332818 -0.44511968
-0.13848953 -0.26145798 -0.08718338 -0.22498251 -0.48125032 -0.51337594 -0.16504847 -0.123509474
0.083726645 -0.10264262 0.26977316 0.18544248 -0.74621326 0.10769501 -0.5388937 0.03385907
-0.42401454 -0.26365882 -0.034441967 -0.0025119397 -0.081121705 0.15631601 -0.01796913 -0.23902154
0.039640002 -0.2907107 -0.4532607 0.26721045 0.19844551 0.03976149 0.26244727 0.2231181
-0.15532485 0.0967181 -0.27464533 -0.42048928 0.44444895 0.2863754 -0.04770464 0.17645428
-0.44493362 0.100364834 0.0765584 0.07850599 0.2869643 0.049550496 -0.2129262 0.1780008
0.47610265 -0.0015032942 0.111558 -0.058087528 0.04170684 -0.67622334 0.17599344 -0.42473912
00000000: 07f9 44bd d5a6 dd3d 0130 d53e 9b6a 52be
00000010: 0042 fc3c 4347 c3bc a377 4a3e 840b 5ebc
00000020: ad99 0e3e b4b1 103e 0ee2 733c 6827 12be
00000030: 95c7 b5bd 2807 2c3e 5c28 7dbe fa4f 1f3e
00000040: 0382 4f3e 283f 60be 673f f9bd 031c a9be
00000050: 943a 98be d948 3dbd 489d 70bc 6d55 4c3e
00000060: 1eda 6e3e 15af 77be f68b cd3d 70f2 9d3d
00000070: 8f77 273e d5b5 29be 016a e93d 1bb4 5fbe
00000080: 6b7e eabe 6036 6d3e 9e59 66be 3398 ac3b
00000090: 4238 7f3e 38e9 8abe a5fb ddbe c432 2dbd
000000a0: de77 b1be f8c2 61be e3d3 d4bb a6fa e1bd
000000b0: 9c55 e3bc deb1 dc3e d347 08ba dbf5 14bf
000000c0: d2e9 eb3c e14d 9f3e 7aa4 80bd 88b1 23be
000000d0: eb4e c1be c8cf cbbd 7735 0d3c 3306 86bc
000000e0: 7ad1 0c3e 372f 133e 0dc6 8f3c d3e9 93bd
000000f0: e03a 7abe d2e3 123e 95f2 f7bd 1ad4 9dbc
00000100: 2d6d a4be 379c 903e 3b53 a83d 07c9 9bbe
00000110: 91b1 7cbd d8cc 6f3e 98c5 ddbd 7f0e 5dbd
00000120: 1679 d23e 07f9 94be 1127 11be 45aa 243d
00000130: 6e30 163e 30a0 04bd 5ed7 a4bf 482c 953e
00000140: 4668 a23e 986a 9cbf 4076 cabb f726 a5bd
00000150: 58f3 8fbf 6d81 a73d 6187 81bb f9fc 1b3e
00000160: ebd5 b1be f201 1abe a457 ccbd 2cc1 0c3e
00000170: 5123 8bbe dc99 ce3c e9c1 0f3e e051 eabd
00000180: 9db2 3ebf e956 983d 7c3e 08bd 7cd4 95bd
00000190: c71a d1be b8a2 2cbf e3c9 cc3d 65f7 33be
000001a0: 45a1 6f3e 6083 5cbd 384c 08be cb08 aebf
000001b0: 8a35 283e 5569 c1bd 8948 42be e59e 67bf
000001c0: 40ef 04bf 90e9 c3be a317 9dbe 9fa1 c73d
000001d0: debf 56be b39c 593e 19bc 40be 185b 52bd
000001e0: 8d58 0bbe 4c68 113e 0ea8 473e 0ab5 5abe
000001f0: f376 85bd 1c4e 3c3e 78a6 cfbd ca84 bebd
00000200: d3a8 5d3e a179 54bd e233 9a3d 5f52 7e3e
00000210: da22 633e 182b 7e3b 4566 eebd 5e0f a9be
00000220: a5f9 4d3e 828e bb3d d304 c6bc e8a2 673e
00000230: b058 20be 3fc2 4e3e 017f 18be f3da 123e
00000240: cb33 48be 852b 62be 927a 133e 9f90 fdbd
00000250: b409 9b3d 53e9 da3c 4ffe bb3c 9cae c03e
00000260: 2044 c53e 644e 23be 7292 7ebe 7571 16be
00000270: fff5 a5be 5075 abbe 7479 a83d 0129 ba3d
00000280: d6ae 66be 0dfd 87be 78d3 ddbc b324 8ebe
00000290: a3d5 7b3e b08d b7bd dc0f 62bd e503 bcbe
000002a0: 527a 25be b417 9b3d 101d 023e acec 3e3d
000002b0: e8b2 6f3e 506f ce3d 21bf 15be 17fb de3d
000002c0: a047 59be 7f19 b13d ec63 1bbf d43a cabd
000002d0: 6e5b 013d eb12 f8bd 5afc d3bd 4a6b 913d
000002e0: f4ff 50be 779e c6bd b903 ca3c c2a2 84be
000002f0: 6219 bdbd 9477 ba3e 8dbf 4dbd 22c8 76be
00000300: 1e0d 45be c3a9 8cbe b681 36be ed48 e9be
00000310: 6812 b33e 36b1 003e 34b2 813d bae6 e3be
00000320: 33d0 0dbe d2dd 85be 338d b2bd d161 66be
00000330: 7166 f6be 9b6c 03bf 7702 29be 89f2 fcbd
00000340: e078 ab3d 4b36 d2bd b51f 8a3e a2e4 3d3e
00000350: d507 3fbf 348f dc3d f0f4 09bf cfaf 0a3d
00000360: 6f18 d9be 4afe 86be 0513 0dbd 5b9f 24bb
00000370: 2323 a6bd 4e11 203e ff33 93bc 10c2 74be
00000380: 8e5d 223d 08d8 94be c911 e8be cfcf 883e
00000390: 4d35 4b3e f2dc 223d 7d5f 863e 1279 643e
000003a0: 7a0d 1fbe 2414 c63d 509e 8cbe 5f4a d7be
000003b0: d08e e33e cc9f 923e f165 43bd 6eb0 343e
000003c0: 57ce e3be 148c cd3d a7ca 9c3d c0c7 a03d
000003d0: fcec 923e 76f5 4a3d 5309 5abe d745 363e
000003e0: bac3 f33e 2f0a c5ba 8578 e43d 30ed 6dbd
000003f0: cbd4 2a3d f91c 2dbf a037 343e 6877 d9be

xy_encoder.flat_module.to_hidden.bias f4 [64]
-0.074138254 0.10648912 -0.10161836 -0.288273 0.088428065 -0.040076517 -0.15633893 -0.0023801993
-0.055944104 0.021231549 -0.046137292 -0.13791324 -0.12082298 -0.14394142 -0.006589426 -0.1177569
-0.2726427 -0.18538685 0.18287718 -0.10031289 -0.09798559 0.03971375 -0.1229434 -0.0641777
-0.055169463 -0.11527433 -0.124622524 -0.1684777 0.021186383 -0.07447779 0.05733456 0.061226908
0.061660774 -0.21257243 -0.10921415 0.2735805 -0.12603822 -0.083076105 -0.220185 -0.08877893
0.044380225 -0.092377044 0.08823076 0.056983616 -0.11467932 -0.11816966 -0.14532152 -0.045155544
-0.036765248 0.014228949 -0.17864238 -0.11998758 -0.13843048 0.041761473 -0.08308182 0.0048494996
-0.04433614 -0.15261705 -0.04342752 -0.29289645 -0.001007714 -0.093084104 -0.064495325 -0.030590031
00000000: ccd5 97bd f816 da3d 491d d0bd 8598 93be
00000010: c619 b53d 4627 24bd 5017 20be 1efd 1bbb
00000020: a525 65bd c9ed ad3c 75fa 3cbd 2139 0dbe
00000030: 0a72 f7bd 6165 13be 1dec d7bb 882a f1bd
00000040: d397 8bbe 0dd6 3dbe 2844 3b3e d870 cdbd
00000050: abac c8bd e3aa 223d c0c9 fbbd 996f 83bd
00000060: 60f9 61bd f314 ecbd 183a ffbd 6b85 2cbe
00000070: 118f ad3c d087 98bd a5d7 6a3d 11c9 7a3d
00000080: 0290 7c3d 96ac 59be abab dfbd be12 8c3e
00000090: 2a10 01be ce23 aabd 2d78 61be bad1 b5bd
000000a0: 0ac8 353d 2d30 bdbd 54b2 b43d a767 693d
000000b0: fedc eabd ef02 f2bd 2acf 14be 05f5 38bd
000000c0: 2897 16bd 8a20 693c 07ee 36be 0cbc f5bd
000000d0: b8c0 0dbe 140e 2b3d cd26 aabd 8de8 9e3b
000000e0: d099 35bd a547 1cbe 0ee1 31bd 86f6 95be
000000f0: 4515 84ba e1a2 bebd 2016 84bd f297 fabc

xy_encoder.flat_module.linears.0.weight f4 [64, 64]
-0.2264852 -0.34262273 0.05906281 -0.15916109 -0.052556194 -0.1082039 -0.15116626 0.07607311
0.1279536 0.008398794 0.0768562 -0.29184783 -0.34024358 -0.1977388 -0.12247087 0.005300514
0.079413064 0.20915046 -0.2441409 0.01813323 -0.021211637 -0.050437838 0.23148127 0.04963985
-0.083064735 0.0061016083 -0.024612777 0.014765359 -0.23579545 0.18825762 -0.25101697 -0.20947844
-0.02540641 0.16341749 0.12919123 -0.29518503 -0.16846268 -0.04566017 -0.3406881 -0.38156828
0.16181022 0.29906872 0.10225057 0.00576616 0.14195767 -0.12812316 -0.07405542 -0.14426874
-0.060486894 0.064115256 0.24228808 0.03345205 -0.27620968 -0.32647207 -0.3337791 -0.08138934
-0.1474882 0.19752368 -0.21446459 -0.3199836 -0.34738362 -0.2894858 -0.31077006 -0.21178111
0.11596153 -0.36391467 0.12560749 -0.18008813 -0.3016205 0.044719826 -0.18127905 -0.12609556
0.06460043 0.16870633 -0.03617055 -0.02284543 -0.21037723 0.14701769 0.14952324 0.11430483
0.019391103 -0.16319385 -0.05057947 0.16964689 0.17681634 0.19557703 -0.09956756 0.24333915
0.23313776 -0.029980037 -0.097253 -0.21430464 -0.2589921 0.0012880428 0.036334544 -0.06148096
-0.045999877 -0.31873238 -0.070356116 -0.42834362 -0.18330745 0.27887183 0.12074534 0.100011736
0.12817559 -0.21960153 -0.15972835 0.38377702 -0.17585774 -0.5725851 0.44287893 -0.34744722
0.23690522 0.1941649 -0.12046561 0.13383813 -0.40146565 0.14304218 -0.31314552 -0.31735474
-0.10661496 0.09848429 -0.16898529 -0.16441391 0.089256614 -0.14480656 -0.32741976 -0.2195056
0.12801394 0.45494118 -0.47386393 0.22447869 0.31552315 0.10606269 0.1730619 0.008392498
-0.04824625 -0.07047187 0.081484966 0.27872875 -0.06792975 -0.26245353 -0.12875606 -0.42574373
-0.25859848 -0.1889362 -0.16610202 -0.4191718 -0.033480592 -0.1438993 -0.22706477 0.08821496
-0.37927467 0.006858069 -0.022666302 0.17728218 -0.09994506 -0.16132478 -0.24139188 -0.22680594
-0.021395952 -0.06131882 -0.14320293 -0.056067936 0.13523406 -0.14516376 0.21097311 0.07874201
0.024455573 0.01636927 0.48643088 0.18529056 0.038578376 -0.33540922 0.024118915 0.029421484
0.21845049 0.049870495 0.08264996 0.040355336 0.24549717 -0.12660947 0.10021625 0.32429427
-0.55071074 -0.18103394 0.14738481 0.18311386 -0.0033013392 0.033697892 -0.41974732 0.1309588
0.14725065 -0.24723716 0.0034374108 0.06453734 -1.0214927 -0.033854656 -0.02418457 -0.256428
-0.21312223 -0.054927982 -0.14938912 -0.11997053 0.04344754 -0.13401057 -0.34253362 0.097287185
-0.009949611 0.24689187 -0.6983988 -0.19877955 0.12263906 -0.7945915 -0.11667737 -0.08323738
-0.29057315 -0.16126908 0.119639285 -0.06440382 0.32256413 -0.09059146 0.12991591 -0.11567086
0.050726414 -0.3035789 -0.06361793 -0.020949762 0.10168763 -0.0047033746 -0.07611398 -0.14097589
-0.040916305 -0.27824748 -0.3859965 -0.36149204 0.09815127 0.22590907 -0.06424586 0.054544207
-0.048713394 -0.75430167 -0.17402115 -0.026196022 -0.8861949 -0.73971695 0.097354956 -0.39327836
-0.141044 -0.17134361 0.208275 -0.19571234 0.1952078 -0.07982807 0.050605893 -0.1578859
00000000: bceb 67be 3f6c afbe d8eb 713d 20fb 22be
00000010: 2a45 57bd 029a ddbd 54cb 1abe 38cc 9b3d
00000020: 4506 033e 189b 093c c966 9d3d 146d 95be
00000030: 6834 aebe 0a7c 4abe 02d2 fabd efaf ad3b
00000040: 51a3 a23d 8a2b 563e 1200 7abe 248c 943c
00000050: 07c4 adbc e897 4ebd 6d09 6d3e 2853 4b3d
00000060: d81d aabd 00f0 c73b bca0 c9bc 68ea 713c
00000070: 5d74 71be 9bc6 403e 4c85 80be 8481 56be
00000080: 1b21 d0bc ea56 273e b54a 043e 7e22 97be
00000090: 7b81 2cbe 2906 3bbd ac6e aebe eb5c c3be
000000a0: 94b1 253e 891f 993e bf68 d13d 0ef2 bc3b
000000b0: 5a5d 113e b832 03be 5eaa 97bd 2fbb 13be
000000c0: 1bc1 77bd dc4e 833d 5e1a 783e 0405 093d
000000d0: 5b6b 8dbe 5927 a7be 18e5 aabe 74af a6bd
000000e0: 2607 17be a643 4a3e 9b9c 5bbe e4d4 a3be
000000f0: 44dc b1be 7c37 94be 411d 9fbe 26dd 58be
00000100: 3d7d ed3d 0653 babe 409f 003e 0669 38be
00000110: 016e 9abe 232c 373d 37a1 39be 321f 01be
00000120: 3b4d 843d 5ac1 2c3e 9227 14bd 5726 bbbc
00000130: 216d 57be ce8b 163e 9f1c 193e a718 ea3d
00000140: 17da 9e3c 4a1c 27be 6b2c 4fbd eab7 2d3e
00000150: 580f 353e 5845 483e 14ea cbbd e62d 793e
00000160: aabb 6e3e b298 f5bc 952c c7bd ad72 5bbe
00000170: 9d9a 84be 8bd3 a83a 88d3 143d 76d3 7bbd
00000180: 5e6a 3cbd e430 a3be de16 90bd db4f dbbe
00000190: f3b4 3bbe 4ac8 8e3e 5549 f73d f4d2 cc3d
000001a0: 7640 033e 39df 60be d48f 23be 6c7e c43e
000001b0: 0d14 34be f094 12bf 07c1 e23e 9ae4 b1be
000001c0: 4897 723e 2ad3 463e acb6 f6bd dd0c 093e
000001d0: e88c cdbe a679 123e 9c54 a0be 527c a2be
000001e0: f258 dabd 22b2 c93d 7b0a 2dbe 1f5c 28be
000001f0: 2ccc b63d 2c48 14be 90a3 a7be 13c6 60be
00000200: 1616 033e 0dee e83e 4b9e f2be bedd 653e
00000210: 408c a13e 6537 d93d 2437 313e b080 093c
00000220: dc9d 45bd 8e53 90bd 97e1 a63d 89b5 8e3e
00000230: c11e 8bbd 4f60 86be a1d8 03be 15fb d9be
00000240: 0567 84be 7e78 41be a616 2abe b09d d6be
00000250: f222 09bd 575a 13be ab83 68be 0caa b43d
00000260: 4a30 c2be a7b9 e03b aeae b9bc 7689 353e
00000270: ffaf ccbd 5332 25be 6f2f 77be d13f 68be
00000280: 9046 afbc 7129 7bbd caa3 12be 7ea7 65bd
00000290: cc7a 0a3e cfa5 14be 5609 583e 7e43 a13d
000002a0: 0e57 c83c d918 863c 780d f93e cfbc 3d3e
000002b0: 5c04 1e3d c2ba abbe 0895 c53c 5305 f13c
000002c0: 7cb1 5f3e 0145 4c3d 6244 a93d a34b 253d
000002d0: 9c63 7b3e eaa5 01be 2d3e cd3d e609 a63e
000002e0: 61fb 0cbf f660 39be 0bec 163e 3382 3b3e
000002f0: 485b 58bb cd06 0a3d 1fe9 d6be 101a 063e
00000300: e0c8 163e bd2b 7dbe 2f46 613b 272c 843d
00000310: 46c0 82bf 2eab 0abd b81e c6bc 884a 83be
00000320: b73c 5abe 2afc 60bd 76f9 18be 1cb3 f5bd
00000330: 0cf6 313d 113a 09be 9160 afbe 813e c73d
00000340: b103 23bc 39d1 7c3e 44ca 32bf de8c 4bbe
00000350: 302a fb3d 596a 4bbf 8cf4 eebd 5c78 aabd
00000360: 01c6 94be b923 25be 7105 f53d 26e6 83bd
00000370: 2027 a53e 0488 b9bd ad08 053e d8e4 ecbd
00000380: 80c6 4f3d b26e 9bbe 1e4a 82bd d69e abbc
00000390: 9b41 d03d c41e 9abb a5e1 9bbd fc5b 10be
000003a0: db97 27bd 7476 8ebe 55a1 c5be 7c15 b9be
000003b0: 8803 c93d b554 673e 5593 83bd bf69 5f3d
000003c0: b287 47bd ea19 41bf 9a32 32be 0a99 d6bc
000003d0: abdd 62bf 175e 3dbf 0962 c73d c85b c9be
000003e0: d76d 10be b374 2fbe 0b46 553e d168 48be
000003f0: 8ee4 473e e67c a3bd 2048 4f3d d7ac 21be

xy_encoder.flat_module.linears.0.bias f4 [64]
-0.10828215 -0.0484291 -0.073230185 -0.09818118 0.10823126 0.077590145 -0.0073298123 -0.100308955
-0.040717144 0.05244022 0.10897465 -0.11856535 -0.056457046 0.017681371 0.009155269 0.0555081
-0.04904311 -0.13811955 -0.16191019 -0.036440246 0.02175052 -0.094766684 0.061386243 -0.2697115
0.008106663 -0.10106816 -0.01913127 0.098682255 -0.16910493 0.020886043 -0.11465031 -0.061241332
-0.12648311 0.029705329 -0.14375012 -0.08273937 -0.025461476 -0.014937352 -0.12619653 0.071699254
0.15003301 0.10341277 -0.08250179 -0.2985227 -0.13710047 -0.10695244 -0.10411163 0.04176175
-0.14243257 -0.014148234 -0.23169108 -0.03297769 0.010392031 -0.08355798 -0.24163085 -0.19136433
-0.0105349645 -0.009123736 -0.10160325 0.00069496816 0.027420793 -0.1871822 0.06959617 -0.03427898
00000000: 08c3 ddbd 985d 46bd b5f9 95bd 3713 c9bd
00000010: 5aa8 dd3d 95e7 9e3d ec2e f0bb c86e cdbd
00000020: 05c7 26bd 8ecb 563d 1a2e df3d 64d2 f2bd
00000030: 813f 67bd 86d8 903c fbff 153c 765c 633d
00000040: 6ee1 48bd 366f 0dbe c9cb 25be 5e42 15bd
00000050: 262e b23c 0915 c2bd 2470 7b3d a017 8abe
00000060: cfd1 043c d3fc cebd 2eb9 9cbc ec19 ca3d
00000070: d829 2dbe 3519 ab3c c8cd eabd 31d8 7abd
00000080: ca84 01be 9758 f33c 3b33 13be 4273 a9bd
00000090: 9694 d0bc ccbb 74bc aa39 01be 0fd7 923d
000000a0: 41a2 193e 13ca d33d b3f6 a8bd f8d7 98be
000000b0: 1164 0cbe e209 dbbd 7a38 d5bd 5e0e 2b3d
000000c0: d8d9 11be ffcd 67bc 6d40 6dbe 9d13 07bd
000000d0: 5643 2a3c 7220 abbd 146e 77be 03f5 43be
000000e0: d89a 2cbc b97b 15bc 5d15 d0bd 862e 363a
000000f0: 92a1 e03c b1ac 3fbe 7088 8e3d 1e68 0cbd

xy_encoder.flat_module.out.weight f4 [64, 64]
0.12139989 0.14259039 0.09812371 -0.18744813 -0.3517119 0.40234238 0.23052712 0.2520904
-0.08344694 -0.058195718 0.1409252 0.2736416 -0.063487254 -0.4438965 0.02791956 -0.29854098
0.15392832 -0.13107783 -0.18855453 0.36523286 -0.2907866 0.09564797 0.09537488 0.2171814
-0.24099784 0.053759485 0.12179094 -0.44438696 0.4483437 -0.09996851 -0.34744707 0.08547809
-0.21141753 -0.030763023 -0.10989158 0.06181242 -0.34232008 -0.25327957 0.0023336723 -0.004280509
0.19111194 -0.11535793 -0.17034096 -0.16451117 0.3321649 -0.24339223 -0.3094211 0.056079585
0.027997412 -0.17871335 0.46552747 -0.19614612 -0.007948935 -0.3317657 -0.068815574 -0.35522288
-0.04671917 -0.18247618 -0.16632229 0.13784583 0.3881344 0.028994227 -0.21691352 -0.09859703
0.2841616 -0.0673095 -0.17992762 -0.37954125 -0.08647511 -0.48874575 0.31033328 0.00689685
0.2712181 0.2154351 0.06396707 0.63092875 -0.48773482 -0.3929811 -0.05683005 0.015443586
-0.0063138288 -0.28452924 -0.051949892 -0.06807086 -0.17151366 -0.23000504 0.02401455 -0.08230059
0.20325546 0.0026078126 0.16287425 0.2642877 0.15362024 -0.34978557 -0.038650516 0.5092511
0.034513455 -0.07463083 0.14087674 0.13026977 -0.1546884 0.21606259 0.13711044 -0.21598975
0.2028783 0.18609278 0.11950813 -0.26894388 0.1611458 -0.18102585 -0.06271911 0.3297712
0.17263389 0.10095147 0.0050208485 0.23925048 0.24742223 -0.23948331 0.05940812 -0.15938465
-0.0039899005 0.016825298 0.2020397 0.022947872 0.24885437 0.16305515 -0.025868863 0.058880378
0.03029735 -0.10688282 0.037720386 0.021781165 -0.23961695 -0.3203388 0.066997476 -0.18963307
0.22788054 -0.35481945 -0.16672358 0.22231774 0.22022936 -0.34130153 -0.1494705 0.5300587
-0.032493044 -0.2524557 0.13234219 -0.07534275 0.22742628 -0.15306696 0.43096745 0.18872869
0.103843324 0.30435124 0.9400092 -0.0978372 0.24420999 0.16997303 -0.039962128 -0.1403442
-0.41514236 -0.21871693 -0.19687825 -0.21452549 -0.6917997 -0.05328027 0.0142395785 -0.2333769
-0.14462237 -0.09093183 0.18998507 -0.106849216 -0.4963778 -0.066303186 -0.111335725 -0.21558915
0.47689658 -0.037833832 0.10857864 0.03189874 -0.31277457 -0.17039178 -0.23103082 -0.46725684
-0.43523932 0.13758619 -0.08942856 0.13700914 0.05813613 -0.35226163 0.1967432 0.119082734
-0.20072457 -0.009240447 -0.24292678 -0.028889036 -0.3007539 0.47423482 0.24144354 0.27652827
0.1384227 0.052201424 -0.016767135 0.5974711 0.3723447 0.18367048 0.23529139 -0.07855016
0.040596865 -0.020495985 -0.18894786 -0.230988 -0.071551524 -0.38567898 -0.10797009 -0.1759691
-0.10861473 -0.19194724 -0.1768761 -0.100622855 -0.041696396 -0.4234834 -0.13895476 -0.15941186
-0.23014686 -0.19387057 -0.14608958 -0.2758383 -0.64998543 -0.057920285 -0.22325045 -0.18774533
0.18118 0.029059185 0.02421064 0.43233874 0.037653796 -0.03964464 0.26161364 0.047941398
-0.1500293 0.23540886 -0.119590476 -0.024444202 -0.15150553 -0.29533496 -0.29837897 -0.08757216
0.52785003 0.2594154 0.2844908 -0.11524674 -0.09134377 0.29665032 -0.0011845832 -0.10447203
00000000: 81a0 f83d 3703 123e 15f5 c83d 67f2 3fbe
00000010: 9513 b4be d2ff cd3e 4d0f 6c3e fe11 813e
00000020: 3be6 aabd a25e 6ebd b24e 103e c01a 8c3e
00000030: 9b05 82bd 6746 e3be 90b7 e43c 5dda 98be
00000040: 639f 1d3e 4439 06be 7014 41be cdff ba3e
00000050: fbe1 94be 15e3 c33d e853 c33d cd64 5e3e
00000060: 23c8 76be e832 5c3d 876d f93d b086 e3be
00000070: 4e8d e53e 4abc ccbd 95e4 b1be 230f af3d
00000080: d67d 58be bc02 fcbc d60e e1bd 052f 7d3d
00000090: 9444 afbe dcad 81be 86f0 183b 8343 8cbb
000000a0: d9b2 433e c740 ecbd dc6d 2ebe 9e75 28be
000000b0: 8511 aa3e d03b 79be 716c 9ebe b5b3 653d
000000c0: d45a e53c a200 37be 9e59 ee3e 87da 48be
000000d0: 403c 02bc 32dd a9be 2eef 8cbd c6df b5be
000000e0: 9a5c 3fbd 09db 3abe 6450 2abe 7527 0d3e
000000f0: 8db9 c63e 4d85 ed3c 941e 5ebe 3ded c9bd
00000100: a17d 913e 90d9 89bd f23e 38be 3b53 c2be
00000110: dd19 b1bd e23c fabe 01e4 9e3e f9fe e13b
00000120: 19dd 8a3e 059b 5c3e 2b01 833d 8c84 213f
00000130: 61b8 f9be d234 c9be a0c6 68bd 1807 7d3c
00000140: 3ce4 cebb d1ad 91be 69c9 54bd bc68 8bbd
00000150: 47a1 2fbe 7186 6bbe 29ba c43c 368d a8bd
00000160: 3322 503e d6e7 2a3b 82c8 263e b850 873e
00000170: a04e 1d3e 1817 b3be 0150 1ebd 485e 023f
00000180: fb5d 0d3d 0cd8 98bd fe41 103e 7065 053e
00000190: a366 1ebe 833f 5d3e ae66 0c3e 6b2c 5dbe
000001a0: 54bf 4f3e 1b8f 3e3e aec0 f43d 03b3 89be
000001b0: 6803 253e d75e 39be e072 80bd c5d7 a83e
000001c0: f0c6 303e a5bf ce3d ee85 a43b 14fe 743e
000001d0: 415c 7d3e 1d3b 75be ee55 733d bb35 23be
000001e0: b6bd 82bb 35d5 893c 7fe3 4e3e 2dfd bb3c
000001f0: aed3 7e3e eef7 263e f0ea d3bc 8d2c 713d
00000200: 2632 f83c 61e5 dabd b180 1a3d 6a6e b23c
00000210: 255e 75be 7203 a4be f935 893d 2c2f 42be
00000220: 8459 693e e5aa b5be 96b9 2abe 43a7 633e
00000230: ce83 613e 13bf aebe cb0e 19be edb1 073f
00000240: 6d17 05bd e041 81be b684 073e 4d4d 9abd
00000250: 6fe2 683e 96bd 1cbe c4a7 dc3e 1842 413e
00000260: cfab d43d edd3 9b3e 71a4 703f df5e c8bd
00000270: 2f12 7a3e 690d 2e3e 54af 23bd 64b6 0fbe
00000280: 8a8d d4be 55f7 5fbe 749a 49be 92ac 5bbe
00000290: c919 31bf 6a3c 5abd 1f4d 693c 5bfa 6ebe
000002a0: e317 14be 783a babd 728b 423e c3d3 dabd
000002b0: 3b25 febe f7c9 87bd fc03 e4bd 67c3 5cbe
000002c0: ca2b f43e a6f7 1abd 7a5e de3d 41a8 023d
000002d0: fd23 a0be 2f7b 2ebe 5893 6cbe 4a3c efbe
000002e0: b0d7 debe 65e3 0c3e 5226 b7bd 204c 0c3e
000002f0: 2720 6e3d a35b b4be 0d77 493e a6e1 f33d
00000300: be8a 4dbe 3e65 17bc ccc1 78be b3a8 ecbc
00000310: 6afc 99be e8ce f23e fa3c 773e 1d95 8d3e
00000320: aebe 0d3e 29d1 553d 3b5b 89bc def3 183f
00000330: f7a3 be3e 1d14 3c3e 3af0 703e e8de a0bd
00000340: e648 263d 32e7 a7bc 8c7b 41be 1e88 6cbe
00000350: 9b89 92bd b777 c5be 6c1f ddbd 3e31 34be
00000360: 6671 debd d18d 44be 021f 35be 5b13 cebd
00000370: d7c9 2abd d1d2 d8be 284a 0ebe dd3c 23be
00000380: 9eab 6bbe 0286 46be 8298 15be ad3a 8dbe
00000390: 7265 26bf d23d 6dbd c49b 64be 5040 40be
000003a0: 4087 393e 870d ee3c 6455 c63c 815b dd3e
000003b0: de3a 1a3d 6b62 22bd 39f2 853e 335e 443d
000003c0: 48a1 19be 050f 713e daeb f4bd 353f c8bc
000003d0: 4424 1bbe 2536 97be 21c5 98be 0859 b3bd
000003e0: 2e21 073f 18d2 843e c7a8 913e 7c06 ecbd
000003f0: 7112 bbbd 8de2 973e 0444 9bba 6ff5 d5bd

xy_encoder.flat_module.out.bias f4 [64]
-0.007540333 -0.18662433 -0.054350924 0.009605009 -0.10681108 -0.23282915 0.09240255 0.07175095
-0.14062731 -0.013472595 -0.0051703076 -0.012057224 -0.2916533 -0.03252036 0.013554607 -0.0842199
-0.07827008 -0.08513516 0.023505287 0.02361009 -0.0018641722 0.064887345 0.107032716 -0.031390592
-0.06679539 0.024499571 -0.044855308 0.117421605 -0.02230322 -0.088476576 0.052964818 0.05539214
-0.09032189 -0.18077971 0.04750169 0.012743945 -0.16408758 0.028617177 0.21610807 0.102818936
0.013169456 -0.08279785 -0.056402143 -0.20242192 -0.26646677 0.06542639 -0.032635845 0.0061576664
-0.08637874 0.10670246 -0.05328243 -0.04284689 -0.048132014 -0.04499192 -0.19239148 -0.10013463
-0.05076324 0.040964466 0.022777146 0.0784696 0.053024754 0.03759874 -0.16558431 -0.26845133
00000000: e614 f7bb 731a 3fbe 139f 5ebd 545e 1d3c
00000010: c4bf dabd c46a 6ebe 8c3d bd3d 29f2 923d
00000020: 9b00 10be 29bc 5cbc af6b a9bb aa8b 45bc
00000030: 9553 95be 1234 05bd 2414 5e3c 7c7b acbd
00000040: 104c a0bd 585b aebd 298e c03c f369 c13c
00000050: 3d57 f4ba a8e3 843d f833 db3d 6c93 00bd
00000060: 05cc 88bd 53b3 c83c 33ba 37bd bd7a f03d
00000070: 3eb5 b6bc 3533 b5bd a3f1 583d dee2 623d
00000080: affa b8bd 511e 39be 2291 423d fbcb 503c
00000090: 9306 28be 926e ea3c 6f4b 5d3e bc92 d23d
000000a0: b4c4 573c eb91 a9bd ef05 67bd b147 4fbe
000000b0: 556e 88be 45fe 853d 2aad 05bd 40c6 c93b
000000c0: 56e7 b0bd d286 da3d ad3e 5abd 3880 2fbd
000000d0: 1326 45bd 7349 38bd 4602 45be 6313 cdbd
000000e0: 1ded 4fbd 5bca 273d 2397 ba3c abb4 a03d
000000f0: 7c30 593d 2301 1a3d ef8e 29be 7472 89be

decoder.resizer.to_hidden.weight f4 [64, 64]
0.059967637 0.089812785 0.16640313 -0.116701156 0.1546009 -0.4957994 -0.29494908 0.094963886
0.056045525 -0.9736058 0.5678516 -0.06568764 -0.006885066 -0.35783845 -0.037472423 0.26324677
0.20651406 -0.26821384 0.23519409 0.37567568 0.38655257 0.52401745 0.4703923 0.40248105
-0.23412819 0.16667047 0.12020435 0.25920892 -0.074362464 0.31992915 -0.09462824 -0.11474447
0.054519128 -0.4678954 -0.2687477 -0.77717465 -0.23627059 0.18338712 0.5865311 0.5294179
0.10317055 -0.051096294 -0.65095025 -0.02253195 0.6245049 -0.032268956 -0.094197534 0.16333605
-0.104391254 -0.51381487 -0.2900416 0.35525197 0.28808436 -0.3321625 0.42265388 0.41007128
-0.22334667 0.4536502 -0.12590326 -0.12948923 -0.25570872 -0.20557475 0.40998217 0.20067553
-0.072025605 -0.34267852 0.30766168 0.090278536 -0.09348636 -0.0040937006 -0.05625768 -0.045483924
0.42013624 -0.05817117 -0.33084944 0.17642339 0.027430318 0.2247453 -0.29979858 0.22367127
0.1751986 0.22742754 -0.004393349 0.13871168 -0.3489662 0.27762082 -0.0958849 -0.19692917
0.32749307 -0.38746354 0.080118366 0.1042981 -0.043692373 -0.22806811 0.05456207 0.12908109
-0.1743769 0.14239675 0.225924 0.73247427 0.22811818 0.30460054 -0.1367831 0.025237687
-0.039272934 0.004481318 0.3190094 -0.24468446 -0.2751256 -0.12229071 -0.12473755 0.18575767
0.0763406 0.72248864 0.1501944 -0.33121803 0.17692235 0.43475226 -0.24031748 0.062758856
-0.09777061 -0.39244726 0.24183488 -0.26363146 0.40204844 0.18511656 -0.20508423 0.41077304
-0.3158936 0.15618317 0.16857105 -0.07212305 0.21189092 0.04583301 0.3138201 -0.19522636
-0.14266685 -0.054972377 -0.44982344 -0.015777586 0.17958419 0.0995395 0.2365879 0.3673167
0.21033649 -0.17584191 -0.27299204 0.030450605 0.3495143 0.08197097 0.3791334 -0.24950922
-0.096685275 0.45614254 0.18971217 -0.17448598 -0.169382 0.051858004 0.028488401 -0.30377728
-0.4738727 -0.09833174 -0.049989965 0.085597344 -0.22540504 0.17710914 -0.28213802 0.05038843
-0.05079955 0.13886224 0.29871988 0.53957725 0.117338546 -0.11540696 0.065773994 0.17451657
0.37633514 0.12257675 0.23199245 -0.08298413 0.22805224 -0.28086585 0.058058012 -0.09864978
-0.0333508 -0.34444687 0.09257292 0.16463204 0.07651399 -0.2844758 0.39265186 0.37781036
-0.05215721 0.43443015 -0.074622266 -0.1879785 0.27051958 0.27144936 0.026738362 -0.37367532
-0.42413154 -0.5996367 -0.91565835 0.38196892 0.11392391 0.44053644 0.46878323 0.50833523
0.023968596 -0.39908707 0.17002267 -0.057997305 -0.19115008 -0.02054382 0.4285942 0.21910791
0.03940857 -0.31767908 0.27201462 0.094725974 -0.15713654 0.11418162 0.124370486 -0.3257226
-0.036590993 0.3074849 -0.2609293 0.28794405 0.10253298 0.42578745 0.14095348 0.2946736
0.21274795 -0.07502041 -0.3513695 0.026864603 0.038889617 -0.07121506 -0.1087189 -0.0060453312
-0.32648858 -0.31980646 0.0040645846 -0.24020989 0.50000745 0.08110475 -0.46187484 0.03982266
0.13461788 -0.26556492 -0.2691635 -0.51225233 0.17654867 -0.12963217 0.0001250389 0.4937779
00000000: a0a0 753d c4ef b73d 9565 2a3e 0401 efbd
00000010: b34f 1e3e 6bd9 fdbe 9103 97be 6d7c c23d
00000020: fe8f 653d 3b3e 79bf b95e 113f 3e87 86bd
00000030: 1f9c e1bb 9a36 b7be af7c 19bd 48c8 863e
00000040: 6c78 533e 5353 89be b8d6 703e 9058 c03e
00000050: 38ea c53e 0226 063f 42d7 f03e ff11 ce3e
00000060: 4dbf 6fbe aaab 2a3e b32d f63d 08b7 843e
00000070: 594b 98bd c1cd a33e 73cc c1bd 26ff eabd
00000080: 734f 5f3d fc8f efbe 4c99 89be ebf4 46bf
00000090: ebf0 71be d5c9 3b3e e726 163f ee87 073f
000000a0: 154b d33d 594a 51bd ada4 26bf ed94 b8bc
000000b0: 8edf 1f3f 742c 04bd a3ea c0bd 9141 273e
000000c0: 15cb d5bd 5f89 03bf 5580 94be 96e3 b53e
000000d0: cb7f 933e 3411 aabe 1766 d83e ddf4 d13e
000000e0: fdb4 64be d744 e83e c9ec 00be d398 04be
000000f0: 41ec 82be 3082 52be 2fe9 d13e e37d 4d3e
00000100: 2982 93bd 8f73 afbe d585 9d3e f4e3 b83d
00000110: c775 bfbd 7324 86bb 746e 66bd 5a4d 3abd
00000120: 191c d73e e544 6ebd 1965 a9be 55a8 343e
00000130: 8cb5 e03c a223 663e 337f 99be 150a 653e
00000140: 4367 333e c4e2 683e 15f6 8fbb 6f0a 0e3e
00000150: b3ab b2be 5124 8e3e 4d5f c4bd cda7 49be
00000160: 2cad a73e 9f61 c6be 1915 a43d 3e9a d53d
00000170: c6f6 32bd b08a 69be 7a7c 5f3d d52d 043e
00000180: dc8f 32be 74d0 113e 9f58 673e 6f83 3b3f
00000190: d097 693e 9af4 9b3e de10 0cbe 44bf ce3c
000001a0: a8dc 20bd 05d8 923b 3355 a33e 908e 7abe
000001b0: 43dd 8cbe 8d73 fabd 6776 ffbd 4237 3e3e
000001c0: 7658 9c3d 04f5 383f 90cc 193e 6995 a9be
000001d0: 222b 353e d997 de3e c915 76be b787 803d
000001e0: f53b c8bd d9ee c8be 90a3 773e b4fa 86be
000001f0: 4bd9 cd3e 328f 3d3e 9a01 52be d850 d23e
00000200: cebc a1be 7bee 1f3e e49d 2c3e 40b5 93bd
00000210: eff9 583e 65bb 3b3d 07ad a03e 6be9 47be
00000220: 4217 12be b72a 61bd 424f e6be ff3f 81bc
00000230: ebe4 373e 5edb cb3d 1944 723e ef10 bc3e
00000240: 7362 573e e70f 34be 9dc5 8bbe 8c73 f93c
00000250: 8af3 b23e 65e0 a73d c61d c23e 587f 7fbe
00000260: ee02 c6bd 848b e93e e843 423e 74ac 32be
00000270: 7a72 2dbe 0f69 543d 8260 e93c b288 9bbe
00000280: 719f f2be 2762 c9bd 47c2 4cbd a94d af3d
00000290: 94d0 66be 195c 353e 6574 90be 1964 4e3d
000002a0: 3013 50bd e731 0e3e d0f1 983e bc21 0a3f
000002b0: 314f f03d 7c5a ecbd 84b4 863d 79b4 323e
000002c0: 00af c03e 8509 fb3d 6e8f 6d3e 95f3 a9bd
000002d0: 8786 693e a6cd 8fbe 3dce 6d3d e508 cabd
000002e0: d99a 08bd 575b b0be df96 bd3d 4d95 283e
000002f0: 5eb3 9c3d d0a6 91be aa09 c93e 5c70 c13e
00000300: cca2 55bd a16d de3e 8fd3 98bd 707d 40be
00000310: 8b81 8a3e 69fb 8a3e 690a db3c 5f52 bfbe
00000320: c527 d9be ca81 19bf 9668 6abf 6e91 c33e
00000330: f050 e93d fe8d e13e 5b04 f03e 4222 023f
00000340: ca59 c43c 2455 ccbe 6c1a 2e3e 958e 6dbd
00000350: d9bc 43be 834b a8bc b370 db3e d35d 603e
00000360: e16a 213d d5a6 a2be 8045 8b3e b1ff c13d
00000370: 67e8 20be 0ed8 e93d f4b5 fe3d 1dc5 a6be
00000380: 70e0 15bd a96e 9d3e 8698 85be 676d 933e
00000390: d0fc d13d d000 da3e 1c56 103e 75df 963e
000003a0: 99da 593e 4da4 99bd b4e6 b3be 2813 dc3c
000003b0: b84a 1f3d 34d9 91bd 04a8 debd ea17 c6bb
000003c0: 8329 a7be acbd a3be 3530 853b 95f9 75be
000003d0: 7d00 003f 3f1a a63d dc7a ecbe 161d 233d
000003e0: 45d9 093e 20f8 87be cccf 89be f822 03bf
000003f0: 2dc9 343e 4cbe 04be e01c 0339 75d0 fc3e

decoder.resizer.to_hidden.bias f4 [64]
-0.08653744 0.036984466 0.051770862 0.09052273 0.23712772 -0.008899313 0.028390123 -0.046217006
-0.15879488 -0.0041157585 -0.23870103 0.050511204 -0.043603595 -0.24652429 0.08566888 -0.115244694
0.22555953 0.10905332 0.020948332 0.053672962 -0.033053778 0.053586595 -0.04212383 -0.027030142
-0.0528301 -0.024183864 0.1686934 0.047831036 -0.08593601 0.010283146 0.108995155 -0.020386461
0.03301357 -0.0067715496 -0.22948626 -0.07570382 0.09394014 -0.14087503 -0.07263361 0.0358072
-0.11450632 0.09234359 -0.053328916 -0.05465533 -0.080608286 -0.0003821616 -0.19239861 -0.09773421
-0.046133235 -0.06177719 -0.09448095 -0.18058687 0.038164757 0.10677773 0.006912111 0.107933655
0.017876282 0.11323094 0.034979813 0.098314025 -0.1492658 -0.22070505 0.12647358 -0.11443929
00000000: 8b3a b1bd 067d 173d af0d 543d fb63 b93d
00000010: 9cd1 723e 6dce 11bc 6792 e83c 0b4e 3dbd
00000020: 209b 22be 7cdd 86bb 0b6e 74be d6e4 4e3d
00000030: af99 32bd dd70 7cbe 2a73 af3d 6905 ecbd
00000040: 14f9 663e 5957 df3d d69b ab3c 2ed8 5b3d
00000050: 6663 07bd 9e7d 5b3d 0a8a 2cbd 516e ddbc
00000060: 6064 58bd 3d1d c6bc f6bd 2c3e 7aea 433d
00000070: 38ff afbd a47a 283c da38 df3d 8201 a7bc
00000080: 3d39 073d e0e3 ddbb 72fe 6abe 9b0a 9bbd
00000090: b063 c03d 8b41 10be eec0 94bd 92aa 123d
000000a0: 4a82 eabd a31e bd3d 6c6f 5abd 44de 5fbd
000000b0: f515 a5bd dd5c c8b9 2404 45be e028 c8bd
000000c0: 34f6 3cbd 140a 7dbd 3a7f c1bd c4eb 38be
000000d0: a652 1c3d 48ae da3d fd7e e23b 520c dd3d
000000e0: 4871 923c a0e5 e73d fe46 0f3d dd58 c93d
000000f0: 22d9 18be 8100 62be 4a82 013e 255f eabd
