results/notebooks/neural_process/Noisy_Matern_Kernel/CCP/run_0/params.pt (torch_old, 831066 bytes, 80 tensors)

decoder.destination.to_hidden.weight f4 [64, 128]
000000 9a 80 fe bc b9 8c 8f 3c a8 22 40 bd 6e 4d 6e bd
       -0.031067181 0.017523156 -0.04690805 -0.05817931
000010 83 de f5 bc 97 b8 99 3d f3 e2 6f bd 5d f3 92 bd
       -0.030013328 0.07505911 -0.058566045 -0.07175324
000020 b4 be a1 bd fc ac fc 3c f9 30 d0 bc 85 a4 52 3c
       -0.07897702 0.030844204 -0.025413977 0.012856607
000030 75 33 85 bd 14 dc 89 bd 51 79 0f 3d 21 1a 5a be
       -0.06503955 -0.0673143 0.035027806 -0.2129903
000040 49 55 7a bd 7d 4f 99 3d 85 40 88 bc 89 d5 9b 3c
       -0.06111649 0.07485864 -0.016632328 0.01902272
000050 0e 6b 54 bd ec 5f 20 3c 02 49 8b 3c 01 bb ae 3d
       -0.051859908 0.009788495 0.017002586 0.08531762
000060 ba 6b 11 be d8 9c 72 3d ee d6 88 bd b2 c0 54 be
       -0.1420125 0.05923161 -0.066816196 -0.20776632
000070 d1 06 9e 3d 4c 92 52 bd 1c 56 8d 3d 5b 24 18 3d
       0.07716144 -0.05140905 0.0690119 0.037144046
000080 73 43 25 3d 6c c4 21 3d 85 50 92 bd ba 3f ba bd
       0.040347528 0.039493963 -0.07144264 -0.09094186
000090 0e d1 9e bd 41 85 10 bd 2a af 66 bd 6e 5b c0 bb
       -0.07754718 -0.03528333 -0.056319393 -0.0058702743
0000a0 8a f3 65 bd dd bd 10 bd 24 15 55 be ab 36 f6 3d
       -0.05614046 -0.035337318 -0.20808846 0.12022146
0000b0 ba 0e 65 bc 36 28 15 3d b7 05 89 3c b0 50 fc 3b
       -0.013980562 0.0364153 0.016726358 0.0077000484
0000c0 6e ab 3e 3e 90 9d 83 3d 80 8c 3e 3d ce e6 87 bc
       0.18620083 0.06426537 0.04652071 -0.016589548
0000d0 c3 a0 26 3d 1f 2a 0f 3d 01 bc e5 ba 24 23 b6 bd
       0.040680658 0.03495228 -0.0017527343 -0.08893421
0000e0 60 2b 83 bc 84 8a 8a 3d 8a 9f 4c 3d c5 7a c1 bd
       -0.016011894 0.06764701 0.049956836 -0.094472446
0000f0 06 9f 04 3c b8 fb 37 3d ac d9 b8 bd c5 0c 51 bd
       0.008094555 0.044917792 -0.090258926 -0.05103757
000100 51 bd 2a bd 6b ad 03 bb 9d b3 07 bd d9 9d 86 be
       -0.041684452 -0.002009238 -0.033130277 -0.26292303
000110 3f 93 bf be 3c 60 13 3d 7e 2f fd 3d 8c be c6 3d
       -0.37417027 0.035980448 0.12362574 0.09704313
000120 ea 71 9e bd e7 31 4a bd 59 e3 c6 3d 54 97 07 bc
       -0.07736571 -0.049363997 0.09711332 -0.0082758255
000130 a7 d5 fb 3c 95 49 a1 bd 7f db 46 bb f5 3c 49 3e
       0.030741526 -0.07875363 -0.0030343232 0.1965216
000140 a5 5e 38 3d aa 84 f9 be 9f fe 22 bd 18 35 eb bc
       0.045012135 -0.48734027 -0.039793607 -0.02871184
000150 d7 ed 77 bd 1f 6d 73 be 37 23 96 bd 15 58 76 3d
       -0.060529556 -0.23772095 -0.073309354 0.060142595
000160 c4 f2 b8 3d fa d4 91 3d 4f e2 93 bd 66 fe 2b 3d
       0.09030679 0.071207 -0.07220899 0.04199066
000170 c1 c0 36 3d 1e 65 a3 3d a9 cb 3b bd e5 88 70 3e
       0.04461742 0.07978271 -0.045848522 0.23489721
000180 23 36 08 3e 39 ed 8b 3d 9d 5f 12 3e 88 b6 1f bd
       0.13301902 0.06832356 0.14294286 -0.038992435
000190 f0 1b bd 3d 62 42 1a bd 1c 2f d0 bc 9b a3 38 bd
       0.09233844 -0.037660964 -0.025413089 -0.0450779
0001a0 67 8c 22 3d c4 23 13 bd ad 7b c4 3b 0d 10 42 3d
       0.03968468 -0.03592278 0.0059961886 0.04737859
0001b0 2c 26 6c 3d 59 07 7c 3d ca 5e c3 3c b3 f4 91 bd
       0.05765359 0.061530445 0.02384891 -0.07126751
0001c0 8a a8 1b 3b d8 65 ef 3a 87 d0 81 3d d7 fa 2d 3d
       0.002375158 0.0018264605 0.063386016 0.042475548
0001d0 a4 e6 a8 bd 9a 76 14 3e 7a 61 73 3d 3b 91 93 3d
       -0.08247116 0.14498368 0.059419133 0.07205435
0001e0 74 70 05 be 56 b1 13 3d 87 24 20 3e a4 ea 86 bd
       -0.13031179 0.036057793 0.15638934 -0.06587723
0001f0 a5 b3 01 3e 08 ed 99 bc ed 14 b6 3c bd ff 31 bd
       0.12666185 -0.018789783 0.022226775 -0.04345678
000200 b8 91 84 3d c2 7b b3 3c 47 1d 13 3d 4f 8a 7a 3c
       0.06473106 0.021909598 0.035916593 0.015291764
000210 df 18 66 ba a9 bd 88 bd 0c 30 65 bc 04 e6 2b bd
       -0.000877751 -0.066768 -0.013988506 -0.041967407
000220 99 ff 47 be 7f e6 14 3e 8f ea 61 3c 18 71 0f 3d
       -0.19531097 0.14541052 0.013788833 0.035019964
000230 ff 32 66 3d 29 15 50 bd 35 21 27 3d 07 7d 93 3e
       0.056200977 -0.05080143 0.040803153 0.28806326
000240 f1 b6 8c 3c 70 60 60 bd 5b 8e 45 bd ba 61 1e 3a
       0.017177077 -0.05477947 -0.048231464 0.0006041784
000250 e1 07 69 bd 71 dd 87 bd c0 cb a1 bd da ed f5 bc
       -0.05689228 -0.066340335 -0.0790019 -0.030020643
000260 a1 ed 98 bc 95 56 af 3d e1 d4 8d bc 36 48 f0 bc
       -0.018667998 0.08561436 -0.017313423 -0.029331308
000270 08 de 96 bd 84 20 8c 3d 19 60 83 bd 18 ca 82 3c
       -0.07366568 0.06842139 -0.064148135 0.015965506
000280 e2 b2 86 3c 7c 83 47 3d e7 7a fd be 06 de 45 3e
       0.01644272 0.048709378 -0.4950783 0.19322976
000290 7f f9 a8 3d 89 b9 1e 3d e8 a4 4e 3c d9 ac a9 3d
       0.082507126 0.03875116 0.012612559 0.08284921
0002a0 61 83 86 be 07 0e 87 3d e4 9a 2c be 76 59 d2 bd
       -0.2627211 0.065944724 -0.16855961 -0.102709696
0002b0 c4 8d 43 3b 6e b2 c5 ba f9 ee 35 3e aa 24 a6 bd
       0.0029839138 -0.0015083083 0.17766942 -0.08112462
0002c0 10 53 9f bd fa ad f3 3c 7c 47 73 3d 6b d4 fc bc
       -0.07779515 0.029746044 0.059394345 -0.030863008
0002d0 54 a4 1e bb b3 b7 9e bb 29 b5 82 be db 98 a6 bd
       -0.0024206834 -0.004843676 -0.2552884 -0.081346236
0002e0 1f fa a0 bd fa bb f0 bc 14 dd 3c be 70 7c be ba
       -0.07860207 -0.02938651 -0.1844371 -0.0014532935
0002f0 62 0c a0 3d cc 27 18 bd 9f a0 99 bd 58 e3 7d be
       0.07814862 -0.03714733 -0.07501339 -0.24793756
000300 71 a9 1b 3d a7 37 a1 3d da 0f 89 bd 49 e9 70 bd
       0.03800339 0.07871943 -0.066924766 -0.058816228
000310 6c c4 46 3d bc 56 98 bd c6 10 07 3e 23 bf 03 be
       0.048527166 -0.07438418 0.13189992 -0.12865882
000320 b2 be 8a 3b f6 61 45 bc df 98 e1 bc 52 48 4b bd
       0.0042341584 -0.0120472815 -0.027538715 -0.049629517
000330 cc e4 8a bd c2 b7 cf bd 52 fc 81 3c 0e 42 4b bc
       -0.06781921 -0.10142471 0.015867386 -0.012405885
000340 42 07 2f bc 1c 60 a7 bd 7e 29 16 3e c1 bc 36 bd
       -0.010682883 -0.08172628 0.14664266 -0.044613604
000350 c8 ed 64 bd a4 2a c3 bd 8d 1b c6 3c 23 d4 59 bd
       -0.05589083 -0.095296174 0.02418306 -0.053180825
000360 25 04 c5 bd 21 ae 00 bd e4 b7 3b 3e e4 62 a6 bc
       -0.09619931 -0.031416062 0.18331867 -0.020310827
000370 a0 02 f0 bd 41 b3 de bb f3 9c d8 bd 3e b0 64 bd
       -0.11719251 -0.006796271 -0.10576811 -0.05583214
000380 f1 60 21 3d e0 26 d4 bd c5 19 18 bd c2 d3 49 bd
       0.03939909 -0.10358977 -0.03713395 -0.049274214
000390 11 80 8e 3c bd 2d e7 bc 8b 63 b2 bd 52 c1 e4 bc
       0.017395051 -0.028220052 -0.087103926 -0.027924214
0003a0 e1 46 5b bd 84 1e 7b 3d 8d c0 4d 3c 2f 3f 5d bd
       -0.053534392 0.0613084 0.012558115 -0.054015335
0003b0 d7 ef 96 bc b6 7d 8b 3d d2 7b 93 bd 2a 7a 35 3d
       -0.018424911 0.06811087 -0.07201351 0.044305958
0003c0 49 9d 9e 3e 91 ec b6 bc 10 55 49 bd bb b6 42 3d
       0.30979374 -0.0223296 -0.049153388 0.047537547
0003d0 08 d7 b2 3d b9 58 34 be 4f 84 23 be 16 08 0c bd
       0.0873242 -0.1761197 -0.1596844 -0.0341874
0003e0 c5 e9 b7 3c e6 f4 30 3d c6 3f c4 3d 6a 9d cf bd
       0.022450337 0.043202303 0.09582476 -0.10137446
0003f0 ea 3b 6e 3e c4 e5 e8 bd 13 7f 3f bc 17 77 00 3d
       0.23265043 -0.11371949 -0.011688012 0.031363573

decoder.destination.to_hidden.bias f4 [64]
000000 fb 92 bc 3d 89 c1 30 bd 43 1a 9d bc 82 19 ee bc
       0.09207722 -0.04315332 -0.019177562 -0.029064897
000010 1b 39 ca bd a1 90 a0 bc e9 6c 40 bd 14 be df 3d
       -0.09874173 -0.019600214 -0.046978865 0.109249264
000020 eb c6 79 3d 8f c3 b0 bc 7d d8 0d 3d 18 b9 ae bd
       0.06098072 -0.021577625 0.034630287 -0.085313976
000030 7d c8 24 bb cc 17 89 bd 01 2a 04 3d e6 25 5b 3d
       -0.0025143914 -0.06693992 0.03226662 0.05350294
000040 de fd 3d bd ac f8 02 3d 8b f6 df 3c cb 10 a8 bd
       -0.046384685 0.031975433 0.02733924 -0.08206328
000050 ef 46 eb 3c a2 6a a7 bd 1b 6d 9a 3d a3 05 3b 3d
       0.028720347 -0.081746355 0.075403415 0.045659672
000060 0c 13 5a 3d 79 89 ab bc c9 42 0e 3e 6a 71 dc bc
       0.05324082 -0.020939576 0.13892664 -0.026909549
000070 9c 86 b2 bb 9f 66 f2 bd 0f ba a7 3d ae 84 bd bc
       -0.0054481756 -0.1183598 0.08189785 -0.023134556
000080 d8 e4 cc 3c 50 6d d2 bc 7d 2f c9 bd 0f 90 ab bc
       0.025011465 -0.02568689 -0.09823511 -0.020942716
000090 e4 67 83 bc 09 be 18 3d 57 c4 74 3d 3b 1a 0d bc
       -0.01604075 0.037290607 0.059757557 -0.008612211
0000a0 5f 4b 3a bd e0 c8 83 3d 4b bd 31 bd aa 66 1f 3d
       -0.045482036 0.06434798 -0.043393414 0.038916267
0000b0 ba d0 c0 bc 73 9c 57 3d bb 2c 85 be 83 32 b4 3d
       -0.023537029 0.052639436 -0.2601069 0.08798697
0000c0 9a 86 18 3e 0b 07 66 bd ce e4 10 3d bb 7b 51 3d
       0.14895096 -0.05615906 0.035374455 0.05114339
0000d0 b7 34 b5 bc cd 87 a3 3c cc 96 ad 3d af f5 33 bd
       -0.022119863 0.019962216 0.08476028 -0.043935474
0000e0 4d 57 3f 3c 44 e2 af 3d 28 70 80 3d 97 1e 18 bd
       0.011678529 0.085880786 0.06271392 -0.037138548
0000f0 0b 4f 27 3d 73 b6 8d bd 1b cc 0a bd 50 b2 f6 bc
       0.040846866 -0.06919565 -0.033886056 -0.030114323

decoder.destination.linears.0.weight f4 [64, 64]
000000 ba d7 84 bd 3e e5 86 3d 20 11 20 bc 2d 5f 91 3c
       -0.06486459 0.06586693 -0.009769708 0.017745579
000010 ee 35 86 be 92 6b a4 bd cf 1f b2 bd 1d 94 68 bd
       -0.2621302 -0.0802833 -0.08697473 -0.056781877
000020 f9 3c d4 bb 77 47 b2 3d cf a4 cf bd b4 f1 d9 bd
       -0.006476995 0.08705037 -0.101388566 -0.10641804
000030 a9 76 b1 3d 07 d6 30 bd 1d 13 94 3c 16 55 5b bd
       0.08665211 -0.043172862 0.01807552 -0.05354794
000040 28 5f 52 3d 25 34 94 3d 2d 44 0b bc 80 47 9d 3d
       0.05136028 0.07236508 -0.008500141 0.07679653
000050 b5 1c 50 bc 69 79 2e 3e 1a 1f 09 3e 03 bc 57 be
       -0.012702157 0.17038502 0.1339077 -0.21067815
000060 9b ce 0f 3e 83 9c b5 3d 7d 4b c1 bd 54 2d f5 bd
       0.14043657 0.08867743 -0.09438226 -0.11971536
000070 b3 27 62 3e 67 ef 86 bd 73 cc 87 bd ca 4e aa bc
       0.22085457 -0.06588631 -0.066307925 -0.020789523
000080 8a 65 1e 3e ae 0c ac 3d 1c 51 bc 3c b0 94 54 bd
       0.15468422 0.08400856 0.022987895 -0.051899612
000090 01 62 f2 3d fd 8c 4d bc 69 e1 91 3d 87 d5 ad 3d
       0.11835099 -0.012545821 0.07123072 0.08487993
0000a0 6e ce c6 bd fe 30 72 3d 85 7c e6 bd 29 b9 b9 3c
       -0.09707342 0.059128754 -0.11254219 0.022671299
0000b0 23 82 ea 3c cb ae e2 bc 6f f1 a4 3d 84 c1 e8 3a
       0.028626507 -0.027671238 0.08053862 0.0017757867
0000c0 77 d3 4f bd 08 d8 c2 3d cf a5 35 bd 4e d2 c2 3c
       -0.050738778 0.09513861 -0.04434758 0.023781922
0000d0 9c 63 e8 3d f5 ca 8e bd e6 4f 11 be a7 15 ca bd
       0.11347124 -0.06972305 -0.14190635 -0.09867411
0000e0 51 3d 5d 3e ee f3 eb bd 6b c7 55 be 43 20 be 3c
       0.21605422 -0.11521135 -0.20876853 0.023208743
0000f0 a9 cd 4e 3b 27 15 ac bd 25 07 83 bd 27 d5 48 bd
       0.0031555688 -0.08402472 -0.06397847 -0.049031403
000100 27 b7 87 bc cc c5 8e bd 34 df 0a 3d 0c e7 d6 3d
       -0.016566826 -0.069713205 0.03390427 0.104932874
000110 91 08 12 3e 2a de 85 bd 0d 1d 45 3d f3 00 fc 3d
       0.1426108 -0.06536515 0.048123408 0.123048685
000120 12 b8 59 3c 14 96 bb bd b1 81 24 3c 88 62 06 3e
       0.013288515 -0.091594845 0.0100406865 0.13123524
000130 f9 03 7a 3b ff 28 02 3e 21 75 d9 bd 85 cf da 3d
       0.003814934 0.12710951 -0.10618044 0.106841125
000140 11 17 91 3d b6 59 2e 3d 4c 63 9d 3d 43 8c b1 bd
       0.07084478 0.042566024 0.07684955 -0.08669331
000150 04 39 f5 3c cc 9c 94 bd 0e 5f c6 bc 47 ff 3e 3e
       0.029934414 -0.07256469 -0.024215247 0.18652068
000160 90 49 da 3b 41 2d e4 bc df bf bf bd 15 30 45 3d
       0.0066616014 -0.02785361 -0.093627684 0.048141558
000170 df ff a7 bd e4 d6 b6 3d 81 0e 15 3e e8 ea 9b 3d
       -0.082031004 0.08927706 0.14556314 0.07613164
000180 89 4b c9 3c a2 2e b5 3d e1 22 14 3e 9f 80 a8 3d
       0.02457215 0.08846785 0.1446643 0.082276575
000190 05 f4 04 3c 29 a1 11 3e 94 75 c0 3d 75 53 63 bc
       0.008114819 0.14221634 0.09397426 -0.013874878
0001a0 3b 82 98 3d ac bf 07 3e d6 66 84 3d cf d5 08 3e
       0.074467145 0.13256711 0.06464927 0.13362812
0001b0 39 c8 e2 3d 77 36 3f bd 3e cd 02 3e 1e f2 fb bc
       0.11073346 -0.0466828 0.12773606 -0.030755099
0001c0 f2 fc e0 bd c1 5f f7 bd a5 3d 88 3d 02 54 85 bb
       -0.109857455 -0.120788105 0.06652383 -0.0040688524
0001d0 ec 2d 64 bd a7 e1 52 3d 51 53 84 bd ab 59 18 bd
       -0.055707857 0.05148473 -0.06461204 -0.03719489
0001e0 ce be 6c 3d 58 f5 40 bb 58 69 4b 3d 85 38 d6 bd
       0.057799153 -0.0029443111 0.04966101 -0.10459999
0001f0 24 54 38 3e 60 84 66 bd 46 e3 b8 bd e9 7a c0 3d
       0.18000847 -0.056278586 -0.09027724 0.09398443
000200 16 d3 06 be ad f5 09 be 46 1e ad 3c 0d ff a7 3d
       -0.1316646 -0.13472624 0.0211326 0.08202944
000210 84 86 3c 3d 2b 54 0c 3d 53 32 8d 3d 3a 12 52 bd
       0.04602672 0.034259956 0.06894364 -0.051286913
000220 cc 2d 98 bd f2 3a 35 3d a7 40 30 be 10 22 d5 3c
       -0.0743061 0.044245668 -0.17212163 0.026017219
000230 27 a4 fd bc f6 0f 14 3e 6d 69 0b 3c 34 48 56 3d
       -0.030962063 0.14459214 0.008509022 0.052314952
000240 58 85 56 3e bf a4 56 bd 90 37 59 3d 8d df c0 bc
       0.20949304 -0.052403208 0.053031504 -0.023544097
000250 8b 1b c5 bd d6 9d 96 3b fd 39 c5 3d d7 b0 d2 bd
       -0.09624394 0.004596452 0.09630201 -0.10287636
000260 48 a4 9e 3c 9a e0 98 3d e1 52 82 3d db 40 c4 bd
       0.019365445 0.07464714 0.06363464 -0.09582683
000270 27 70 3d be 0b d9 8c bc a6 21 73 3d 95 c5 bd bb
       -0.18499814 -0.017193338 0.05935826 -0.005791376
000280 f1 92 82 bd bb 73 dd 3d 80 b6 d0 3c 4f bf af 3c
       -0.06375683 0.108130895 0.025477648 0.021453528
000290 da af ba bc 26 4b fe 3d 93 df 2e be 78 68 40 3e
       -0.02278893 0.12416677 -0.17077474 0.18789852
0002a0 59 81 08 3e cf 98 36 bd 99 86 e1 bd b9 80 f5 3c
       0.13330592 -0.044579323 -0.110120006 0.029968606
0002b0 45 d9 ac 3d 28 f9 bf bd 3c f1 d9 bd 35 40 87 3d
       0.084398784 -0.09373695 -0.10641715 0.066040434
0002c0 11 d1 9c 3e 13 84 a1 bd 8d a0 9b 3d 55 9c 20 be
       0.30628255 -0.07886519 0.07598982 -0.15684636
0002d0 bc 2a 1d bd 78 27 93 3d 55 d3 a6 bb 78 c8 e4 3c
       -0.038370833 0.071852624 -0.0050911107 0.027927622
0002e0 93 62 be bc 2f e0 41 be ad d6 49 3e 97 72 df 3c
       -0.023240363 -0.18933176 0.19710799 0.02727632
0002f0 50 6d e7 3c ae a7 27 3e 8d e4 bb 3c 91 d0 fb bd
       0.028250366 0.16372558 0.02293613 -0.1229564
000300 42 9e 46 3e 49 6f 1f bc 38 3e 24 be 44 49 b2 3d
       0.19396308 -0.009731122 -0.1603936 0.087053806
000310 f8 66 ad 3d 6e 14 e5 bd f3 d7 ea bb 54 24 a8 be
       0.08466905 -0.11185537 -0.0071668564 -0.32840216
000320 df 81 af bc 71 71 0d bd c3 89 4c 3d eb 23 0a 3e
       -0.021424232 -0.034532014 0.049936067 0.13490264
000330 ed 36 05 bd 32 ee 58 3d b5 d0 a3 bd 3b f6 c9 3c
       -0.032523084 0.052961536 -0.07998792 0.024653545
000340 f4 b5 29 3c 75 e5 2a be a1 37 ae 3c 32 28 7d 3d
       0.010358322 -0.16689093 0.02126676 0.06180591
000350 70 65 07 bc fa d0 34 be 47 e8 07 3d dd f7 3d be
       -0.008263931 -0.17657843 0.0331805 -0.18551584
000360 37 64 42 3c a9 b8 a0 3c 36 b7 54 3e de a8 0c be
       0.011864713 0.019619303 0.20773014 -0.13736293
000370 fc 3e 75 3d 43 ef 4e 3d 7b 3f 0b be 12 c4 a9 3d
       0.05987452 0.050521147 -0.13598435 0.082893506
000380 4d 96 92 bd 07 e4 0c bb e7 dd 87 be 35 a8 13 3e
       -0.07157574 -0.002149822 -0.26536486 0.14419635
000390 ae a5 ba 3d ed 45 c8 bd f9 9a 2e bc 01 d6 1a be
       0.09113632 -0.09778962 -0.010657066 -0.15120699
0003a0 56 fd c1 bc dd 27 89 3d 6e 5e 27 bc 92 f7 9a bc
       -0.02368037 0.066970564 -0.010215385 -0.018916879
0003b0 8a e9 1e bd 9c 50 9c 3e 95 54 9a be 0d 4a fd bd
       -0.03879694 0.3053025 -0.30142656 -0.1236764
0003c0 09 d7 82 be b3 98 78 3e b7 95 15 bc 1c 66 ba bd
       -0.25554684 0.24277 -0.009129933 -0.09101507
0003d0 05 a2 c7 3c d7 4c 24 3d e2 43 c7 3b d1 b5 50 bd
       0.02436925 0.040112343 0.0060810903 -0.050954644
0003e0 93 f0 9a be db 77 eb 3e dd 8d 0f 3c 88 fa 82 3d
       -0.3026167 0.4598988 0.00876185 0.06395441
0003f0 0b 70 82 3c 9e 46 42 3d 42 b8 4f 3d 4b a1 fc bc
       0.015922567 0.047430627 0.05071283 -0.03083863

decoder.destination.linears.0.bias f4 [64]
000000 d9 8c fe b9 89 98 a7 3d ad d1 ec bc d8 73 a3 3c
       -0.00048551595 0.08183391 -0.028908575 0.0199527
000010 e7 dc b6 3d e6 2d a5 3d a3 21 97 3d bf a1 59 3c
       0.089288525 0.08065395 0.073794626 0.013283192
000020 f3 47 ba 3d 80 b6 d9 3c 63 01 87 3d 0c 8f 96 bb
       0.090957545 0.02657628 0.06592061 -0.0045946892
000030 fb 62 b1 3d 95 2f 5c bd 4b 65 de 3c 44 9a e4 be
       0.08661457 -0.053756315 0.02714791 -0.44648945
000040 d9 b6 1c bd 6d 2f a1 bd cb 2b 3b 3d 32 6a 23 bd
       -0.038260315 -0.07870374 0.04569606 -0.039896198
000050 00 99 91 3c 06 11 8c 3d 64 ef ff 3c 3b c9 a1 bd
       0.017773151 0.068391845 0.03124208 -0.0789971
000060 f4 ca 68 3d 39 4b 52 3d 64 bf a3 3d b0 f6 bf 3d
       0.056834176 0.05134127 0.07995489 0.09373224
000070 2c 5d 88 3d c2 10 69 3c 25 a4 c7 3c cd de 8c bd
       0.06658396 0.014225187 0.024370262 -0.068784334
000080 05 57 aa be 81 37 fc 3c cd 9d 04 be 7d c6 a3 bd
       -0.33269516 0.030788185 -0.12950821 -0.07996843
000090 c2 0d 3e bc f0 0c 8b 3d c1 5f 7d bd d8 19 99 bd
       -0.01159996 0.06789577 -0.061858896 -0.074756324
0000a0 9d c7 e9 bc 17 5d 5b 3e e1 5a 8d bd c6 d9 4f bd
       -0.028537566 0.2142223 -0.069020994 -0.050744794
0000b0 a6 ab fd bc ea 72 66 bd 4f 49 93 bd 49 1f d6 3c
       -0.030965637 -0.056261934 -0.07191717 0.026137965
0000c0 f7 bf 82 bc af fe 7b bd 44 e1 3a 3e a8 f7 f3 bd
       -0.015960677 -0.061522182 0.18249995 -0.11912471
0000d0 78 eb a4 3d 07 55 95 bd de 17 99 bd 4a 53 a9 bd
       0.080527246 -0.07291608 -0.074752554 -0.08267839
0000e0 45 0a e1 3d 51 f3 b5 be 47 42 36 bd c7 8f a5 bd
       0.10988287 -0.35537198 -0.0444968 -0.08084064
0000f0 63 5b 9f 3c 4d 0d 5a bc c7 a6 2d be 92 bf 8b 3e
       0.019452756 -0.013308835 -0.16958152 0.27294594

decoder.destination.linears.1.weight f4 [64, 64]
000000 ca 51 b4 3d f8 0d d4 bc 70 c1 86 bc 74 2a 8b bb
       0.088046625 -0.025885567 -0.01644966 -0.004247004
000010 d3 61 13 be c1 f6 b7 3d 0e 17 56 3d ad 94 5e 3b
       -0.14392786 0.089826114 0.05226808 0.003396313
000020 5f 41 a1 be e9 5b 0d bd d3 18 38 bd 85 56 5a be
       -0.31495187 -0.03451148 -0.04494555 -0.21322067
000030 05 72 3b 3b be 81 3d bd d2 0c b8 bd 44 28 79 bd
       0.0028601896 -0.04626631 -0.0898682 -0.060829416
000040 9c a9 1a be 47 9e 8e 3d 3d 51 75 bb 7d 50 2c bc
       -0.15103763 0.06963783 -0.0037432455 -0.010517237
000050 ba 05 c2 3c 30 c2 06 3b 9c 53 30 3d 19 7f e4 3c
       0.023684371 0.0020562522 0.043048486 0.027892636
000060 4d ef 64 3d db 4a 7f bd 57 43 6e bd ed 58 54 3e
       0.055892278 -0.062327247 -0.05816969 0.20737047
000070 bc 23 2a be ef 53 20 bb 9c bd 64 bd 16 dc ea 3c
       -0.16615194 -0.002446409 -0.055844888 0.028669398
000080 4b eb 21 bd 69 ed 9d bc 7d 3c 5d bc 9f 92 80 3c
       -0.039531033 -0.019278245 -0.013503191 0.015694914
000090 1f 35 1f be a2 aa 9f 3d 4f b7 bc bd 97 a8 7d bd
       -0.15547608 0.077962175 -0.09214651 -0.061928358
0000a0 a3 f5 4d 3d 3a d5 b3 bd 6b 79 6e 3d dc 8c da 3d
       0.050283086 -0.08780904 0.058221262 0.10671398
0000b0 53 aa 5d bd 43 c3 2a 3d 01 6f db ba 8c f1 92 3d
       -0.054117512 0.041690122 -0.0016741456 0.07174978
0000c0 bd e9 5b be 89 02 c6 3b 04 44 a5 bd f6 c6 83 bd
       -0.21475883 0.0060427827 -0.080696136 -0.06434433
0000d0 5e d1 cf bd 52 f8 db 3c 04 a7 d6 3d df 3f d0 3c
       -0.101473555 0.026851807 0.104810745 0.025421081
0000e0 02 c7 aa 3d be b7 94 bd 76 3d a9 bd 05 29 e2 bd
       0.08338739 -0.072616085 -0.08263676 -0.1104298
0000f0 0d b5 43 bd 34 8b a0 3d f3 29 ab 3d d7 2b 3a bb
       -0.047780085 0.07839051 0.083576106 -0.0028407478
000100 7a d3 04 be e3 33 55 bd 89 71 ce bd fa 69 d4 bc
       -0.12971297 -0.052051436 -0.10080249 -0.02592944
000110 f1 5c 14 be f7 cf f0 bc e7 20 4a bd 5a bc 14 be
       -0.1448858 -0.02939604 -0.049347784 -0.14524975
000120 dd 8e fb 3d ea 3d cd bd f6 f1 d6 bd 29 ba 18 bc
       0.122831084 -0.10021575 -0.10495369 -0.009321728
000130 44 d9 11 3d f4 98 15 be 1e a0 59 3b 30 96 c8 3d
       0.03560759 -0.14609128 0.003320701 0.09794271
000140 2d 3a e8 3c 42 d9 a2 3d c8 1c 4e 3d 46 bb 01 be
       0.028348053 0.07951595 0.050320417 -0.12669095
000150 95 1f a8 3c 4d eb e5 bd 66 6f 29 bd f7 9b 0a bd
       0.020522872 -0.11226521 -0.041366003 -0.033840146
000160 81 22 ed bd 62 d6 73 bd 43 27 af bd 4b 58 a0 bd
       -0.11578847 -0.059530623 -0.085524105 -0.078293405
000170 bf 61 8d bd e1 4a d3 bd 0e e1 1c be 31 91 69 bc
       -0.06903409 -0.103170164 -0.15320227 -0.014255808
000180 5f 9c c1 bd e8 fe 4e bd 71 5f 8b bd 7d aa 04 bd
       -0.094536535 -0.050536066 -0.068053134 -0.032389153
000190 df a9 95 3d 6c 06 07 3d c9 0c d9 3d 3d 03 cf bd
       0.07307791 0.03296511 0.10598142 -0.101080395
0001a0 a3 18 2d 3e fc d6 2b 3d fc d5 09 3d 94 42 49 3d
       0.1690393 0.041953072 0.033651337 0.04913576
0001b0 93 54 b7 bc 0c d3 e1 bd 7f a8 f6 ba 22 bd ca bd
       -0.022379195 -0.11026582 -0.0018818526 -0.098993555
0001c0 75 9b ab bd e5 bd 16 3e 0d 65 89 3d db cd 26 3d
       -0.083792605 0.14720877 0.06708727 0.040723663
0001d0 53 f8 b3 bd 42 dd bb bd c8 07 9b 3d 82 3c e1 3d
       -0.087875985 -0.09173061 0.075698435 0.10997869
0001e0 e9 2d 34 3d f2 01 87 3d 91 70 03 3d ce b6 14 be
       0.043989096 0.06592168 0.032089774 -0.1452286
0001f0 66 26 83 bd ac f6 ef 3d 26 2a 4f bd 60 85 73 be
       -0.06403808 0.11716971 -0.050577305 -0.23781347
000200 9e 04 44 be 88 f3 dc 3c 36 a6 8a bd b2 fa e8 bd
       -0.19142386 0.026971593 -0.067699835 -0.11375941
000210 04 23 fe 3d f5 7f 2f bc 01 b5 03 be c1 e7 81 bb
       0.124090225 -0.01071166 -0.12862016 -0.003964395
000220 bc b1 a5 bd 0f 06 e1 3d 12 0f 83 bd c5 fd 3f be
       -0.08090541 0.10987484 -0.06399359 -0.18749149
000230 c9 85 0f be 37 6b 0e bd bb 20 38 3d f4 be af 3c
       -0.14015879 -0.034770217 0.04495309 0.021453358
000240 e4 d9 34 3d 68 bd 01 3d e1 4d fc bd c2 43 7c 3d
       0.04415311 0.031674773 -0.12319542 0.061588056
000250 81 18 8d 3c 88 95 5d bd 54 af cf bd d8 4c fd 3d
       0.017223598 -0.054097682 -0.10140863 0.123681724
000260 76 18 25 3d 2e 16 15 be 3c bb c3 bd f8 c8 be 3d
       0.04030653 -0.14559242 -0.095571965 0.093156755
000270 2c 25 18 3c 9a 58 bb bc 30 f2 20 be c0 a4 28 bb
       0.009286206 -0.022869397 -0.15717387 -0.0025732964
000280 4c a5 e0 3d 87 66 b8 3d 42 0a 8f bd 28 b0 ab bd
       0.10969028 0.090039305 -0.069843784 -0.083832085
000290 f1 d7 3f be a5 0c d2 3c 12 b7 81 bd b4 c6 d3 bd
       -0.18734719 0.025640795 -0.06333746 -0.10340634
0002a0 76 fa f4 3d e8 bd 81 3b 8c 53 4a 3c ac 4e df 3d
       0.11961834 0.003959406 0.012349021 0.10903677
0002b0 f7 e3 c8 bd 0b d4 29 bd a8 24 43 3c 6a 05 e8 bd
       -0.09809106 -0.041461986 0.011910595 -0.11329158
0002c0 7b 78 ad 3d 0a 0f a5 bd d7 92 f8 3d 60 72 15 3d
       0.084702455 -0.08059509 0.121373825 0.03648603
0002d0 15 22 1a 3d 54 b6 8c bd 68 90 d1 3d 20 4a e5 3d
       0.03763016 -0.06870714 0.102326214 0.11195779
0002e0 13 b8 56 3d a6 df e8 3d 60 6a 61 3c 04 f2 4e bd
       0.05242164 0.113707826 0.013758272 -0.050523773
0002f0 68 79 0f be 38 e5 3b 3d 08 c2 df bc c1 51 f6 bd
       -0.14011157 0.045872897 -0.027314201 -0.12027312
000300 62 e0 52 3d 1d 70 6f be 06 80 d2 bd f6 89 7e 3d
       0.05148352 -0.23382612 -0.10278325 0.06214329
000310 49 07 f2 bd 20 77 e9 bc 36 c5 2a 3d 9d ce d0 bd
       -0.11817796 -0.028499186 0.04169198 -0.10195658
000320 ab 5b d4 bd 23 0b 9b bd e0 8d 1a be 9a 9b 28 bc
       -0.10369047 -0.075704835 -0.15093184 -0.010291005
000330 34 c2 fb 3b 6f 40 44 3e bc ea d7 3d 83 91 56 be
       0.007683063 0.19165204 0.10542819 -0.20953946
000340 5f e5 b1 bb 15 50 b2 ba ed 8d 81 bd a2 42 d7 ba
       -0.0054289545 -0.0013604189 -0.06325898 -0.0016423056
000350 61 fa 8b be f0 26 b1 3c ef 3c 79 bd 05 15 8b 3d
       -0.2733946 0.021625012 -0.060849126 0.067911185
000360 25 49 c3 bd 2c 30 a7 bd 67 90 77 3d 50 23 27 bd
       -0.095354356 -0.08163485 0.060440447 -0.04080516
000370 9b dc 36 be a3 5b fb bc f2 02 fb bd 67 6a 96 bd
       -0.17857592 -0.030683344 -0.12256421 -0.073445134
000380 e2 36 2b be 91 6e 70 bd 11 eb 0c be 45 6a f1 3d
       -0.16720155 -0.058699194 -0.13761546 0.117878474
000390 22 d3 13 be 01 22 5a 3c b1 a2 c2 3c 85 e7 73 3d
       -0.1443601 0.013313771 0.023759218 0.059546966
0003a0 e2 d9 92 bd 67 ae 75 3c e7 13 4f 3d 8d b7 3a bd
       -0.07170464 0.014995194 0.05055609 -0.045585204
0003b0 b7 f6 0b 3d c7 37 a5 3a 61 94 6d bd 2e 87 f6 bc
       0.034170832 0.0012605124 -0.058002833 -0.030093756
0003c0 e8 c7 4d 3d ad aa 82 bd b9 e4 dd bc 0e 07 bf 3d
       0.050239474 -0.0638021 -0.027086603 0.093275174
0003d0 93 12 84 bc 78 bc f4 bb 03 25 23 bd 3f ea d5 3c
       -0.016122138 -0.0074687563 -0.03983022 0.026112674
0003e0 cf 09 01 be 8f 31 a4 bd c8 94 91 3d 45 4c 1b 3d
       -0.12601398 -0.08017265 0.07108456 0.037914533
0003f0 34 4f 97 bd 07 44 84 bd 57 5c 5d be c3 20 39 3d
       -0.07388154 -0.06458288 -0.21617256 0.04519726

decoder.destination.linears.1.bias f4 [64]
000000 39 a1 89 3d f1 85 6e bd dd 55 ca bd a0 c0 b6 bc
       0.06720204 -0.058233205 -0.09879658 -0.022308648
000010 5a 76 ac bd de e5 cd bd 55 30 f7 bc 72 f2 ef bc
       -0.08421011 -0.10053609 -0.030174414 -0.029290412
000020 01 ce 77 bd fd 94 de bc de b2 00 3e 8b de bd ba
       -0.060499195 -0.027170653 0.12568232 -0.0014485879
000030 5b c3 3a bd c0 a8 68 bd d4 e0 19 bc b8 18 a7 3c
       -0.04559646 -0.056801558 -0.009391982 0.020397529
000040 3f bd 21 bd 67 a0 79 3d cc 21 f9 3d e8 43 99 bd
       -0.03948712 0.060943987 0.12164649 -0.07483655
000050 17 56 0b 3e a8 61 5a bd b9 34 c1 3d 82 bd 74 bd
       0.1360706 -0.05331579 0.09433884 -0.05975104
000060 67 0d da 3d 90 9c 0e be 61 c9 c7 bd 33 d9 bf bd
       0.106470875 -0.13926911 -0.09755207 -0.09367599
000070 d0 d0 4e 3e 8e b1 91 bd ee 6b 1e 3d 3d 99 f6 3c
       0.20196843 -0.07113944 0.03867715 0.030102367
000080 b5 68 4b bd 5e ea 9d 3d 83 0b 03 bd 25 18 87 3d
       -0.049660403 0.077107176 -0.0319934 0.06596402
000090 19 42 ae 3d 2a 87 50 3d 19 6a 00 bd 78 7d 53 bd
       0.08508701 0.050910152 -0.031351183 -0.05163333
0000a0 16 ab 20 bd 16 bf ab 3d 80 74 a6 bc bb cc 62 bd
       -0.03922566 0.08386056 -0.020319223 -0.055371027
0000b0 aa 85 d5 3d fc 5b 51 3d c6 d4 e1 bd 53 75 fb bc
       0.10425885 0.051113114 -0.110269114 -0.030695593
0000c0 c7 4d 00 bd 8c 08 9e bd 1c 86 01 bd 43 74 b7 3d
       -0.031324174 -0.07716474 -0.031622037 0.08957722
0000d0 61 12 39 3d 98 cf 2b 3e 98 49 62 3e 24 36 81 3d
       0.045183543 0.1677841 0.22098386 0.06309155
0000e0 68 cf 74 3d 63 46 92 bc 72 8f 1c bd 53 ba 5b 3e
       0.05976811 -0.017855829 -0.038222738 0.21457796
0000f0 99 7e 7f 3d b3 17 33 3e b3 d5 50 be 53 dd 97 bd
       0.062376592 0.1748951 -0.2039402 -0.07415261

decoder.destination.linears.2.weight f4 [64, 64]
000000 57 a8 e1 bd 48 10 a4 bd 40 da 08 3d b4 52 58 bd
       -0.110184364 -0.08010918 0.033411264 -0.052813247
000010 01 4d ab 3c 84 b9 97 bd 94 9b fa 3d 34 18 61 3d
       0.020910742 -0.07408431 0.122367054 0.054954723
000020 99 71 ca 3d 76 fa b7 3d 0c 74 4e bd 20 97 67 bd
       0.09884948 0.089833185 -0.05040364 -0.05654061
000030 34 4d 84 bd 96 4d f1 3d 7c 4d 51 3d 99 f7 f9 bc
       -0.06460038 0.117823765 0.051099285 -0.030513572
000040 5a 49 b9 bd 06 18 e1 bd 85 2d 6e bd 08 02 c9 3c
       -0.09047194 -0.1099091 -0.05814888 0.024537101
000050 d9 1b db bc 20 e6 71 3c 9e 1c 20 3d 84 78 94 bd
       -0.026746677 0.014764339 0.03908979 -0.07249549
000060 7d 13 e3 bd b1 08 d4 bd 44 23 37 3d 22 50 86 3d
       -0.110877015 -0.1035322 0.044711366 0.06558253
000070 7f a6 e3 3c 7c d6 93 bd d2 de cf bd 9b 43 89 3d
       0.027789352 -0.07218644 -0.101499215 0.06702348
000080 1e 13 7b bd d6 86 49 3d a0 11 55 bc e2 18 7f bc
       -0.06129753 0.049200855 -0.01300469 -0.015569897
000090 5f 17 0d 3d e6 48 a4 3d 6f 4a 66 3b 0a 65 fc bd
       0.034446117 0.08021717 0.003513958 -0.12323959
0000a0 2c f1 e6 3d 58 73 8f bd 59 05 1e be 22 7d 85 3d
       0.11276469 -0.07004422 -0.15431727 0.06518008
0000b0 9c dd 47 bd 78 d1 fe 3c a6 21 f1 3d ec e6 5c 3d
       -0.048795328 0.031105742 0.11773996 0.05393116
0000c0 cc e4 13 3d 58 b7 2d 3d 55 62 12 be da e5 d2 bd
       0.03610687 0.04241118 -0.14295323 -0.10297747
0000d0 8d 7c a5 bd 16 44 4f bd 56 67 f5 3c 1e 7a 2f bd
       -0.08080397 -0.05060204 0.029956501 -0.04284107
0000e0 38 9e a9 bd 0c c2 79 3d 8a 29 b3 bd 69 7b 0b be
       -0.08282131 0.060976073 -0.08748157 -0.13621296
0000f0 01 6b 69 bd 35 7d 54 bd c4 a7 59 3d 74 9b 0e be
       -0.056986813 -0.05187722 0.05313851 -0.13926488
000100 12 a8 7e 3d 6c 6b 3b 3d e6 61 96 bc d1 0d ce 3d
       0.062172003 0.045756742 -0.018357228 0.10061229
000110 65 fe 39 3c 37 d8 cc bd aa 42 8a bd fe 1c 85 3d
       0.011352156 -0.10002177 -0.067509964 0.064996704
000120 6e b5 e0 3d 33 97 de 3d 73 29 e2 3a 99 df 05 be
       0.10972105 0.10868683 0.0017254784 -0.13073577
000130 3d ad f3 3d 11 d0 dd 3c ef 38 ac bd 37 62 94 bd
       0.11898277 0.027076753 -0.08409297 -0.072452955
000140 fa 8d ad 3c 51 2b 6c 3d f4 1c 19 3e ce d1 36 bd
       0.021185864 0.057658497 0.14952451 -0.04463368
000150 1e 5e b3 be eb 17 8d bc cd a5 b0 3d d0 cf 72 3d
       -0.35032743 -0.017223319 0.08625374 0.059280217
000160 f4 97 dd 3d b4 a6 9e bc ef ed 84 3d 5b 13 1a be
       0.108199984 -0.0193666 0.06490695 -0.15046446
000170 e8 9d 12 3e a1 87 f7 3d 33 21 40 bd 58 9f c5 3b
       0.14318049 0.12086416 -0.04690666 0.006030958
000180 50 1c 41 bd 19 d9 ea bd 2e 0a 07 be 53 b6 96 3d
       -0.04714614 -0.11467189 -0.13187477 0.07358994
000190 75 c1 ae bd a8 d8 32 3e e7 b9 fc bb 18 2b 58 3c
       -0.08532993 0.1746546 -0.007712591 0.013193868
0001a0 8f fa b9 3d b0 02 a5 3d 6b 74 19 3d a8 cc 89 bd
       0.090809934 0.08057153 0.03746454 -0.06728488
0001b0 b5 50 c4 3d 37 b5 e8 3d 13 60 46 be e0 25 27 bd
       0.09585706 0.11362689 -0.19372587 -0.040807605
0001c0 fb 04 18 3d e3 9c d7 3d f1 fb 14 be f6 15 8f 3d
       0.037114125 0.10527971 -0.14549233 0.069866106
0001d0 b2 13 e3 bb 48 68 c4 bd c2 0b 82 bc 69 85 44 bd
       -0.006929838 -0.095902026 -0.015874747 -0.047978792
0001e0 9e 48 19 3c 9b 88 ed 3d fb e0 09 3d 9f d2 01 3e
       0.009355692 0.11598321 0.033661824 0.12678002
0001f0 c4 03 87 bd 64 a3 33 3e 4d bd bc 3d a1 f7 a3 bc
       -0.06592515 0.17542797 0.09215794 -0.02001554
000200 fa b1 d8 3b 65 69 a2 bc b0 4b 3a bc 24 25 81 3d
       0.0066130133 -0.019825647 -0.011370584 0.06305912
000210 0b 48 ae bd 94 ea 39 3d c0 41 f9 3c 32 e2 b0 bd
       -0.08509835 0.045389727 0.03042686 -0.08636893
000220 d0 f1 b1 3d 6c 8b cc bd c0 fa ad 3d ad 6d 3a 3d
       0.086887 -0.0998753 0.084950924 0.04551475
000230 f0 12 09 3c f6 fe a2 bd c4 2d 35 be 7e 6b ab bd
       0.008366331 -0.07958786 -0.1769324 -0.08370112
000240 90 6b 00 bc 4d 5f dd bd e2 ab a5 bd fc 87 b7 bd
       -0.007838145 -0.10809193 -0.08089425 -0.08961484
000250 62 fc 75 bd a0 1f e0 bc 86 36 10 be 9c e3 48 3d
       -0.060055144 -0.02735883 -0.14083299 0.04904519
000260 80 be 9d ba d2 9f 93 3d d8 89 8c bd ec 73 f6 3d
       -0.0012034923 0.07208218 -0.06862229 0.12033829
000270 8d 87 15 be 28 36 e6 bd 43 72 9f bd 78 89 23 bd
       -0.1460249 -0.11240798 -0.077854656 -0.039926022
000280 88 30 9f 3c 21 b9 5c bb 29 84 35 3d b6 cf e2 3c
       0.019432321 -0.0033679681 0.04431549 0.027686935
000290 34 75 1d 3d 4a e7 1f be 48 fc f5 3c 14 4e 02 3d
       0.03844185 -0.15615574 0.030027524 0.031812742
0002a0 ce 48 a1 3d f0 2e 45 3d 74 05 23 be c8 2c e9 3d
       0.078752145 0.048140466 -0.15920049 0.113854945
0002b0 88 78 df bd 68 cc f5 bd ec cc 3d 3d 7c b5 4c 3d
       -0.109116614 -0.12001878 0.046338007 0.049977764
0002c0 28 78 f6 bc f6 a5 d1 3d b6 d6 b6 bd c8 c4 cc bd
       -0.030086592 0.10236733 -0.089276716 -0.099984705
0002d0 f3 da ec bd e1 48 f1 bd 18 ef 0d 3d cc 8d f5 bd
       -0.11565199 -0.11781479 0.034651846 -0.11989936
0002e0 c1 ba b0 3d 34 8a 87 bd d0 b4 04 bc fa 68 f7 bd
       0.086293705 -0.06618157 -0.00809975 -0.120805696
0002f0 31 d8 c0 bb ec 1b a4 3d 6e 7b 8d 3d b9 e3 33 3d
       -0.005885147 0.08013138 0.06908308 0.043918345
000300 20 10 6b 3b d1 1f b3 bc 7f cd 6b 3d 5e 23 fe bc
       0.0035867766 -0.021865757 0.057569023 -0.031022724
000310 89 0d 53 3c 08 b6 fd bc a2 43 19 bd a4 2c 59 bd
       0.012881645 -0.030970588 -0.037418015 -0.05302109
000320 6f 2b de 3c 17 0f 86 3d 70 e8 97 bd d2 88 ee bc
       0.02712032 0.06545847 -0.07417381 -0.029117975
000330 7e ff c1 bd af a3 3c 3c 56 b7 70 bd 52 30 cc 3d
       -0.094725594 0.011513635 -0.058768593 0.09970154
000340 e0 7a f5 bc 90 53 6a 3c 0a 28 91 3d a2 a5 8a bd
       -0.029965818 0.014302149 0.07087715 -0.06769873
000350 7d 18 de bd 3e f4 6b 3d f8 38 00 be 12 51 73 3c
       -0.108445145 0.057605974 -0.12521732 0.014850872
000360 97 8f 8c 3e 48 fc a8 3d d9 5f d6 3d 52 0c 99 3c
       0.274533 0.08251244 0.104675 0.018682633
000370 7e de 69 3e 2c 53 0e 3e 55 3a 22 bd 11 02 a8 3d
       0.2283878 0.13898915 -0.03960641 0.08203519
000380 b8 45 41 3c 82 1b 80 bd bf 52 c4 3b 74 18 88 3e
       0.011796407 -0.06255247 0.0059913094 0.26581156
000390 44 49 57 3d 28 99 57 bd b2 94 e8 bd 5c 82 cd bd
       0.052560106 -0.052636296 -0.113564864 -0.1003463
0003a0 cc 6c cf 3d 84 75 17 3e ad 99 a3 bd db a9 f2 3d
       0.10128173 0.14790922 -0.07988296 0.118488036
0003b0 83 53 49 3e fd 58 a6 3d 5a 4f ea bd be f3 d2 bd
       0.19660763 0.08122442 -0.11440916 -0.103003964
0003c0 90 99 ca bd 20 42 8b bd 15 3d 90 bd a4 3f e7 3d
       -0.09892571 -0.06799722 -0.070429005 0.11291435
0003d0 3d d1 9e bd 8a 60 97 bd 62 b6 11 be 96 c7 85 3c
       -0.07754753 -0.0739146 -0.1422973 0.016330522
0003e0 ff 37 0c ba 7d 61 ca bd d2 a8 f8 3c ad d3 e4 3d
       -0.000534892 -0.09881876 0.030353937 0.111731865
0003f0 4d fd 12 3d 97 e5 b4 3e e0 99 64 3e 1c e1 86 bd
       0.035886098 0.35331413 0.22324324 -0.06585905

decoder.destination.linears.2.bias f4 [64]
000000 fc 8a f3 bc a6 cd 02 3e 5d c3 81 bd 27 81 05 3e
       -0.029729359 0.12773761 -0.06336091 0.13037549
000010 b9 bc 7e 3d 4b d7 4e 3d 5e 15 82 bd 70 f9 64 3d
       0.0621917 0.050498288 -0.06351732 0.055901945
000020 cb b7 e8 bd 50 d8 86 3d 85 37 2e 3d e2 4a 1b 3c
       -0.11363181 0.06584227 0.042533416 0.009478303
000030 ea c9 7d bc 98 20 28 bd a6 f9 4a bd c3 c2 ce 3d
       -0.015490035 -0.04104671 -0.04955449 0.100957416
000040 6f 18 09 3d fa 95 58 be d2 56 43 3d 19 79 59 be
       0.033470567 -0.21150962 0.04769022 -0.21237601
000050 bb ab 01 bd 5b 48 0d 3d b6 92 45 bd c4 7f 33 bd
       -0.031657916 0.03449283 -0.048235618 -0.04382302
000060 3f 4c e7 3d bb 78 4a 3d e6 3a 22 3e 87 47 8b 3d
       0.1129384 0.049431544 0.1584278 0.06800752
000070 ca 21 3d be d2 93 bb bd 77 77 72 bd 37 71 79 3e
       -0.18469921 -0.09159054 -0.05919596 0.24359594
000080 16 d7 84 bd 57 53 90 bc 65 47 77 bd 89 f3 04 bd
       -0.06486337 -0.017617865 -0.06037082 -0.032458816
000090 df 63 fc bb cc c5 34 3d 62 5d 2f bd 0d 91 36 3d
       -0.0077023352 0.044133946 -0.042813666 0.044571925
0000a0 59 50 48 be 60 88 16 3e 32 8e 40 bc be b2 4e 3d
       -0.195619 0.1470046 -0.011752652 0.05046343
0000b0 9a a2 1e 3d bc c1 b8 bb 06 72 6c 3d e1 a3 84 bd
       0.038729288 -0.0056383293 0.05772593 -0.0647657
0000c0 a1 dc 4b 3e ae 49 bc bd 5e 73 52 3e 2b 56 92 bd
       0.19908382 -0.09193741 0.20551822 -0.071453415
0000d0 2e 24 66 3d 5a 63 d6 3d fe 5a 76 3d 19 94 53 3d
       0.056186847 0.104681686 0.06014537 0.05165491
0000e0 a8 e7 05 3e 43 f1 fe 3c a1 ed f9 bd 34 23 b8 3d
       0.13076651 0.031120902 -0.12203527 0.089910895
0000f0 ea 6e cf bc 57 f2 ae bd 8d 23 00 3e 32 67 94 3d
       -0.025321443 -0.085423164 0.12513562 0.072462454

decoder.destination.out.weight f4 [2, 64]
000000 6a 79 28 3c 5a 85 21 be 71 8c 81 3d 08 ce 7c 3b
       0.010282854 -0.15773526 0.06325615 0.0038574953
000010 c3 83 a7 39 a2 33 91 be e5 16 ae bc b4 9f a8 3d
       0.00031950892 -0.28359705 -0.021251151 0.08233586
000020 da ae b0 3c 36 d7 8a 3e af e9 8b 3e b8 75 2c be
       0.02156775 0.27117318 0.27326724 -0.16841781
000030 2e f4 aa bd fb 68 48 be 8d 30 b4 3d 57 34 4d be
       -0.08347355 -0.19571297 0.08798323 -0.20039497
000040 8e b4 3b 3e 39 74 81 bd 26 ce 28 be d1 44 24 bd
       0.18330595 -0.06320996 -0.1648489 -0.04010469
000050 03 a6 1d 3d ac 4a 51 be e9 6c 3c 3e 68 41 2b 3d
       0.0384884 -0.20438641 0.18400921 0.041810423
000060 b9 2a 0a be 27 bf fc 3d 7a 8d 94 3d 68 e2 4c 3e
       -0.1349286 0.12341147 0.07253547 0.20008242
000070 1a 1d 79 3c 2f e0 e5 3d 3b 85 a1 bd 3b c3 69 3c
       0.015204692 0.112244 -0.0788674 0.014267738
000080 9e a4 62 3e 15 05 d8 b9 3b 3f 1c be 4b e6 39 bd
       0.22133109 -0.00041202517 -0.15258496 -0.04538564
000090 84 3e 9e b9 72 a5 5a bd 4c bb 2b 3b dd 50 3d 3e
       -0.00030182686 -0.053380437 0.0026204167 0.18487878
0000a0 be 33 3b 3e 06 04 d2 bd f1 04 04 be 53 e3 14 3e
       0.18281457 -0.10254674 -0.1289251 0.14539842
0000b0 8c 8d 15 3e f8 0b 80 3d fb 9e 0f 3e 83 3b fe 3d
       0.14604777 0.06252283 0.1402549 0.12413695
0000c0 6a b7 36 bc 38 a9 62 3d 04 ed 19 3c 9a 5c 6e bd
       -0.011152128 0.05533716 0.009394888 -0.05819378
0000d0 c9 a1 ab 3d 41 dc bb 3d 94 8e bc bd ae 26 83 3e
       0.083804674 0.091728695 -0.09206882 0.25615448
0000e0 42 2d ab bd 2c 42 01 3e ae 50 b2 3d af 32 33 be
       -0.083582416 0.12622899 0.08706795 -0.17499803
0000f0 db 2a 1e 3e 07 d1 94 bc 83 e9 f7 3b 9d 29 66 3e
       0.15446036 -0.018166078 0.0075656786 0.22476812
000100 87 72 03 be 6f 81 ec be 5a be 56 3d 22 16 c5 be
       -0.12836657 -0.461925 0.052427627 -0.38493448
000110 c0 0e 83 be c4 f1 3c 3d de b7 a3 bd 23 0d cf 3d
       -0.2559719 0.046129003 -0.07994054 0.101099275
000120 ca 26 1c be 55 73 d2 be 85 e5 a9 3d 70 bf 5f bd
       -0.15249172 -0.41103616 0.082957305 -0.05462593
000130 4b 56 86 3e 81 9d 17 be d8 c8 6d be 6e a8 5c bd
       0.2623771 -0.14806177 -0.23221147 -0.053871565
000140 44 d1 62 bc ca ed 87 be 04 a8 59 3e d2 06 ac bd
       -0.013843838 -0.26548606 0.21255499 -0.08399738
000150 b5 c6 50 3e a4 bc 3f bd 67 ca b3 bd 3a 87 fe 3d
       0.203883 -0.04681076 -0.087788396 0.12428136
000160 5c 1a 18 3e 79 8a c7 3d dd be c5 3d 98 50 90 be
       0.14853805 0.097432084 0.09655545 -0.28186488
000170 79 1b 9b bd fa 51 06 3e 5f 75 b0 bd 53 ed d5 be
       -0.07573599 0.13117209 -0.08616137 -0.41782627
000180 b9 c8 2f be ae db 24 3c 07 61 22 3e 72 e2 63 3e
       -0.17166413 0.010062141 0.15857325 0.22254351
000190 a6 cc 14 3e 4b b3 e0 3c 5a cb 42 be b5 a9 8d 3d
       0.14531192 0.027429244 -0.19022885 0.06917135
0001a0 1e 89 d7 ba 0e 74 4f 3e c8 ce 86 3e 21 83 d4 bd
       -0.0016444062 0.20259115 0.26329637 -0.10376573
0001b0 45 6a 6f 3e b2 3c 81 3e b8 85 25 3e 50 3a 42 3e
       0.23380382 0.2524162 0.16164291 0.18967557
0001c0 7a b2 09 bf e0 8d aa ba 49 cc e9 be 4a a9 48 be
       -0.5378796 -0.0013012253 -0.4566367 -0.19595829
0001d0 99 6f 90 be fc 3a 0b 3e e9 50 ef 3d 1e 9b 85 3e
       -0.28210142 0.1359672 0.11685354 0.26094908
0001e0 39 b6 66 3e d4 f5 2b 3e c6 77 9e be e7 21 55 be
       0.2253045 0.16792995 -0.30950755 -0.20813714
0001f0 d7 aa b0 bd 97 93 46 3d 54 de 87 be f9 1f d2 be
       -0.08626335 0.048480596 -0.2653681 -0.41040018

decoder.destination.out.bias f4 [2]
000000 94 70 43 bd 28 57 86 bd
       -0.047714785 -0.065595925

keys_to_pseudo.resizer.weight f4 [128, 2]
000000 d6 91 bb 3d c4 ae 1b 3f 4f fb dc bd 8a 7a 1c bd
       0.091586754 0.60813546 -0.10790121 -0.0382028
000010 ee 80 79 3a c0 8c 80 bf a9 79 da 3d 3e ab 7d be
       0.0009517808 -1.0042953 0.10667736 -0.24772355
000020 69 ca c9 be 1c be 12 3f d0 c2 49 3e 5e 40 b7 be
       -0.3941224 0.57321334 0.19703221 -0.35791296
000030 f0 91 1c be 62 e3 08 bf 0f f2 81 be 4d 92 28 be
       -0.15290046 -0.5347196 -0.2537999 -0.1646206
000040 bc a0 d8 be b2 c3 06 be ee a2 c8 be 6b 8b 35 be
       -0.4231013 -0.1316059 -0.39186805 -0.17728965
000050 07 80 fc 3e 1e ea 9b bc 6e 39 84 3d 55 5f b3 3e
       0.49316427 -0.019032534 0.06456266 0.3503367
000060 9a 14 2c bd 78 0d 8a bd 21 15 2f be 83 ba 31 be
       -0.042011835 -0.0674085 -0.17097904 -0.17356305
000070 75 34 9b 3e ea 77 fd 3d 03 ef 11 3e 9f 4d c6 3d
       0.3031346 0.123763874 0.14251332 0.09682774
000080 f4 13 1f 3f 73 99 ea 3e 98 57 0f bf 60 e3 9b 3e
       0.6213982 0.45820197 -0.5599303 0.3044691
000090 e3 3f 5e 3d 52 38 36 3e 1b 6a 2b 3e 54 b0 df bd
       0.054260146 0.17794922 0.16739695 -0.10922304
0000a0 01 fa 92 3e 54 25 05 bf 90 eb f1 be f0 9b a4 3e
       0.28706363 -0.52010083 -0.47250032 0.3215022
0000b0 6a 39 92 3e df 38 bc be ce f1 a3 3d e2 5e 1a bf
       0.28559428 -0.3676214 0.08005105 -0.6030103
0000c0 61 d0 1d bc ea b8 a1 be 80 7e 76 3d 44 05 40 3e
       -0.009632201 -0.3158639 0.060179234 0.18752009
0000d0 ad a6 ec be 65 cb 01 3f e0 7c c1 be d5 cb 91 3d
       -0.46220914 0.5070098 -0.37790585 0.07118956
0000e0 bd fc 04 bd 31 98 87 3d f1 8a 0f be 95 5e 24 3e
       -0.032467593 0.06620825 -0.14017846 0.16051705
0000f0 37 a1 9c 3e e2 69 df 3e 04 a6 f1 3e e0 98 e3 be
       0.30591747 0.4363547 0.47196972 -0.44452572
000100 78 d8 f8 3e 3f 39 8d be 2d f4 84 b9 c9 84 1c bf
       0.48602653 -0.27582738 -0.00025358927 -0.61140114
000110 20 b1 95 3c 59 74 e4 be c4 c1 81 3e ed fd 11 bf
       0.018272936 -0.44620016 0.25343144 -0.57028085
000120 c6 37 8e 3d 4a ea 1a bf 7c 35 23 3c 7c 46 92 be
       0.06944232 -0.60513747 0.009961482 -0.285694
000130 ce 66 10 ba 5b 16 3b 3f 3e c0 ee 3e 2d 0c c5 be
       -0.0005508483 0.73080987 0.46631044 -0.38485852
000140 d6 e7 c8 be 46 7d 98 be e6 90 ee be 1b 8a 33 bf
       -0.39239377 -0.29783076 -0.46594924 -0.7013261
000150 73 6b eb be 71 1e 1a 3f 36 52 ee 3e bb a7 58 be
       -0.45980415 0.602027 0.46547097 -0.21157734
000160 39 33 a9 3b 2b fe 83 bd 45 34 d3 bd 99 ea f6 3e
       0.005163577 -0.06444963 -0.10312704 0.4822586
000170 e1 b9 55 be e6 ab 5c 3e f8 d7 57 bc 43 ae bf 3e
       -0.20871688 0.21549949 -0.01317405 0.3743764
000180 2a 32 93 bd d6 15 20 bd 70 f3 03 3f c3 ab 92 be
       -0.071873024 -0.039083324 0.5154333 -0.2864667
000190 12 46 d6 3e 44 be d3 bd fe 12 4c be 81 db 33 3e
       0.41850334 -0.10339025 -0.1992912 0.17564203
0001a0 88 18 b6 be a9 b6 05 bf 99 0b 11 3f 28 23 b1 be
       -0.3556559 -0.5223184 0.5665832 -0.34597135
0001b0 80 0d c6 3c 51 22 05 3f 63 35 11 bf a3 20 a0 3c
       0.02417636 0.5200549 -0.56722087 0.019546812
0001c0 90 44 05 3d b8 10 b0 be fa d4 e1 3c e7 60 05 3e
       0.03253609 -0.34387755 0.027567375 0.13025247
0001d0 2b e6 28 be 47 05 02 bf ea 46 ea be f1 6f 24 3e
       -0.16494052 -0.507893 -0.45757228 0.16058327
0001e0 e3 07 f0 3d 41 a6 ae be 66 56 e7 ba 11 7d c5 3f
       0.11720254 -0.34111217 -0.001764965 1.5428792
0001f0 b0 5f a4 be 65 39 8f bd 7e 4d fc bd 15 13 de be
       -0.32104254 -0.06993369 -0.12319468 -0.43373933
000200 7d 2c c9 bd a7 28 26 bf 2f d0 07 3f 6d 2f 18 3f
       -0.098229386 -0.6490578 0.5305204 0.59447366
000210 a8 ac 0b 3f 89 3c fd be 00 be 19 3d 23 db 30 bf
       0.5456033 -0.49460247 0.037534714 -0.69084376
000220 d3 e2 a3 3c df 65 fc bd 0b 0d 8d 3e 5e 1f 4b bf
       0.02000562 -0.12324118 0.27549013 -0.7934474
000230 90 39 d3 3e 5b fb 8c be 2e 33 b8 3d d8 2d 93 3e
       0.41254854 -0.2753552 0.08994137 0.28745914
000240 ee fe aa 3d 5b df 98 be c2 eb 0e 3f fd e2 9c be
       0.08349405 -0.29857907 0.5582849 -0.30641928
000250 0e 29 bf 3e 1b a4 03 3f 04 4e c7 bc ea 1d b9 3e
       0.3733601 0.5142228 -0.024329193 0.36155635
000260 a4 b6 7f 3e c6 f0 9c be ee 9a 64 3c e5 9b 8f 3e
       0.24972016 -0.30652446 0.013952954 0.28048626
000270 57 73 08 bf e3 0f 1e bf 94 26 34 bc c6 62 c0 be
       -0.53300995 -0.6174299 -0.010995526 -0.37575358
000280 9b 41 c9 bb 29 1a 0d bf 00 81 2b 3c 98 eb aa bd
       -0.006141854 -0.5511804 0.010467768 -0.08345717
000290 d6 11 f1 bd 93 af 9d 3e 93 53 0a bf ee 0b b4 bc
       -0.1177098 0.30798015 -0.54033774 -0.021978345
0002a0 80 d1 3a 3e c4 2c 0b 3d 9e 47 bd 3e 4f 0e f0 3b
       0.1824398 0.03397824 0.36968702 0.0073259245
0002b0 d6 e4 4f 3e 34 2e 65 be 04 e6 d8 3e 5e eb e9 3e
       0.20302138 -0.22380906 0.42362988 0.45687383
0002c0 5b 2d 9e be 63 1e 1c bf bc 9e ce be ff 20 d8 3e
       -0.30893978 -0.60983866 -0.4035548 0.42212674
0002d0 85 97 93 3e b1 38 1a 3e ca ab 18 3f 85 6c 0f 3e
       0.28826538 0.15060689 0.5963713 0.1400624
0002e0 d4 ae e2 bc 3e 40 1a bf 52 74 c5 3e 9f 3e 9e bd
       -0.027671255 -0.60254276 0.38565308 -0.07726788
0002f0 9f 19 93 be c6 1d f1 be 9e df ec be 4c c8 0f 3f
       -0.28730485 -0.47093028 -0.46264356 0.56165004
000300 6b 86 32 3e a0 01 b0 bc 80 b9 46 3c e1 50 0e 3f
       0.17434089 -0.02148515 0.012129188 0.5559216
000310 1f fd 0b 3e c0 70 4e bd 75 08 87 3e 33 1c 75 3c
       0.13670777 -0.050400496 0.2637364 0.0149603365
000320 e4 77 a4 be 20 c2 e9 bd 8f 7f 74 bc 1b 3c 52 be
       -0.3212272 -0.114139795 -0.01492299 -0.20530741
000330 1d c0 af be 8a 63 53 be 20 e4 18 3f 1d 7d d9 3e
       -0.34326258 -0.2064344 0.5972309 0.42478266
000340 35 50 c1 bc 1d 29 58 3d c7 a6 2e be ed 40 1a 3e
       -0.023597816 0.052773584 -0.17055808 0.1506383
000350 c1 68 b3 bc b8 8c 37 3f 3f 85 a1 be d5 6e 63 be
       -0.021900536 0.71699095 -0.3154697 -0.22210248
000360 e5 bd 93 3e 2e 1e 4a 3c bd 9f 03 bd b1 c4 e3 be
       0.28855816 0.012336297 -0.03213476 -0.44486
000370 38 f7 19 bf 54 41 5b be a8 21 c4 3e cc fd 49 3e
       -0.6014285 -0.2141164 0.38306928 0.19725722
000380 20 b5 9c 3e 83 36 58 3e 0b 71 77 3c b3 2c 2d 3f
       0.30606937 0.21114545 0.015102635 0.6764633
000390 39 4c 95 3e 71 b0 1d 3e b7 6a 1b bc 8f ea 8a be
       0.29159716 0.15399338 -0.009485892 -0.2713208
0003a0 90 dc 7c bd eb 32 2c 3e a1 8d d4 3d cc 17 29 be
       -0.061733782 0.16816299 0.10378576 -0.16512984
0003b0 06 e6 ae 3c 8a 75 e9 be f8 fd 0a 3e 35 c0 45 3e
       0.021349918 -0.45597488 0.13573444 0.19311602
0003c0 52 70 54 3e da 2f 29 bf 47 96 7f bd 53 70 75 be
       0.20745972 -0.6608864 -0.062399175 -0.2396863
0003d0 be 5d 4b 39 a3 37 36 3f b5 84 d5 3c 86 c2 31 be
       0.0001939451 0.71178645 0.026064256 -0.17359361
0003e0 1e b3 a5 3c f9 52 94 3e 82 e9 be 3e 9e 56 99 3d
       0.020227011 0.28969553 0.37287527 0.07487224
0003f0 52 d8 62 3c 1d 45 cb be 93 1e 1b bf 77 03 07 3f
       0.01384552 -0.39701167 -0.6059353 0.5273966

keys_to_pseudo.resizer.bias f4 [128]
000000 7d ef f4 be 42 ee 29 be 9a c8 18 3f b2 f4 d1 3e
       -0.47838965 -0.16594794 0.59681094 0.41007
000010 a9 f9 c9 3e 22 4a 15 bf 49 ea 43 bf 81 65 ce 3d
       0.39448288 -0.5831624 -0.76529366 0.10077954
000020 77 df b5 3d 36 39 44 bd c2 55 d7 be 9f d9 ef 3d
       0.08880513 -0.047906123 -0.42057616 0.1171143
000030 26 44 50 3e 45 19 d4 3e 4a 0b 89 be 97 7d 99 3e
       0.20338497 0.4142553 -0.26766425 0.2997863
000040 9a 99 f8 be 73 f0 e7 be 48 94 c7 3d 83 df 18 bf
       -0.4855469 -0.45300636 0.09745079 -0.5971605
000050 46 45 f6 be 2b c5 af be fa 6d d7 bd e2 12 f6 3e
       -0.48099726 -0.34330115 -0.10519023 0.4806128
000060 31 ef e3 3d a6 7e 30 bf b0 bf 9f be 6f 5a a2 3e
       0.111296065 -0.6894325 -0.31200933 0.3170962
000070 5d 37 81 be 3d db 71 3e 5d 81 73 3e 0b a3 26 bf
       -0.2523755 0.23618789 0.23779817 -0.65092534
000080 07 fc 0f 3e a5 1c bf 3e cf 72 c3 be 31 65 0f bf
       0.14060985 0.37326542 -0.3817353 -0.5601378
000090 04 ec b2 be 58 8a 9f 3e 42 ae 33 3e 71 f7 dd be
       -0.3494569 0.31160235 0.17546943 -0.43352845
0000a0 5e 3a 06 be 98 1d e9 be f8 5f 06 3e 28 07 1a 3c
       -0.13108203 -0.4553039 0.13122547 0.00940112
0000b0 10 62 bf 3e 95 70 49 3d 21 b4 82 3e 3d eb af be
       0.37379503 0.049179632 0.25528052 -0.3435916
0000c0 db aa 10 bf f4 bb 46 3c 74 c8 08 3f 8c 91 9a 3e
       -0.56510705 0.012129772 0.5343087 0.30189168
0000d0 0d 7e 6f 3e c7 e7 b5 be 8b b7 19 bf 77 7d 9e bc
       0.23387928 -0.35528395 -0.6004569 -0.019346936
0000e0 ba 22 dd be 0e b6 fa 3d 28 7c 4e bf 49 60 f6 be
       -0.43190557 0.122417554 -0.806582 -0.48120335
0000f0 e6 c6 3a bf 1f 7a 8f be db ce 12 3d d7 42 1f bf
       -0.72959745 -0.28022859 0.035841804 -0.62211365
000100 47 25 d5 be 98 9b 96 be 83 a1 eb 3e d0 9d f1 bd
       -0.41630003 -0.29415584 0.4602166 -0.117976785
000110 62 d0 ae 3e 64 ef 82 3e 9c c0 cc be 49 8e 0b be
       0.34143358 0.25573266 -0.399907 -0.13628496
000120 be 5a fe be e6 9c bc be 1b 26 a8 be 8b 6f 5e 3e
       -0.49678606 -0.36838454 -0.32841572 0.21722238
000130 7c e7 2b bd 91 4b 92 3d f5 e9 4f 3c c0 02 bb 3d
       -0.041968808 0.071433194 0.012690057 0.09131384
000140 8f f9 20 3f 0b b4 f9 be ab 46 b1 3d b7 84 20 bf
       0.62880796 -0.48770174 0.08656057 -0.62702507
000150 e5 57 f8 be 61 55 6e 3d 50 2b 10 3f bf d5 c7 be
       -0.48504558 0.058186892 0.5631609 -0.39030263
000160 f1 b4 24 be 19 dd 4e 3c 7f ff 0a bf a7 9c 6d 3e
       -0.16084649 0.012625956 -0.54296106 0.2320429
000170 df 41 0f 3e a9 dd 24 be 95 8d 4b bd 64 cf b2 bd
       0.13989972 -0.16100182 -0.04969557 -0.08730963
000180 d3 c3 3d bf 6a 2b 23 bf 16 a2 83 3e e1 67 f5 bd
       -0.7412693 -0.6373812 0.257096 -0.11982704
000190 5c 3a b8 3e a2 4f 13 3e c0 b7 86 be ea ed c7 3e
       0.35982025 0.14385846 -0.26312065 0.39048702
0001a0 69 43 14 be d8 b1 9e 3e e6 d8 ae be ef e2 47 3e
       -0.1447884 0.3099506 -0.34149855 0.19520162
0001b0 8e ad e5 bd d3 b4 cd 3e 87 14 c3 be e3 01 13 3f
       -0.112147436 0.4017702 -0.381016 0.57424754
0001c0 9f 02 93 3e 43 4a 39 3e 80 dc eb 3e e6 5d 30 3e
       0.28712937 0.18094735 0.46066666 0.1722332
0001d0 c0 93 a9 3e 2a 34 82 3e 39 40 b2 3e 23 1d 9b 3e
       0.33120537 0.25430423 0.34814623 0.30295667
0001e0 52 05 2b bd a2 bf 0a 3f 47 02 5b be de be ac 3e
       -0.04175312 0.5419866 -0.21387587 0.3373937
0001f0 e5 0b aa bd 03 a8 b4 3d 27 32 95 3e 1e 6c b4 be
       -0.0830305 0.08821108 0.29139826 -0.35238737
