results/notebooks/neural_process/RBF_Kernel/np/run_0/params.pt (torch_old, 589551 bytes, 28 tensors)

x_encoder.to_hidden.weight f4 [32, 1]
000000 79 fc 38 bf 47 b1 9f 3e eb 40 33 bf b2 a6 23 3f
       -0.7226024 0.3118994 -0.7002093 0.6392623
000010 a8 cf 5e bf 21 65 77 3f 8e 50 98 bf 29 ff a1 bf
       -0.8703561 0.96638685 -1.1899583 -1.2655994
000020 06 63 45 bf 61 55 48 3f 2a 4a ef be 22 f3 31 3f
       -0.7710422 0.7825528 -0.4673627 0.69511616
000030 20 1f b0 bf 85 1d 4c bf b1 08 16 bf 15 d7 9d be
       -1.3759499 -0.79732543 -0.5860701 -0.30828157
000040 48 91 7f bf 5c ce 9a 3f ca c3 c4 be 87 02 0a 3f
       -0.99831057 1.2094226 -0.38430625 0.53910106
000050 5c 4e 73 3f 01 7c 56 3e ff d9 08 3f 2e df b8 3f
       0.9504144 0.20945741 0.53457636 1.4443109
000060 31 51 06 bf b0 25 01 3f 95 94 25 bf 8b 91 59 3f
       -0.5246764 0.5044813 -0.64679843 0.84987706
000070 9e f8 9d 3f e6 f5 96 bf 41 fa 93 3f 0b 4f 3f 3f
       1.2341497 -1.1793792 1.1560746 0.74729985

x_encoder.to_hidden.bias f4 [32]
000000 6d c5 47 bd 6e 26 8a 3e 20 20 f2 3e df 2b 0d 3f
       -0.048772264 0.26982445 0.47290134 0.55145067
000010 51 31 16 3f de 4f 2a 3e 92 09 8f 3d 9f 2d 51 3e
       0.58669 0.1663203 0.06984247 0.2042756
000020 fe bf 62 3e 0d ca c8 bd ad 0f 23 3e 10 ce 7a bd
       0.22143552 -0.09804163 0.15923949 -0.061231673
000030 c9 64 e3 3d cf b7 10 3f ed fd b4 3d eb 39 70 3e
       0.111032076 0.5653047 0.08837495 0.23459594
000040 f5 57 70 3c 25 de aa 3d 9b 4b 14 be d4 29 b2 3e
       0.014669408 0.08343152 -0.14481966 0.34797537
000050 21 1e 8d 3e 97 66 14 3e ec fb f3 bd 95 36 bf bd
       0.2756205 0.1449226 -0.11913285 -0.093365826
000060 48 e7 c1 3e 28 9f c9 3d b9 88 3a be 95 2d 2d 3f
       0.37871766 0.0984481 -0.18216218 0.6764768
000070 98 0e 32 3e d8 8a 36 be 43 d3 88 bc 8a 6b 05 3f
       0.1738838 -0.17826402 -0.0167023 0.52117217

x_encoder.out.weight f4 [128, 32]
000000 42 e9 4a be 94 b9 63 be 90 88 01 bd c1 af c4 be
       -0.19815543 -0.22238761 -0.031624377 -0.3841534
000010 1a 78 4a be 0b bf 65 be 98 57 7b 3e 2f ea c8 be
       -0.19772378 -0.22436158 0.24545133 -0.39241168
000020 53 5f fb 3c 99 40 7b 3e 07 c6 82 3d d2 82 d6 bd
       0.030685103 0.24536361 0.06385427 -0.10474171
000030 d8 41 97 bc b5 74 5b be e9 c3 a2 be 6f c4 6b bd
       -0.018464014 -0.21431239 -0.31790093 -0.05756038
000040 07 9a e1 be f9 f0 9a be dc 7d 4e be 8c 26 c0 bd
       -0.44062826 -0.30261973 -0.20165199 -0.09382352
000050 3d 9d 8c bd 8f b1 a4 3e f8 78 8b 3d 16 42 db bd
       -0.06865928 0.32166716 0.06810182 -0.10705964
000060 09 d4 3f bd f3 f8 c2 be 2c 63 d6 bc 13 db 35 3e
       -0.04683307 -0.38080558 -0.026170336 0.17759351
000070 67 85 82 3e 07 4e 3e be f6 7c be be 5a 9d 7e 3e
       0.25492403 -0.18584453 -0.37204713 0.24864712
000080 c4 f4 ed 3c 8a c5 ea 3c 98 d6 f6 bd d5 54 82 3c
       0.029047377 0.028658647 -0.12052649 0.015909592
000090 c0 07 2d 3e 95 e8 88 3d a5 49 4d be 2e d4 08 bd
       0.16897488 0.066849865 -0.20047624 -0.033405475
0000a0 60 22 b6 be 2f b4 db bd e6 f1 ac 3e 53 48 e8 be
       -0.355731 -0.10727727 0.33778304 -0.4536768
0000b0 80 49 c4 be 89 0a 35 3e 02 71 06 bf 0c 89 87 3e
       -0.38337326 0.176798 -0.52516186 0.26471746
0000c0 16 f7 ec be e7 2e 93 3e 62 98 cc bd 53 c2 83 3e
       -0.46282262 0.2874672 -0.09990002 0.25734195
0000d0 2b bd ca be 28 6b df be 12 ce d0 be 04 44 03 bf
       -0.3959745 -0.4363644 -0.4078222 -0.5127566
0000e0 79 da 79 bd bd e3 b8 be c1 5a bc be 11 2c b4 3d
       -0.060999367 -0.3611125 -0.3678799 0.087974675
0000f0 2a 26 f8 be 6d 6b cd 3d 77 10 4e 3e e0 94 aa bc
       -0.48466617 0.100302555 0.20123468 -0.020822942
000100 07 ce 32 3e 11 c7 b6 3d b6 52 4a bf 46 ed b6 3e
       0.17461406 0.08924688 -0.79032457 0.357279
000110 2c 75 19 bf f4 78 1b 3f ef 53 89 bf 3d 34 32 bf
       -0.59944415 0.60731435 -1.072874 -0.6961096
000120 dd ee 55 be 1b bb 09 3e 12 57 c6 be 24 e5 df 3e
       -0.208919 0.13450281 -0.38738304 0.43729508
000130 6f 88 c2 be 69 cf 0b bf 43 27 48 bf 3c 75 f0 be
       -0.37994716 -0.5461336 -0.7818491 -0.46964443
000140 17 98 64 bf 62 d2 21 3f 1c 00 02 be 6c 4c f4 3d
       -0.8929457 0.63211644 -0.12695354 0.11928639
000150 1e 73 a8 bd bf a3 01 3f 32 7a 27 3d 40 d4 e6 3e
       -0.08225082 0.5064048 0.04088802 0.4508381
000160 8f 9f 6d bf b5 1d 72 be 46 e8 56 3e 72 bc dd 3e
       -0.9282159 -0.23644145 0.20987043 0.43307835
000170 cf 95 b4 3e 19 9e 0c bf 18 11 19 be fa 41 f3 3e
       0.35270545 -0.5492874 -0.14947927 0.47511274
000180 29 3a d5 bd c3 0e b0 3e b5 50 80 3e eb ee 04 3e
       -0.10411484 0.34386262 0.25061575 0.12981765
000190 70 7a c4 be af 6b 1b 3e c3 ea 88 bd 22 b3 82 3e
       -0.38374662 0.15177797 -0.06685402 0.25527292
0001a0 67 af b1 bd 11 79 0e be 4b aa 3e bc a4 89 b4 3c
       -0.086760335 -0.1391337 -0.011637281 0.022038288
0001b0 b8 6c a9 be b1 0c 98 bd 10 85 81 3e d6 c2 d4 be
       -0.33090758 -0.07424296 0.2529683 -0.41554898
0001c0 80 e8 c0 3e e2 d1 35 3e 42 7d a4 3e 7d 5e ef be
       0.37677383 0.17755845 0.32126814 -0.46751776
0001d0 06 7c 0e 3e 09 ef c6 3d ca 62 a5 be a3 5d c8 be
       0.13914499 0.09713561 -0.32301933 -0.3913394
0001e0 c0 70 b1 be d3 53 42 be b1 b5 82 3d 8d 0e 0e be
       -0.34656334 -0.18977289 0.06382311 -0.13872738
0001f0 d5 78 d3 be ee 6b bd 3e 8b e2 b1 3e 68 49 19 3e
       -0.41303125 0.36996406 0.3474315 0.14969409
000200 50 93 b4 3e e5 ff bf be 7d ae dc 3e 20 7c 20 be
       0.3526864 -0.3749992 0.43101874 -0.1567235
000210 d5 f8 93 3e 7f 3c c4 3d 11 7a 0e 3f f7 ef 04 3f
       0.2890078 0.09581851 0.5565501 0.5192866
000220 90 31 a1 be 01 7e 29 3e 5f 69 81 bd f2 ee 99 bc
       -0.31483126 0.16551973 -0.06318926 -0.018790696
000230 5a f6 e1 3e 0f a6 5b be 63 36 cb 3b 96 ac 33 bd
       0.44133264 -0.21450065 0.0062015518 -0.043865763
000240 bf 0d 53 be 2b ff 89 3e 02 b7 8c 3e 10 85 2e 3d
       -0.20610712 0.2695249 0.27483374 0.042607367
000250 c2 23 dc bd d9 6d ff 3d ef 4b 9b be ce a2 80 be
       -0.10749008 0.12472124 -0.3033137 -0.2512421
000260 4c 83 3c 3e 1f 6a 33 3d 9e 7d 04 3f 34 3d 04 bf
       0.18409461 0.043802377 0.51754177 -0.5165589
000270 ec e2 68 3d ad 8c af 3e b9 5b 6c 3e 27 97 0f bc
       0.056857035 0.34287015 0.23081864 -0.008764065
000280 41 c6 27 be b5 05 5a 3e 1c df 70 be e7 35 d3 3e
       -0.16384222 0.2129124 -0.2352261 0.41252062
000290 61 b6 9e be 6f e1 93 bd 1e 60 32 bf e6 fa 01 bf
       -0.3099852 -0.072207324 -0.69677913 -0.50773466
0002a0 ce 9a 1c bd 2f 6a af be ee 39 fa 3d 32 66 85 be
       -0.03823357 -0.342607 0.122180805 -0.2605453
0002b0 e9 cf 40 bf 7c 92 95 3d ff 9a 04 bd 06 c4 31 be
       -0.75317246 0.0730333 -0.03237438 -0.17359933
0002c0 5c 32 19 bf 4c 60 f7 be 20 be 5f bc 4a ba 82 be
       -0.5984247 -0.48315656 -0.013656169 -0.25532752
0002d0 92 59 69 3d bd b3 be 3e 3b 29 0c be 46 e8 13 bf
       0.056970187 0.37246504 -0.13687603 -0.57776296
0002e0 37 1e e6 bd e7 1a e7 be ec 53 d9 be 95 e7 d3 3e
       -0.11236232 -0.45137712 -0.4244684 0.4138762
0002f0 ce 9c 65 bd f1 30 6f be 94 88 0b bf cc 56 8f 3e
       -0.056057744 -0.23358513 -0.54505277 0.27995908
000300 91 a1 a7 3d 57 3a 10 3e f7 82 25 be 96 bb c4 be
       0.08185113 0.14084755 -0.1616324 -0.38424367
000310 4e 0f 08 be 69 97 d8 bc b7 e6 c2 be 3b 05 74 be
       -0.13287088 -0.026439385 -0.38066646 -0.2383012
000320 40 fa b5 be f9 34 c6 3e 75 2c 73 3e c5 68 20 be
       -0.35542488 0.3871229 0.23747428 -0.15664966
000330 ae 96 f2 3c 21 0c dc be bf 21 26 bd 06 63 8c 3d
       0.029612865 -0.42978004 -0.040559527 0.06854825
000340 a6 ca 8c be 0c 87 02 be 51 e5 ac 3d 3a 50 78 3e
       -0.27498358 -0.12746829 0.08442176 0.24249354
000350 17 1e d4 3c fe b0 71 3e f5 a4 7b 3e 80 f2 ef bb
       0.025893254 0.23602673 0.24574645 -0.0073226094
000360 60 1e 87 bc e1 47 8a 3e 90 4b 63 3d 6b 45 ce be
       -0.016493976 0.27007964 0.055491984 -0.40287337
000370 86 cf 90 3e 62 5a 31 be 87 87 31 bc 6a ea 0a be
       0.28283328 -0.17319635 -0.010835535 -0.13565984
000380 49 74 07 bf db fb 8f 3e ae 1e 49 3e 4d 25 a6 bc
       -0.5291181 0.28121838 0.1964061 -0.020281458
000390 68 c7 ec be a3 89 af be 28 5f fe bd 1d 48 b0 3e
       -0.46245885 -0.34284696 -0.12420493 0.34430018
0003a0 81 07 dc be de 8a 4e 3d 65 1d be bd 1f 2f 5a bd
       -0.42974475 0.050425403 -0.0928295 -0.053267594
0003b0 3c 96 b9 bd 0b 06 c8 3d 2a dc 68 3e 3f b1 90 3e
       -0.09061858 0.097667776 0.22740236 0.28260228
0003c0 49 f3 fe be 31 26 07 3e 2d d2 57 3e cf 6e 8f be
       -0.49794987 0.13198163 0.2107627 -0.28014228
0003d0 95 71 9d be fe 84 a9 be 17 24 ac 3e 13 4f ab be
       -0.3075072 -0.33109277 0.33621284 -0.33458766
0003e0 d9 06 41 3d 52 9e fd be 5d 9b cb bd 99 50 09 bd
       0.04712567 -0.4953485 -0.099417426 -0.03352413
0003f0 fe 7d 7e be cc 62 01 be 08 67 10 3d 87 3a c4 bd
       -0.2485275 -0.12635344 0.03525451 -0.09581476

x_encoder.out.bias f4 [128]
000000 e7 6d c5 bd 32 e1 01 bd 0e 87 ab bd c9 67 bc bb
       -0.09640103 -0.031708904 -0.08375369 -0.005749677
000010 ec 0f 7f be 7f d3 c3 3c b1 c9 37 bd 3a 36 be bc
       -0.24908417 0.02390456 -0.044870082 -0.023219217
000020 b4 78 27 be 59 ed a5 3d 6d 28 ec bd 81 40 40 3c
       -0.16354638 0.08101911 -0.11531148 0.011734129
000030 aa 7b 85 be e6 26 fd bb c8 0b d4 bb fc e8 9d bd
       -0.2607091 -0.0077255843 -0.006471131 -0.07710454
000040 6e 15 7e bd 17 f3 db bc 90 22 ab bd 75 b4 9b bd
       -0.062032156 -0.026849313 -0.08356202 -0.07602779
000050 bd a8 f2 bd 50 01 7a be 37 91 90 bc 76 3b f6 3d
       -0.118485905 -0.24414563 -0.017647369 0.1202306
000060 cf 6c b3 3c a2 01 4a be 41 0d 32 bd d1 48 fa 3d
       0.02190247 -0.19727185 -0.04346967 0.1222092
000070 ad 91 68 3d c6 9c c4 bd 65 f1 7b bd 9a 09 75 bd
       0.056779552 -0.09600215 -0.06150951 -0.05982361
000080 45 b7 f1 3c 5e 35 e3 bd 7f cf b6 3d ec 9b 20 be
       0.029506335 -0.11094163 0.089262955 -0.1568448
000090 f4 15 bb bd f4 0f 1b bd b2 53 2a be 91 e7 20 bd
       -0.091350466 -0.03785701 -0.1663349 -0.03928334
0000a0 25 c0 7e 3e 4e 0c 95 be b6 c8 a3 bd 4b 71 b0 3d
       0.24877985 -0.2911095 -0.07997267 0.08615359
0000b0 36 c3 1f 3d 24 b6 b6 bd f1 83 80 be a4 5f 75 bb
       0.039004527 -0.08921459 -0.25100663 -0.003744104
0000c0 fa 88 62 bd 9d b5 92 bc 53 f7 e2 3c 2f 49 64 be
       -0.055306412 -0.017908866 0.027705824 -0.22293542
0000d0 ac c6 e2 bc 35 a4 fa bd f7 dc b8 bd 44 94 4a 3e
       -0.027682625 -0.12238351 -0.09026521 0.19783121
0000e0 1f 77 f5 bc 8c 81 a8 3b dc 43 30 3d 1c 3a 65 bc
       -0.029964028 0.0051423963 0.043033466 -0.013990905
0000f0 6a 4a 52 bd b6 42 1b 3d 1d c0 98 bb 43 9c 0f bd
       -0.051340498 0.037905417 -0.0046615736 -0.035061132
000100 fa 4c 91 bd ea 2b 58 3c 64 ee 4a 3d 43 d7 19 bd
       -0.0709476 0.013194064 0.049543753 -0.037558805
000110 a6 83 c8 3c c4 87 02 3d 4b 54 ee bd 35 2f e4 bd
       0.024476837 0.031867757 -0.11637171 -0.111418165
000120 8a 5e 38 bb 0e c6 37 bd 47 0d 0e be a9 c2 8c bb
       -0.0028132522 -0.044866614 -0.13872252 -0.0042956662
000130 18 17 37 be f5 eb 15 bd ca 7a dc 3c 68 bb d8 bc
       -0.17879903 -0.03660198 0.02691402 -0.02645655
000140 ed b7 10 be 38 01 11 bd c4 85 65 be ca 35 99 3d
       -0.14132662 -0.035401553 -0.22414309 0.074809626
000150 46 10 61 be 58 c8 36 be 0f e0 f4 bd 5a a1 10 bd
       -0.21978864 -0.17849863 -0.11956798 -0.035310127
000160 81 b7 bf 3d 11 7f f4 3d 84 d1 04 3d a3 d0 7b bd
       0.093611725 0.119382985 0.032426372 -0.06147827
000170 1e 79 a5 3b dd e4 a0 bd 71 41 8c bb 8b 5b 87 bd
       0.0050498387 -0.07856152 -0.004280262 -0.06609257
000180 8f 20 55 3d 0a 38 48 be 91 7f 08 3d b5 b1 9b bd
       0.052033003 -0.19552627 0.03332478 -0.07602254
000190 39 4a af 3b 64 e6 07 3e e5 32 5b be b3 ea e1 3d
       0.005349424 0.13271481 -0.21406133 0.110310934
0001a0 25 89 58 3c 86 ea 30 3d 0f 9b 8e 3d 65 d8 99 3c
       0.013216292 0.04319241 0.06963169 0.018779943
0001b0 85 56 69 bd 2a 87 a5 bd 06 7b 95 bd 00 ef 81 3d
       -0.056967277 -0.08082421 -0.072988555 0.06344414
0001c0 12 e4 d2 ba 89 e5 1d be ab 05 6c bd 53 04 5a bd
       -0.0016089699 -0.15419592 -0.057622593 -0.05322678
0001d0 26 69 25 3c 9a 77 5b bd 4f 5d 9f 3d f3 75 c3 bc
       0.01009587 -0.053580858 0.07781469 -0.023859954
0001e0 0c 51 ad bc 38 b3 df 3c 64 0d 88 bc e8 cc 0f be
       -0.02115681 0.027307138 -0.016607948 -0.1404301
0001f0 f0 6a 22 3e b4 62 00 bd 21 7f 88 be 34 6a 4f bc
       0.15861106 -0.03134413 -0.26659492 -0.012659598

xy_encoder.resizer.to_hidden.weight f4 [32, 1]
000000 f8 ad c5 3d 64 37 52 bf aa 55 10 3f f8 bb 65 3e
       0.096523225 -0.8211577 0.56380713 0.22434986
000010 e7 8e 1c 3f d2 10 a2 3e ab ac 44 3f 97 25 0e 3f
       0.6115555 0.31653458 0.7682597 0.5552611
000020 b3 6d b9 be 16 f9 1e 3f b9 b8 6c bf 60 76 6d 3e
       -0.36216506 0.62098825 -0.92469364 0.23189688
000030 07 7c 2b 3f 96 67 42 3f ed ed f7 3e 00 fe 1e 3f
       0.66986126 0.7593931 0.4842371 0.62106323
000040 6f 3c 64 3f 4e f0 22 bf 01 e1 51 3f 0c 2e a3 be
       0.89154714 -0.63647926 0.81983954 -0.31871068
000050 a4 76 54 bf 9a b9 4c 3e ca ab 27 3e bf c4 10 bc
       -0.8299353 0.19992676 0.16374126 -0.00883597
000060 48 02 27 3e 07 37 47 3f 8d 36 88 3e f3 fa b9 be
       0.16309464 0.7781834 0.2660412 -0.36324272
000070 ea f1 65 bf cb 93 d2 be eb 28 41 3e f7 d0 ab 3d
       -0.89822257 -0.41128382 0.18863265 0.08389466

xy_encoder.resizer.to_hidden.bias f4 [32]
000000 ab cb 14 be db 6e 82 bc 3d 0d c3 3b 5b 5c 75 be
       -0.14530818 -0.015922 0.005952506 -0.23961012
000010 ef ab 8a bd f5 32 49 bd f7 3b c4 bc 39 47 3d bd
       -0.06771075 -0.049120862 -0.023954375 -0.0462105
000020 05 42 23 3b 66 61 cb 3c e6 e2 72 3d b8 d4 84 be
       0.0024911177 0.024826717 0.05929842 -0.25943542
000030 f7 b1 e5 3d b1 0f 22 3c 61 cf 95 3c 6a bc 69 bc
       0.11215585 0.009891436 0.018287363 -0.014266113
000040 ff f2 a0 bd 7c 35 40 3c 62 3d 4a 3c 23 c1 1b 3d
       -0.07858848 0.011731502 0.012343736 0.038025986
000050 68 92 36 bc 71 3e 2e be 94 48 4d bd f6 85 97 3d
       -0.011143304 -0.17016007 -0.050118044 0.07398598
000060 dd 22 b6 bd 8e 5d 42 bd f0 83 d4 bd 0f 0d 82 be
       -0.088933684 -0.047452502 -0.103767276 -0.25400588
000070 0c e6 7d 3c ee 48 3a 3c c9 ee 9b 3d 3c b0 bd bd
       0.015496742 0.011369927 0.07613904 -0.0926213

xy_encoder.resizer.out.weight f4 [128, 32]
000000 52 5f d3 3d 58 f8 b6 be 69 4e 46 3d 2f 9d 4b 3e
       0.10320915 -0.35736346 0.04841462 0.1988418
000010 49 eb b9 be dd 36 43 be 62 51 71 be 91 52 2a be
       -0.3631232 -0.19063897 -0.23566201 -0.16633059
000020 63 56 b1 3c da fc 98 bd 58 aa 4c 3e 1e 2c e6 3d
       0.021647638 -0.074701026 0.19986856 0.112388834
000030 f1 0c d9 3e 6b 9f e1 3c c2 ae 3b 3d 52 71 a1 3e
       0.42392686 0.027541837 0.04582096 0.3153177
000040 b6 dd a4 be 0d 4f 06 3e c0 1c 6c be 5d 3e ce 3e
       -0.32200402 0.13116093 -0.23057842 0.40281954
000050 97 ec 88 be 24 f0 87 bd bf 3c ba be 5f f4 5d be
       -0.26743004 -0.066376 -0.3637447 -0.21675251
000060 b4 89 d8 3e 0a 4f 50 3b 0b d9 51 3d 49 fb 2e 3e
       0.4229256 0.0031785392 0.05123238 0.17088045
000070 00 a0 a8 3d 92 89 c9 3e bb 43 8c bc 06 04 22 be
       0.082336426 0.3936277 -0.01712214 -0.15821847
000080 7e 6e 6a 3e 18 3d 8b 3d 71 62 db be 45 95 93 3e
       0.22893712 0.06798762 -0.42848542 0.2882482
000090 cd 5e c9 be 6a af c5 3e 1f 8a 00 3e af 8a 9b bd
       -0.3933014 0.38610393 0.12552689 -0.07594811
0000a0 f6 d7 b8 3c 67 d5 30 bd 38 31 be be f8 7a ca be
       0.022563916 -0.043172266 -0.37146926 -0.39546943
0000b0 ec 4a f2 bd 5e e9 72 be a8 10 b9 3d 65 09 b0 be
       -0.118306965 -0.23721835 0.0903638 -0.34382167
0000c0 8a 51 ec be 04 32 92 be e5 73 c7 be 64 ee 11 3e
       -0.4615596 -0.28553784 -0.38955608 0.14251095
0000d0 6e 41 90 be f0 ff 63 3e 61 07 9b 3e 08 a0 d5 be
       -0.2817492 0.22265601 0.30279067 -0.41723657
0000e0 5e f6 8c be 0b ea 50 3e c9 b1 d2 3e 3c 45 22 3e
       -0.27531713 0.2040178 0.41151264 0.15846723
0000f0 aa dc b9 3e f6 8e 9a be 51 6f d2 3d 43 df 34 3e
       0.36301166 -0.30187196 0.10275138 0.17663293
000100 0b ed 39 3e 48 c6 b7 3c a2 fb 43 be 5f e1 1f be
       0.18156831 0.022433415 -0.19138959 -0.15613316
000110 8a 67 9f 3d 14 73 21 3e 23 54 40 3d fa 2f c1 3e
       0.077834204 0.15766555 0.04695524 0.37731916
000120 cf 69 87 3e 48 56 f7 bb 19 8e e3 3e 5d 80 b3 3e
       0.26447913 -0.0075481273 0.4444435 0.3505887
000130 94 a6 9d bc e5 e3 df bd 69 f8 10 be 52 4f ec bd
       -0.01924447 -0.10932139 -0.14157261 -0.11538567
000140 5c e6 2c bd 09 c6 ee 3d bf 9b c4 3e 96 64 44 be
       -0.042211875 0.11658866 0.38400075 -0.19178995
000150 d8 1e 9f be ec 54 cb be ac 84 69 be 1b 90 a1 3d
       -0.3107822 -0.39713228 -0.22804517 0.07888814
000160 4a 8f 5d be 94 5d be be 1a 0e 23 3e 90 84 27 bd
       -0.21636692 -0.3718077 0.15923348 -0.040897906
000170 25 ec 91 be 75 87 95 be 59 a9 87 bd a2 02 7b 3e
       -0.28500476 -0.29204908 -0.066240974 0.24512723
000180 d6 7d ca be 03 70 ca 3d c4 26 01 bd 96 2e 22 be
       -0.3954913 0.09884646 -0.03153111 -0.15838084
000190 7d 6d 1d be bb 05 a9 be 7e 65 ef 3c cc 5b ad 3e
       -0.15373798 -0.33012185 0.0292232 0.33859098
0001a0 81 d4 9f 3d 1e b9 ec be 4b 25 1a 3e 18 76 41 bd
       0.07804204 -0.46234983 0.15053289 -0.047231764
0001b0 19 1f a3 3c f2 94 57 bd 6e 74 2c 3d 69 d9 be be
       0.01991229 -0.05263228 0.042103224 -0.37275246
0001c0 4c 5c b6 be d1 f5 e9 be 42 54 4f 3e 1f 9e 5a be
       -0.35617292 -0.45695356 0.20246986 -0.21349381
0001d0 79 19 bc bd b4 9c 2a 3e f4 93 e9 3d 43 10 95 3e
       -0.09184546 0.1666134 0.11405173 0.2911397
0001e0 79 90 9e 3d 40 b3 81 be f0 bb 04 be e4 74 53 3e
       0.077424 -0.2533207 -0.12962317 0.20650059
0001f0 c2 cc 42 be db 20 cc 3e ab 67 ab be 69 7d f3 3d
       -0.19023421 0.39868817 -0.3347753 0.118891545
000200 3b 17 18 3e 8d 72 c7 be fe 70 7d 3d 38 c8 c7 bd
       0.14852612 -0.38954583 0.061875336 -0.097549856
000210 c6 82 60 3e 14 94 aa bd a3 5b d8 3e f0 60 e8 3d
       0.21924886 -0.08329025 0.42257413 0.11346614
000220 ab 1e c0 3e d1 86 c9 bd 92 1d b1 be 6c 52 a1 3c
       0.37523398 -0.09840167 -0.34592873 0.019692622
000230 d9 b5 4b be 31 16 8a 3e d7 8f 5c be 49 08 94 be
       -0.19893588 0.26970056 -0.21539246 -0.2891257
000240 f0 38 87 be 0d 79 94 3e 9e b5 97 be 26 22 4e 3c
       -0.26410627 0.28998604 -0.2963075 0.012581384
000250 ff 50 6f 3e 3b 68 62 be f4 e8 2a bd a0 b2 9a be
       0.23370741 -0.22110073 -0.041726068 -0.30214405
000260 c7 82 d1 3e 22 72 06 be 34 41 e3 3d c3 78 80 3d
       0.40920088 -0.13129476 0.11096421 0.062730335
000270 0c a8 e8 be 94 a4 12 3e be 15 62 be bc ef da 3e
       -0.4544071 0.14320594 -0.22078606 0.42761028
000280 b6 c9 d2 3e 90 45 18 3e fd 34 93 bd 97 f8 5b be
       0.41169518 0.14870286 -0.07187841 -0.21481548
000290 e7 20 c6 3e dd f5 c9 3d 29 95 e7 3e 7f 4a 00 bd
       0.38696977 0.09861348 0.45230988 -0.031321045
0002a0 60 3e a6 be 03 57 d8 3e 42 b1 51 3e 39 3c d3 3e
       -0.32469463 0.42253885 0.20477775 0.41256884
0002b0 3e f7 9a be 84 5c f4 3d b4 03 9f be b0 95 36 3e
       -0.30266756 0.119317085 -0.31057513 0.17830539
0002c0 9a 80 c2 3e 13 97 2f 3e 06 0c db bd 22 73 a9 be
       0.3798874 0.17147474 -0.10695653 -0.33095652
0002d0 4c e1 f8 3d c8 e4 8c 3e 45 60 de bd 1d 32 5c be
       0.12152347 0.27518296 -0.10858206 -0.21503492
0002e0 e1 3e 4c 3e fb 16 5a 3e 99 f0 c2 bd 66 2b 0d bf
       0.19945861 0.21297829 -0.095185466 -0.55144346
0002f0 95 f3 d1 be c9 12 da 3e 08 10 45 3d 99 75 9a 3e
       -0.4100615 0.42592457 0.04811099 0.30167845
000300 e1 c6 1a 3e 92 89 b2 bd c9 6c 75 be 7f da d0 be
       0.15114929 -0.08717646 -0.2396728 -0.407917
000310 87 7d 2f 3e 3b 39 32 bd c6 66 59 3e 4d 35 16 bd
       0.17137729 -0.04351161 0.21230611 -0.036671925
000320 05 ba 98 be be 85 92 be 09 ec 75 3e 11 24 23 be
       -0.29829422 -0.28617662 0.24015822 -0.15931727
000330 b2 19 9a 3e 5a 4c af bd 06 12 d1 bd f7 a3 12 bd
       0.3009773 -0.08559485 -0.10208516 -0.0358009
000340 b3 b3 99 3e 37 c2 22 be 8a f1 9a be 60 e4 cf be
       0.30019912 -0.158944 -0.30262405 -0.40603924
000350 58 24 1d 3e af ad d8 be c3 95 88 bd 91 ef b8 be
       0.15345895 -0.4232001 -0.0666919 -0.36120275
000360 35 0e 2f be bb fe c6 be b4 34 2a be 80 95 bf be
       -0.17095263 -0.3886622 -0.16621667 -0.37418747
000370 71 3d 8c be 80 ee d9 be ac 3b 0a 3e 85 a6 96 be
       -0.27390626 -0.42564774 0.13499326 -0.2942392
000380 34 3c 09 be 7b 36 d5 be 82 be 7c 3e 8d 1f a6 be
       -0.13401872 -0.41643128 0.24682048 -0.32445946
000390 88 6a 84 be f4 8a 0e be 8c 58 91 3d c0 83 37 be
       -0.25862527 -0.13920194 0.07096967 -0.17921352
0003a0 44 00 c8 be 7a 08 2a be 97 f2 be 3e 01 a5 dd be
       -0.39062703 -0.16604796 0.37294456 -0.4328995
0003b0 f4 99 91 3d 70 22 ff bc 00 cf 2b 3b b6 ea cb be
       0.07109442 -0.03114435 0.002621591 -0.39827508
0003c0 18 df 5e 3d 79 3e b3 3e 12 17 65 3e a0 77 3b 3c
       0.054411978 0.350086 0.22372082 0.011442095
0003d0 5c 9f a4 be bc 75 b0 3d dd 6c b0 3e fc d6 ed 3d
       -0.32152832 0.08616206 0.34458056 0.11613271
0003e0 fc a1 fc 3d 90 15 f2 3c 5a 35 b6 be 98 05 f5 bd
       0.123355836 0.029551297 -0.3558758 -0.119639575
0003f0 fb e2 ad 3e 08 ba b0 be b8 1c 1a bd 1a f6 4c 3e
       0.33962235 -0.3451693 -0.037625045 0.20015755

xy_encoder.resizer.out.bias f4 [128]
000000 d5 78 16 be ac 89 bf bd 0c f3 99 3d b3 8d 79 bc
       -0.14694531 -0.09352431 0.07517061 -0.015231538
000010 a9 bf 1c be dc 8f 7a 3c 13 60 48 3c 00 00 00 00
       -0.15307488 0.015293088 0.012229937 0.0
000020 87 f7 0f be 9a c0 ed 3d f4 eb 84 bd c8 6d 06 be
       -0.14059268 0.116090015 -0.06490317 -0.13127816
000030 c5 d8 4b be c8 3d 90 bc d3 9e 22 bd a1 56 da bc
       -0.1990691 -0.017607585 -0.039702248 -0.026652636
000040 78 eb 9a bc 64 37 6a 3c 0f 3a 1a 3b a9 c3 66 bd
       -0.018911108 0.014295433 0.002353314 -0.05633894
000050 9b 99 c6 bd 94 df 75 be ad c3 a2 bd 9d a4 43 3d
       -0.09697267 -0.2401107 -0.079474784 0.04776441
000060 18 02 f8 bc aa 51 49 bd 9f 33 d2 bc 5a 61 c4 3d
       -0.030274436 -0.049150147 -0.02565938 0.09588881
000070 a4 95 7d 3a ad 53 9d bd 30 4c 1a 3c c3 fc 48 bd
       0.0009673482 -0.076819755 0.009417579 -0.049069177
000080 d9 4b b8 3d fc e0 65 bc 45 d0 20 3e a5 a9 0d be
       0.08998842 -0.014030691 0.15704449 -0.13834246
000090 f4 16 9b bd 58 31 91 3d d8 0c 68 be 9e b8 bf bc
       -0.07572737 0.0708949 -0.2266115 -0.023403462
0000a0 2a eb 1b 3e 75 8a a3 be a2 2d e9 bd 65 5b fc 3c
       0.15226427 -0.31941572 -0.11385657 0.030805299
0000b0 56 0f 65 3d 92 49 00 be 4a fc 1c be d7 8a 96 3d
       0.05592283 -0.12528065 -0.15330616 0.073507
0000c0 cd db 69 bd bf 75 38 3a e5 26 1c 3c a7 22 3a be
       -0.057094384 0.00070365885 0.009530758 -0.18177281
0000d0 10 ef ac bd 79 4a d2 bd 84 ab 06 bc 0e 21 3e 3e
       -0.08444035 -0.10268111 -0.008219603 0.18567297
0000e0 13 57 48 3c 75 2f 84 3c 41 09 48 bd ae d0 40 bd
       0.012227791 0.01613591 -0.04883695 -0.047074012
0000f0 11 69 d4 bc 09 08 1d 3d 77 cd 39 3e 3f 1e 6f bd
       -0.025929006 0.03833774 0.18144785 -0.058378454
000100 2b 1b c9 bd fb cc f2 3a 31 d2 45 bd 77 04 00 bd
       -0.09819635 0.0018524224 -0.048296157 -0.031254258
000110 95 7b ce bc 43 44 90 3c 89 41 d6 bd 3b 6b db bc
       -0.025205413 0.017610675 -0.104617186 -0.02678453
000120 f9 77 d5 3b 71 cc e7 bc c2 5d 61 bd de eb bd bd
       0.006514546 -0.028295727 -0.055021055 -0.09273504
000130 95 14 37 be 24 ee 0a bd 00 00 00 00 3f d2 4b bb
       -0.17878945 -0.033918515 0.0 -0.0031100658
000140 ae 34 f5 bd f4 e4 01 bd 8e f0 f0 bd 01 53 f7 bb
       -0.119729385 -0.031712487 -0.11764632 -0.0075477366
000150 64 3b 2b be 51 ac 03 be e1 89 d3 bd 08 3d af bb
       -0.16721874 -0.12858702 -0.10329033 -0.0053478517
000160 f2 1b e7 38 ea e5 9c 3c a1 78 91 bb 9c ca 26 bd
       0.000110201436 0.0191526 -0.004439429 -0.040720567
000170 73 61 53 bd 59 50 07 bc 58 f1 d6 3b 95 06 9f bd
       -0.051606607 -0.0082589025 0.006559532 -0.07764927
000180 4e 17 e3 3b db c6 33 be 6f 71 74 3c 79 84 90 3d
       0.0069302684 -0.17556326 0.014919623 0.07056517
000190 3b 06 88 3b bc 82 d5 3d cb b6 7e be 40 09 0e bd
       0.0041511334 0.10425326 -0.24874417 -0.03467679
0001a0 7f 92 13 3d c0 3d e1 3b 38 e5 65 3d 5f 54 08 be
       0.03602838 0.0068738163 0.056126803 -0.13313435
0001b0 6a 71 7b bd 38 2f b1 bd e2 fa 3f bd 49 e5 e3 bc
       -0.061387457 -0.086515844 -0.04687012 -0.027819293
0001c0 91 9f 35 bd 3f 7b b9 bd 46 2a 4f bd 6f 92 78 bd
       -0.044341628 -0.090567105 -0.050577424 -0.060686525
0001d0 ef e4 88 3d de 60 4e bd cf cb 41 3d e3 cf 94 bb
       0.066842906 -0.05038535 0.047313508 -0.0045413836
0001e0 2d e1 43 bd 16 85 fe 3c 37 b7 b0 bc fd 14 01 be
       -0.047822166 0.03106932 -0.021571739 -0.12605663
0001f0 00 00 00 00 fd 69 a9 bb a6 ad da bc b3 17 82 bd
       0.0 -0.0051701055 -0.02669413 -0.063521765

xy_encoder.flat_module.to_hidden.weight f4 [128, 128]
000000 cc d4 1f 3c 3d 2e 51 3d 1a 38 9b bd cc 39 c0 bc
       0.009755325 0.051069487 -0.0757906 -0.02346506
000010 28 53 fc bd 2d 2c 34 3d 71 86 52 bd c7 0d 0f bd
       -0.12320548 0.04398744 -0.051397745 -0.03492525
000020 6b c1 e4 bc 6b 4a 28 3e e0 d7 09 bd a0 b8 94 3c
       -0.02792426 0.16434638 -0.03365314 0.018154442
000030 c8 99 8c be 70 eb 51 3c 63 3c b8 bd c4 bd 84 3d
       -0.27461076 0.01281248 -0.08995893 0.064815074
000040 ec 81 a2 bd 66 f7 5b bc 39 98 b9 bd 7f 47 92 bd
       -0.07934937 -0.013425684 -0.09062237 -0.07142543
000050 cd a0 ca 3c da 7c cc be 2f bc 2b bd c3 50 c8 3c
       0.024734879 -0.39939004 -0.041927513 0.024452573
000060 1e 81 d3 3b 83 6f a1 3d 90 96 47 3d b2 6e 85 3d
       0.006454601 0.07882597 0.048727572 0.06515254
000070 31 06 ae bb 36 a9 a3 3d 2f 3d 97 bc 98 14 43 bd
       -0.0053107967 0.07991259 -0.018461792 -0.04762706
000080 d6 a7 29 3e ae 03 1d be a6 c4 07 3e e0 14 b3 3b
       0.1656793 -0.15333435 0.13258609 0.005465135
000090 4f 1b f0 bb 10 1f 45 be 3e 88 01 3c 04 ff ea bd
       -0.007327474 -0.1925013 0.007906018 -0.114744216
0000a0 60 c8 dd 3d af 9c e0 bd b4 c7 9f bb 98 a5 0f 3e
       0.10829234 -0.10967385 -0.0048761014 0.14028013
0000b0 01 65 77 3d ed 43 aa bc 8d fa 10 be 93 0e 3d bd
       0.06039906 -0.020784343 -0.14158078 -0.046156477
0000c0 20 58 07 be 1b 22 4b bd 52 46 63 be ac 95 e8 3d
       -0.13217211 -0.049593072 -0.22194794 0.11356673
0000d0 e0 b1 e1 bc a3 de 9f bd 93 d5 98 bd cf 9a db 3d
       -0.027550638 -0.078061365 -0.07462611 0.10722887
0000e0 91 c8 0e 3c 20 3f 71 bd be a8 e9 bc 39 6e b0 be
       0.008714811 -0.05889809 -0.028522845 -0.34459093
0000f0 f6 ca 7a 3d a0 76 8c 3d 10 8f 70 be 81 df 4d 3c
       0.061228715 0.068585634 -0.23492074 0.0125654945
000100 b8 68 5f 3d 65 19 2a bd 8d 91 4a bb 92 ac 6e bd
       0.054543227 -0.041528124 -0.003090951 -0.058270045
000110 6d 7b 07 bd 23 e2 dd 3d eb 98 8c 3d 12 d7 36 3d
       -0.033076692 0.10834148 0.06865104 0.0446387
000120 f3 2e 9b 3c 7a f7 8a bd 21 70 5c be 19 a7 8d be
       0.018943286 -0.06785484 -0.21527149 -0.27666548
000130 02 b5 4e bd 15 be bb ba 16 9d ab bd 60 9c 15 be
       -0.05046559 -0.0014323617 -0.08379571 -0.14610434
000140 ea 2e 74 3c 03 6e 25 be cb 31 78 3d bf c9 86 3d
       0.014903763 -0.16155247 0.06059436 0.06581449
000150 e2 6b c9 bd b1 a1 14 be 5e a3 a8 bc a9 c1 34 bd
       -0.0983503 -0.14514805 -0.020585712 -0.04413
000160 0f bf 32 3e 8c fb c7 bd 28 28 f7 bb 77 61 c6 3d
       0.17455696 -0.09764776 -0.007542629 0.09686559
000170 be 61 05 bd 60 56 87 bd fe 13 3e bc fe df 80 bd
       -0.032563917 -0.066082716 -0.011601446 -0.06292723
000180 00 2a e3 3d dd 8d 79 be 6f 68 32 bd 40 0d 87 bd
       0.11091995 -0.24370523 -0.043556627 -0.06594324
000190 ea be ab 3d 7b 4c 31 3e 89 58 85 bd f5 29 a9 bd
       0.08386023 0.17314331 -0.06511027 -0.08259956
0001a0 42 8c 5c be 53 c4 f7 bb 07 2f dd bd 63 fb 0a bc
       -0.21537879 -0.0075612455 -0.107999854 -0.008482787
0001b0 e8 42 3e 3d 4e 52 c6 3d bb db 40 3d 91 f6 59 bd
       0.046450526 0.09683667 0.04708455 -0.05321366
0001c0 64 ed 34 be df 6f 10 be 82 2b a0 3d a5 da e6 bd
       -0.17668682 -0.14105175 0.078207985 -0.11272172
0001d0 a8 46 be bd 8e 75 db 3d 64 38 60 3d c1 0c cc 3c
       -0.0929082 0.10715781 0.05474128 0.024908425
0001e0 22 0e 16 3e f3 ca cb 3d 89 d3 57 3b 73 fd 61 bc
       0.14653829 0.09950819 0.0032932481 -0.013793337
0001f0 ca c3 60 3d 37 e6 a0 bd f7 62 da bd 72 28 b0 bd
       0.05487422 -0.0785641 -0.10663407 -0.08601464
000200 4e 2d fc 3a bd 0d f9 bc 99 75 68 be be 08 10 3d
       0.0019239576 -0.030402059 -0.2270111 0.035164587
000210 37 af 77 be a1 21 cc 3d fb a3 d7 3c 04 9f 1f bd
       -0.24187933 0.09967352 0.02632331 -0.03897001
000220 24 e6 d1 bc 1b 9b 27 bd 30 55 3b 3d 52 2c 1c be
       -0.025622435 -0.040919404 0.045735538 -0.15251282
000230 94 cd 75 be bf d5 8d 3d 4b a0 56 bc b9 42 a3 3a
       -0.24004203 0.069255345 -0.01309974 0.0012455798
000240 a8 ba 34 be c5 d9 ca bd 45 4b af b8 ed b1 7d 3d
       -0.17649329 -0.099048175 -8.35867e-05 0.06193726
000250 7a 31 51 bd 7f a1 00 bd 88 90 37 be 8f 5b 6a 3d
       -0.051072575 -0.031404015 -0.17926228 0.057216223
000260 06 d5 0a 3e 46 ff 37 bd 12 2e c9 bc 84 1a af bc
       0.13557824 -0.044921182 -0.0245581 -0.021374948
000270 69 75 78 bc 92 fd e4 3c d2 39 25 3d 00 12 03 3d
       -0.0151647115 0.027952943 0.040338345 0.031999588
000280 69 5f ae bd 56 ab 10 be 5f 53 65 be 54 c0 ee bd
       -0.08514292 -0.1412786 -0.22395085 -0.116577774
000290 f6 8a 29 3e c6 f3 e1 3d 01 ff 53 be 45 c7 ad bd
       0.16556916 0.11032824 -0.20702745 -0.08485273
0002a0 b3 e0 a5 3d 45 4d f2 3c 0c 3d 57 be 6c 85 7b 3d
       0.080994986 0.02957786 -0.21019381 0.061406538
0002b0 cd 01 8a 3d fd 26 d5 3c 14 fe d2 bd b1 a6 97 3d
       0.06738625 0.026019568 -0.10302368 0.07404841
0002c0 06 ab 36 bc d3 3c c0 bd a9 e5 a5 bd ba 05 b9 3c
       -0.011149174 -0.09386601 -0.08100445 0.022585738
0002d0 03 cb 60 3d 7f d4 90 3d 89 51 4d bd a7 8f c8 bd
       0.054881107 0.070717804 -0.050126586 -0.097930245
0002e0 9b 42 ec ba f5 31 a0 3d 84 f0 01 3d ec 4e 2d bc
       -0.0018025221 0.078220285 0.031723514 -0.0105778985
0002f0 8a 7f 5c 3d fb 22 30 bd 22 9b df 3d 69 e6 18 3c
       0.05383257 -0.04300211 0.10918261 0.009332278
000300 fc 11 94 3c 46 df cd bd 08 14 31 bd ef b2 ba 3d
       0.018074982 -0.10052352 -0.043231994 0.0911616
000310 b6 6b a2 bc ea 42 98 bc 1e 01 2b bb 52 eb 96 bd
       -0.019826751 -0.018586595 -0.0026093195 -0.073691025
000320 8c 1c 03 3a 87 64 35 3c d9 6e 44 3c 79 d8 0b bd
       0.0005001507 0.011071331 0.011989319 -0.03414199
000330 df bf 9c bd 39 ef 29 3d 41 c6 b2 bd 1a 8c 07 3c
       -0.07653784 0.041487906 -0.0872922 0.008273149
000340 2b 5e 0a 3d b4 28 d6 3c de e6 11 3d 8f 65 47 3d
       0.03378121 0.026142456 0.035620563 0.04868084
000350 ca f7 0f bd 85 1a d4 bc 8b 0f 70 3d da 6d 78 bc
       -0.03514842 -0.025891552 0.058608573 -0.015162909
000360 38 f5 03 3e 6d f7 d8 bd d6 41 0e 3d 47 6e 11 bd
       0.12886512 -0.10594068 0.034730755 -0.03550556
000370 fd a8 26 3e 84 26 8f bd 2f 7d 18 3c 3b 35 ad bd
       0.16275401 -0.06989768 0.00930719 -0.084574185
000380 d1 97 11 3c de 5c 89 bd e2 7b 5a 3d 3e eb 11 be
       0.0088862935 -0.06707166 0.0533408 -0.14249894
000390 1f 0e 18 3b fd 2f 23 bd 5e be 8e 3d 8b 01 e2 bd
       0.0023201776 -0.039840687 0.069699034 -0.110354505
0003a0 76 f0 1c 3d d6 f0 9a 3b 04 0f e9 3d da 32 08 3d
       0.03831526 0.004728417 0.11379817 0.03325162
0003b0 4f 5c 35 bd de b5 3a 3c 10 fa a3 3d 4c 55 74 3c
       -0.044277485 0.0113959 0.0800668 0.0149129145
0003c0 98 cd 34 3e f2 b8 73 be 58 dd a5 3a 02 82 4a bc
       0.17656553 -0.2380102 0.0012654467 -0.012360098
0003d0 bd 56 2a 3d b3 e8 93 bd 60 a1 80 bd a0 74 c1 bd
       0.041586626 -0.07222118 -0.0628078 -0.094460726
0003e0 7c c5 db bd a9 75 1b bd 8b 1c 4e bd 1d 45 26 bd
       -0.107310265 -0.037954006 -0.05032019 -0.040593255
0003f0 3e 8d 53 bd 07 f6 55 bb eb 61 67 bd a1 e1 4f 3d
       -0.05164837 -0.0032647864 -0.056489866 0.050752286

xy_encoder.flat_module.to_hidden.bias f4 [128]
000000 ea 17 d3 3d c9 97 e3 bc 00 54 68 bd 2d d4 88 3d
       0.103072956 -0.027782338 -0.056720734 0.06681094
000010 41 b2 13 3d 5b ae 7b 3d f6 7f 08 3e 95 e1 1c 3d
       0.036058668 0.061445575 0.13330063 0.03830107
000020 a7 26 a1 3c df 20 ad 3d 78 c5 a3 3d 5d e4 d0 bb
       0.019671751 0.08453535 0.079966486 -0.0063748793
000030 cb a4 73 3c 0f 9b 21 bd 03 55 d7 bc e0 9e 81 be
       0.014870833 -0.039454516 -0.026285654 -0.25316525
000040 cd ac 8a 3d 3c 2e e4 bd 03 4d 6d 3b 84 5f 46 bc
       0.067712404 -0.11141631 0.0036209233 -0.012107734
000050 31 9e 30 3d 57 2d d2 bc 69 57 92 bd bc ef 04 bd
       0.043119613 -0.025656385 -0.071455784 -0.03245519
000060 5a 5a 16 3d 32 77 38 bd b5 6d e0 3c 22 6a a3 3c
       0.03670726 -0.04503555 0.027396062 0.019948069
000070 5c 93 b8 3d 4f 7b 97 bc d1 9f e2 bc f8 a7 36 be
       0.090124816 -0.018491415 -0.027664097 -0.17837512
000080 33 ae 13 3d 1c 1a db bd 04 e0 eb bd 5d fc 02 3d
       0.0360548 -0.10698339 -0.11517337 0.031978954
000090 c1 1e be bd 49 90 a9 bc 29 f3 ec 3d 7f b7 46 be
       -0.092832096 -0.020698683 0.115698166 -0.19405936
0000a0 5c 62 19 3e 2a b6 42 bd f4 14 11 3d c1 94 b4 bc
       0.14978927 -0.047537006 0.035420373 -0.022043588
0000b0 de 85 aa 3d 50 84 16 3c c2 ed 18 3e 8c 51 e8 3d
       0.083263144 0.009186819 0.14934447 0.11343679
0000c0 ce d3 71 bc c8 de c5 3c 1d ef 38 bc 1d 2b df 3b
       -0.014759971 0.024154082 -0.011287478 0.0068105594
0000d0 2b 1f 40 bc 98 38 4c bd db 2a e2 3c 53 4c 7a ba
       -0.011726181 -0.04985866 0.027608326 -0.00095481164
0000e0 fb dc 02 3d 42 60 8f bd 81 21 7b 3d be 4e d2 3b
       0.031949025 -0.070007816 0.06131125 0.006418078
0000f0 60 f6 29 bc 13 dc 88 3d 67 e1 d8 ba c3 55 11 3e
       -0.010373682 0.06682601 -0.0016546667 0.14192872
000100 1a 4b 6b bd 67 5a 54 3d d1 1e 1a 3e 15 d6 de 3c
       -0.05744467 0.051844027 0.15050818 0.027201692
000110 c4 ed 9d bc 5d cd a4 bc f7 5f 28 be 20 5d 31 3d
       -0.019278415 -0.020117456 -0.16442858 0.0433017
000120 bb 0c 53 3d 1e 2f 42 be 6b 16 d3 bc 44 fd 33 3d
       0.051525813 -0.18963286 -0.025767526 0.043942705
000130 fe 14 2c 3d 28 02 c1 bc 69 33 0a bd 70 76 89 3d
       0.042012207 -0.023560598 -0.033740435 0.06712043
000140 47 a8 35 bd 8d 2d 20 bd 9f ff d6 bc d0 2b 8c bc
       -0.044349935 -0.03910594 -0.026244937 -0.017110735
000150 c2 c5 c5 3c f3 39 4b bc b5 5f 0d bd 93 2c 98 3d
       0.02414215 -0.012403953 -0.0345151 0.07430377
000160 d4 c1 3e bd 15 15 1b bc 48 b3 38 3e c6 8f 66 bc
       -0.046571568 -0.009465476 0.1803714 -0.014072364
000170 22 dd 53 bc 66 20 8a bb 69 d8 8c bd a3 17 90 bc
       -0.01293114 -0.004215288 -0.068772145 -0.017589396
000180 f2 3b be 39 23 8b 5b bd 67 dc f4 bc 57 6b 0d bd
       0.00036284287 -0.053599488 -0.029890252 -0.034526195
000190 f7 1d bc bc 90 28 cc 3d 00 45 89 bd b1 79 2b bd
       -0.022963507 0.09968674 -0.06702614 -0.0418641
0001a0 36 d4 82 bd 2e 62 71 3d 0e f9 ec 38 83 37 19 bd
       -0.06388132 0.058931522 0.00011299747 -0.037406456
0001b0 e5 0c 18 3e e4 3f e6 bd af 4b 2a bc ec 93 a0 3a
       0.14848669 -0.11242655 -0.010394021 0.0012251115
0001c0 da bf fc bc bb 91 b1 bc ee 31 00 bd a2 cf d4 bd
       -0.0308532 -0.021675935 -0.031297617 -0.10391165
0001d0 a7 18 7a bd 7d d8 cb 3c e1 06 97 3d 69 ce b8 bc
       -0.061058667 0.024883503 0.07374359 -0.022559362
0001e0 49 c5 48 bd ba fc 96 bd 9a 24 40 3e 1f 89 3d bc
       -0.04901627 -0.073724225 0.18763962 -0.011568337
0001f0 10 95 0e 3e 91 7d 96 3d e4 70 c7 3d 8b 5e a9 3c
       0.1392405 0.07348169 0.09738329 0.020674964

xy_encoder.flat_module.linears.0.weight f4 [128, 128]
000000 13 ff bd bd 4d d5 3c 3d 5a d1 9d bd e1 e2 0a 3d
       -0.09277167 0.046101857 -0.07705946 0.033907775
000010 cb cc de bd 25 05 79 bd d2 11 22 bd a8 02 40 3b
       -0.10878905 -0.06079592 -0.039567776 0.0029298458
000020 ff 39 c1 bd 29 73 85 3d 20 d5 a5 3c a7 9c ae bc
       -0.0943489 0.06516106 0.020243227 -0.021314932
000030 df 33 b0 bd 0b 97 e7 bc 60 f3 1e 3d 2e c7 65 bd
       -0.086036436 -0.028270265 0.03880632 -0.056098156
000040 9d 72 fe 3c 0e d3 f3 bc ef 08 8d bd 4c 67 e4 bc
       0.031060511 -0.029763725 -0.068864696 -0.027881287
000050 f5 c5 9b 3d da da b4 bc 60 24 6f bb 3b b6 27 bd
       0.07606117 -0.022077013 -0.0036490187 -0.040945273
000060 35 db f1 bb 40 e8 0c 3d f4 9d 3d bd 98 0a a1 bd
       -0.007380868 0.03440118 -0.046293214 -0.07863349
000070 5b 62 1f bd 89 27 74 bd ea 92 0c 3d 90 06 81 bd
       -0.03891216 -0.059608016 0.034319796 -0.0630008
000080 0c 06 bc bd a0 3f 0a bc 71 3c a7 bc b3 1b 8d bd
       -0.09180841 -0.008438021 -0.020414563 -0.06890049
000090 c7 7b ca bc 5a b8 89 bd cd e7 8b 3d 3c 6e 54 3c
       -0.024717225 -0.067246154 0.06831322 0.012965735
0000a0 1c 98 70 3d 0f 70 11 3d ea 83 b4 bc 3e 5b a6 3d
       0.058738813 0.035507258 -0.022035558 0.08122872
0000b0 ac a8 ae bd 9e 96 ba bc 93 1d c5 bd 13 d5 86 bd
       -0.08528265 -0.022776898 -0.096247815 -0.065836094
0000c0 96 31 b9 bd 0d 59 64 bc b7 56 8e bd 83 90 92 bc
       -0.09042661 -0.013937247 -0.06950133 -0.017891174
0000d0 1f 89 60 39 3e 8f c3 3c fb 9d 51 3d 76 13 12 bd
       0.00021413386 0.023872014 0.051176053 -0.03566309
0000e0 d2 ee a3 bd cf 4f bd bd 3f 04 fe 3c 86 1e a3 3d
       -0.08004536 -0.09243738 0.031007884 0.07964806
0000f0 f0 91 92 bd ec b2 85 bd 7e 7a 4b 3d fb 34 a0 bc
       -0.071567416 -0.06528267 0.049677365 -0.019556513
000100 43 ad 3d 3c 20 43 47 bd f9 14 0e ba d0 32 99 bd
       0.011576953 -0.048648 -0.0005419995 -0.07480395
000110 ed ce 18 bd 6a 62 c6 bb 55 0b 8b 3d 03 16 81 3d
       -0.037306715 -0.0060542123 0.06789271 0.063030265
000120 aa 33 ff bc 1d c6 8f 3d 38 1b 32 3c 52 8d c7 bc
       -0.031152565 0.07020209 0.010870747 -0.024359379
000130 b7 1c 7f 3c 99 61 9b 3d c3 d4 73 bd 91 a4 dd 3c
       0.015570811 0.07586975 -0.059529077 0.02705601
000140 ec fc 1c 3d 4a b3 00 3b ae b5 1c bd 83 2f af bd
       0.038327143 0.0019638115 -0.0382592 -0.08553984
000150 13 bd 88 bd 1d 44 72 3d da d5 35 3d dd d4 31 3d
       -0.06676688 0.05914699 0.044393398 0.043415893
000160 54 60 24 3d 12 e1 32 bd c4 1c f2 bd 17 75 77 bd
       0.04013093 -0.043671675 -0.11821893 -0.0604144
000170 56 90 53 3d c9 e8 d1 3c 56 58 e4 bc c1 4e 8e bd
       0.05165132 0.025623696 -0.027874153 -0.06948615
000180 91 c8 44 bc ee 1a 1a bd d4 0e 56 bd 9d 2e 0e bd
       -0.012010709 -0.03762334 -0.052260235 -0.034712423
000190 da 52 05 bc 13 98 b8 3c f7 e1 7b bd 24 24 e2 3c
       -0.008137429 0.022533452 -0.061494794 0.027605124
0001a0 d2 2d cd bb cb 39 05 bd 0a ed 19 3d fb a3 49 3d
       -0.0062615657 -0.03252582 0.037579574 0.04922865
0001b0 50 db 8e bc 2e 06 20 bc a6 86 4b bd 5a 86 91 3d
       -0.01743856 -0.009767098 -0.049688958 0.07105704
0001c0 70 09 09 3d e0 54 78 bd 98 2c d1 3c 9a 97 16 3c
       0.033456266 -0.060627818 0.02553396 0.009191418
0001d0 cc f4 a2 3c 18 5f 9a 3d 8a b9 f3 3c d8 03 23 bd
       0.019892119 0.07537669 0.029751558 -0.039798588
0001e0 0e cb 54 3d 4c 26 ab bd 3a ac 99 bd ec 10 88 bd
       0.05195146 -0.08356914 -0.07503553 -0.066438526
0001f0 48 12 d2 bd 51 13 94 bb 1c 4e ec ba 33 1f 57 bd
       -0.10257393 -0.0045189043 -0.001802865 -0.05251999
000200 75 a3 d3 3b ed 4c 95 bd 59 06 fe 3c 9c e7 15 3c
       0.0064586946 -0.07290063 0.031008886 0.009149458
000210 87 60 97 3d 5b a8 05 be f9 8b 32 3c 4d 4c 99 be
       0.07391458 -0.13052504 0.01089763 -0.29941025
000220 e9 f0 13 be 54 ed 26 3d d2 67 bc bd a8 b9 02 be
       -0.14447369 0.040753677 -0.0919949 -0.12766135
000230 28 33 ed bd 1a 7c 9b bd b4 d9 91 3d c7 3b 01 bd
       -0.11582023 -0.0759203 0.07121602 -0.03155115
000240 de 57 ee bd b8 8b 81 bd 91 9f 1c 3d 8c 42 93 3d
       -0.11637853 -0.06325477 0.038238112 0.07190427
000250 5a c5 a2 bd 73 6d ad bd 2d f6 05 bd dc d6 a3 bd
       -0.07947798 -0.084681414 -0.032705475 -0.079999655
000260 c7 52 02 3e 79 bf da 3c 78 07 f9 bd 67 28 39 bd
       0.1272689 0.02670263 -0.12159628 -0.045204546
000270 5e 85 1a bd a2 60 49 bd ab 0d 90 bd 6b a1 02 bd
       -0.037724845 -0.04916442 -0.07033857 -0.03189222
000280 ce 3e 62 3d a6 83 22 3d e7 21 56 be 92 13 19 bd
       0.055235676 0.03967633 -0.2091137 -0.03737218
000290 56 cd d9 3b 62 20 2e bd e7 d5 b0 bd 33 c5 99 bd
       0.0066467924 -0.04251135 -0.08634549 -0.07508316
0002a0 8b f0 a6 3d 33 11 97 3c e6 ce a0 bd 2a ef 83 bd
       0.08151349 0.018440818 -0.07851963 -0.06442101
0002b0 6f 8f e3 bc 24 9e 42 bd 6f 6a 2f bd df 96 41 be
       -0.027778355 -0.047514096 -0.042826112 -0.18905209
0002c0 a0 3c 0d 3c ef 73 0f 3c 65 cf 13 bd aa 20 60 3d
       0.008620411 0.008755668 -0.03608646 0.05471865
0002d0 51 f5 51 3d 28 31 47 3d d0 24 81 bd fb 0b 5e 3b
       0.051259343 0.048630863 -0.063058496 0.0033881653
0002e0 5d 6f ae bd ab ea a0 3c 77 f9 13 3b 71 0e 29 3b
       -0.085173346 0.019643148 0.0022579113 0.0025795961
0002f0 c1 ce a0 3c 6c b9 44 3d 39 77 b6 3d 82 cf d0 3d
       0.019629838 0.048028395 0.08909459 0.10195829
000300 9f a7 8f 3d 73 f2 c4 3d a4 d0 fb bd bd 7b 3f 3d
       0.07014393 0.09616556 -0.122956544 0.046748865
000310 34 b1 71 3c 7a 4a 62 bd ed 7d 9d 3d 14 1c f8 bd
       0.014751721 -0.055246808 0.07690034 -0.121147305
000320 d1 54 b3 bc 40 98 ea 3c f5 cc aa 3d f5 f8 dc bd
       -0.02189103 0.028637052 0.08339874 -0.10789672
000330 5a 7c b2 3d 6a f1 88 3c 07 44 54 3c 3d c3 f5 bc
       0.087151244 0.016716678 0.012955672 -0.030000323
000340 48 a1 8d 3d 65 ac ba bd 43 ae b2 bd 07 92 38 bd
       0.069155276 -0.09114913 -0.08724644 -0.045061138
000350 5f d1 b4 3d 9b c3 4a bd d4 d2 55 bd 9a 03 ba 3d
       0.08828997 -0.04950295 -0.052203014 0.09082718
000360 8d bb b8 3c 63 c2 5e 3b 5a 10 b0 3d be 33 85 bd
       0.022550369 0.0033990375 0.08596869 -0.0650401
000370 70 15 43 3d 58 56 56 3d b0 5c da bd c5 77 00 3d
       0.047627866 0.052328438 -0.1066221 0.03136422
000380 ad b8 3a be 6a ee 64 3d 52 08 cb bd 8b 4e 58 3d
       -0.1823451 0.055891432 -0.09913696 0.05280928
000390 44 4f 01 be c1 ba 89 3c 0b 92 f9 3b c3 7d 20 3d
       -0.12627894 0.016812684 0.0076162866 0.039182436
0003a0 1b c8 6b bd 5e a9 87 bc 20 fd 6a 3d a8 52 bd bd
       -0.057563882 -0.016560253 0.057370305 -0.09244281
0003b0 73 ca da bd e4 74 dd bb ea f2 40 3d 6d 1a 21 3d
       -0.106831454 -0.006758319 0.04710666 0.039331842
0003c0 5e f8 99 3d e3 1b 83 bd 31 cf 32 bd ea 2d ba bd
       0.075180754 -0.06401803 -0.043654624 -0.09090789
0003d0 5d df b3 bc dc 3f 8c 3d e4 f6 c2 3d 55 ce 05 be
       -0.021957094 0.06848118 0.09519747 -0.1306699
0003e0 e8 bf 57 bd b1 3d 22 be e9 47 a1 3d 53 cf 52 3d
       -0.05267325 -0.15843846 0.07875044 0.05146725
0003f0 d5 99 8c bd 9a 4f 99 bd 07 6f cf bd 4c 21 0c 3d
       -0.06865279 -0.07485886 -0.10128599 0.034211442

xy_encoder.flat_module.linears.0.bias f4 [128]
000000 f9 89 37 bd 8f b8 8f 3d 6b a4 d0 3c dd 4c 54 3c
       -0.044809315 0.07017624 0.025469026 0.012957779
000010 95 54 37 3d c3 be 42 3d 39 33 42 3d fd 67 d4 3c
       0.044758398 0.047545206 0.04741213 0.025928492
000020 9d c9 85 bd 6b f1 e1 bc 0d a6 71 bc 3e 5d 93 bd
       -0.06532595 -0.027580937 -0.014749062 -0.07195519
000030 48 23 0c be 02 69 57 bd c6 57 ae 3d d2 bd b3 3d
       -0.13685334 -0.052590378 0.08512835 0.0877644
000040 29 08 cd 3d 40 2b 8a 3d f7 ee f0 bc fd 64 cb 3d
       0.10011322 0.067465305 -0.029410822 0.09931371
000050 a1 d8 2e be b5 2a 44 bd 37 09 89 bd 9f ad e0 bd
       -0.17074825 -0.04789229 -0.06691211 -0.109706156
000060 be 0d fb 3c 67 ed 38 bd e6 5b ed 3d 11 2b 0d bd
       0.030646201 -0.04514828 0.11589794 -0.0344649
000070 23 3d cb bd ab ab 8a bd 71 62 0f bd 97 9b 85 bd
       -0.0992377 -0.06771024 -0.03500599 -0.06523817
000080 e8 9a e9 3c a1 5b 11 bc 3b cb ae bd 36 36 47 bd
       0.028516248 -0.008871944 -0.08534857 -0.048635684
000090 8d d5 2c bd ba e5 4b bd 94 21 63 3d a3 67 ec 3d
       -0.042195845 -0.04977963 0.055451944 0.11543205
0000a0 a9 cb b5 bc 55 b6 7e bd 67 6b 03 be d8 26 d6 3d
       -0.02219184 -0.062185604 -0.1283394 0.104566276
0000b0 b7 00 c5 3d ae 82 3a 3d 5d ee 11 be 99 5f 0e 3d
       0.09619277 0.045534782 -0.14251085 0.034759138
0000c0 84 c4 e4 3d 49 57 96 bd 04 63 67 bd 32 6f ca 3d
       0.11170295 -0.07340867 -0.056490913 0.0988449
0000d0 d7 ee 35 be dc 2c 11 3d 47 46 53 3d 17 64 0b bd
       -0.17766891 0.03544317 0.051580694 -0.034031
0000e0 f0 19 8e bd 03 2f 3c 3d c7 db 81 bd 0b 11 09 bd
       -0.06938541 0.04594327 -0.06340747 -0.03346352
0000f0 51 c6 ca bd b5 6c 7f bd 71 7e 08 bd a4 a0 e7 bc
       -0.09901107 -0.06235953 -0.03332371 -0.028274842
000100 82 a0 ed bd 0f 8d 93 bd 57 50 cf bc 6c 34 92 bd
       -0.1160288 -0.07204639 -0.025306864 -0.07138905
000110 b2 24 22 3d bf 2a 63 bd 63 81 4a bd 00 fd 97 3d
       0.039585777 -0.055460688 -0.0494398 0.07421303
000120 71 f3 45 bd 7a 4a 23 bd 4f 94 50 bd 8f f2 43 be
       -0.048327867 -0.03986595 -0.050922688 -0.19135498
000130 b4 ae e2 3d 71 d0 24 be d3 ab 8d 3d f8 20 3f bd
       0.11068478 -0.16095139 0.069175385 -0.0466623
000140 91 f8 7d bd c4 d9 3b bd 87 ee a6 38 d8 19 7e 3d
       -0.06200463 -0.045861974 7.959926e-05 0.062036365
000150 35 7f b9 3d 0f f7 0f bd 4b bd 46 bc 09 cb 16 3e
       0.09057466 -0.035147723 -0.012130092 0.1472589
000160 a5 3b 68 bd 5f 36 c5 3d 61 95 94 bc 7f ca 17 3d
       -0.056697506 0.09629511 -0.018137636 0.03705835
000170 ed 5d 36 3d de ba 88 bd 40 b7 fc bc a4 b0 ad bd
       0.04452317 -0.06676267 -0.0308491 -0.08480957
000180 67 45 a1 bd 08 88 6c 3d 28 7a 5b bd f6 79 9e 3b
       -0.078745656 0.057746917 -0.053583294 0.004836316
000190 f8 df ab 3b 3f 60 e8 bc 27 8a d0 bd 3e e0 6f 3d
       0.005245205 -0.028366206 -0.101826005 0.058563463
0001a0 62 6d aa 3d 3f 94 36 bd 34 db 9b bc 9e 0b 01 bd
       0.08321644 -0.044574972 -0.019025423 -0.03150522
0001b0 a6 02 f8 bc 06 f6 4a be dd a5 4f bd 04 6c 85 bd
       -0.0302747 -0.19820413 -0.05069529 -0.06514743
0001c0 57 f5 09 bd 09 13 99 3d f3 e9 18 3c 87 45 e8 bc
       -0.03368124 0.07474334 0.009333122 -0.028353466
0001d0 3b ff 4f bd 0a 69 10 be 82 50 3a bc 6d 10 ff bc
       -0.050780516 -0.14102569 -0.011371734 -0.031135762
0001e0 b6 ac 2e 3d 45 cc 68 3d 26 b9 79 bd 6f 8b 0f bd
       0.04264518 0.05683543 -0.060967587 -0.035045084
0001f0 0a f2 1e 3d 0c 9c e9 bc 28 ed f7 bc 42 47 70 3d
       0.038805045 -0.028516792 -0.030264452 0.058661707
