results/notebooks/neural_process/np_periodic/params.pt (torch_old, 598425 bytes, 32 tensors)

x_encoder.to_hidden.weight f4 [32, 1]
-1.7549281 1.3305582 -0.61669725 -0.7849999 -1.0770937 0.3782425 0.95792276 -0.5869421
1.9540695 -0.011898532 -2.1856167 0.4917214 -0.59519964 -0.92502034 -0.8487481 0.9579468
1.8922045 0.045743987 1.9984854 -1.3138715 1.5949926 -1.9377552 0.58540285 -1.8254843
0.67826784 -1.7185624 1.6403905 1.6034064 0.7988412 -1.9024092 -0.7838225 2.0134013
00000000: 7ca1 e0bf bb4f aa3f dfdf 1dbf c1f5 48bf
00000010: 35de 89bf 00a9 c13e 6d3a 753f d641 16bf
00000020: f31e fa3f 0ff2 42bc 25e1 0bc0 e8c2 fb3e
00000030: 015f 18bf 22ce 6cbf 8e47 59bf 003c 753f
00000040: c233 f23f 0c5e 3b3d 5fce ff3f f12c a8bf
00000050: b828 cc3f 5d08 f8bf f6dc 153f 78a9 e9bf
00000060: f6a2 2d3f daf9 dbbf 51f8 d13f 6c3c cd3f
00000070: db80 4c3f 2582 f3bf 97a8 48bf 91db 0040

x_encoder.to_hidden.bias f4 [32]
-0.21870369 0.1757439 -0.42172337 0.24783076 -0.6653105 0.040286846 -0.3857043 -0.43405905
-0.79255104 0.66903216 -0.9320076 0.08417572 -0.4062037 -0.1332225 -0.100819945 -0.36326227
-0.4702558 0.39866284 -0.4971217 -0.18646577 -0.23514356 -0.54796743 -0.40235212 -0.51626253
-0.09356232 -1.0260258 0.17803057 -0.76340586 -0.024874093 -0.64334655 -0.2647762 -0.49271306
00000000: dcf3 5fbe 35f6 333e 20ec d7be 59c7 7d3e
00000010: ca51 2abf d203 253d 097b c5be fd3c debe
00000020: a0e4 4abf b145 2b3f 0d98 6ebf 5264 ac3d
00000030: eef9 cfbe 7b6b 08be b07a cebd 83fd b9be
00000040: 5ec5 f0be 891d cc3e bc86 febe e2f0 3ebe
00000050: 79c9 70be 9847 0cbf 1901 cebe c829 04bf
00000060: 9a9d bfbd d054 83bf a54d 363e 916e 43bf
00000070: c1c4 cbbc 5cb2 24bf bf90 87be e344 fcbe

x_encoder.out.weight f4 [128, 32]
0.083638266 -0.06191 -1.4387722 -0.33882964 -1.4105611 0.37238473 -1.5744723 3.1516006
-0.16315337 0.23692842 -0.32236817 0.08461888 -0.80123866 0.2957496 0.14937 -0.9022275
0.15609115 0.13699402 0.42209613 -0.11508 0.39698493 0.29536262 1.7841532 0.41970074
0.21948105 -0.6204666 0.14430876 0.2638406 -0.39566514 0.37354782 -0.1360929 0.38152045
-0.19384535 0.12091875 -0.1567939 -0.044140983 0.14324908 0.047630552 -0.0021162569 -0.14961477
0.38453394 0.2055605 0.22510123 -0.16574042 -0.2944117 -0.2675596 0.2764461 0.33807254
-0.31268996 -0.0889376 -0.059509315 -0.20154436 -0.3118022 -0.07384338 0.11234081 0.25302082
-0.47559738 0.18855816 -0.40484828 -0.22934613 -0.08740328 0.015523673 -0.25305086 0.1945547
-0.42305976 -0.22734351 0.16808805 -0.09362583 0.2276489 0.091671206 -0.15962933 0.2460654
0.104796425 -0.30861917 0.18018562 -0.2808439 -0.2827579 0.3722612 -0.06948149 -0.2766935
-0.27275512 0.26480052 -0.16731264 -0.13217159 0.08830117 -0.3735448 -0.029775182 -0.263305
0.20465055 0.24076656 0.07329428 0.15938605 -0.40532252 0.20742172 0.27844462 0.04247289
-0.21084836 0.20732713 0.076597005 0.30444926 -0.38463822 -0.39000496 0.07952694 -0.05071628
0.25429964 0.09279135 0.35010764 0.19251679 -0.1346221 -0.17605662 -0.1274584 0.089535825
-0.32994726 0.20634109 -0.18193807 -0.33478308 -0.28710616 0.025238348 -0.020293653 -0.34752026
-0.35960522 0.16677497 0.11377144 -0.24091187 0.016537774 -0.03745144 -0.45552927 -0.1656886
0.31889117 0.17141888 -0.44801426 -0.8939697 -0.25218084 -0.07934505 0.15719962 -0.3144796
0.36439326 -0.408674 0.31716278 -0.4325462 0.18189321 -0.36490396 0.2815127 0.035104755
0.29016337 0.21575265 0.39624995 0.26923323 -0.10910697 0.32225603 0.19875862 -0.41874993
-0.29372984 -0.35349292 0.3447365 0.102573805 0.11428511 -0.03580143 0.30390438 -0.06323373
0.02911027 -0.107696414 -0.21860342 0.122762635 -0.25659427 0.3312453 -0.08094656 0.26432902
-0.24805841 0.17882428 -0.30742365 -0.4376895 0.1706504 -0.4942514 -0.012090814 0.3189749
-0.107090116 0.26835868 -0.14667316 -0.10011536 0.37231565 -0.37181348 -0.16721132 0.2699357
-0.22349636 -0.29718307 -0.4109307 -0.10717786 0.2583089 0.31836128 0.013505842 0.21445014
-0.23025435 -0.17282894 3.1932056 0.66621566 2.2991781 -0.039289325 2.1837218 -2.8308408
1.1266824 0.5644039 0.20727403 -0.39771083 1.8065943 -0.4204918 -0.32749173 1.8980349
-0.28528252 -0.009608693 -0.62060136 -0.58418936 -0.007664469 -0.17434788 -2.1801693 0.0235474
0.071915396 1.1961608 -0.09396723 0.05139952 0.278173 -0.3036846 -0.26055095 -0.2542464
0.09739347 -0.021327147 -0.077293746 -0.34666398 0.15346387 -0.4678232 -0.4870566 1.4836476
-0.14632748 -0.59604746 0.46625817 -0.59309745 0.6779676 0.019412685 0.1391652 -0.0064520007
-0.28931552 0.17803074 0.25707564 0.20426784 -0.32616672 0.61928374 -0.3765505 0.2844457
0.024768926 0.42424715 0.08594595 0.23962927 -0.07945489 0.44255358 0.036307044 -0.483877
00000000: 8a4a ab3d 5795 7dbd b029 b8bf 147b adbe
00000010: 448d b4bf 36a9 be3e 4f88 c9bf d3b3 4940
00000020: ad11 27be 5d9d 723e 710d a5be aa4c ad3d
00000030: fa1d 4dbf 7e6c 973e 73f4 183e 62f8 66bf
00000040: 5cd6 1f3e 2948 0c3e fc1c d83e 10af ebbd
00000050: 9c41 cb3e c539 973e 225f e43f 04e3 d63e
00000060: a4bf 603e e6d6 1ebf adc5 133e 1d16 873e
00000070: 9f94 cabe a941 bf3e f05b 0bbe a656 c33e
00000080: 657f 46be 40a4 f73d 958e 20be 2dcd 34bd
00000090: e3af 123e 4118 433d e6b0 0abb 9d34 19be
000000a0: a2e1 c43e 747e 523e f080 663e dbb7 29be
000000b0: 21bd 96be 92fd 88be 588a 8d3e d817 ad3e
000000c0: e618 a0be eb24 b6bd 0ac0 73bd a561 4ebe
000000d0: 8aa4 9fbe 333b 97bd f012 e63d f28b 813e
000000e0: 8081 f3be 6415 413e 4648 cfbe b6d9 6abe
000000f0: 7e00 b3bd 0157 7e3c e28f 81be 5939 473e
00000100: 4a9b d8be bdcc 68be 461f 2c3e e6be bfbd
00000110: cb1c 693e 1dbe bb3d df75 23be 91f8 7b3e
00000120: 829f d63d 5503 9ebe 9482 383e c6ca 8fbe
00000130: a5c5 90be 0599 be3e 504c 8ebd c5aa 8dbe
00000140: 8fa6 8bbe ef93 873e 0154 2bbe fd57 07be
00000150: 3ed7 b43d 4441 bfbe 15eb f3bc eacf 86be
00000160: ea8f 513e 828b 763e 501b 963d 1936 233e
00000170: 6f86 cfbe 5c66 543e 4b90 8e3e 0ef8 2d3d
00000180: a2e8 57be 904d 543e e4de 9c3d c6e0 9b3e
00000190: 4def c4be bbae c7be 05df a23d e0bb 4fbd
000001a0: 9033 823e 6409 be3d 4f41 b33e 1f23 453e
000001b0: 60da 09be 3048 34be 7484 02be 8f5e b73d
000001c0: d9ee a8be 144b 533e f94d 3abe b068 abbe
000001d0: 94ff 92be a7c0 ce3c e03e a6bc 2dee b1be
000001e0: 2d1e b8be 0fc7 2a3e 0001 e93d 9ab1 76be
000001f0: 3a7a 873c ae66 19bd 223b e9be 46aa 29be
00000200: b445 a33e 6e88 2f3e 2062 e5be 33db 64bf
00000210: d91d 81be a87f a2bd f0f8 203e 7803 a1be
00000220: c191 ba3e b83d d1be 2963 a23e b276 ddbe
00000230: 3742 3a3e b1d4 babe 6f22 903e 01ca 0f3d
00000240: 4b90 943e 43ee 5c3e 46e1 ca3e f0d8 893e
00000250: 7a73 dfbd befe a43e 6187 4b3e 6466 d6be
00000260: c263 96be 06fd b4be 4d81 b03e 3712 d23d
00000270: 500e ea3d 85a4 12bd 5b99 9b3e b080 81bd
00000280: a978 ee3c f08f dcbd 93d9 5fbe fa6a fb3d
00000290: 5360 83be fc98 a93e 4fc7 a5bd 2256 873e
000002a0: 0603 7ebe b61d 373e a266 9dbe d718 e0be
000002b0: fabe 2e3e 850e fdbe 8d18 46bc ae50 a33e
000002c0: 1052 dbbd 4f66 893e 7d31 16be 4809 cdbd
000002d0: 28a0 be3e 565e bebe 7239 2bbe 0335 8a3e
000002e0: 3bdc 64be 6128 98be 8265 d2be 1180 dbbd
000002f0: 1041 843e 4000 a33e 9b47 5d3c d198 5b3e
00000300: ccc7 6bbe 12fa 30be 7b5d 4c40 1c8d 2a3f
00000310: bc25 1340 d8ed 20bd 19c2 0b40 7f2c 35c0
00000320: 2137 903f c67c 103f a53f 543e c1a0 cbbe
00000330: 7b3e e73f b44a d7be ffac a7be cff2 f23f
00000340: 8d10 92be c86d 1dbc bbdf 1ebf 6f8d 15bf
00000350: 3a26 fbbb 4088 32be e587 0bc0 7ae6 c03c
00000360: 6148 933d cc1b 993f e471 c0bd 4e88 523d
00000370: b16c 8e3e 8c7c 9bbe ef66 85be 962c 82be
00000380: 3a76 c73d 45b6 aebc 2f4c 9ebd f17d b1be
00000390: a225 1d3e 8686 efbe 7c5f f9be 2ae8 bd3f
000003a0: dfd6 15be 9196 18bf 64b9 ee3e 3cd5 17bf
000003b0: 498f 2d3f 5a07 9f3c 5281 0e3e 4e6b d3bb
000003c0: 2a21 94be b14d 363e 6b9f 833e 972b 513e
000003d0: 53ff a6be 6189 1e3f 3acb c0be dea2 913e
000003e0: 34e8 ca3c ec36 d93e 6e04 b03d 6061 753e
000003f0: 3fb9 a2bd 6296 e23e b2b6 143d babe f7be

x_encoder.out.bias f4 [128]
-0.10191731 -0.15520398 -0.03205101 -0.14735782 -0.17842881 -0.190118 0.1811052 -0.58227855
-0.17785542 -0.19605489 -0.45400506 0.33927187 -0.2841331 -0.10720392 -0.11229846 -0.46704358
-0.095396355 -0.115687385 -0.10828986 -0.119895436 -0.38660416 -0.19212586 -0.22924963 -0.3966664
-0.14874944 -0.25370166 0.08448021 0.20263827 0.09378214 -0.17260592 -0.3564059 -0.1088333
-0.2668695 0.507941 -0.2891177 -0.5003135 -0.12632936 -0.80248636 -0.16549276 0.516883
-0.10223534 -0.059148274 -0.11019156 0.21405534 0.0138154095 -0.13781527 -0.23279633 -0.46900356
-0.2901433 -0.059407044 -0.38250938 0.22612323 -0.24140342 0.6680235 -0.13756813 -0.5490793
-0.16363274 -0.6302199 -0.33375525 -0.009790374 -0.060375206 -0.47743106 -0.027744034 -0.20586571
-0.37986407 -0.14361371 -0.18638667 -0.18485841 -0.12889598 0.08443245 -0.05673708 -0.14151359
-0.07058315 -0.35388118 -0.12717879 -0.07780679 -0.07767336 -0.5436904 -0.16555376 -0.44071364
-0.15747897 -0.23363982 0.013099231 -0.13425913 -0.11469014 -0.08282495 -0.08909927 -0.15396294
-0.16868147 0.20925608 -0.10737828 0.35699224 -0.5174873 -0.5344824 -0.5629493 -0.08002464
-0.5454865 -0.13981245 -0.25339994 -0.23829965 -0.17220278 -0.24730669 0.08495762 -0.099548995
-0.08412073 -0.05316045 -0.13477683 -0.15570717 -0.06675586 -0.07099959 -0.19774055 -0.18298171
-1.1101325 -0.047517218 -0.11708732 -0.15421039 -0.09866161 0.24436939 -0.07613994 -0.14119866
-0.09842038 -0.4175152 -0.12891462 -0.16921745 -0.5528236 -0.05703911 -0.045686048 0.30701947
00000000: 06ba d0bd cbed 1ebe eb47 03bd f8e4 16be
00000010: 0bb6 36be 4bae 42be a473 393e 3510 15bf
00000020: bb1f 36be 9dc2 48be 5a73 e8be 0bb5 ad3e
00000030: e579 91be bb8d dbbd bcfc e5bd 5620 efbe
00000040: 2a5f c3bd 82ed ecbd 13c7 ddbd bd8b f5bd
00000050: fbf0 c5be a4bc 44be 6ac0 6abe dc17 cbbe
00000060: c651 18be 2fe5 81be f603 ad3d 6880 4f3e
00000070: da10 c03d 9bbf 30be d67a b6be fee3 debd
00000080: 1ea3 88be 6c08 023f 3c07 94be 8c14 00bf
00000090: 7c5c 01be bf6f 4dbf ef76 29be 7252 043f
000000a0: c360 d1bd 7645 72bd 1dac e1bd 5331 5b3e
000000b0: 075a 623c 721f 0dbe 2962 6ebe 3c21 f0be
000000c0: aa8d 94be cd54 73bd 45d8 c3be d98c 673e
000000d0: 7532 77be 9703 2b3f a9de 0cbe 7690 0cbf
000000e0: 578f 27be 1756 21bf f8e1 aabe ce67 20bc
000000f0: fe4b 77bd d871 f4be 7547 e3bc 76ce 52be
00000100: 8b7d c2be 790f 13be 26dc 3ebe 864b 3dbe
00000110: 4ffd 03be ecea ac3d 2465 68bd f0e8 10be
00000120: e68d 90bd ea2f b5be 283b 02be 2b59 9fbd
00000130: 3613 9fbd 4b2f 0bbf ed86 29be 38a5 e1be
00000140: 2b42 21be 473f 6fbe 289e 563c 3a7b 09be
00000150: aae2 eabd 21a0 a9bd ae79 b6bd 76a8 1dbe
00000160: d6ba 2cbe 3a47 563e 25e9 dbbd b0c7 b63e
00000170: 0c7a 04bf d7d3 08bf 721d 10bf f5e3 a3bd
00000180: 01a5 0bbf ff2a 0fbe a3bd 81be d304 74be
00000190: ed55 30be f73d 7dbe 43fe ad3d 58e0 cbbd
000001a0: 7d47 acbd c6be 59bd f002 0abe b371 1fbe
000001b0: 4cb7 88bd 3c68 91bd 807c 4abe 8f5f 3bbe
000001c0: d218 8ebf 6aa1 42bd 7acb efbd 54e9 1dbe
000001d0: 190f cabd f83b 7a3e 42ef 9bbd 6296 10be
000001e0: a090 c9bd 8dc4 d5be 3202 04be 5747 2dbe
000001f0: d985 0dbf d8a1 69bd 4b21 3bbd a831 9d3e

xy_encoder.resizer.to_hidden.weight f4 [32, 1]
-0.084006295 2.001355 0.0029874828 -1.2427915 -0.3132879 1.3432899 -0.4641575 -0.25954574
1.1975403 -0.5083777 -0.75346714 -1.6215845 1.4488835 -0.59762377 -1.9470617 0.29984838
1.5729631 -0.79653066 1.8892312 -0.07336301 -0.93041664 -0.44416222 -0.09168059 0.7189143
0.32305 0.014478699 -0.3868395 -0.23998418 1.3438972 1.7493997 -1.9846622 -0.20939153
00000000: 7e0b acbd 3316 0040 a5c9 433b cb13 9fbf
00000010: 4667 a0be ecf0 ab3f 0da6 edbe 2ee3 84be
00000020: 0049 993f 0a25 02bf 39e3 40bf 1590 cfbf
00000030: 0475 b93f dffd 18bf 5139 f9bf ba85 993e
00000040: db56 c93f 6fe9 4bbf 54d2 f13f 593f 96bd
00000050: c92f 6ebf 3b69 e3be 08c3 bbbd c40a 383f
00000060: cf66 a53e 1138 6d3c d40f c6be 6abe 75be
00000070: d304 ac3f 54ec df3f 6909 febf bc6a 56be

xy_encoder.resizer.to_hidden.bias f4 [32]
-0.44393882 -0.31955191 0.6579467 -0.13471988 -0.36808905 0.07170502 -0.49485886 -0.43831563
-0.45925686 -0.3799179 0.0018116363 -0.29502067 -0.5487307 -0.35749638 -0.22463311 -0.5257663
-0.03135612 -0.46315467 0.24913958 -0.36777353 -0.5431222 -0.26035747 -0.4865839 -0.46203184
0.3347722 -0.08735921 0.22768608 -0.134313 -0.4474669 0.36408997 -0.6446372 -0.3238603
00000000: f34b e3be 4f9c a3be 326f 283f 02f4 09be
00000010: 2b76 bcbe 15da 923d 245e fdbe e86a e0be
00000020: b723 ebbe 9984 c2be 6d74 ed3a f30c 97be
00000030: 9d79 0cbf c409 b7be 3906 66be 9f98 06bf
00000040: 466f 00bd 9c22 edbe 721e 7f3e d04c bcbe
00000050: 0e0a 0bbf 934d 85be 8621 f9be 708f ecbe
00000060: 4367 ab3e 63e9 b2bd 8a26 693e 5989 09be
00000070: 621a e5be 006a ba3e f206 25bf 04d1 a5be

xy_encoder.resizer.out.weight f4 [128, 32]
0.07130196 -0.6706414 -0.14905886 -0.07935683 0.4057883 -0.2070238 -0.37318787 -0.3363558
0.31450406 0.10352628 -0.20819809 -0.45068094 -0.11352342 -0.73831815 -0.13875712 -0.05797977
-0.2434835 -0.3475899 0.33729565 -0.21426772 -0.6715515 0.04982081 -0.48104948 0.08252208
-0.18508151 -0.19791648 -0.023594795 -0.73855 -0.28900266 -0.1830491 0.030785488 0.25210035
-0.06939898 0.25827363 -0.26981577 0.0671611 -0.41257495 -0.27128062 0.08066794 -0.3895671
-0.5217985 0.23281085 -0.45794255 -0.045658715 -0.4836683 0.17588255 -0.29802543 0.19236319
-0.03341827 0.07117453 0.10019904 0.2702658 -0.32585442 -0.39419663 -0.40516844 -0.33628142
0.078079805 -0.2675124 0.08320651 0.21926485 -0.13005807 -0.12969604 0.27802795 0.08451662
0.11113849 -0.33833566 -0.3456594 0.39788666 -0.27402654 0.40184754 0.30020356 -0.37395924
-0.18806255 0.3376792 0.3679499 -0.2758121 -0.24340998 -0.2699191 -0.30590475 0.2950021
-0.033175845 -0.2571526 0.32260686 -0.0918768 -0.07404478 0.27485842 -0.2566239 -0.19279912
-0.1955847 0.19786537 -0.1818399 0.28049955 -0.24835043 -0.057100307 -0.37718466 -0.019027635
-0.35526356 -0.14988662 -0.36104426 0.24206688 -0.48828432 0.20819856 -0.4170214 -0.4653917
-0.013893426 -0.13255548 -0.49030063 -0.39776558 -0.46633613 -0.31355408 0.3299264 -0.22573265
0.00010234544 0.2096473 -0.17326523 -0.17615063 0.1365391 -0.48792544 -0.058751836 -0.3765427
-0.36227968 0.23341043 0.26424804 -0.09563935 -0.20728248 0.00087315816 -0.13376068 -0.2537222
0.24210176 -0.18419105 -0.0045148274 -0.83090895 0.25245097 -0.38802066 0.1604944 0.40907478
-0.4110861 -0.5167535 -0.4238243 -1.0272903 -0.4075008 -0.3816828 -1.0713772 -0.52158564
0.1333745 -0.41506568 0.17010991 -0.054559756 -0.61750543 -0.11318933 0.3354854 -0.22750287
0.40087265 0.17640589 -0.4658045 -0.13542351 -0.1812853 0.28810635 -0.43265164 -0.09334846
-0.21260539 0.14091098 0.06587477 -0.07612954 -0.14923106 0.10477331 0.25948215 -0.3190996
-0.3655748 0.33416346 -0.13525908 -0.010394067 -0.16907144 -0.34741986 -0.506179 0.08888915
0.38837823 -0.32759073 -0.40030366 -0.37942535 0.17904173 0.14446096 -0.20868854 0.32131082
-0.083835065 0.13777219 -0.19662564 -0.50509024 -0.26455364 -0.26585552 -0.2516292 -0.2666909
-0.35309097 -0.75497425 -0.12853648 -0.66729015 0.25671783 -0.55392814 -0.18126619 -0.3119716
-0.48711187 -0.62457365 -0.52317184 -0.81052625 -0.793865 0.25203362 -0.328365 -0.3084442
-0.8316969 -0.5290411 0.095562845 -0.32642996 0.10440034 -0.41208598 -0.08126489 -0.30672517
0.2624556 0.38008556 -0.05300696 -0.26924786 -0.3440269 -0.4235434 -0.4356027 -0.08040432
-0.04226692 -0.2135799 -0.78597677 -0.07325548 -0.08507289 0.2508983 0.21813658 -0.6856474
-0.06386353 0.02509804 -0.29185662 -0.10186589 -0.20676975 0.07984664 0.21530357 -0.039894756
-0.12355127 0.005107606 0.3592644 -0.11027128 0.38595134 -0.3149135 0.19422315 0.46523908
-0.016930608 -0.40296954 0.081372425 -0.391522 0.37294748 -0.27673945 0.19539535 -0.4947596
00000000: c306 923d 28af 2bbf e3a2 18be d585 a2bd
00000010: 7cc3 cf3e 0cfe 53be 7b12 bfbe d436 acbe
00000020: ad06 a13e 9605 d43d e131 55be a7bf e6be
00000030: f87e e8bd 6b02 3dbf 5916 0ebe 327c 6dbd
00000040: bd53 79be 4ef7 b1be 04b2 ac3e ff68 5bbe
00000050: cdea 2bbf e810 4c3d 1e4c f6be 5601 a93d
00000060: 0286 3dbe 9eaa 4abe df49 c1bc 9d11 3dbf
00000070: 28f8 93be 3971 3bbe d931 fc3c 4c13 813e
00000080: 0d21 8ebd 713c 843e 4b25 8abe c28b 893d
00000090: 063d d3be 4be5 8abe 3c35 a53d 5775 c7be
000000a0: 9694 05bf f865 6e3e 7277 eabe a204 3bbd
000000b0: 5fa3 f7be 8e1a 343e ca96 98be dbfa 443e
000000c0: 99e1 08bd f4c3 913d 2735 cd3d 4760 8a3e
000000d0: 64d6 a6be 24d4 c9be 3d72 cfbe 142d acbe
000000e0: 4ee8 9f3d 63f7 88be 2d68 aa3d f786 603e
000000f0: f12d 05be 0acf 04be ae59 8e3e 0d17 ad3d
00000100: 949c e33d 553a adbe 45fa b0be cdb7 cb3e
00000110: 354d 8cbe f6be cd3e 48b4 993e 9677 bfbe
00000120: 7893 40be 4ae4 ac3e ee63 bc3e 3e37 8dbe
00000130: 7740 79be d632 8abe 8c9f 9cbe 840a 973e
00000140: 65e3 07bd 81a9 83be ba2c a53e e729 bcbd
00000150: caa4 97bd 3eba 8c3e 3564 83be 226d 45be
00000160: 5b47 48be 389d 4a3e 3d34 3abe a39d 8f3e
00000170: 934f 7ebe 03e2 69bd 591e c1be d8df 9bbc
00000180: 1be5 b5be e17b 19be cbda b8be 61e0 773e
00000190: 6700 fabe 0132 553e d483 d5be d247 eebe
000001a0: 41a1 63bc a0bc 07be af08 fbbe eea7 cbbe
000001b0: 9cc3 eebe 298a a0be 1dec a83e 7626 67be
000001c0: 4aa2 d638 c8ad 563e 716c 31be d560 34be
000001d0: e8d0 0b3e 5dd1 f9be c4a5 70bd 34ca c0be
000001e0: b97c b9be 2503 6f3e 854b 873e 90de c3bd
000001f0: dc41 54be a7e4 643a 8ff8 08be e0e7 81be
00000200: 86e9 773e 949c 3cbe 1ef1 93bb 73b6 54bf
00000210: 4141 813e a5aa c6be a558 243e 4072 d13e
00000220: e179 d2be f549 04bf 80ff d8be 407e 83bf
00000230: f2a3 d0be ee6b c3be e322 89bf a386 05bf
00000240: 5393 083e 7d83 d4be 4b31 2e3e 0d7a 5fbd
00000250: d614 1ebf cfcf e7bd bec4 ab3e 83f6 68be
00000260: 2e3f cd3e bfa3 343e ed7d eebe 76ac 0abe
00000270: dba2 39be ad82 933e 8484 ddbe 7a2d bfbd
00000280: 3ab5 59be f84a 103e 5ae9 863d cee9 9bbd
00000290: 07d0 18be 6493 d63d d8da 843e 0661 a3be
000002a0: 9f2c bbbe 7917 ab3e 5b81 0abe e04b 2abc
000002b0: 1021 2dbe 04e1 b1be f294 01bf 840b b63d
000002c0: 83d9 c63e f9b9 a7be 9af4 ccbe 0a44 c2be
000002d0: b756 373e 93ed 133e 73b2 55be da82 a43e
000002e0: b8b1 abbd 2714 0d3e 3b58 49be 984d 01bf
000002f0: 9373 87be 371e 88be 8bd5 80be b68b 88be
00000300: 57c8 b4be fe45 41bf 119f 03be 87d3 2abf
00000310: 8570 833e 3cce 0dbf d89d 39be beba 9fbe
00000320: ba66 f9be 0fe4 1fbf 97ee 05bf a67e 4fbf
00000330: bd3a 4bbf 8d0a 813e 751f a8be 66ec 9dbe
00000340: 17ea 54bf 3d6f 07bf 74b6 c33d d421 a7be
00000350: d8cf d53d effc d2be 356e a6bd 150b 9dbe
00000360: 9560 863e 939a c23e d31d 59bd dbda 89be
00000370: 4b24 b0be aeda d8be 5107 dfbe 05ab a4bd
00000380: 1420 2dbd b0b4 5abe c635 49bf f806 96bd
00000390: b23a aebd be75 803e 325f 5f3e 9786 2fbf
000003a0: e2ca 82bd 689a cd3c 3b6e 95be 109f d0bd
000003b0: 73bb 53be a386 a33d 8a78 5c3e af68 23bd
000003c0: 7308 fdbd b45d a73b 81f1 b73e e9d5 e1bd
000003d0: 6a9b c53e 583c a1be 6fe2 463e d133 ee3e
000003e0: 0fb2 8abc 0652 cebe 96a6 a63d 9275 c8be
000003f0: f9f2 be3e cbb0 8dbe b815 483e 2151 fdbe

xy_encoder.resizer.out.bias f4 [128]
-0.065683454 -0.076015465 0.018564517 -0.13895987 -0.16759586 -0.121711664 -0.1274937 -0.5825648
-0.12039785 -0.16030738 -0.41276962 0.419837 -0.2847855 -0.028430603 -0.080343306 -0.46465927
-0.091552794 -0.06253723 -0.09326079 -0.09779123 -0.33189085 0.02440129 -0.0041039325 -0.33705866
-0.13750894 -0.2419134 0.13154066 0.24754731 0.09845247 -0.1239989 -0.35573238 -0.070353195
-0.17237721 0.38636497 -0.095355056 -0.37691432 0.0 -0.4965499 -0.1799202 0.5595801
-0.08957073 0.0 -0.07359834 0.23404002 -0.36918634 -0.08693158 -0.18765864 -0.5172702
-0.27913848 -0.048796315 -0.05962617 0.2567411 -5.9058315e-05 0.7431379 -0.11089315 -0.5427015
-0.05495753 -0.60954404 -0.33043563 -0.056994796 -0.038157377 -0.5317371 -0.16138458 -0.18777438
-0.4811485 -0.12751836 -0.15669608 -0.25338894 0.0014157519 -0.19638681 -0.049693894 -0.10673204
0.031225348 -0.34811974 -0.19389032 0.009531931 -0.19397062 0.055998236 -0.051890835 -0.2790863
-0.12395079 -0.22208767 0.074659355 -0.12646493 -0.061144844 -0.07496672 -0.073072806 -0.07773213
-0.14284308 0.28223208 -0.03636874 0.34270257 -0.54872996 -0.5298687 -0.5309075 -0.10497587
-0.54218525 -0.1424614 -0.21696858 -0.23170896 -0.082958885 0.010941468 0.12170631 -0.08820715
0.0 -0.04416038 -0.083580986 -0.062389188 -0.0008806354 -0.0257321 -0.15697484 -0.09295775
-0.690432 0.039206855 -0.020460295 -0.067770585 0.04886409 0.21127316 -0.054125246 -0.046995584
-0.030988606 -0.41565502 -0.11238277 -0.16251628 -0.4889907 0.019055558 0.0 0.35007244
00000000: 0c85 86bd ffad 9bbd 9d14 983c 7f4b 0ebe
00000010: 409e 2bbe f743 f9bd b58d 02be f722 15bf
00000020: 2693 f6bd 9e27 24be 8a56 d3be e0f4 d63e
00000030: 68cf 91be 4ce7 e8bc 088b a4bd d2e7 edbe
00000040: 0880 bbbd 8513 80bd 83ff bebd c546 c8bd
00000050: 99ed a9be 37e5 c73c 487a 86bb f492 acbe
00000060: 25cf 0cbe 25b8 77be 98b2 063e 0b7d 7d3e
00000070: 73a1 c93d 23f3 fdbd 8e22 b6be 5615 90bd
00000080: a783 30be a1d1 c53e 8349 c3bd eafa c0be
00000090: 0000 0000 ca3b febe 003d 38be a440 0f3f
000000a0: dc70 b7bd 0000 0000 baba 96bd 30a8 6f3e
000000b0: fe05 bdbe 2f09 b2bd 9629 40be d26b 04bf
000000c0: 3deb 8ebe a5de 47bd 923a 74bd 9273 833e
000000d0: 62b5 77b8 493e 3e3f f31b e3bd 7cee 0abf
000000e0: 261b 61bd 140b 1cbf dc2e a9be 6073 69bd
000000f0: e94a 1cbd ec1f 08bf 0042 25be ed47 40be
00000100: 1959 f6be 2c94 02be f074 20be 32bc 81be
00000110: c090 b93a a019 49be d38b 4bbd 5496 dabd
00000120: 4dcc ff3c c03c b2be 2f8b 46be d12b 1c3c
00000130: 3ca0 46be 685e 653d 7c8b 54bd 66e4 8ebe
00000140: e9d9 fdbd f36a 63be 01e7 983d 0680 01be
00000150: 0473 7abd 2788 99bd 32a7 95bd 0632 9fbd
00000160: 7545 12be b980 903e 63f7 14bd b676 af3e
00000170: 9179 0cbf 7aa5 07bf 8ee9 07bf 97fd d6bd
00000180: a7cc 0abf 67e1 11be 032d 5ebe 1d45 6dbe
00000190: 59e6 a9bd d843 333c 2841 f93d f3a5 b4bd
000001a0: 0000 0000 84e1 34bd 822c abbd ce8b 7fbd
000001b0: 71da 66ba 20cc d2bc 03be 20be a260 bebd
000001c0: 27c0 30bf 5e97 203d 599c a7bc 4ecb 8abd
000001d0: b625 483d fe57 583e 6fb2 5dbd 717e 40bd
000001e0: d1db fdbc bcd0 d4be f028 e6bd ab6a 26be
000001f0: fd5c fabe 671a 9c3c 0000 0000 b23c b33e

xy_encoder.flat_module.to_hidden.weight f4 [128, 128]
0.17594963 0.034683906 0.034663446 0.03736057 0.08259243 -0.044235535 0.029601935 -0.16891718
-0.21177556 -0.06718617 -0.185796 0.07259428 0.16567908 -0.03618308 -0.16723453 -0.119836204
-0.13075626 0.011392152 0.15427984 -0.28611705 0.09086088 0.09718773 -0.087418735 -0.20735772
-0.062266722 -0.07240415 -0.040807314 -0.016342698 -0.047074817 0.119098306 -0.09191196 0.07712066
-0.25152436 -0.1204545 -0.021330059 0.13611673 0.17099364 -0.14846905 0.1080989 0.13262449
0.001314025 -0.21588548 -0.047126513 0.06119195 0.05432868 0.14079227 0.20432803 -0.08275371
-0.13129248 0.16761355 0.13809451 -0.14765064 0.03462867 -0.17044495 0.068311244 0.039441846
0.14766464 0.1546575 0.007358595 -0.07960543 0.16049832 -0.052519523 0.17489348 -0.024094306
0.06325627 -0.07375257 0.17505994 0.07141297 0.12761971 0.026943736 -0.20429781 -0.11205931
0.1360163 -0.19520208 -0.118339375 -0.16242273 0.20892802 -0.057087094 0.018405914 -0.19868352
-0.17664306 0.07269184 0.042870335 0.0056766435 0.17374939 0.06431896 -0.11863067 0.08772117
-0.06782288 -0.22380877 0.18715222 -0.24999574 0.06683339 -0.08378216 -0.07005857 0.08013217
-0.086019866 0.12527959 0.09277528 -0.1332896 -0.035820097 0.07676952 -0.16693422 -0.1473867
-0.20684446 -0.081251755 0.16244765 -0.062430464 -0.19274306 -0.10687563 0.12859553 -0.114045575
0.07381312 -0.056011114 0.17418882 0.20383285 -0.019674307 0.02347116 -0.09162441 -0.007317549
-0.11592338 -0.07377304 -0.086209215 -0.029442012 0.07452956 -0.060021374 -0.12979133 0.10760817
-0.11847972 -0.121846676 0.052118264 -0.15489233 -0.06434451 0.023676112 0.009785 -0.009310723
0.18249829 -0.13857825 0.048521373 -0.4617921 -0.2810393 0.094445534 0.20297596 0.023928588
0.2048209 -0.10489108 -0.27743575 -0.09918335 -0.14251089 -0.033362985 -0.13976689 0.11423626
0.1307345 -0.11711146 -1.0618337 -0.11493984 -0.35465515 0.088476285 0.12201633 0.22378011
-0.26853815 0.19896552 0.03174896 -0.12767552 0.15898226 0.109366424 0.08516904 -0.5739433
-0.11624328 0.07576443 -0.0741808 -0.10439948 -0.21090673 -0.036414456 -0.064315274 0.2112095
0.14405684 0.060763747 0.121179566 -0.42080295 -0.09842527 -0.74781686 -0.6602179 0.038065013
-0.07568597 0.049152065 0.09286726 0.0063789254 -0.14601475 0.017593257 0.21267794 -0.10373491
-0.19645247 -0.054982547 0.07714823 -0.16910553 -0.059440684 -0.11700615 -0.103755146 -0.1851526
-0.07731508 -0.14218631 0.054412317 -0.17092587 -0.16155046 -0.087771334 0.16826211 0.1687675
0.1486076 -0.13829224 0.06753207 -0.097860545 0.08003524 -0.24651894 -0.64161026 0.022750372
-0.12259659 -0.20724955 -0.03379413 -0.52382815 -0.035936706 -0.26820153 -0.07642339 -0.015315051
-0.063357376 0.06782161 -0.13741116 -0.063436694 0.12903668 0.1136707 0.057334464 -0.010469044
0.14672728 0.0025337127 0.031102931 0.028536618 -0.004681591 -0.08806144 0.17331247 -0.13514617
-0.0790332 -0.029284492 0.16106686 0.054360535 0.108955346 0.0014190837 -0.14776954 -0.16386934
0.14179827 -0.102912776 0.088003345 0.16410898 -0.044926424 -0.13409084 -0.012422532 -0.64065725
00000000: 242c 343e b610 0e3d 42fb 0d3d 6607 193d
00000010: 3826 a93d 5230 35bd c27f f23c a0f8 2cbe
00000020: b1db 58be e798 89bd 4e41 3ebe 4fac 943d
00000030: c7a7 293e b634 14bd 873f 2bbe af6c f5bd
00000040: f8e4 05be 26a6 3a3c 89fb 1d3e ef7d 92be
00000050: 4515 ba3d 5c0a c73d 9808 b3bd 9555 54be
00000060: 640b 7fbd a148 94bd 9225 27bd 1fe1 85bc
00000070: 86d1 40bd d0e9 f33d 563c bcbd 70f1 9d3d
00000080: cdc7 80be d9b0 f6bd 60bc aebc 2f62 0b3e
00000090: f518 2f3e 4508 18be f562 dd3d b7ce 073e
000000a0: 5d3b ac3a 1511 5dbe bb07 41bd 69a4 7a3d
000000b0: c087 5e3d d92b 103e 5e3b 513e c77a a9bd
000000c0: 8971 06be e3a2 2b3e a668 0d3e bb31 17be
000000d0: cbd6 0d3d 1f89 2ebe c4e6 8b3d c68d 213d
000000e0: 6635 173e 895e 1e3e 5e20 f13b 2c08 a3bd
000000f0: ac59 243e b61e 57bd 4717 333e 6c61 c5bc
00000100: 818c 813d 960b 97bd ea42 333e f740 923d
00000110: beae 023e 1cb9 dc3c 7233 51be 5a7f e5bd
00000120: db47 0b3e 0ee3 47be ea5b f2bd 2552 26be
00000130: 3af1 553e 28d4 69bd 00c8 963c b173 4bbe
00000140: ebe1 34be 76df 943d ce98 2f3d 2303 ba3b
00000150: 5ceb 313e a9b9 833d a3f4 f2bd 28a7 b33d
00000160: b9e6 8abd 202e 65be d5a4 3f3e e2fe 7fbe
00000170: f2df 883d fb95 abbd de7a 8fbd 561c a43d
00000180: 2f2b b0bd 4b49 003e f700 be3d 127d 08be
00000190: 18b8 12bd 5739 9d3d cef0 2abe 8aec 16be
000001a0: 09cf 53be 5267 a6bd ad58 263e 16b7 7fbd
000001b0: 705e 45be 9ce1 dabd 8cae 033e ba90 e9bd
000001c0: 552b 973d e96b 65bd 8e5e 323e 8fb9 503e
000001d0: 032c a1bc 9746 c03c 94a5 bbbd 0dc8 efbb
000001e0: 3d69 edbd 5216 97bd 758e b0bd 6030 f1bc
000001f0: f4a2 983d f9d8 75bd 05e8 04be ac61 dc3d
00000200: 7fa5 f2bd c08a f9bd f679 553d 189c 1ebe
00000210: 0ec7 83bd 68f4 c13c 4451 203c 018c 18bc
00000220: d5e0 3a3e 75e7 0dbe 59be 463d 0470 ecbe
00000230: 62e4 8fbe a96c c13d eed8 4f3e e305 c43c
00000240: 92bc 513e 22d1 d6bd 0f0c 8ebe a420 cbbd
00000250: 60ee 11be a0a7 08bd 0d1f 0fbe b3f4 e93d
00000260: 44df 053e 22d8 efbd 2bea 87bf 9465 ebbd
00000270: 5c95 b5be 0e33 b53d b3e3 f93d 9d26 653e
00000280: d57d 89be 9ebd 4b3e 330b 023d 5fbd 02be
00000290: 3fcc 223e 81fb df3d 1b6d ae3d f3ed 12bf
000002a0: f510 eebd 622a 9b3d 1aec 97bd 65cf d5bd
000002b0: eff7 57be 5327 15bd bab7 83bd 4e47 583e
000002c0: a383 133e 68e3 783d fe2c f83d 7c73 d7be
000002d0: 3093 c9bd ed70 3fbf 0a04 29bf 0fea 1b3d
000002e0: 3f01 9bbd ad53 493d 3131 be3d 4e06 d13b
000002f0: e484 15be bc1f 903c 3fc8 593e f872 d4bd
00000300: d62a 49be 6135 61bd e4ff 9d3d 002a 2dbe
00000310: 1378 73bd eca0 efbd 947d d4bd a598 3dbe
00000320: 5e57 9ebd 4a99 11be 73df 5e3d 3107 2fbe
00000330: 7c6d 25be 75c1 b3bd e74c 2c3e 63d1 2c3e
00000340: 972c 183e 7b9c 0dbe 414e 8a3d 1c6b c8bd
00000350: 84e9 a33d 766f 7cbe 9240 24bf fd5e ba3c
00000360: ec13 fbbd 3a39 54be b76b 0abd 9a19 06bf
00000370: 5e32 13bd b651 89be de83 9cbd fbeb 7abc
00000380: 83c1 81bd 0ee6 8a3d 83b5 0cbe 19eb 81bd
00000390: 3122 043e 2fcc e83d 8bd7 6a3d 5a86 2bbc
000003a0: ad3f 163e a50c 263b 93cb fe3c a0c5 e93c
000003b0: 0868 99bb 8e59 b4bd d378 313e c263 0abe
000003c0: 29dc a1bd 08e6 efbc b6ee 243e 27a9 5e3d
000003d0: fb23 df3d 8c00 ba3a e650 17be 5dcd 27be
000003e0: 9133 113e efc3 d2bd 193b b43d 2f0c 283e
000003f0: c504 38bd 1c4f 09be e087 4bbc 1d02 24bf

xy_encoder.flat_module.to_hidden.bias f4 [128]
-0.15007432 0.007252586 -0.16992792 0.16248278 -0.2453296 0.11905012 0.46279246 -0.64671415
-0.3661677 -0.14561798 -0.49280715 -0.30399135 -0.28899089 0.17783912 -0.17562188 0.22893673
-0.18984823 -0.65636796 -0.76026195 -0.09675064 0.022022877 -0.17748515 -0.25058433 -0.20882232
-0.42980096 -0.12625444 -0.013743486 -0.18938151 -0.16139221 -0.1657582 -0.11549059 -0.015325623
-0.08449142 -0.17550984 -0.23445913 -0.20732221 -0.25178152 -0.007926713 -0.12872571 0.4657062
0.0087791225 -0.13076526 0.0009051285 -0.18773133 -0.010446161 0.2987884 -0.20362957 0.072621465
-0.2573976 -0.1305894 -0.2665809 -0.23747264 -0.50990266 -0.13777788 -0.14398062 -0.10864847
-0.39563176 0.0053171962 0.06739594 0.3611377 0.13788988 -0.15084165 0.01645649 -0.13942616
0.0058747474 -0.10534942 0.06989519 0.060158584 -0.07042159 -0.26794162 0.16040172 -0.04590492
-0.1888603 -0.31545824 -0.23414779 -0.1685182 0.24764869 -0.070535235 -0.52738094 -0.49317977
-0.21014863 -0.13742171 -0.46522543 -0.30080166 -0.22126913 -0.27073735 -0.17879426 -0.16926977
-0.086859085 -0.21406628 -0.2622784 0.070295095 -0.2654611 -0.27829587 0.09733881 -0.09461005
-0.15063837 -0.23882553 -0.2296608 -0.18910237 -0.1618542 -0.09675498 -0.12912033 -0.099763535
-0.11968711 -0.38580692 -0.5750837 -0.104970105 -0.08429946 -0.21532187 -0.11680838 -0.099975884
-0.07824424 -0.17945129 -0.14151394 -0.122214995 -0.66394645 0.09798515 -0.38586912 0.28347605
-0.10317105 -0.19330116 -0.16593736 -0.3701537 -0.16051123 0.29801798 -0.1761996 -0.070784375
00000000: 15ad 19be 1aa7 ed3b 9601 2ebe e361 263e
00000010: af37 7bbe 8dd0 f33d 22f3 ec3e 0f8f 25bf
00000020: 557a bbbe e11c 15be 3851 fcbe c1a4 9bbe
00000030: 9df6 93be 751b 363e 39d6 33be 646e 6a3e
00000040: 9367 42be bb07 28bf 87a0 42bf 3325 c6bd
00000050: 5269 b43c abbe 35be 974c 80be 85d5 55be
00000060: df0e dcbe d848 01be 5c2c 61bc 3aed 41be
00000070: 0044 25be 85bc 29be 5586 ecbd 5218 7bbc
00000080: d609 adbd dab8 33be 0e16 70be 464c 54be
00000090: 82e9 80be 0bdf 01bc acd0 03be 0b71 ee3e
000000a0: 4fd6 0f3c 54e7 05be 2546 6d3a a43c 40be
000000b0: 6026 2bbc cbfa 983e 4584 50be 90ba 943d
000000c0: 9ec9 83be 3ab9 05be 4b7d 88be 072c 73be
000000d0: fb88 02bf a515 0dbe a86f 13be 1783 debd
000000e0: 3f90 cabe e03b ae3b e206 8a3d 0ae7 b83e
000000f0: 0133 0d3e 3c76 1abe c3cf 863c bbc5 0ebe
00000100: f480 c03b 70c1 d7bd 3625 8f3d d968 763d
00000110: 3239 90bd a52f 89be 5940 243e cc06 3cbd
00000120: 9864 41be be83 a1be 70c4 6fbe 0990 2cbe
00000130: 9e97 7d3e c774 90bd 7002 07bf 0f82 fcbe
00000140: 3431 57be 47b8 0cbe 0732 eebe ad02 9abe
00000150: 6094 62be 169e 8abe d815 37be 0e55 2dbe
00000160: 2de3 b1bd 3134 5bbe 5b49 86be e0f6 8f3d
00000170: 84ea 87be cc7c 8ebe 9259 c73d eac2 c1bd
00000180: f240 1abe ae8e 74be 332c 6bbe 0da4 41be
00000190: 1bbd 25be 7a27 c6bd 1f38 04be d350 ccbd
000001a0: 841e f5bd 7c88 c5be af38 13bf 91fa d6bd
000001b0: 32a5 acbd 567d 5cbe 3b39 efbd 28c0 ccbd
000001c0: 843e a0bd 14c2 37be 08e9 10be db4b fabd
000001d0: 65f8 29bf 70ac c83d a390 c5be c623 913e
000001e0: 584b d3bd bdf0 45be 7ceb 29be c984 bdbe
000001f0: 0e5d 24be d095 983e ab6d 34be 66f7 90bd

xy_encoder.flat_module.linears.0.weight f4 [128, 128]
0.033532698 0.2150621 0.19072358 -0.5081199 0.19567318 0.1960311 0.12625545 -0.13904878
-0.30493265 0.20217925 -0.42049032 0.01251835 0.10760303 -0.12175836 -0.23955001 0.3394656
-0.043544915 -0.35030046 -0.18131913 -0.20224981 -0.42022637 0.108628355 -0.23206471 -0.0030266824
-0.08480555 0.049002565 0.24942376 -0.078628086 -0.08570748 0.20625824 0.10846655 0.26476088
0.009205205 -0.1432686 0.12729424 -0.04808372 -0.0117235035 0.037555087 0.13702418 0.035034426
0.18912858 0.0011666231 -0.08486055 -0.059232686 0.09655858 -0.57282615 0.11588238 0.0854336
0.08144774 -0.11116547 0.30300087 0.03162028 -0.6868087 0.14116214 0.102364555 0.03031032
-0.32794514 -0.1899712 0.1691988 0.08287139 -0.071164034 -0.15566388 0.11977326 -0.08625738
0.15578596 -0.102143034 0.15885188 -0.0769558 0.042935617 0.16229166 -0.09680438 0.1839807
-0.03682012 -0.11559605 0.025565298 -0.15175475 -0.09824136 -0.14957279 -0.10141824 -0.72994417
0.15716413 -0.24716654 0.029493982 0.039123584 -0.052483484 0.04905544 0.09479376 0.17964904
0.23021415 -0.1762106 -0.05794257 0.0065005217 -0.04640455 -0.1479391 -0.32417598 -0.021110803
0.04017155 -0.056615766 0.04793304 -0.16393955 0.18147457 -0.15014479 -0.062405694 0.2398729
-0.27897885 -0.78821295 -0.022328682 0.11624434 -0.15542434 -0.11143555 0.085622914 0.07819678
-0.2837225 0.006432836 -0.09303261 0.123956814 -0.47107184 -0.29870608 -0.15470758 -0.49434915
0.20479195 0.06381893 0.20563038 0.035948463 -0.24236546 -0.2949112 0.31740957 0.15402606
-0.04173015 -0.20015562 -0.014687233 0.053889677 -0.040221456 -0.008596437 -0.012507418 -0.15734619
-0.09544835 -0.03199943 -0.059048552 0.0063629523 -0.05503639 -0.25583008 -0.004442241 -0.30022672
-0.19321714 -0.15270157 -0.16325583 0.07074187 0.08409951 -0.17639951 -0.00038795854 -0.20576862
0.16948597 -0.3286104 -0.2359424 -0.19866422 0.19144505 0.33211464 0.1062501 -0.074615456
-0.067793176 -0.0034954671 -0.19892 -0.18560626 -0.055354733 -0.05056768 0.1382504 0.036946256
-0.18572314 0.17115557 -0.10278063 0.12590574 0.045017995 -0.10055785 0.1976561 -0.0319346
-0.14070399 0.19909205 -0.2141169 -0.09526474 -0.118376784 0.02228497 -0.036323152 0.19033532
-0.00018828911 -0.2715265 0.1292096 -0.14208575 -0.24877319 -0.17690265 -0.24111721 -0.022371655
0.08268454 -0.16135651 0.25795665 -0.14678703 -0.12820862 -0.020906324 0.02035784 -0.21342504
0.0831656 0.026747903 0.14074698 -0.046762347 0.068215646 0.17000023 -0.039606847 0.1060566
-0.0019068354 -0.040045016 0.07803699 -0.06271504 -0.08169388 -0.1917572 -0.10987296 -0.0042016245
-0.03810262 -0.14253283 -0.0784953 -0.14057155 0.05720297 0.20239757 -0.26221743 0.14101686
-0.11873083 -0.0986417 -0.12192433 -0.13602291 0.2065862 0.20471516 -0.065999106 0.018151218
-0.03708174 0.02865357 -0.1840091 0.20492429 -0.21793167 0.16707668 -0.16623473 0.08575215
-0.1579523 0.04679007 0.09976714 -0.12275739 0.07692027 -0.18257706 -0.14741114 -0.049189985
0.15989897 0.119028755 -0.024064653 -0.083906695 -0.15626764 -0.12075924 0.07313264 -0.22429934
00000000: 9559 093d 3d39 5c3e 0b4d 433e 2514 02bf
00000010: 8d5e 483e 60bc 483e 1c49 013e ce62 0ebe
00000020: 2220 9cbe 1408 4f3e 824a d7be c419 4d3c
00000030: fa5e dc3d 725c f9bd 994c 75be 6fce ad3e
00000040: 275c 32bd 955a b3be b9ab 39be 931a 4fbe
00000050: e927 d7be 8b78 de3d 5fa2 6dbe 4e5b 46bb
00000060: 88ae adbd eab6 483d f168 7f3e c307 a1bd
00000070: 6787 afbd 5c35 533e b623 de3d bd8e 873e
00000080: 6ed1 163c 01b5 12be 6c59 023e 6ff3 44bd
00000090: f013 40bc 5dd3 193d 1150 0c3e 4280 0f3d
000000a0: ecaa 413e 60e9 983a 5ecb adbd f99d 72bd
000000b0: 81c0 c53d bca4 12bf be53 ed3d d0f7 ae3d
000000c0: 13ce a63d b9aa e3bd ee22 9b3e 4484 013d
000000d0: b2d2 2fbf cf8c 103e 82a4 d13d 594d f83c
000000e0: 6de8 a7be cf87 42be 7342 2d3e 7ab8 a93d
000000f0: 73be 91bd 5a66 1fbe af4b f53d b6a7 b0bd
00000100: 5b86 1f3e 5e30 d1bd 11aa 223e 019b 9dbd
00000110: 42dd 2f3d c92f 263e 6041 c6bd 7065 3c3e
00000120: b2d0 16bd 9fbd ecbd 516e d13c 9965 1bbe
00000130: c432 c9bd 9c29 19be 5eb4 cfbd 9fdd 3abf
00000140: a2ef 203e 3a19 7dbe 5d9d f13c 0d40 203d
00000150: ecf8 56bd 5bee 483d 3b23 c23d ebf5 373e
00000160: 42bd 6b3e 8d70 34be 3055 6dbd 5402 d53b
00000170: b312 3ebd 597d 17be 65fa a5be 90f0 acbc
00000180: ec8a 243d efe5 67bd 6f55 443d c5df 27be
00000190: 78d4 393e 8ebf 19be 1d9d 7fbd 3ea1 753e
000001a0: 51d6 8ebe 53c8 49bf a4ea b6bc 8311 ee3d
000001b0: 8f27 1fbe 5238 e4bd 115b af3d a225 a03d
000001c0: 1344 91be 8aca d23b e287 bebd 12dd fd3d
000001d0: 5430 f1be 01f0 98be aa6b 1ebe 551b fdbe
000001e0: fbb4 513e 80b3 823d c590 523e b23e 133d
000001f0: a72e 78be 9afe 96be 8283 a23e 02b9 1d3e
00000200: 3ced 2abd 98f5 4cbe b8a2 70bc 6cbb 5c3d
00000210: 41bf 24bd 12d8 0cbc eaeb 4cbc 5c1f 21be
00000220: 6d7a c3bd d611 03bd e5dc 71bd 5080 d03b
00000230: d66d 61bd 29fc 82be 3890 91bb 51b7 99be
00000240: b7da 45be cd5d 1cbe 892c 27be 1de1 903d
00000250: 5d3c ac3d 13a2 34be ea66 cbb9 02b5 52be
00000260: bb8d 2d3e 9f3f a8be e29a 71be a26e 4bbe
00000270: 2c0a 443e ee0a aa3e a799 d93d fdcf 98bd
00000280: 26d7 8abd 3514 65bb afb1 4bbe 910f 3ebe
00000290: a5bb 62bd 0e20 4fbd 8391 0d3e f554 173d
000002a0: 352e 3ebe 6843 2f3e a77e d2bd 6fed 003e
000002b0: ca64 383d 46f1 cdbd 5c66 4a3e dbcd 02bd
000002c0: b514 10be c9de 4b3e 7641 5bbe 291a c3bd
000002d0: 876f f2bd f88e b63c 96c7 14bd 43e7 423e
000002e0: 796f 45b9 8505 8bbe 854f 043e ed7e 11be
000002f0: 66be 7ebe f825 35be 6ee7 76be c344 b7bc
00000300: 8356 a93d a43a 25be e512 843e 574f 16be
00000310: 1f49 03be bd43 abbc 7cc5 a63c 188c 5abe
00000320: ba52 aa3d 6b1e db3c fa1f 103e e089 3fbd
00000330: a5b4 8b3d 8a14 2e3e ca3a 22bd 3434 d93d
00000340: c7ee f9ba 3e06 24bd dbd1 9f3d be70 80bd
00000350: 1f4f a7bd 005c 44be 1305 e1bd c8ad 89bb
00000360: 7e11 1cbd 20f4 11be 25c2 a0bd fdf1 0fbe
00000370: a94d 6a3d 4f41 4f3e 5d41 86be b966 103e
00000380: 2629 f3bd a904 cabd 77b3 f9bd 9749 0bbe
00000390: 558b 533e daa0 513e 8a2a 87bd ddb1 943c
000003a0: 06e3 17bd e4ba ea3c e26c 3cbe acd7 513e
000003b0: 7b29 5fbe 2616 2b3e 7039 2abe d39e af3d
000003c0: 3fbe 21be f2a6 3f3d b752 cc3d 3a68 fbbd
000003d0: 6088 9d3d 7bf5 3abe f2f2 16be 707b 49bd
000003e0: 8ebc 233e 59c5 f33d 3c23 c5bc 46d7 abbd
000003f0: a004 20be 9f50 f7bd 91c6 953d baae 65be

xy_encoder.flat_module.linears.0.bias f4 [128]
-0.33751097 -0.14803606 -0.28177425 0.29568705 -0.743557 -0.16113332 -0.26627406 -0.17078695
-0.16947249 -0.1922572 0.16165617 -0.4639049 -0.025391892 -0.010130478 -0.2204489 -0.040179297
0.18150914 0.021611018 -0.15227692 -0.25681692 -0.23107567 -0.2410362 -0.40686706 -0.66260415
-0.2089257 -0.24530996 -0.19705942 -0.32960984 -0.15692014 -0.16029875 -0.19867451 -0.1304803
-0.13922535 -0.22942653 -0.15554161 0.026837492 -0.16929159 -0.24520572 0.07281014 -0.23564614
-0.17297421 -0.3057329 -0.24038735 -0.18247668 0.31745124 -0.17734595 -0.13811778 -0.21038106
-0.19726303 -0.2540625 0.06697687 -0.21379289 -0.14688627 0.03670349 -0.2726304 -0.19662832
-0.1049158 -0.0966272 -0.1616851 -0.6499397 0.103846505 -0.22440505 -0.26844156 -0.26313257
-0.173705 -0.20633395 0.17212461 -0.6634072 -0.13955829 -0.07771793 -0.7444353 -0.34941274
0.14393605 -0.34544024 0.05476716 -0.17039493 0.102138944 0.12457089 -0.25357777 -0.18794686
-0.4310384 0.02445962 -0.13410164 -0.50683373 -0.19078618 0.2124657 -0.24112575 0.21780002
-0.14120832 -0.128932 -0.13996664 -0.47742045 -0.17107461 -0.19572178 0.009316756 -0.29485023
-0.24346599 -0.111320406 -0.20527227 -0.19783658 -0.15704857 0.12677057 -0.26788625 -0.21835701
-0.060528044 0.04772031 -0.12856708 -0.24382065 -0.18962118 0.061435208 -0.26033077 -0.13680957
-0.2873738 -0.085966416 -0.16588663 -0.18013711 -0.3783309 -0.18943058 -0.19865601 -0.1613093
-0.17639408 -0.16491285 -0.12820572 -0.08772819 -0.26361176 -0.23735262 -0.14563385 -0.22711106
00000000: 3dce acbe c496 17be b744 90be 4b64 973e
00000010: c059 3ebf 2200 25be 1355 88be c6e2 2ebe
00000020: 328a 2dbe 12df 44be 3289 253e f184 edbe
00000030: a802 d0bc 4efa 25bc 5bbd 61be 0c93 24bd
00000040: 88dd 393e 9709 b13c 7bee 1bbe 827d 83be
00000050: 1a9f 6cbe 32d2 76be e150 d0be 6da0 29bf
00000060: 9ef0 55be 8932 7bbe f2c9 49be 9fc2 a8be
00000070: acaf 20be 5b25 24be 5571 4bbe a19c 05be
00000080: 1791 0ebe caee 6abe 4d46 1fbe 4dda db3c
00000090: c65a 2dbe 3517 7bbe 7c1d 953d 394d 71be
000000a0: 2720 31be 0689 9cbe 1a28 76be 2bdb 3abe
000000b0: f888 a23e 2d9a 35be bf6e 0dbe 226e 57be
000000c0: 52ff 49be 7b14 82be 2b2b 893d 86ec 5abe
000000d0: 5b69 16be 6656 163d 3696 8bbe ef58 49be
000000e0: 18de d6bd 7be4 c5bd c790 25be 7362 26bf
000000f0: 7aad d43d 70ca 65be 2c71 89be 50b9 86be
00000100: b9df 31be 3549 53be 6f41 303e 0ed5 29bf
00000110: 5ee8 0ebe 942a 9fbd 5093 3ebf 3ae6 b2be
00000120: f963 133e 8bdd b0be 8853 603d 027c 2ebe
00000130: 392e d13d 061f ff3d f2d4 81be 2475 40be
00000140: 11b1 dcbe 8a5f c83c f151 09be dbbf 01bf
00000150: 745d 43be 9c90 593e abe9 76be f806 5f3e
00000160: ea98 10be c006 04be 6a53 0fbe 7470 f4be
00000170: 2f2e 2fbe 4a6b 48be 4fa5 183c 9cf6 96be
00000180: 264f 79be f4fb e3bd e532 52be ac95 4abe
00000190: 57d1 20be 25d0 013e 6328 89be fb98 5fbe
000001a0: 41ec 77bd 5f76 433d 17a7 03be 1fac 79be
000001b0: 0e2c 42be 7ca3 7b3d 134a 85be cf17 0cbe
000001c0: a922 93be 290f b0bd 2fde 29be dd75 38be
000001d0: 96b4 c1be 17fa 41be 7b6c 4bbe 442e 25be
000001e0: a6a0 34be eade 28be 5c48 03be d6aa b3bd
000001f0: 1ff8 86be 910c 73be 0a21 15be cd8f 68be

xy_encoder.flat_module.out.weight f4 [128, 128]
-0.0025767675 0.13692126 0.025228081 0.15804176 -0.30508733 0.112265006 -0.15153381 -0.07643033
0.21399856 -0.028948184 0.04492486 -0.22260314 0.10766564 -0.30728245 -0.48022065 0.11210431
-0.029166237 -0.71147585 -0.21765071 0.082571216 -0.009836719 0.045627806 -0.12793566 0.046421457
-0.043769516 -0.29175553 -0.018713897 0.12672299 -0.11629296 0.10306782 0.03898147 -0.10990157
-0.13640104 -0.027583413 -0.36857966 0.6585492 -0.1403899 -0.05818756 -0.319984 0.12417071
-0.111916736 -0.41817603 -0.1339466 0.0322345 -0.49383038 -0.07293246 -0.0109004 0.1825802
0.16746727 0.14953491 0.5521174 -0.03927237 0.013654373 -0.24223134 -0.04761864 -0.14111389
-0.15552318 0.05117232 -0.09094215 -0.5003228 -0.40017277 -0.2579432 -0.12817213 -0.29891816
-0.5462226 -0.19650882 -0.5311976 -0.027062833 0.12501423 -0.55661595 0.04394202 0.08590683
0.24487893 -0.08835365 -0.42499292 0.08815261 0.31738153 0.0770984 -0.07122208 -0.08603857
0.0016431166 0.051600773 0.19700578 0.13847665 -0.12603568 -0.16101724 -0.42468745 -0.12413344
-0.19927819 0.15132137 -0.12019207 -0.07078778 0.21784301 -0.16104105 -0.30831403 -0.19518037
-0.045567133 -0.46923107 -0.024519648 0.21200065 0.1673884 0.17079738 -0.081481285 -0.06264786
-0.39339927 -0.21176048 -0.0010094892 0.12257777 0.069856204 -0.34193194 0.108291715 -0.088948004
0.1595945 0.07843721 -0.1418461 -0.035956804 0.24462575 -0.1375216 0.04759145 -0.042087555
-0.21215963 -0.22450803 -0.13771984 0.1141098 -0.15381438 0.049384117 0.20846066 -0.048439607
-0.28075516 -0.059561934 -0.121088564 0.12770559 -0.12767838 0.07688478 -0.19437248 -0.20847476
0.14106503 -0.25681427 -0.5609817 -0.054081358 -0.014565589 -0.1405176 -0.05976108 0.13666894
0.037914675 0.3357193 0.09558831 0.10824309 0.1779992 0.12031568 -0.289763 0.16573092
0.3035747 -0.16084169 0.08165398 -0.008008903 0.14403254 0.05734752 0.01908951 0.19142781
0.00038000013 -0.045178324 -0.03831218 -0.14175655 0.0504639 -0.14713582 -0.4389794 0.095943905
-0.10593526 0.7798753 -0.10581118 0.027951786 -0.3607865 0.17536029 -0.013780873 0.19723031
0.17277797 -0.05815323 -0.20754029 -0.08927319 -0.020419993 -0.21948689 0.030731747 -0.047790807
0.026894486 -0.0422599 -0.1103746 -0.05413793 -0.2208616 -0.2549443 -0.029786374 -0.16208951
0.0043889782 0.067147605 0.3304852 -0.08188655 0.24793668 -0.095924936 -0.061720017 0.0937722
-0.42481062 0.107803 0.0039640106 -0.1162462 0.3722722 -0.018899923 0.046160582 -0.10500599
0.046884973 -0.73012996 0.06232758 0.16392541 0.15961081 -0.46529773 -0.31117904 -0.39106727
0.021339681 -0.13716319 -0.09886506 0.20457356 -0.028783573 -0.22945571 0.0817124 0.62843627
0.08842369 -0.04562771 -0.1683199 0.07391915 -0.28550655 0.060273163 -0.3027601 0.13196357
0.044960096 0.060378693 0.07464838 0.005705269 -0.015018191 0.309738 0.13655916 0.118794404
0.19003259 -0.13756138 -0.12718992 -0.11722438 -0.55932534 0.08121367 0.10207953 0.051889103
-0.021985194 -0.17840196 0.18607776 -0.03770637 0.0029336123 -0.09390846 -0.0090221455 -0.16316435
00000000: fcde 28bb 1635 0c3e 1fab ce3c b3d5 213e
00000010: 6834 9cbe 32eb e53d ae2b 1bbe 8187 9cbd
00000020: 7022 5b3e be24 edbc 2103 383d 14f2 63be
00000030: ce7f dc3d 2054 9dbe 7bdf f5be f296 e53d
00000040: 08ee eebc 4823 36bf d4df 5ebe 191b a93d
00000050: 312a 21bc 39e4 3a3d 9101 03be 6d24 3e3d
00000060: aa47 33bd fb60 95be e34d 99bc acc3 013e
00000070: 012b eebd 3915 d33d 09ab 1f3d 1314 e1bd
00000080: b7ac 0bbe 9cf6 e1bc 79b6 bcbe ae96 283f
00000090: 5fc2 0fbe 1456 6ebd f1d4 a3be 374d fe3d
000000a0: 9a34 e5bd 2b1b d6be 4c29 09be 5308 043d
000000b0: 56d7 fcbe 9d5d 95bd 9797 32bc 4ef6 3a3e
000000c0: 8a7c 2b3e ae1f 193e 9157 0d3f 11dc 20bd
000000d0: 97b6 5f3c 7e0b 78be c30b 43bd 2980 10be
000000e0: 7841 1fbe 119a 513d e13f babd 2815 00bf
000000f0: 72e3 ccbe 2211 84be 8e3f 03be cd0b 99be
00000100: 3fd5 0bbf 9c39 49be 91fc 07bf e0b2 ddbc
00000110: bb03 003e 627e 0ebf 8cfc 333d ecef af3d
00000120: 8bc1 7a3e c2f2 b4bd ac98 d9be 5b89 b43d
00000130: d57f a23e c4e5 9d3d e2dc 91bd fd34 b0bd
00000140: d85d d73a 555b 533d e2bb 493e d3cc 0d3e
00000150: 7f0f 01be b4e1 24be a270 d9be ac39 febd
00000160: 950f 4cbe fdf3 1a3e 4327 f6bd 2ff9 90bd
00000170: 3d12 5f3e f2e7 24be 56db 9dbe 5ddd 47be
00000180: 9aa4 3abd 0e3f f0be 6edd c8bc b316 593e
00000190: dd67 2b3e 82e5 2e3e a9df a6bd 854d 80bd
000001a0: a16b c9be bdd7 58be d650 84ba 0e0a fb3d
000001b0: c510 8f3d b411 afbe 0cc8 dd3d 5f2a b6bd
000001c0: be6c 233e b0a3 a03d 1b40 11be 7147 13bd
000001d0: 2c7f 7a3e 76d2 0cbe 41ef 423d 0064 2cbd
000001e0: 6040 59be 6fe5 65be 6e06 0dbe 66b2 e93d
000001f0: 8481 1dbe 0047 4a3d b676 553e 9c68 46bd
00000200: 24bf 8fbe 37f7 73bd 48fd f7bd 41c5 023e
00000210: 1fbe 02be c475 9d3d 9409 47be 687a 55be
00000220: 5a73 103e 297d 83be 7f9c 0fbf 6a84 5dbd
00000230: 82a4 6ebc d9e3 0fbe 09c8 74bd f1f2 0b3e
00000240: 6b4c 1b3d 66e3 ab3e cec3 c33d 8eae dd3d
00000250: 6c45 363e 1168 f63d d15b 94be 5eb5 293e
00000260: 256e 9b3e afb3 24be 343a a73d c637 03bc
00000270: 447d 133e 3ce5 6a3d 9b61 9c3c a705 443e
00000280: c13a c739 e80c 39bd 3ced 1cbd a128 11be
00000290: 3cb3 4e3d c6aa 16be e8c1 e0be 3d7e c43d
000002a0: 96f4 d8bd e8a5 473f 88b3 d8bd 25fb e43c
000002b0: 02b9 b8be a691 333e 2cc9 61bc bef6 493e
000002c0: b5ec 303e 1532 6ebd 7185 54be ddd4 b6bd
000002d0: d447 a7bc 2cc1 60be 25c1 fb3c 4bc0 43bd
000002e0: d351 dc3c b818 2dbd 140c e2bd bcbf 5dbd
000002f0: 8b29 62be 0f88 82be 8e02 f4bc cbfa 25be
00000300: 6bd1 8f3b af84 893d 5b35 a93e 23b4 a7bd
00000310: 1de3 7d3e 4b74 c4bd 21ce 7cbd a40b c03d
00000320: c780 d9be d2c7 dc3d 88e4 813b 7d12 eebd
00000330: 769a be3e 03d4 9abc e112 3d3d 610d d7bd
00000340: 750a 403d cce9 3abf 344b 7f3d 10dc 273e
00000350: 0471 233e 813b eebe dc52 9fbe f839 c8be
00000360: 8ed0 ae3c 8274 0cbe c479 cabd bb7b 513e
00000370: 87cb ebbc 70f6 6abe d558 a73d 33e1 203f
00000380: 7b17 b53d 1fe4 3abd 0d5c 2cbe ec62 973d
00000390: ea2d 92be fee0 763d 5f03 9bbe 7521 073e
000003a0: 1428 383d a64f 773d 40e1 983d 44f3 ba3b
000003b0: dc0e 76bc fb95 9e3e 2ad6 0b3e 7b4a f33d
000003c0: e797 423e e4dc 0cbe 133e 02be 5613 f0bd
000003d0: f22f 0fbf 5a53 a63d 130f d13d ab89 543d
000003e0: 4b1a b4bc 01af 36be 2b8b 3e3e ff71 1abd
000003f0: d941 403b 1453 c0bd 9fd1 13bc 8e14 27be

xy_encoder.flat_module.out.bias f4 [128]
0.09877385 0.07454681 0.07892828 -0.054359358 0.007456665 0.062134344 -0.03438164 0.03702302
0.058702327 0.017634798 0.019822849 0.002851936 0.014692063 0.07817686 0.088468276 0.01790027
0.060611248 -0.04219579 -0.059173096 -0.03220495 -0.0637679 0.11317534 -0.0463698 0.03689063
0.06440575 -0.034085497 -0.08387622 0.060684137 0.042263377 0.07260617 -0.006199392 -0.052589104
0.022901976 -0.20737748 -0.0027601146 -0.074093215 0.021304945 -0.05300351 0.030840639 -0.030422611
-0.00741759 0.031104667 0.011116573 -0.070181504 0.052386645 0.05621348 0.026761223 0.15111813
-0.0880525 0.124178655 0.024087608 -0.053852253 0.053333934 0.044708308 -0.012988838 -0.12911445
-0.08563926 0.17369 0.093873225 0.0698062 0.073388316 -0.03460029 -0.031755053 -0.012494962
0.0573347 -0.064120546 -0.079663 0.060289454 0.018278025 0.03854916 0.038306177 -0.10615034
0.036154214 0.052721143 0.08574406 -0.014702079 0.1354142 -0.03522141 -0.013299182 0.09170306
-0.061645273 0.027378479 -0.20485908 0.020886524 0.046967287 -0.06767922 -0.05056991 0.051469848
-0.06466785 -0.080137655 0.05403647 0.013893292 0.06607543 0.097170964 0.13537349 0.11388886
-0.057991922 0.10606504 0.0369878 -0.08642459 -0.053140957 -0.086819574 -0.0069373744 -0.055512905
0.031847697 -0.0023735808 -0.015891792 0.030041924 -0.13787049 0.06881024 -0.08099815 0.0127460705
0.022892 0.038281217 -0.07819936 -0.07117294 0.056954503 0.0227812 0.17427216 0.03973667
0.137461 -0.05486706 -0.07166969 0.03266095 0.08317189 0.029681947 -0.076726034 -0.12052726
00000000: f249 ca3d ffab 983d 26a5 a13d eba7 5ebd
00000010: 0a57 f43b 9580 7e3d c3d3 0cbd 73a5 173d
00000020: da71 703d da76 903c 8763 a23c 8ce7 3a3b
00000030: fbb6 703c 311b a03d db2e b53d 96a3 923c
00000040: 8043 783d 7ed5 2cbd 7d5f 72bd 56e9 03bd
00000050: bf98 82bd 79c8 e73d 42ee 3dbd a11a 173d
00000060: 29e7 833d 3c9d 0bbd 4cc7 abbd ee8f 783d
00000070: 5d1c 2d3d 8bb2 943d 4524 cbbb ac67 57bd
00000080: ed9c bb3c c35a 54be 0ae3 34bb 2fbe 97bd
00000090: b587 ae3c 351a 59bd 82a5 fc3c d738 f9bc
000000a0: 410f f3bb 37cf fe3c 4922 363c 52bb 8fbd
000000b0: 6193 563d 1b40 663d 5a3a db3c b6be 1a3e
000000c0: de54 b4bd 6151 fe3d 6053 c53c 2e94 5cbd
000000d0: af74 5a3d 0f20 373d 23cf 54bc 9436 04be
000000e0: a363 afbd cbdb 313e 9b40 c03d 8ef6 8e3d
000000f0: 9d4c 963d 09b9 0dbd 9611 02bd abb7 4cbc
00000100: cad7 6a3d a251 83bd 5b26 a3bd 13f2 763d
00000110: ccbb 953c b9e5 1d3d f0e6 1c3d 5965 d9bd
00000120: 7116 143d 20f2 573d 959a af3d fde0 70bc
00000130: 05aa 0a3e 5344 10bd d0e4 59bc d0ce bb3d
00000140: c17f 7cbd d548 e03c 94c6 51be 371a ab3c
00000150: c560 403d 679b 8abd 6522 4fbd 0cd2 523d
00000160: 9470 84bd 361f a4bd 5855 5d3d b1a0 633c
00000170: 8e52 873d 9201 c73d 599f 0a3e 903e e93d
00000180: f088 6dbd a138 d93d 8580 173d 60ff b0bd
00000190: 55aa 59bd 76ce b1bd ea52 e3bb 8061 63bd
000001a0: bb72 023d 148e 1bbb 812f 82bc 7b1a f63c
000001b0: ec2d 0dbe 62ec 8c3d 5ce2 a5bd e5d4 503c
000001c0: 0188 bb3c c4cc 1c3d fc26 a0bd 1ec3 91bd
000001d0: 2049 693d a49f ba3c 6774 323e ebc2 223d
000001e0: 94c2 0c3e 48bc 60bd 8fc7 92bd 7dc7 053d
000001f0: 0656 aa3d 8e27 f33c 8a22 9dbd ffd6 f6bd
