results/notebooks/neural_process/Periodic_Kernel/CNP/run_0/params.pt (torch_old, 419630 bytes, 24 tensors)

x_encoder.to_hidden.weight f4 [32, 1]
000000 db a1 3e bf 1c 95 13 3d c2 67 b5 be 40 9a e9 3e
       -0.7446572 0.036030874 -0.35430723 0.45625496
000010 8a f1 79 bf 59 b7 4d 3f cb d5 82 bf d9 49 43 bf
       -0.97634184 0.8035789 -1.0221494 -0.7628456
000020 71 70 73 bf a0 2a 61 3f 62 85 90 be c4 74 60 3f
       -0.95093447 0.87955666 -0.28226763 0.8767817
000030 72 03 2e bf 77 61 0a bf af 48 5a bf 82 0f 48 bf
       -0.6797401 -0.5405497 -0.85267156 -0.78148663
000040 a0 fc 97 bf 85 2f 88 3f fb c4 ab be 25 a1 32 3f
       -1.187397 1.0639502 -0.33548722 0.6977714
000050 49 4d 59 3f 8d 2c 87 3e 61 aa 46 3e f2 56 90 3f
       0.8488355 0.26401177 0.19400932 1.1276534
000060 14 bc cd be c1 5d 85 3e 44 1e 3c bf 80 8c 62 3f
       -0.40182555 0.2604809 -0.7348368 0.88495636
000070 cb 9b 90 3f ec 50 9a bf bb 78 7a 3f 5c 91 67 3f
       1.1297544 -1.2055945 0.9784047 0.90456176

x_encoder.to_hidden.bias f4 [32]
000000 36 10 0f be 22 d7 15 bd 6f 63 22 3f 1b 6b e7 3c
       -0.13971028 -0.03658212 0.63432974 0.028249314
000010 50 4d 80 3c 68 60 26 3d 93 2d eb 3b 99 5c ae 3d
       0.015661865 0.040619284 0.0071770637 0.08513755
000020 5f 8f b4 be 79 b4 9f be 72 6a 23 3d 22 5d 21 be
       -0.35265633 -0.31192377 0.039896436 -0.15758184
000030 89 0c e0 3d 34 a5 e7 3c dc 61 b3 be 71 12 b4 be
       0.10939891 0.028277017 -0.35035598 -0.3517032
000040 35 4b 8a be 2c 60 90 be 1d 9b e2 3a 45 26 99 be
       -0.27010503 -0.28198373 0.0017288659 -0.2991201
000050 ba 14 da bc 18 a2 e3 3e 56 1f d3 3e b0 24 49 3c
       -0.026621211 0.44459605 0.41234845 0.012276813
000060 f6 2a 18 3e 0d e1 cc 3e ec 4f df bd e5 c6 be bd
       0.14860138 0.4001545 -0.10903916 -0.0931528
000070 ea a3 23 be 7c bc b7 bd 3d f2 1d 3d 03 b6 83 be
       -0.15980497 -0.089714974 0.038561095 -0.257248

x_encoder.out.weight f4 [128, 32]
000000 1c dc a4 be da 5f 00 be 9b 20 7f 3e b8 4c 39 bf
       -0.3219918 -0.12536564 0.24914782 -0.7238269
000010 11 d2 71 bd 2f 21 27 bf f6 2f b9 3e 06 a2 40 be
       -0.059038226 -0.6528501 0.36169404 -0.18811807
000020 02 be c8 be 96 f6 3a 3e bb a5 79 3e 5d f5 0b be
       -0.39207464 0.18258128 0.24379627 -0.13667817
000030 63 c9 47 3e 19 3e 0a bc be bd 9b bf 43 03 99 bf
       0.19510417 -0.008437657 -1.216728 -1.195412
000040 83 3d 25 bf 64 8a 27 bf 62 54 3e be 7d 9c 04 be
       -0.64546984 -0.6544554 -0.18586877 -0.1295032
000050 8c 54 15 bf 5f bc f8 3e 83 ac 31 3e 25 e6 14 bf
       -0.58332133 0.48581216 0.17350964 -0.5816367
000060 97 d2 37 3e b4 88 66 be f7 1e 10 be 94 01 ab be
       0.17951427 -0.22513086 -0.14074312 -0.33399642
000070 ec df 38 be 9d 7a 1e be 02 22 44 bf 32 9b 44 3d
       -0.1805417 -0.15476461 -0.7661439 0.04799957
000080 44 06 5f 3c 85 9c de 3c b0 b4 35 be db 0b 40 bc
       0.013612334 0.027174244 -0.17744708 -0.011721577
000090 45 db 96 3d a5 51 8d 3d 22 c5 72 be 74 8e ad bd
       0.07366041 0.06900338 -0.23708013 -0.084744364
0000a0 90 0f bf be 98 68 b2 bc a5 70 85 3e b3 7a c3 be
       -0.3731656 -0.02177839 0.26062503 -0.3817955
0000b0 b5 c6 d8 be f2 50 a2 3d 96 0b 03 bf fc 28 6d 3e
       -0.423391 0.07925595 -0.51189554 0.23160166
0000c0 e0 ad ee be d1 d9 9f 3e 5e 71 04 be c9 89 7a 3e
       -0.4661703 0.31220868 -0.12933871 0.24466623
0000d0 83 e9 d7 be 9f 0f ee be 62 9c b2 be 1a 35 eb be
       -0.42170343 -0.46496293 -0.34884936 -0.4593895
0000e0 97 54 21 be 88 1a ba be 9b 01 cf be 01 bb 51 3d
       -0.15754925 -0.36348367 -0.40430912 0.05120373
0000f0 cd 17 f9 be 99 6b 61 3d 91 2f 6f 3e 16 0a 6f bd
       -0.4865097 0.055034254 0.23357989 -0.058359228
000100 70 72 a7 3d 87 ca 35 bd fd 89 04 bf 9d 32 a2 3e
       0.08176124 -0.0443826 -0.51773053 0.3167924
000110 86 72 85 be fd 75 ed 3e 67 5b 0f bf 97 12 68 bc
       -0.26063937 0.4637908 -0.55998844 -0.014164588
000120 54 45 02 3e 23 ae 2f 3e 79 4e 32 3e b9 e5 cd 3e
       0.12721759 0.17156272 0.17412747 0.40214327
000130 ff 5b 64 3e c8 2f 0d 3c 3d 5f 9f be fd ea 55 be
       0.22300719 0.008617349 -0.3112735 -0.20890422
000140 fd e0 2d bf 4a bb 23 3f 68 67 bf bd c9 ec 66 3e
       -0.6792143 0.63957655 -0.09345895 0.22551264
000150 3b 97 ea bd 23 8c 9e 3e eb 8b a0 be 00 8d a8 3e
       -0.11454626 0.3096629 -0.3135675 0.32920074
000160 11 96 96 c0 12 69 03 bf 5c c0 04 bc e9 12 eb 3e
       -4.7058187 -0.513322 -0.008102503 0.45912865
000170 d9 04 a2 3e d1 25 00 bf 38 13 7b be d9 13 1a 3f
       0.31644323 -0.50057703 -0.2451905 0.60186535
000180 6e 74 26 be 6e 80 d4 3e 75 b2 e5 3d c0 95 12 3e
       -0.16255352 0.41504234 0.112156786 0.14314938
000190 46 aa e4 be 90 57 10 3e 78 ab 04 be 5f 18 48 3e
       -0.44661158 0.14095902 -0.12956035 0.19540547
0001a0 88 c6 16 be e5 17 b8 bd 95 1b 92 bd 05 b1 85 3d
       -0.14724171 -0.089889325 -0.07134167 0.065279044
0001b0 cd 53 c8 be 56 07 06 be d5 5f 51 3e ce de e0 be
       -0.39126435 -0.13088736 0.20446713 -0.43919986
0001c0 e7 31 a0 3e 94 81 5c 3e c1 9f 83 3e e2 b5 c5 be
       0.31288072 0.21533805 0.2570782 -0.38615328
0001d0 aa f5 19 3e 8e 6a 6d 3d ce b1 bc be ab fc cc be
       0.1503512 0.057962947 -0.36854404 -0.4003652
0001e0 25 7f d0 be 17 24 71 be 02 1c 3a 3b f7 73 e7 bd
       -0.40722004 -0.23548923 0.0028398042 -0.113014154
0001f0 8f c8 c9 be fd 6a 99 3e f8 db ae 3e d3 48 5b 3e
       -0.39410827 0.29964438 0.34152198 0.21414499
000200 5b 44 d5 ba 7e ab f7 bd 31 f6 a4 3e 5d 61 e1 3d
       -0.0016270982 -0.120932564 0.3221908 0.11004899
000210 67 88 4f 3e 5f d9 06 3e 34 45 b7 3e 7d 60 af 3e
       0.20266877 0.13168858 0.35794985 0.34253302
000220 d7 d9 0a bf 17 fb 83 3d ab 4f 44 be 99 dc ac bd
       -0.5423865 0.06444376 -0.19171016 -0.08440513
000230 07 59 5e 3e 0f a8 8a be 80 e0 cc be 9b 11 82 be
       0.21713649 -0.27081344 -0.4001503 -0.25404057
000240 ae 26 e6 be bf 46 7b 3e f0 c1 a2 bd 1c 22 89 3d
       -0.44951385 0.24538706 -0.07947147 0.06695959
000250 9d 60 bb 3d 8c f4 84 3e bf 15 be be 01 ff 8a be
       0.09149287 0.25967824 -0.37125966 -0.27147678
000260 40 5a 99 3d df fb e3 3d c5 fb 88 3d ee 25 ac be
       0.07487917 0.11132025 0.06688646 -0.33622688
000270 71 3c bf 3d d5 c4 5d 3d 85 2a 5f 3e 21 95 2e 3e
       0.093377 0.05414279 0.21793564 0.17049076
000280 94 c6 de 3e ee 7e 53 3e e1 35 2c be a1 54 c0 3e
       0.43510878 0.20653889 -0.16817428 0.37564567
000290 8e 9c 2f be 86 95 12 3d 54 e3 94 be 97 20 42 be
       -0.17149565 0.035787128 -0.29079688 -0.18957745
0002a0 1e 47 18 3d 63 8b 01 bd 53 37 ac 3e ae b4 7a 3c
       0.037177198 -0.03162707 0.3363596 0.015301866
0002b0 47 be a9 be ee 88 40 3e 12 f4 2d 3e b0 41 8d be
       -0.33152983 0.18802235 0.16987637 -0.27589178
0002c0 8c a7 03 be f7 d4 b5 be d3 ac b3 3e 63 9e 26 be
       -0.12856883 -0.35514042 0.35092792 -0.16271357
0002d0 5b 70 36 3d 94 ec b6 3e 45 79 86 3d e7 bf ba be
       0.044540744 0.3572737 0.06566099 -0.36474535
0002e0 03 58 c5 3b 00 b8 c5 be bf a9 70 3d 9a 04 cd 3e
       0.0060224547 -0.38616943 0.058755632 0.40042573
0002f0 0f 60 05 3d b8 93 8c 3e fd 02 ce be 23 ab 77 3e
       0.03256231 0.2745645 -0.40236655 0.24186377
000300 68 21 e9 3d 8c fd f1 3d 0f 1b c4 be bc 97 d4 be
       0.11383325 0.11815938 -0.38301894 -0.41522014
000310 44 a0 eb bd 01 c5 80 bd 24 bb bd be 09 8b a0 be
       -0.115051776 -0.062875755 -0.3705684 -0.31356075
000320 60 80 ae be 31 7d ba 3e ea b4 4e 3e 20 82 4a be
       -0.34082317 0.36423638 0.201862 -0.19776201
000330 13 e4 f4 bd 45 7f e3 be 23 16 79 bd d2 5a 7a 3d
       -0.11957564 -0.44433036 -0.060812127 0.06112177
000340 8c 56 86 be 40 74 15 be 94 6f 30 3e 05 8f 72 3e
       -0.26237905 -0.14595127 0.17230064 0.2368737
000350 3f 6d f8 bb 84 cc 24 3e de 5b 40 3e ed ce 2e bd
       -0.0075813825 0.16093642 0.18785045 -0.04267781
000360 80 2d 58 be 92 87 59 3e c1 1b ab 3d ad fc d9 be
       -0.21111107 0.21243122 0.08354903 -0.4257559
000370 21 0d 83 3e c7 89 bf bd 3d cd 36 bd e3 da 16 be
       0.25595954 -0.09352451 -0.044629324 -0.14731936
000380 39 8d b8 be 7a 3d 2d 3e ee 50 f2 bd 57 33 3e 3e
       -0.36045244 0.16917983 -0.11831842 0.18574272
000390 e0 85 32 bf 3d 9e 99 bc ab b1 ad be 8c 30 8d 3d
       -0.6973553 -0.018752212 -0.33924612 0.06894025
0003a0 f2 95 9d be fb 1c a3 3e cf 57 c3 be 6d 97 45 3e
       -0.30778462 0.31858048 -0.3815293 0.19296046
0003b0 a1 fb bb be bd 27 39 be fe 88 b4 3e 39 a0 c2 3e
       -0.36715415 -0.18081565 0.35260767 0.38012865
0003c0 37 7e ad be bf 28 dc 3e 44 53 73 3d 25 f8 e0 bd
       -0.33885357 0.42999837 0.05940558 -0.1098483
0003d0 77 bd 3f bd 30 e9 c9 be de 76 c7 3e 09 3a ef bb
       -0.046811547 -0.3943572 0.38957876 -0.0073006195
0003e0 72 3e c8 be 5f 38 e6 be a0 fd e3 3c 5e 8c 09 3e
       -0.39110142 -0.44964883 0.027830899 0.13432452
0003f0 bc a7 34 3c cb c7 39 be 42 31 a1 3e e3 b2 80 3d
       0.011026319 -0.18142621 0.31482893 0.0628412

x_encoder.out.bias f4 [128]
000000 2d dc ff 3d 6c 59 ab bd 2d 63 c0 bd c1 51 29 be
       0.12493167 -0.08366665 -0.09393916 -0.16535093
000010 c7 1b e0 bb 51 dc 75 bd 48 b4 02 be a4 81 1d be
       -0.006839249 -0.060024563 -0.12764084 -0.15381485
000020 a3 f4 29 3e 50 51 2b be e9 90 96 bd 39 f0 76 bb
       0.16597228 -0.16730237 -0.07351858 -0.0037679805
000030 ba c6 93 be 29 e1 03 bf 6e 5f aa be f5 d9 50 bd
       -0.28862554 -0.5151544 -0.33275932 -0.05098911
000040 54 10 c6 be 2f 56 ab be 76 db af bd 00 ab eb 3c
       -0.38684332 -0.3346419 -0.08586781 0.028768063
000050 89 1e e4 bb 17 a4 ae be 86 e4 8d be 10 a8 a9 bd
       -0.006961648 -0.34109566 -0.27713412 -0.082840085
000060 35 41 23 3d 62 af 44 3d bf ea d6 be 95 07 c3 bd
       0.03985711 0.04801882 -0.41975972 -0.095229305
000070 af b1 be be 81 e9 4e 3e 76 e9 09 be 77 ff c0 3d
       -0.37244937 0.20206262 -0.13467965 0.09423726
000080 4c 0f d6 bd 4e 0d ed bc b0 e7 c7 be 30 f9 8c 3c
       -0.104521364 -0.028937008 -0.3904395 0.017208666
000090 04 bf ac 3c a5 19 34 be 7e 50 bf bd 6c c3 4d be
       0.021087177 -0.17587908 -0.093415245 -0.20094079
0000a0 5b 54 1f 3d 2b 89 ae be df d2 59 3e 01 52 da bb
       0.038898807 -0.34089026 0.21271847 -0.0066626077
0000b0 25 79 c6 3d dd b4 86 3e da b8 1f bd f7 09 13 3e
       0.09691075 0.26309863 -0.038994648 0.1435927
0000c0 92 e8 e0 bd 8a 39 ac bd 89 f3 67 3d 45 c9 3d 3d
       -0.10981859 -0.08409412 0.056628738 0.046334524
0000d0 8f 54 bc 3b 04 17 af be dc 8f 97 be 5b 8b 39 3e
       0.005747385 -0.34197247 -0.29601943 0.18119566
0000e0 79 cd 28 3e ca 57 08 3e 48 9b de be 24 b8 af bc
       0.16484632 0.13314739 -0.43477845 -0.02145011
0000f0 c1 b3 45 bc bb 85 44 3d 9b 50 9d bd e9 e9 21 3d
       -0.012066782 0.047979098 -0.0768139 0.039529715
000100 df bc 2f 3c e1 16 26 bc e4 cc 54 be 6e 04 2c bc
       0.010726183 -0.010137291 -0.20781285 -0.010499103
000110 e4 e0 5b 3c 41 50 ab bd b6 82 02 be d4 52 03 be
       0.013420317 -0.083649166 -0.12745175 -0.12824565
000120 8a 96 ae 3d 45 e2 81 be fe 18 27 be 32 8a c1 be
       0.08524807 -0.25367942 -0.16318128 -0.37800747
000130 71 d0 28 be c5 e6 88 be 59 56 f1 3d 23 88 09 3d
       -0.16485764 -0.26738563 0.11784048 0.033577096
000140 d8 97 1b be 08 1e a4 bd 67 f4 8c be 65 53 c3 be
       -0.15194643 -0.080135405 -0.27530214 -0.38149562
000150 9d 35 d0 3d 4f 73 c8 bc 46 29 1a be bb 4d 31 bf
       0.10166476 -0.024469046 -0.15054807 -0.6925923
000160 af e8 fa be 8d 93 88 be c3 25 29 be e0 95 12 be
       -0.49005648 -0.26675072 -0.16518311 -0.14314985
000170 af 8a d9 bd e3 44 c7 be 3f db 1c 3e c4 a7 46 3d
       -0.10622155 -0.38919744 0.15318011 0.048499838
000180 5d e6 8d 3d ef 26 f6 3c ee 5e 7c bd a0 98 3e 3d
       0.06928704 0.030047862 -0.06161397 0.046532273
000190 76 18 06 be b6 a2 d7 3d b7 1d 9c 3d a8 66 d7 3c
       -0.13095269 0.105290815 0.07622855 0.026294068
0001a0 73 78 3e be db 11 6c 3d 7d c2 02 3e b4 f8 30 3e
       -0.18600635 0.057634216 0.12769504 0.17282373
0001b0 51 e1 d0 be 53 42 db be 70 54 a2 3d 48 32 e7 be
       -0.40796903 -0.4282404 0.079262614 -0.4515555
0001c0 fa a0 10 be 5a 60 cf bd 2a 1e 3e be af d9 c2 be
       -0.14123908 -0.101257995 -0.18566194 -0.38056704
0001d0 ea d7 5f be ce 84 2d bc a4 54 f8 3c 45 dd cc bd
       -0.21859708 -0.010590745 0.030313797 -0.10003141
0001e0 57 ac 57 bd 91 d6 2e 3c 45 46 b6 bd 38 6d 52 3d
       -0.05265459 0.010671274 -0.089001216 0.05137369
0001f0 ec 98 82 bd 7d ee 5c be 02 9b e5 3d b8 b2 2d be
       -0.06376824 -0.21575351 0.11211206 -0.16962707

xy_encoder.resizer.to_hidden.weight f4 [32, 1]
000000 d4 ab 5c 3a db ed f6 be 9a 86 b7 3e 55 e8 4d 3e
       0.00084179384 -0.48228344 0.3584488 0.20108159
000010 94 2e e5 3e 6f fb 39 3e a3 a9 08 3f a4 6d ca 3e
       0.447621 0.1816232 0.53383845 0.39536774
000020 50 4a 62 be de 19 c6 3e ae b1 1c bf d2 63 11 3e
       -0.2209866 0.3869161 -0.6120862 0.14198235
000030 ef a5 ed 3e 23 5d 23 3f d8 51 81 3e 16 3a a3 3e
       0.4641566 0.6381399 0.25257754 0.31880254
000040 f7 7a 02 3f 91 db d9 be 6c 33 0b 3f 41 cb 20 be
       0.5096888 -0.42550328 0.5437534 -0.15702535
000050 66 fb 2e bf d3 39 10 3e 58 46 b8 3c d0 d5 c0 bd
       -0.68352354 0.14084558 0.02249448 -0.094157815
000060 71 3f cf 3d d7 7f 02 3f 80 86 59 3e 5f bf 61 be
       0.10119522 0.5097632 0.21242714 -0.22045659
000070 36 da 3f bf f3 5e 51 be 48 7d 9a 3d 1c 39 8d 3d
       -0.7494234 -0.20446377 0.07543427 0.068956584

xy_encoder.resizer.to_hidden.bias f4 [32]
000000 f1 b8 22 bc d8 88 da bd bd ec 8a 3c 15 bd 82 be
       -0.009931789 -0.10670632 0.016958589 -0.25534883
000010 e9 f7 44 be 49 0a b3 be 18 b5 f7 bd 3a 90 56 be
       -0.19235195 -0.34968784 -0.12095088 -0.20953456
000020 b4 1d 84 be c1 90 82 be 35 c7 cc be ec c9 cc be
       -0.25803912 -0.25501063 -0.39995733 -0.39997804
000030 41 8d 90 3d 66 bd a7 3c 66 c1 bb be 8b a9 5f be
       0.07058192 0.020476054 -0.3667099 -0.2184202
000040 6c 71 e8 be dc 24 32 be 78 94 9a be 53 0c 50 be
       -0.45399034 -0.17396873 -0.30191398 -0.20317201
000050 78 bd 60 bc 1e 6e a3 be 9a 99 32 3c 0f 2a 1f 3e
       -0.013717048 -0.3191995 0.010900879 0.15543388
000060 43 e7 19 3e b6 e3 e2 be d4 cd f5 be 9a 50 a3 3d
       0.15029626 -0.44314355 -0.48008597 0.07974358
000070 e6 98 ad bd fd a7 a9 be cf 89 d3 3d 09 48 a2 be
       -0.08476429 -0.33135977 0.10329019 -0.31695583

xy_encoder.resizer.out.weight f4 [128, 32]
000000 0e 3d bf 3d 4e 61 aa be 89 f3 7c be 49 53 2f 3e
       0.09337817 -0.33277363 -0.24702276 0.17121615
000010 98 57 58 bf 86 07 69 be 48 63 49 bf 73 be 01 bf
       -0.8450866 -0.22756776 -0.78667116 -0.5068123
000020 04 2f 87 bc ca 17 66 be 4e f2 69 3e 2d 27 9a 3d
       -0.016501911 -0.22470012 0.22846338 0.075270034
000030 cf bf 86 3b c5 b0 eb be bb df aa 3c d7 2c 39 3e
       0.004112221 -0.46033302 0.020858636 0.18083511
000040 70 a6 f6 be 5d ac 27 3e 93 d1 2e bf 52 41 a7 3e
       -0.48173857 0.16374345 -0.68288535 0.32667023
000050 9d c1 79 be b8 d0 bc bd 9d eb 26 bf bb e8 4d be
       -0.24390264 -0.092194974 -0.6520327 -0.20108311
000060 7d 9e 33 bc af 65 98 bd 0a 0f e4 3c c9 b8 31 3e
       -0.0109630795 -0.074412696 0.027839202 0.17355646
000070 96 17 ec 3d c3 08 97 3e 14 08 c3 be 6c a4 41 be
       0.11527936 0.29498872 -0.380921 -0.18910378
000080 7e 6e 6a 3e 3e a5 a6 3d a9 a8 b4 be ac 96 93 3e
       0.22893712 0.08136986 -0.35284927 0.2882589
000090 6b 6d ab be 31 2c c6 3e bf b9 65 3e a2 c3 df bb
       -0.33481917 0.3870559 0.22434138 -0.006828741
0000a0 d7 a5 a0 3c 0b d6 27 3d 7c 80 c0 be ea 5b cb be
       0.019610329 0.04097561 -0.37598026 -0.39718562
0000b0 36 21 3e bd 14 10 1c be 3e 03 3d 3e 32 4c 83 be
       -0.04641839 -0.15240508 0.18458268 -0.2564407
0000c0 cb f0 c5 be 10 8a 92 be 5e be 9b be 44 76 10 3e
       -0.38660273 -0.28620958 -0.30418676 0.14107615
0000d0 42 7a 87 be 65 7d 65 3e b6 99 ae 3e e5 96 af be
       -0.26460463 0.22411115 0.34101647 -0.3429481
0000e0 95 9c 7c be d1 bf 97 3e 15 38 da 3e 36 cd 16 3e
       -0.24669106 0.29638532 0.42620912 0.1472672
0000f0 1d 91 b8 3e 6a 4b a2 be 75 ba 41 3e d5 b0 36 3e
       0.36048213 -0.3169816 0.18918784 0.17840894
000100 24 8d 1b 3e d2 73 68 be 33 4b 50 be 80 e8 aa bd
       0.1519056 -0.22700432 -0.20341186 -0.08345127
000110 e8 70 ea 3d ba f8 85 3e e4 72 c6 3c 49 8d d2 3e
       0.114473164 0.26166326 0.024224706 0.41123417
000120 af 46 52 3f 7f f8 fa 3c 0e 1e ba 3e 79 d9 a7 3e
       0.82139105 0.03063607 0.36351055 0.32783106
000130 78 4f 0a be 98 b2 17 be 9a 8b 86 bd 9e 77 94 bd
       -0.13506877 -0.14814222 -0.06569596 -0.07249378
000140 1e 2f 69 bc 5d 8d a5 bd a9 85 de 3e 40 46 41 3e
       -0.014232425 -0.080836035 0.4346135 0.18874454
000150 d2 e3 16 bf eb c5 d0 be 8d ca 0b be cb 55 24 bf
       -0.58941376 -0.40776 -0.13651486 -0.6419341
000160 f7 e1 cf be 98 f3 aa be 4f df 11 3e ce 29 c9 be
       -0.40602085 -0.33388972 0.14245342 -0.39289707
000170 91 d6 0c bf c4 f4 0e 3e 36 0b 86 be 01 62 03 3f
       -0.550149 0.13960558 -0.26180428 0.5132142
000180 ae 79 c7 be c6 ed 57 3d e9 37 01 bc 22 f3 53 be
       -0.38960022 0.052716993 -0.007886865 -0.20698217
000190 bb 93 40 be ff d6 aa be 78 f8 3d 3d ac 1b a4 3e
       -0.18806355 -0.33367154 0.046379536 0.32052362
0001a0 0b 8f 60 3d 0e 83 fa be 72 0c b8 3d e8 eb 73 bd
       0.054823916 -0.48928112 0.08986749 -0.05955115
0001b0 85 ad 35 bb f9 9e 1f bd 2f 2d 8e 3c de c8 d0 be
       -0.0027721834 -0.038969968 0.01735553 -0.4077825
0001c0 2f 7f d2 be 89 cd fc be 7d e9 39 3e 44 08 74 be
       -0.41112658 -0.4937556 0.18155475 -0.23831278
0001d0 88 99 18 be fb de 22 3e 5f 87 ac 3d 67 a0 3b 3e
       -0.14902318 0.15905373 0.084242575 0.18322907
0001e0 ca a9 74 bc 2b 92 90 be 8b ad cc bd a9 32 d7 3d
       -0.014933059 -0.28236517 -0.09994038 0.105077095
0001f0 23 9b 75 be 7a 3d be 3e 4c db cb be 46 3f f0 3d
       -0.23984961 0.37156278 -0.39815748 0.117308185
000200 77 d4 60 be d0 c4 61 bf 33 6e 19 3d 65 17 10 3b
       -0.21956049 -0.8819094 0.03745861 0.00219866
000210 77 6c 28 3e 09 db dc bd fd d5 ca 3e 9c 6d 96 3d
       0.16447626 -0.10783965 0.39616385 0.07345125
000220 77 c1 b3 3e a9 84 ea bd 2a 95 fa be 93 0f 0b 3e
       0.3510854 -0.11451084 -0.48941928 0.1358016
000230 60 14 5b be a4 3f 77 3e d8 f8 50 be a1 ea 90 be
       -0.21394491 0.2414537 -0.20407426 -0.28304008
000240 b3 d1 81 be 38 d6 a9 3d 8a 88 a1 be b0 52 f8 bb
       -0.253553 0.08292812 -0.31549484 -0.0075782165
000250 9c 23 ee be 39 c4 17 be a1 b3 17 be 0b 1f 16 bf
       -0.46511543 -0.14820947 -0.14814617 -0.5864112
000260 ef 44 91 3e f9 3f c2 bd 0b 75 79 3e 12 14 3f bf
       0.28372905 -0.09484858 0.24361055 -0.7464
000270 82 f3 79 bf 12 51 12 3e 71 e6 ae be 42 bd 39 3f
       -0.9763719 0.14288738 -0.34160188 0.7255441
000280 72 14 a5 3e 31 c4 10 3e 1d 3f 3e be 4d 5e 9e be
       0.3224216 0.14137341 -0.18578763 -0.3093132
000290 ec 08 8b 3e a7 de 74 3c 01 2a ab 3e 08 92 15 be
       0.27155244 0.014945663 0.33430484 -0.14606488
0002a0 b3 03 aa be a4 1b a0 3e 37 84 4b 3e 0c b7 d0 3e
       -0.33205947 0.31271088 0.19874655 0.40764654
0002b0 ed 5f dc be a4 a7 a4 ba 30 0b d4 be 7d 20 8e 3d
       -0.43041936 -0.0012562168 -0.41414785 0.069397904
0002c0 95 4f 8a 3e 67 1b 2a 3e d9 59 5f be e4 dd ad be
       0.2701384 0.16612016 -0.21811618 -0.33958352
0002d0 8e 4a e8 3d db 4f 65 3e d4 83 67 be a8 bc 2d bf
       0.11342345 0.22393744 -0.22608882 -0.6786599
0002e0 3a f9 be 3d d6 17 d5 3d c7 61 08 be bf 54 d1 be
       0.0932488 0.10404937 -0.13318549 -0.4088497
0002f0 e5 1e d6 be 45 64 d6 3e 19 b8 91 bd 14 8d 82 3e
       -0.41820446 0.41873375 -0.07115192 0.2549826
000300 24 d3 1b 3e c7 7b 8a be 91 ad 9d be a8 90 07 bf
       0.15217263 -0.2704756 -0.30796483 -0.529551
000310 35 c4 af 3d 3a b5 53 be b1 79 47 3e f3 db ed bd
       0.085823454 -0.20674601 0.19480015 -0.116142176
000320 97 a3 c6 be 69 0b c5 be bd 61 a7 3d c7 a6 2b be
       -0.38796684 -0.38485268 0.08172939 -0.1676284
000330 9f 9f b7 3e 04 ac c9 bd 37 48 5b be 64 bd 0e be
       0.3586397 -0.098472625 -0.21414267 -0.13939434
000340 67 23 45 3e 62 8e aa be 6b 43 c5 be eb 98 f7 be
       0.19251786 -0.33311754 -0.38527998 -0.48358855
000350 e7 f3 ff bc 4f dc 07 bf 82 c8 69 bd 47 74 d9 be
       -0.031244231 -0.5307054 -0.057075985 -0.42471525
000360 2d d3 2f be 89 4e f6 be f7 9f 81 be 1d ea 0b bf
       -0.17170401 -0.48106793 -0.25317356 -0.54654104
000370 63 5b ec be 36 89 02 bf 8c 05 18 3e 0d 84 ad be
       -0.46163473 -0.5099062 0.14845866 -0.3388981
000380 34 3c 09 be a2 0a 11 bf f8 f4 ba 3d dd 18 c1 be
       -0.13401872 -0.5665685 0.09128755 -0.37714282
000390 33 dd f7 be 10 e0 4d be 48 c0 2b be 98 12 b6 be
       -0.4841095 -0.20105004 -0.16772568 -0.3556106
0003a0 a0 11 f0 be dc 58 9a be c7 16 16 3e 7f 15 dd be
       -0.46888447 -0.3014592 0.14657126 -0.43180463
0003b0 69 3f 00 be 31 19 52 be 31 28 06 bd 80 39 e9 be
       -0.12524189 -0.20517422 -0.032753173 -0.45551682
0003c0 17 f3 b1 3c 60 fc 0b 3e c6 02 58 3d 22 3a 16 be
       0.02172236 0.13670492 0.05273702 -0.14670613
0003d0 dd 38 0a bf 5b 81 9e 3c 7a c8 07 3e 64 4d 56 be
       -0.53993016 0.01934879 0.1326007 -0.2092796
0003e0 11 57 32 be 4f a7 95 3c f4 00 a9 be f3 5d c9 be
       -0.17416026 0.018268256 -0.3300854 -0.3932949
0003f0 2a 0a 1d 3e cc f0 ea be c2 9f ab be b2 0d 4e 3e
       0.15335909 -0.45886838 -0.33520323 0.20122412

xy_encoder.resizer.out.bias f4 [128]
000000 1e c3 76 bd 16 6e 27 bb d2 a5 f5 be 94 f9 00 be
       -0.060244672 -0.0025547794 -0.47978073 -0.12595206
000010 b6 23 82 be c4 8a 69 be 68 4a 14 bb 0c ce 9f be
       -0.2541787 -0.22806841 -0.0022627357 -0.3121189
000020 30 f4 5e be b1 6f e9 bd 7d 77 47 bd c4 75 84 bd
       -0.21772838 -0.113982566 -0.048697937 -0.064677745
000030 84 36 f0 bd 53 d3 c6 bd 05 2a b6 be c8 16 ba bc
       -0.11729148 -0.09708276 -0.35578933 -0.022715941
000040 e9 45 11 be 39 1b 16 be c6 ae 0f bd 99 1a 53 bd
       -0.14186825 -0.14658822 -0.035078786 -0.051539037
000050 c8 6a 8a be b4 b2 c8 be 39 40 56 be 66 e2 33 be
       -0.27034593 -0.3919884 -0.20922936 -0.17566833
000060 8d d0 29 3c 96 5c 26 be 1c 51 61 bd d0 0b 1a be
       0.010364664 -0.16246256 -0.055008993 -0.15043569
000070 d7 1f 88 be 26 bd bd 3e 3e 32 cd bd 5e 42 a0 bd
       -0.26586792 0.3705837 -0.100193486 -0.078251585
000080 20 07 6d bd 5a 91 cf bd 0c 01 5c be 63 e4 85 bc
       -0.057868123 -0.101351455 -0.21484774 -0.016344255
000090 3b 05 a4 3c 7c 86 dd bd 39 59 d8 bd 47 38 39 be
       0.020022025 -0.108166665 -0.10563893 -0.18087874
0000a0 e6 da 8e be 95 56 5c 3b f4 0c 75 3e 9f 78 b9 ba
       -0.2790138 0.0033620943 0.23930722 -0.0014150328
0000b0 19 31 76 3d 54 74 0b be 58 86 4d be 2b a4 39 bd
       0.060105417 -0.13618594 -0.2007078 -0.04532258
0000c0 35 24 03 bc 5a dc a2 bd 07 bf b3 be fb 07 07 bd
       -0.008004238 -0.07952185 -0.3510668 -0.032966595
0000d0 96 03 40 bd 9a 18 ab be 59 ac 05 be 79 fd 2e 3e
       -0.04687842 -0.33417207 -0.13054027 0.1708888
0000e0 c6 08 35 3d 4f f2 98 3d 18 38 e3 be c3 11 8c 3d
       0.04419782 0.07468092 -0.44378734 0.06839325
0000f0 be 67 da 3d 3c ef 44 be fa 1e 48 3d 53 ba b9 be
       0.106643185 -0.19231886 0.048857667 -0.36274967
000100 30 22 1e be ab 5f 39 be ea 43 a2 be 3b 0f ba bc
       -0.15442729 -0.181029 -0.3169244 -0.02271234
000110 28 12 c7 bd cd c7 91 be 80 0a 82 be 00 00 00 00
       -0.0972026 -0.28472748 -0.25398636 0.0
000120 4b 22 a9 3d 22 ac 61 be fd b3 30 be ad d1 6a be
       0.08258494 -0.2203832 -0.1725616 -0.22931547
000130 61 92 08 bf 96 11 76 be 7e 3d 7c bd ab 1e 3c 3c
       -0.53348356 -0.24030146 -0.06158208 0.011481921
000140 4e 03 2a be cd 92 fb bd 56 83 0d be 52 49 bd be
       -0.16602823 -0.122838594 -0.13819632 -0.3697
000150 82 9d 1e 3e 18 8b c5 bd 83 22 00 be 43 5b e8 be
       0.15489772 -0.09645671 -0.12513165 -0.45382127
000160 9c 89 a8 be 83 59 17 be cc 64 cd bc 2c 82 fa bd
       -0.32917488 -0.1478024 -0.025072478 -0.122318596
000170 d5 9a 04 be 9c 4f ad be 82 99 0f be 2b 3d 59 3d
       -0.12949689 -0.338498 -0.14023402 0.05303685
000180 03 c1 78 be a9 0e 2f be 00 60 75 bc fe 3d 02 be
       -0.24292378 -0.17095436 -0.014976501 -0.1271896
000190 ab 51 03 be 12 83 74 3d 45 fc 62 be e3 2d dc bd
       -0.12824123 0.05969531 -0.22166546 -0.1075094
0001a0 dc 86 14 3d ae 5a 26 bc d5 b2 84 3d 9c 2e f0 bd
       0.036261424 -0.010153456 0.06479422 -0.1172764
0001b0 01 ed e6 be a7 68 85 be c7 1d 87 be 7f 25 cb be
       -0.45102695 -0.26056406 -0.26389906 -0.39677045
0001c0 aa 70 00 be 89 66 02 bd e7 88 34 be 09 ea d2 be
       -0.12542978 -0.031836066 -0.17630349 -0.4119418
0001d0 1c ad ab be e6 8d d4 3d 5b d3 96 be a3 db 15 be
       -0.3353051 0.103786275 -0.29458126 -0.14634566
0001e0 55 ab 06 bd d4 37 bc 3c 98 04 94 be f4 1f cb bd
       -0.03287824 0.02297584 -0.28909755 -0.09918204
0001f0 f9 ed 31 be 6d a4 b8 be 7a 87 c4 bd 7d 27 23 be
       -0.17375936 -0.36062947 -0.095961526 -0.15933032

xy_encoder.flat_module.to_hidden.weight f4 [128, 128]
000000 87 4e 28 bc 2c af dd bc 47 7c 15 bd b6 5d 29 bd
       -0.010272629 -0.027061068 -0.036495473 -0.041349135
000010 a3 8c 38 bc 5d 0c 82 bd 96 a3 26 bd 3b 0c 0f bd
       -0.011263999 -0.06350014 -0.04068335 -0.034923773
000020 60 c9 e9 3b e5 d7 c4 3c 29 a8 8b bc 03 a1 a1 3b
       0.0071346015 0.024028728 -0.017047958 0.004932524
000030 b1 a5 c2 bd 70 eb 51 3c f2 6d f6 3b ec ff 8c 3d
       -0.095042594 0.01281248 0.0075204307 0.06884751
000040 86 a9 4d bd 5e b1 5f bd 88 ad 90 bd a2 b0 95 bd
       -0.0502105 -0.05461251 -0.070643485 -0.07309081
000050 f0 b1 7c bc fa ed 1a bc 9c 5d 91 bd 92 15 20 bd
       -0.015423283 -0.009456152 -0.07097933 -0.03908307
000060 d8 30 cc 3c 2d 58 66 3d aa 64 bd 3c 47 6a 0b bb
       0.024925634 0.056236435 0.02311929 -0.0021273063
000070 64 36 25 3c 74 af 1d 3b af 84 e2 bc 7a 49 9b bc
       0.0100837685 0.0024060877 -0.02765116 -0.018955935
000080 3a be c5 3c 62 23 9c bd d9 e0 7e 3d cf 1b 80 3d
       0.024138559 -0.07623936 0.06222615 0.06255304
000090 b1 af ba 3c 73 ad 88 bd b5 b4 9a bd 99 36 d3 bd
       0.022788854 -0.06673708 -0.075539984 -0.10313148
0000a0 b0 c8 04 3c 8d cb a8 bd 84 f0 84 bd c5 cc 77 3d
       0.008104488 -0.08241949 -0.06491187 0.060498018
0000b0 0b c7 02 3d a5 95 c8 bc 72 92 86 bd 08 6d bb bd
       0.031928103 -0.024485419 -0.06570901 -0.091516554
0000c0 72 9d af bd 3d 6b 96 bd 38 d8 7e bc a6 1f 04 3d
       -0.08574952 -0.07344673 -0.01555448 0.032256745
0000d0 b0 7f 20 bd e6 79 d3 bc d8 12 39 bd d4 1b a6 bd
       -0.039184272 -0.025814962 -0.045183986 -0.081107765
0000e0 bf 1d d9 bc eb 39 b1 bd 24 e1 57 3c 24 4e 8a bd
       -0.026503442 -0.08653625 0.013176236 -0.067531854
0000f0 8a 3d 6d 3d 98 89 60 3d 7d a3 b7 bc 68 d7 2d 3c
       0.057920016 0.05481872 -0.022416824 0.010610439
000100 e8 f3 f3 3c d3 7d 5a 3d b4 53 74 3d 20 7c c5 bc
       0.02977939 0.05334265 0.059650138 -0.024107039
000110 1d f8 ba bd 8d a1 52 3d 69 6e e5 3c 12 d7 36 3d
       -0.09129355 0.051423598 0.02800675 0.0446387
000120 99 f2 00 bd 69 f0 31 bd 1e 0f e3 bd 66 61 99 bd
       -0.03148136 -0.043442164 -0.11086868 -0.074892804
000130 0f 91 35 bd c0 b8 6f 3d 16 9d ab bd e2 92 a2 bd
       -0.04432779 0.0585258 -0.08379571 -0.07938172
000140 81 34 45 3b 09 a0 ec bd a5 65 73 3d 82 b8 ab 3b
       0.003009111 -0.11553962 0.059423108 0.005240501
000150 e1 80 33 3d 24 90 98 bd 68 18 e9 3c 1f 07 8f bd
       0.04382408 -0.07449368 0.02845402 -0.0698378
000160 e3 a2 37 3c 45 62 ac bd 80 6b 23 bc 4b bb 8a 3d
       0.011208269 -0.08417181 -0.0099743605 0.067740045
000170 5d 3d 68 3c bf 83 9d bd c7 b0 27 bd 72 6e 46 ba
       0.014174786 -0.07691144 -0.040940072 -0.0007569558
000180 c3 c5 87 3d 13 a5 95 bb e8 eb 79 ba a3 c0 70 bc
       0.06629517 -0.0045667975 -0.0009533749 -0.014694366
000190 ea b1 65 3d db e1 a8 3c f8 be 97 bd 7e 90 79 bd
       0.056077875 0.020615509 -0.07409471 -0.060928814
0001a0 c0 ad 56 bd 03 73 1f bc 5d 81 35 bd 88 0d 2e bc
       -0.052411795 -0.009732011 -0.044312824 -0.010623343
0001b0 66 9d 9f 3c 81 5a 82 3d c4 f4 32 3d 05 1d 8a bd
       0.019484233 0.063649185 0.043690458 -0.06743816
0001c0 66 e0 09 3d 9c 87 fe bc c2 70 56 3d 88 51 4a bd
       0.03366127 -0.031070523 0.052353628 -0.04939416
0001d0 d9 d2 5c bd fb 26 80 3c cb d9 01 bc 98 62 4d 3c
       -0.053912017 0.015643587 -0.007925461 0.012535714
0001e0 33 14 55 3d a6 93 6a 3d 02 f5 b2 3b c3 ce f8 bc
       0.052021217 0.057269715 0.005461336 -0.03037203
0001f0 ca c3 60 3d 76 42 97 bd 06 5f 44 3d c8 50 b3 bd
       0.05487422 -0.07385723 0.047942184 -0.08755642
000200 91 b6 14 bc bd db 0e bd 0e 46 76 3d 9e 96 65 3d
       -0.00907673 -0.034877528 0.060125403 0.056051843
000210 35 03 cd bd fe 5a 3c 3d f0 7b fd 3c 04 9f 1f bd
       -0.10010377 0.045985214 0.030942887 -0.03897001
000220 0c 0f 82 bc 25 a0 97 3d da d0 54 3d 35 26 ba bd
       -0.015876316 0.07403592 0.05195699 -0.09089319
000230 a5 1d a2 bd bf d5 8d 3d bd 7d 4c bd 00 41 a0 bb
       -0.079158105 0.069255345 -0.0499246 -0.004890561
000240 06 91 d8 bd 8a 42 9d bd 00 f0 6b b8 02 93 7d 3d
       -0.10574536 -0.07678707 -5.6251884e-05 0.061907776
000250 20 1a 51 bd 10 01 0a 3d 2b c8 79 bd fe 8e 47 bc
       -0.051050305 0.03369242 -0.06098191 -0.012180088
000260 30 f3 04 39 b0 fb 97 bb aa b3 0a bd 1e 1c 32 3d
       0.00012679095 -0.004638158 -0.033862747 0.043483846
000270 a7 67 49 bd 71 01 4e 3c c6 6d 57 3d 3a af 78 3c
       -0.049171116 0.012573586 0.052594922 0.015178496
000280 ff 2d a4 bd 85 d8 00 bc 18 d8 fa 3a fa 06 10 3d
       -0.080165856 -0.007864122 0.0019137887 0.035162903
000290 6d 1f 65 3d b5 34 8d 3d 30 bb 83 3c 87 e8 a3 bd
       0.055938173 0.06894819 0.016080469 -0.080033354
0002a0 f7 6d 4a 3d 33 40 bf 3c 13 fa 8c bd 7b 21 a5 3d
       0.049421277 0.023346042 -0.06883635 0.080630265
0002b0 6f f4 ab 3d 88 c3 f8 3c ca e7 95 bd 9b 59 3c 3d
       0.083962314 0.030366674 -0.07319601 0.045983892
0002c0 e0 cd ba bc e2 c0 ed bd f7 72 be bd bc 66 f4 3c
       -0.022803247 -0.11609055 -0.092992716 0.029834144
0002d0 1a b2 c5 3a f1 55 aa 3d 1f 64 fa bc c8 4f ef bd
       0.0015082986 0.08317173 -0.03056532 -0.11685139
0002e0 2c 41 ee 3b 63 e1 19 3d 21 f2 8c 3c 9e 31 1b 3c
       0.0072709527 0.03756846 0.0172053 0.009472279
0002f0 1a d9 be 3c 37 6b a7 3d d3 1e 0e 3d f8 9d 33 3c
       0.023296881 0.081747465 0.034697365 0.010962956
000300 6b 4f b9 bd 0e 92 b9 bd 32 ab f6 bc 49 00 b3 3c
       -0.09048351 -0.09061061 -0.03011093 0.021850722
000310 55 07 54 bd fb 81 b4 bc 21 cf 07 3d 52 eb 96 bd
       -0.051764805 -0.022034636 0.033156518 -0.073691025
000320 c8 e4 8c bc 40 a1 fb 3c 70 19 54 bd bb 03 2d 3d
       -0.017198935 0.030716538 -0.05178207 0.042239886
000330 cd 6f cb bd 46 4b 77 3d 41 c6 b2 bd 84 b4 22 bd
       -0.09933434 0.06037452 -0.0872922 -0.039722934
000340 f2 ca 57 3d f6 d1 a2 bc 0a 2e 59 3b 37 0a 89 3d
       0.052683778 -0.019875508 0.0033139014 0.066914015
000350 47 92 c1 bd d5 ee 50 bc 3e 6a 6f 3d 90 28 75 bd
       -0.09451728 -0.0127522545 0.05845093 -0.059853137
000360 43 2e 40 3d 74 c4 37 bd 9e 3d 26 3d 68 99 95 bc
       0.04691912 -0.044865087 0.040586106 -0.018261626
000370 eb a9 84 3d e0 7a 77 bd 74 da 82 bd 6c 34 87 bd
       0.06477722 -0.060419917 -0.06389323 -0.066017956
000380 4b 7a 20 3c 42 f3 43 bc e3 ae 9d 3d b1 91 a9 bd
       0.009794782 -0.011959853 0.076993726 -0.082797416
000390 48 48 a3 3c ab fb ed bd ab e1 54 3d a3 62 a6 bd
       0.019931927 -0.116202675 0.051973026 -0.08124282
0003a0 72 68 12 bd cc e4 51 bc ce b6 4b 3d ba c2 6a 3d
       -0.035744138 -0.012810897 0.049734883 0.057314612
0003b0 c4 54 96 bc c8 93 ec 3c 77 88 36 3d f7 9d d0 3a
       -0.018350966 0.028879061 0.044563737 0.0015916218
0003c0 39 a4 70 3d 21 8c 54 bd 34 d7 6e bd d0 e4 e7 3c
       0.058750365 -0.05189145 -0.058310702 0.028307348
0003d0 87 2a 73 3d 40 ea da bb 28 07 49 bd 67 77 99 bd
       0.05936673 -0.006680757 -0.04907909 -0.07493477
0003e0 eb 0e 4e bd ac a4 a8 bd b7 d0 20 bd f8 0b c5 bc
       -0.050307196 -0.08234534 -0.039261546 -0.024053559
0003f0 3e 8d 53 bd 05 e9 da 3a 21 0e b1 bd 08 56 5e 3c
       -0.05164837 0.0016701525 -0.08645273 0.013570316

xy_encoder.flat_module.to_hidden.bias f4 [128]
000000 7f e9 a8 bc 14 89 30 bd a2 0e e0 bd ee 1d 49 be
       -0.020619152 -0.043099478 -0.10940291 -0.19640324
000010 e5 3a 02 bd 45 cc 9b bd 25 19 8a 3d 2c b0 ea 3c
       -0.031794447 -0.07607321 0.06743077 0.028648458
000020 ce 05 d8 bd d4 0b 6f bd 0d 35 08 bd 13 74 40 bd
       -0.10547982 -0.05836089 -0.03325372 -0.046985697
000030 7b b7 04 bd 99 6e 30 bd 7f d0 60 bd 49 4c 02 bf
       -0.032401543 -0.043074224 -0.054886337 -0.5089765
000040 b7 40 c2 bd 16 a0 4c be 14 0e 40 bd 97 04 85 bd
       -0.094849996 -0.19982943 -0.046888426 -0.06495016
000050 70 38 a3 bd f4 91 13 bd 8b f7 49 3e 89 39 ba bc
       -0.07969749 -0.036027864 0.19723336 -0.022732513
000060 6d c2 94 bd 35 c9 ee be ee 49 7a be 20 a1 e4 3d
       -0.07263646 -0.46637884 -0.24442264 0.11163545
000070 e6 3e 30 bd bb ca 87 be 03 1a 30 bd 4f 67 8e bd
       -0.043028735 -0.2652186 -0.042993557 -0.06953298
000080 66 85 30 3d 24 6e cb bc 8e 0e fa be 03 20 80 be
       0.04309597 -0.024832793 -0.4883923 -0.25024423
000090 28 0b 6a bd 40 ea 8b 3d 7e f8 a8 be c8 26 83 be
       -0.057139546 0.06831789 -0.33002084 -0.25615525
0000a0 5a 83 63 bd e0 98 f4 be 08 cb 25 be a5 78 a8 bd
       -0.05554519 -0.47772884 -0.16190732 -0.08226136
0000b0 eb ae b3 bb 23 49 f9 bc 1c 79 02 be ec a8 18 bd
       -0.0054834983 -0.030430382 -0.12741512 -0.03727047
0000c0 9a dc e6 3d 21 8d 83 bd 56 5d 7f bc 7a 16 25 3d
       0.11272545 -0.064234026 -0.015586218 0.04030464
0000d0 5d 70 a1 bd 71 69 86 be 4d 7e d5 bc 37 67 be be
       -0.0788276 -0.2625232 -0.026061201 -0.37188122
0000e0 6c 2d 98 bd d5 92 8d bd 5a af c8 bd 85 ce c2 bc
       -0.074305385 -0.069127716 -0.09799071 -0.023780117
0000f0 17 a8 2b be 4e d2 c6 3d 61 5a 25 3d a7 46 91 bd
       -0.1676334 0.09708081 0.040369395 -0.07093554
000100 00 98 e0 3d fa 27 16 bd b8 f4 86 bd 95 6e a2 3c
       0.10966492 -0.03665922 -0.06589645 0.01982812
000110 f0 32 7b bc 27 a8 93 bd 34 0d 13 bd f7 a9 66 bd
       -0.015331969 -0.07209807 -0.035901263 -0.056314435
000120 ae 46 9a bd 96 fd 83 be 0c 43 49 be e3 d7 cd bd
       -0.07533012 -0.25779408 -0.19654483 -0.10050943
000130 91 67 43 bd 7b 82 27 be fb 57 32 bd 4f 20 2c bd
       -0.04770619 -0.16358368 -0.043540936 -0.042023
000140 81 40 c3 be e5 d4 f4 bc 41 22 b8 be 71 27 9a bd
       -0.3813515 -0.029886672 -0.35963634 -0.07527054
000150 b4 e0 fe bd 3f 3c 86 bd bd 0e 90 bc 93 0b b7 3d
       -0.124452025 -0.0655446 -0.017585153 0.089377545
000160 61 67 d6 ba cb e4 86 3d 8b 1b 9a bc 71 fd 1f bd
       -0.0016357714 0.065866075 -0.018811962 -0.03906006
000170 23 83 07 bd fc bf ae 3c 97 47 75 bd 5d 14 46 bd
       -0.033084046 0.02133178 -0.059882727 -0.048359264
000180 b0 78 a3 bc 69 2d 0c bd 6a f9 1a be 36 89 85 be
       -0.01995501 -0.034222994 -0.15134206 -0.26081246
000190 8f de 81 be 9a b1 c9 3c 40 35 88 bd ba 0c 86 bd
       -0.2536511 0.02462082 -0.06650782 -0.06545396
0001a0 1e da 06 be f0 af 93 be 72 15 11 3e 6c c7 8a bd
       -0.13169143 -0.28845167 0.14168337 -0.06776318
0001b0 a5 d2 44 3d 07 d8 52 bd e6 49 d1 be bc 84 94 3d
       0.04805245 -0.05147555 -0.40876693 0.072518796
0001c0 4f f0 17 bd be 5c 96 bc cf 82 74 bd 4f bd 6e bd
       -0.03709441 -0.01835477 -0.05969506 -0.058286007
0001d0 33 d5 94 3d 65 5c 9a be 49 3b 5f bd 6b e2 d6 bd
       0.07267227 -0.30148616 -0.054499898 -0.104924046
0001e0 60 38 01 bd d8 16 10 bf 43 fc 7f bd a0 4d f3 be
       -0.031547904 -0.56284857 -0.062496435 -0.4752016
0001f0 6d 9d 61 bd b1 29 9d 3d 5d 84 2c bd dc 7d 08 3d
       -0.055081774 0.07673968 -0.04211842 0.033323154

xy_encoder.flat_module.linears.0.weight f4 [128, 128]
000000 ba c3 b8 bd 7e 63 85 3d 82 86 a6 bd de 73 5e 3c
       -0.09021707 0.06513117 -0.08131124 0.01357743
000010 28 27 9f bd 2d 1a 71 bd 1e 3f de bc 0b 95 0b bd
       -0.0777114 -0.058862854 -0.027129706 -0.034077685
000020 23 27 63 bd 1b 62 6b 3d dc 3e 96 3c 83 41 69 3c
       -0.055457246 0.057466608 0.01834052 0.014236811
000030 48 ca 96 bd 0a 23 17 bd fa 2c 1f 3d 70 58 61 bd
       -0.07362801 -0.03689865 0.038861252 -0.05501598
000040 ae 0b d8 3c e0 e7 f6 bc 0f c1 4f bd 4c 67 e4 bc
       0.026372757 -0.030139863 -0.050721224 -0.027881287
000050 07 b4 95 3d 1b ca 21 bd 79 46 59 bd 3f 99 a1 bd
       0.07309728 -0.039499383 -0.053045724 -0.078905575
000060 74 4d 3a bc 5c 49 2a 3d 06 56 65 bd 50 df e2 bd
       -0.011371005 0.041573867 -0.05599024 -0.1107775
000070 be a7 31 bd 4d d1 7e bd ea 92 0c 3d 4e e6 8a bd
       -0.043372862 -0.062211324 0.034319796 -0.067822084
000080 96 64 c5 bd 56 aa 63 bc 01 9b af bc 51 e9 a7 bd
       -0.09638326 -0.013895592 -0.021436216 -0.081987984
000090 b8 b6 ac bc 92 5c 9a bd b1 f7 92 3d 5e 36 47 3c
       -0.02108322 -0.07537188 0.0717615 0.012158958
0000a0 34 ac 77 3d 62 23 40 3d 66 63 2e bd 4f 2f 61 3d
       0.06046696 0.046908744 -0.042575262 0.054976758
0000b0 64 1f f8 bd a0 df be bc 71 f5 f1 bd ec ec 58 bd
       -0.12115362 -0.023299992 -0.11814392 -0.05296032
0000c0 f5 99 27 be 1a 51 87 3d 99 f4 8e bd cb 0d 4f bd
       -0.16367324 0.06607266 -0.06980247 -0.050550263
0000d0 7c f6 63 bb e2 cc 84 3b 3a f6 5d 3d a9 c3 0a bd
       -0.0034784367 0.0040527442 0.054189898 -0.033878002
0000e0 d2 a3 2b bd 42 59 bd bd 3f 01 fb 3c 4d 8a 66 3d
       -0.041904278 -0.0924554 0.030640243 0.056284238
0000f0 5b 04 cc bd 25 0c 28 bd e1 8b 4d 3d fa 9e 66 bd
       -0.09961768 -0.041027207 0.050182227 -0.056303956
000100 52 58 bf bc 59 90 4c bd eb 31 bc 3c e2 e9 8e bd
       -0.023357544 -0.04994235 0.022973021 -0.06978203
000110 ed ce 18 bd ce ba 21 bc 7a f9 7c 3d 01 cc b3 3c
       -0.037306715 -0.009871198 0.061761357 0.021947863
000120 1d cf 6d bc 63 37 47 3d 55 99 80 3c 5d c1 b8 bc
       -0.014514712 0.048636805 0.015698114 -0.02255314
000130 32 32 91 bc 99 61 9b 3d e4 85 9d bd 02 eb e1 3c
       -0.01772413 0.07586975 -0.07691553 0.02757788
000140 c9 15 1b 3c 9e 84 ab 39 ae b5 1c bd 8a 34 a9 bd
       0.009465643 0.0003271447 -0.0382592 -0.08261974
000150 91 0e d4 bd be 31 53 3d e1 8b 87 ba 6c 5d 15 3d
       -0.10354341 0.05156111 -0.001034137 0.036466047
000160 dc a5 1a 3d bf ab 38 bd 90 32 cb bd 60 f6 60 bd
       0.037755832 -0.045085665 -0.099217534 -0.05492246
000170 56 90 53 3d b8 34 4b bb 56 58 e4 bc c1 4e 8e bd
       0.05165132 -0.0031006765 -0.027874153 -0.06948615
000180 dc ce 61 bd 86 bf 2a bd e8 40 22 bd 17 38 12 bd
       -0.055128917 -0.041686557 -0.03961268 -0.035698023
000190 83 bf 4d bc 50 82 3d bc 5f 93 6f bd 24 24 e2 3c
       -0.012557867 -0.011566713 -0.058490153 0.027605124
0001a0 dd e5 2f bc 72 5f 1a bd a7 cd d8 3c 81 56 c8 bb
       -0.010735956 -0.03768868 0.02646525 -0.0061138277
0001b0 cf fa d5 bc eb ca 13 bc a1 43 4d bd d7 df 0c 3d
       -0.026120571 -0.009020547 -0.050113324 0.034393158
0001c0 70 09 09 3d 9c 07 78 bd 3f 8e d7 3c 13 7d aa 3c
       0.033456266 -0.060554132 0.026312945 0.020811593
0001d0 cc f4 a2 3c 57 d6 95 3d 04 c8 c5 3c 8c 75 34 bd
       0.019892119 0.07316273 0.024143226 -0.044057414
0001e0 f8 45 44 3d 32 29 ae bd 3a ac 99 bd 79 81 89 bd
       0.04791829 -0.08503951 -0.07503553 -0.06714148
0001f0 a6 f7 55 bd a2 ee 73 bb 0a 56 49 3d 7c 59 c4 bd
       -0.05223813 -0.0037221094 0.04915432 -0.0958738
000200 12 27 e0 3c fd 8a 43 bd 84 bc 98 3b bb c6 84 3d
       0.02736238 -0.04773997 0.0046611447 0.06483217
000210 3d f3 b6 3d 18 a1 83 bc c8 5a 20 bd c5 13 85 be
       0.08933113 -0.016068026 -0.039149076 -0.25991645
000220 64 bb 9f bd 08 09 8c 3d a4 09 92 bc a9 96 b0 bd
       -0.07799414 0.0683766 -0.017826863 -0.08622486
000230 ba 22 da bb b7 8d 06 3c d0 95 70 3d 86 f0 2b be
       -0.0066569718 0.008212498 0.058736622 -0.16790971
000240 75 f5 f1 bd 59 a0 42 3d d9 77 71 3d 13 14 95 3d
       -0.11814395 0.0475162 0.058952186 0.072792195
000250 4f 15 60 bc 7a 40 bc bd c1 62 1f be 5e 2f 3f be
       -0.013676955 -0.091919854 -0.15565015 -0.18670413
000260 af 02 9d 3d ae 4e 3e bd f5 4b 11 3e 8c 39 18 be
       0.076665275 -0.046461754 0.14189132 -0.14865702
000270 94 cc f1 bc c9 2d 83 bd 97 c2 8c bd 59 08 eb bc
       -0.029516496 -0.06405217 -0.068730526 -0.028690504
000280 fb 01 b0 3c 32 51 ef 3c 23 3c 92 3d 36 37 90 bf
       0.02148532 0.029213522 0.071403764 -1.1266849
000290 8b 7c 1a 3c 26 83 01 be 4c 8e 10 bd 16 92 d5 bd
       0.009429107 -0.12647685 -0.035291955 -0.10428254
0002a0 48 fd 93 3c 62 c8 bf 3d 27 e9 cc bd a0 7d 3e bd
       0.01806511 0.09364392 -0.10005408 -0.046506524
0002b0 03 15 b3 bd 73 ce a8 bd b7 8c 4e be 0f fd 17 bd
       -0.08744242 -0.08242502 -0.20170866 -0.03710657
0002c0 3b 6c a1 be 95 d5 0d bb 99 7f 13 bd e9 b1 ac be
       -0.31527886 -0.0021642197 -0.03601036 -0.33729485
0002d0 15 3e 14 3c 89 2f 63 3e 63 82 57 bd f0 96 b0 bc
       0.009048005 0.22186102 -0.05261458 -0.021556348
0002e0 08 cd 36 bd e0 46 02 3c 01 7b a8 bd 52 79 3a 3e
       -0.044629127 0.007951468 -0.08226586 0.18210343
0002f0 bc 36 8c bc 30 34 4d be 45 86 c2 3d 2d 61 17 be
       -0.017115943 -0.20039439 0.09498266 -0.14783163
000300 ae 52 83 be b6 17 33 bd db a2 79 bd dc 17 3f 3e
       -0.25649017 -0.043723784 -0.060946327 0.18661445
000310 10 79 70 3c ae b1 3c 3c ba 68 e1 3d 6c c8 f3 3d
       0.014677301 0.0115169715 0.11006303 0.11903462
000320 80 fa a8 3c e6 65 15 3c ea 32 3b 3e 56 32 aa bd
       0.02062726 0.009118533 0.18281141 -0.08310382
000330 64 25 8e 3a 30 78 9d bc 49 5f 00 bd 8f 86 90 bd
       0.0010844884 -0.019222349 -0.03134087 -0.07056915
000340 5d ff ec 3d 2d 66 a2 bd 0b ca dc bd 40 f2 8d bd
       0.11572144 -0.07929645 -0.10780724 -0.06930971
000350 d6 11 84 bd 2e ef 77 bd fe f7 3c be db 02 09 bf
       -0.064487144 -0.060530834 -0.18453977 -0.5351998
000360 b6 9e 82 3c b8 94 0c bc 5b fa 5c 3e 59 67 b2 bc
       0.01594482 -0.008580379 0.21579878 -0.021777796
000370 9b 26 c9 3c 66 59 e8 be d2 35 45 bd 40 85 00 3d
       0.024554541 -0.45380706 -0.04814703 0.031377077
000380 5b 93 0d bd bf de 64 bd b2 98 ef bd 56 2e 5b bb
       -0.034564357 -0.05587649 -0.11699046 -0.0033444366
000390 f8 5d e5 bd 6f 96 5a bc 92 7e a8 bc 0e c2 98 3d
       -0.11199564 -0.01334153 -0.020568166 0.07458888
0003a0 75 94 67 bd a7 dc 05 be 07 32 84 3a 18 a6 a4 bd
       -0.056538064 -0.13072453 0.001008571 -0.08039492
0003b0 cd 93 51 bd 39 f3 42 bb 67 8b 8c 3d b2 a2 0f be
       -0.051166344 -0.0029747023 0.068625264 -0.14026907
0003c0 18 8e a6 3c 27 48 3f bd ff f1 4e be e2 86 aa bd
       0.020331427 -0.04669967 -0.20209502 -0.08326508
0003d0 f4 5d 04 bd 65 1d f0 bd ab 88 ff bc 9e 99 2e be
       -0.032316163 -0.117243566 -0.031193098 -0.17050788
0003e0 19 74 a3 bd 32 3b 40 bd 52 46 83 3d c7 db 4b 3d
       -0.07981128 -0.046931453 0.06409897 0.049770143
0003f0 3d 85 9a bd fa b5 9d bd 51 3c eb bd d1 1d ba bd
       -0.075449444 -0.07700725 -0.11486114 -0.09087718

xy_encoder.flat_module.linears.0.bias f4 [128]
000000 c5 a1 92 bd 83 fd df bd 53 7d c2 bd c9 ce 26 bc
       -0.07159761 -0.109370254 -0.0949656 -0.010181137
000010 ea c6 92 bd ae bd c9 3c 8a 99 3f 3d f0 90 39 be
       -0.07166846 0.02462658 0.046777286 -0.18121696
000020 c7 60 94 bd 95 c6 b2 bd e8 7e 43 bd 3d c6 18 be
       -0.07245021 -0.08729283 -0.04772845 -0.14919372
000030 87 70 d8 bc 46 03 59 be c9 ac d0 bd 63 7a 8f bd
       -0.026420845 -0.21192655 -0.10189206 -0.07005765
000040 ac b1 91 bc 14 ac 70 bc 59 a3 bf bd b2 2e 57 be
       -0.017784916 -0.014689464 -0.09357328 -0.21013907
000050 7b 2e 8f bd 4d fb 1a bd 51 e2 02 be 8d ed ac bc
       -0.06991287 -0.037837315 -0.12781645 -0.021109367
000060 ce bc e2 bc a0 37 7f bd 36 70 93 bd b1 4c 8a bd
       -0.02767792 -0.062308908 -0.07199137 -0.06752909
000070 6c d7 a3 be 4e 99 92 be 40 2b 16 bc fc 4d db bd
       -0.3200029 -0.28632587 -0.009165585 -0.10708234
000080 79 e3 c3 bd 70 1c 89 bd aa 25 76 bd 88 1e a1 be
       -0.09564871 -0.06694877 -0.060094513 -0.31468606
000090 f9 c4 27 be 53 49 55 bd 03 40 57 bd 4c 24 b3 bd
       -0.16383733 -0.05207188 -0.05255128 -0.087471575
0000a0 3d 72 51 bd a3 0a 8c bd 50 52 80 bd 79 e3 e3 bc
       -0.051134337 -0.06837966 -0.062657 -0.027818428
0000b0 3b 95 b8 bd 19 8e 79 bd f8 24 58 be 9b 10 ef bd
       -0.090128385 -0.06092653 -0.21107852 -0.11673089
0000c0 a3 57 0c bd ed 7e 8b bd 12 50 69 bd b4 d2 01 bd
       -0.034263264 -0.068113185 -0.056961127 -0.031695083
0000d0 ae a4 f2 bd d2 28 24 bc 4c 2f a9 be 89 16 7f bd
       -0.118478164 -0.010019498 -0.33043897 -0.06227735
0000e0 98 cc 83 bd f2 2a aa be 2a f3 80 bd b3 98 07 bd
       -0.064355075 -0.3323589 -0.0629638 -0.03310461
0000f0 6b d2 9b be a3 dd a8 bd 39 56 58 be 8d d0 a7 bd
       -0.30433974 -0.08245399 -0.21126641 -0.08194075
000100 ff dd ab bd 91 f1 8e be 25 6f d0 bd f8 c7 17 be
       -0.08391952 -0.27918676 -0.10177449 -0.14822376
000110 a5 4e 81 bd f8 24 a8 be 52 7e a1 3d 1f 29 4b bd
       -0.063138284 -0.32840705 0.07885422 -0.049599763
000120 9e c2 86 bd fc 45 3f bd b5 38 02 bd ef 63 56 bd
       -0.06580089 -0.0466976 -0.03179236 -0.052341398
000130 e9 3a b7 3c 3b 8d 0c bd ec 20 61 be d4 8a 9a be
       0.022366958 -0.034314375 -0.21985215 -0.30184042
000140 93 0a 59 bd 18 f8 66 bd ed 17 cd bc db da 77 bd
       -0.0529886 -0.056388944 -0.025035823 -0.06051145
000150 d9 0b de 3d a8 28 c4 bd e3 9f b3 be c1 1c 1b bd
       0.108421035 -0.09578067 -0.3508292 -0.03786922
000160 f3 c5 25 bd 5f 90 52 bd 2b f5 64 bd a4 af 0d be
       -0.040471982 -0.051407214 -0.055897873 -0.13836533
000170 05 92 00 be 25 cb 9c bd f7 3c ad bc 7c 22 16 bd
       -0.12555702 -0.07655934 -0.021147234 -0.03665398
000180 19 05 b0 bd 41 06 da bd 3b 7d a2 bd 83 8a 6e bc
       -0.08594722 -0.10645724 -0.07934042 -0.014559391
000190 e8 ea 37 bd 94 a8 6e bd b6 de e5 bd a8 8c a1 bd
       -0.04490176 -0.058266237 -0.11224119 -0.07888156
0001a0 7d d0 83 bd 68 b5 a1 bd 31 46 0b bd 3a b5 a5 bd
       -0.0643625 -0.078959286 -0.034002487 -0.08091207
0001b0 cc b1 35 bc db 0e 99 bd f3 7b ca bd a7 d4 a1 bd
       -0.011089753 -0.074735366 -0.09886923 -0.07901888
0001c0 3f 76 05 be c0 ac 96 bd 5a 3a 93 be fe c9 0f bc
       -0.13033389 -0.07357168 -0.28755456 -0.008776186
0001d0 75 c9 6b bd 94 83 b8 bd e5 b7 72 bd eb fe a4 bd
       -0.05756517 -0.090094715 -0.059257407 -0.08056434
0001e0 84 2b c5 bd a0 51 92 be c0 ea 09 be ff a2 c2 bd
       -0.096274406 -0.285779 -0.13468456 -0.09503745
0001f0 ce e8 e7 bc 82 ab 57 bd 33 e1 2b 3d 98 d1 81 3c
       -0.028309252 -0.052653797 0.041962814 0.015847012
