results/notebooks/neural_process/Periodic_Kernel/cnp/run_0/params.pt (torch_old, 419626 bytes, 24 tensors)

x_encoder.to_hidden.weight f4 [32, 1]
00000000: 9d3a 27bf 3e2d f33c c863 cabe d23e ca3e
00000010: b28f 7fbf 6f24 363f 6448 62bf d169 42bf
00000020: bf33 61bf 9f33 4f3f 3b4b a2be 003d 553f
00000030: 3946 5bbf a9d2 07bf a3eb 38bf 3e62 23bf
00000040: fb54 96bf 183e 7d3f 1cf8 9fbe faa8 3d3f
00000050: 4531 3e3f 0992 733e 2d45 b33e aa2b 783f
00000060: 65a1 3fbf 84d0 ac3e 1db9 37bf a2a2 693f
00000070: 308e 893f 4a78 a7bf 6970 793f a685 593f
-0.6532381 0.02968466 -0.39529252 0.39501053 -0.99828637 0.71149343 -0.8839171 -0.75942713
-0.87969583 0.8093814 -0.3169802 0.83296204 -0.85654026 -0.53055817 -0.72234553 -0.6382178
-1.1744684 0.9892287 -0.3124398 0.7408596 0.7429393 0.23786177 0.35013714 0.96941626
-0.74855644 0.33752835 -0.71766835 0.9126378 1.0746517 -1.3083584 0.9743715 0.84969556

x_encoder.to_hidden.bias f4 [32]
00000000: 2b5e 07be 7963 0fbd 2f02 393d 878b 1ebd
00000010: 0353 30bd acce 613d 5d8a acbd 69b3 da3d
00000020: 1566 abbe df30 33be 76c3 9e3c 9171 c1be
00000030: 7a8d 163e b240 313d 5b0f c9be 1b2b aabe
00000040: fbff a6be a97d 89be 31a7 933b bcc3 8abe
00000050: ceb1 343d c0ad e13e 20f7 943d 159d 8abd
00000060: 79b6 b23d 8745 cd3e 8f54 8d3c 6107 b9be
00000070: 8b54 29be 4194 66be 92aa 3abd 3fa2 22be
-0.13219516 -0.035006974 0.045168098 -0.038707282 -0.043047916 0.05512874 -0.08424828 0.10678751
-0.3347632 -0.17499112 0.019380312 -0.37781957 0.14702407 0.04327459 -0.39269528 -0.33236012
-0.32617173 -0.26853684 0.0045060148 -0.27102458 0.04411488 0.44077873 0.07273698 -0.06768242
0.0872621 0.40092108 0.017252235 -0.36138442 -0.16536157 -0.22517492 -0.045572825 -0.15882204

x_encoder.out.weight f4 [128, 32]
00000000: 8b4e e8be 87f6 04be d6ec 933e 1ce1 3bbf
00000010: 1113 2f3d 57d4 09bf 1d1b e43e 03be e5bd
00000020: 142b 04bf 02f7 f53c e20a a93e 03a6 2cbd
00000030: 4b21 903e 171c c23d 6d03 93bf 89ff 43bf
00000040: 002a 82bf 0623 d2be a74c 0abd f8ef c73b
00000050: 1a3f c4be c86f ce3e c653 bbbe 5de3 0fbf
00000060: ead8 873e 7493 96be 2df9 183e ddd1 573e
00000070: f8dc 2bbd 876f 23be 63e3 5ebf 6051 66bc
00000080: 6622 c63d 8c20 5c3b 8d1f 00be 8b7a 29bd
00000090: b830 363e a333 a83d 770e 10be e2bc c73b
000000a0: e438 e1be 3164 d9bd 2940 b43e ac4d d5be
000000b0: d384 acbe 26ad 373e 29a8 14bf d000 be3d
000000c0: 8012 d8be 3b8f 8d3e b676 8fbc 6fb0 3d3e
000000d0: 28ca d3be adf5 e1be c939 a5be dbb9 edbe
000000e0: c4f3 8fbd 1701 b5be b3d2 98be f429 f63c
000000f0: 37fb 05bf c48a 253e 7fbc 533e 912e 01be
00000100: 51de b73e a626 36bd f892 15bd ec95 01be
00000110: e5eb c83c 53ff 2abd 6425 8abe 235f 263e
00000120: 2740 b1bd d589 7ebe b481 853e 5dff 9ebd
00000130: 2ec9 ed3e 76fe 563e aa3f 4ebf 8895 4fbf
00000140: e7ec 06bf 7a8d b43e bb40 be3d 78d4 34be
00000150: 21cd 41bf 13e9 ad3e 3c99 3fbf 2754 3bbe
00000160: 58c1 17be 7576 0fbf d1e0 d63e c1bf 8e3d
00000170: a932 69be 4234 34be 8b64 4dbf e7cc 103d
00000180: d1d1 9fbf 0f36 da3e fed9 1f3e 67fa 8cbf
00000190: 8dd7 d7bf c5fb e4be 703f 0fc0 5a45 453e
000001a0: 418d a0be 0815 1abf cfff ccbe b84c 193d
000001b0: 794e cbbe 6105 50be bafc d03b 6a35 19bf
000001c0: 007a 593e d896 efbc 77c1 82be f938 e7be
000001d0: 3b7e 2abf 5d56 663e 6184 85be 7af2 c0bf
000001e0: 56dc d4be 555d 8bbd 0fd6 1cbf 558f 04be
000001f0: d0ee f3bf dece b3bf 3dd5 69bf 0285 3abf
00000200: c4d0 88bc 9c32 00be d3bc b43e b959 8d3d
00000210: 1fa0 053e a681 983d 5bbb 983e b3ab 9b3e
00000220: c08c b9be 655a 753d 7922 57be 8bbe fcbd
00000230: bdbf 5a3e cf4f a4be cd23 0ebe d07f 3fbc
00000240: b2a9 f4be b54f 593e a349 0abe a4db 143e
00000250: 47c7 2b3d 3386 963e cea0 c2be 477a a5be
00000260: f210 b73d 93b4 123e 8604 66ba eba3 c0be
00000270: fec5 373d ed5f 9dbb dddb 263e fb51 103e
00000280: b15a d13e 4ff1 5b3e 14fd 38be 6a9a b73e
00000290: baa6 37be c8ca 983c 527b a1be 9cfd 61be
000002a0: d951 933e 2608 1ebd ecbb 9c3e 4a0f 123e
000002b0: bc19 b6be 3e6e 2a3e 228f 013f 0d57 c93d
000002c0: 67f7 e7bd a2c1 acbe c30c b23e 98b7 c0bd
000002d0: 5fe5 4d3d 3501 a73e b45c 9a3d d3fc b8be
000002e0: a2f7 bebc 1f5e cebe 1a66 5d3c 8cf1 e83e
000002f0: e248 0b3d de60 803e 4d55 c0be 2653 7b3e
00000300: 8aea 52be 5066 023e ce8a f2be 9b40 d2be
00000310: b372 ccbe 7b80 2bbd 5433 26bf 7a20 20bf
00000320: 6fd2 06bf 937d bc3e a8f8 cfbe 4143 8ebe
00000330: d89a adbe 4d0d 64bf d845 eebd 3844 bdbc
00000340: c79c 11bf c5ce 0cbe 54f2 b9be 52d2 603e
00000350: f159 853b 074c 5a3e 64e3 703e 36a1 f4bc
00000360: 5314 dbbe 379e 863e d884 1ebe 987c f1be
00000370: 6248 843e e3aa e6be 7324 c4bc 6edd 17be
00000380: 92b4 d8be 83ec 2a3e 0d17 523e 5253 03be
00000390: 5647 e0be f100 abbe 1faf bebd 7636 be3e
000003a0: a3a1 b9be 052b 5e3d 7629 84bd 4673 53bd
000003b0: adc7 69bd 4579 e13d f20d 9e3e 6ab9 b13e
000003c0: aab1 cfbe d9f7 0f3e 03b6 983e b53d cebe
000003d0: 7e73 c2be c0c8 dfbe 7467 963e aa86 a8be
000003e0: 1dc1 703d 5bd5 04bf ab3e e9bb 6856 0fbe
000003f0: 5e65 68be 980c 3bbd 4dd4 0d3d 6c82 55be
-0.45372424 -0.12984668 0.2889163 -0.73390365 0.042742793 -0.5383963 0.44551936 -0.112178825
-0.5162823 0.030025009 0.33016115 -0.04215051 0.281504 0.09478014 -1.148542 -0.7656179
-1.0169067 -0.41042346 -0.033764508 0.0061016046 -0.38329393 0.40319657 -0.36587352 -0.56206304
0.2653268 -0.29409373 0.14938803 0.2107615 -0.04195878 -0.15960513 -0.87065715 -0.014057487
0.0967453 0.0033588735 -0.12512036 -0.04137663 0.17792022 0.08212974 -0.14068018 0.0060955146
-0.43988717 -0.10614813 0.352052 -0.4166082 -0.33695087 0.17937145 -0.5806909 0.09277499
-0.42201614 0.2764834 -0.01751266 0.18524335 -0.4136517 -0.44132748 -0.3227065 -0.4643086
-0.070289165 -0.35352394 -0.2984825 0.030049302 -0.5233645 0.16166216 0.20677374 -0.1261542
0.359118 -0.04447045 -0.036517113 -0.12654847 0.024526546 -0.041747402 -0.26981652 0.1624723
-0.08654814 -0.24857266 0.26075518 -0.077635504 0.4644255 0.20995507 -0.80565894 -0.8108754
-0.52705234 0.35264188 0.0928969 -0.17659175 -0.75703627 0.33966884 -0.7484319 -0.1829382
-0.14819849 -0.56040126 0.41968396 0.06970168 -0.22773232 -0.1759806 -0.8023154 0.03535166
-1.2485906 0.42619368 0.15610501 -1.1013917 -1.6862656 -0.44723335 -2.238247 0.19264737
-0.31357768 -0.6018834 -0.40038916 0.03742668 -0.39708307 -0.20314552 0.0063777836 -0.5984713
0.21237946 -0.029246733 -0.25538227 -0.45160654 -0.6659886 0.22493882 -0.2607756 -1.5073998
-0.41574353 -0.06804911 -0.6126413 -0.12945302 -1.9057255 -1.4047506 -0.91341 -0.72859204
-0.01670111 -0.12519306 0.3530031 0.06901879 0.13049363 0.074466035 0.2983044 0.30404434
-0.36240196 0.05990066 -0.21009244 -0.12341031 0.21362205 -0.3209214 -0.13880844 -0.011688188
-0.47785717 0.21221812 -0.13504653 0.14536911 0.041938093 0.2939926 -0.3801331 -0.32319853
0.08938779 0.14326696 -0.0008774478 -0.3762506 0.044866554 -0.004802695 0.16294809 0.14093773
0.40889505 0.2147877 -0.18065292 0.35859996 -0.17934695 0.018651381 -0.31539398 -0.220694
0.28773382 -0.03858199 0.30612123 0.14263645 -0.3556651 0.16643617 0.5060903 0.09831057
-0.11326485 -0.3374148 0.3477536 -0.09410018 0.050267573 0.32618108 0.07537213 -0.3613039
-0.02331144 -0.40306184 0.013513112 0.45496786 0.034005053 0.25073904 -0.3756508 0.24543437
-0.20597282 0.12734342 -0.47371525 -0.41064915 -0.3993126 -0.041870575 -0.6492207 -0.62549555
-0.52664846 0.36814556 -0.40619397 -0.27785686 -0.339072 -0.89082795 -0.116344154 -0.023103818
-0.5687985 -0.13750751 -0.36317694 0.21955231 0.0040695597 0.21318065 0.23524243 -0.029862028
-0.42788944 0.26292583 -0.15480363 -0.4716537 0.25836474 -0.4505225 -0.023943162 -0.14830562
-0.42325264 0.16691785 0.20516606 -0.12824753 -0.43804425 -0.33399156 -0.093107454 0.37150925
-0.36256132 0.054240245 -0.064532205 -0.051623605 -0.05707519 0.110094585 0.30870014 0.34711772
-0.40565234 0.1405939 0.29826364 -0.40281454 -0.3797874 -0.43707848 0.29375803 -0.3291524
0.058777917 -0.51888055 -0.0071180663 -0.13997805 -0.22694919 -0.045666307 0.034626294 -0.20850533

x_encoder.out.bias f4 [128]
00000000: 46d3 293d 2c7d 84bd b667 a93d 6ab5 1c3d
00000010: e13e 8a3c c819 b3bd cd5e 9ebd 225a 8ebd
00000020: b668 ee3d 733f 35be dd83 6bbc 16d8 19be
00000030: deb3 b1be 751c 02bf db73 a3be e5bc 06be
00000040: 34d3 bebe d15e 84be f499 ce3d a585 c83c
00000050: e84f 38bb ea62 cfbe 4633 8bbe 289c 72bd
00000060: 4f8c ffbd b4e1 39be 6365 eabe bc13 b6bd
00000070: ef1c e9be e2d6 3d3e 474d 35be ef94 3e3d
00000080: 6d8a e8bd 0d56 a7bd 1977 cbbe 0c7e 87bd
00000090: 228d 223d bfc2 1ebe fe38 cdbd 5987 12be
000000a0: 7135 fd3c 0bae a2be acb2 833e 67ab e6bd
000000b0: 3da3 fe3c 8bf2 823e 41bd 4dbe 1613 ee3d
000000c0: ce89 a2bd a345 dfbd 660f b23d a069 f33d
000000d0: 0778 373d aa2a d0be 46b4 99be bdb8 6e3e
000000e0: 89bc 713e 9dde 16bd 8d19 a0be ca17 fabd
000000f0: a8fc f6bd 01d2 ce3c fc6b afbd 52e5 13be
00000100: 5f2d e73c e997 a53d e60b 8cbe e634 43be
00000110: 729f a4bc a0ea 2a3d e40e 11bd 3f07 e8bd
00000120: 1dd1 ae3d 1521 8fbe 6dcb 92bc 955b bdbe
00000130: 5148 7abe ceeb 06bf 5952 103e 2562 27bb
00000140: 5328 edbd b8f5 b03b 2af0 8cbe a031 02bf
00000150: d96c 1a3e 30ac d3bd d6c7 a3bd 9a28 1bbf
00000160: c688 f9bd ce5a 97bd ab72 b4bd b5ac a0be
00000170: cc67 13be 8a3a 99be 134b 053e 759e 28be
00000180: 7654 3cbd 6c39 2e3e 1a6c 063d 114f 9b3d
00000190: c049 d2bd 8624 4a3c 0242 b13d 0a30 62bd
000001a0: 12f0 73be 10f1 5b3d f7dd 043e 6316 6f3c
000001b0: da36 1dbe 217b c3be d2e4 a1be 6ec1 a9be
000001c0: 2527 b7bd a005 6ebe 4b84 29be 0caa bcbe
000001d0: fc23 3bbe 684f 8fbd 86c5 ff3c 9f2f 33be
000001e0: 52d9 563b a65c c73d d525 69be 7b8d 043e
000001f0: c19c 1abe 949a 17be c206 843d 3884 d6be
0.04146125 -0.06469187 0.082717344 0.038258947 0.016875686 -0.08745152 -0.077329256 -0.06950785
0.11641066 -0.17699985 -0.0143747 -0.15023836 -0.3470754 -0.5082467 -0.31924328 -0.13157995
-0.3727051 -0.2585359 0.10087958 0.02447779 -0.00281238 -0.40505153 -0.27187556 -0.059230953
-0.124779336 -0.18152505 -0.45780477 -0.08890483 -0.45529887 0.18539003 -0.1770526 0.046528753
-0.113545276 -0.0817071 -0.39739302 -0.066158384 0.039685376 -0.15503977 -0.10020636 -0.14309444
0.030909272 -0.3177341 0.25722253 -0.11263161 0.031083697 0.2557567 -0.20091726 0.11624734
-0.079364404 -0.10901954 0.08694343 0.11885381 0.0447922 -0.4065755 -0.3002035 0.2331266
0.23607077 -0.036833394 -0.31269494 -0.12211569 -0.12059909 0.025246622 -0.08565518 -0.14442948
0.028219877 0.08085615 -0.27352828 -0.19063148 -0.02009556 0.041727662 -0.03541459 -0.11329507
0.08535979 -0.27954927 -0.017919267 -0.36983934 -0.24441649 -0.5270356 0.14093913 -0.0025540676
-0.11579957 0.0054003857 -0.2752698 -0.5085697 0.15080585 -0.103355765 -0.079971 -0.6060883
-0.121842906 -0.073903665 -0.08810934 -0.31381765 -0.14395064 -0.29927474 0.1301692 -0.16466697
-0.045978986 0.17014092 0.032817937 0.0758344 -0.10267973 0.012337809 0.08655168 -0.055221595
-0.23822048 0.053696692 0.12975298 0.01459274 -0.15352955 -0.38179877 -0.3161989 -0.33155388
-0.08943013 -0.23244333 -0.16554372 -0.36848485 -0.18275446 -0.069975674 0.031222116 -0.17498635
0.0032783342 0.09734468 -0.22768338 0.12944596 -0.1509886 -0.1480506 0.064466015 -0.4189775

xy_encoder.resizer.to_hidden.weight f4 [32, 1]
00000000: d4ab 5c3a 39eb 08bf 1cd5 f23e 8f6a 4a3e
00000010: 63c9 c83e 7cba 463e aa3e 063f 7b4e c63e
00000020: eda5 4bbe 7545 c43e 0c46 2dbf d071 0a3e
00000030: 7943 f63e 1800 1e3f 438d 8e3e 23cf d73e
00000040: 5ead 023f 7f96 d9be b8aa 213f 6e0f 35be
00000050: 0205 3bbf 1e95 343e 085f 893d 5866 d9bd
00000060: 9c06 ab3c bb70 0e3f 1c59 643e 8163 91be
00000070: 1553 41bf f9ad 40be 474e cb3d 967e fd3d
0.00084179384 -0.5348392 0.47428215 0.19767211 0.39216146 0.19407076 0.5243937 0.3873175
-0.19887514 0.38334242 -0.6768501 0.13519979 0.48098353 0.61718893 0.2784215 0.4215022
0.5104579 -0.42497632 0.6315112 -0.17681667 -0.73054516 0.17635009 0.06707579 -0.10615224
0.020877175 0.55640763 0.22299618 -0.28396228 -0.755174 -0.18816365 0.099270396 0.1237766

xy_encoder.resizer.to_hidden.bias f4 [32]
00000000: f1b8 22bc fed5 bfbd 29e5 9b3d b8cd 75be
00000010: 3fd7 3bbe 5968 4bbe b852 79bd 7ce8 57be
00000020: 5bb8 89be 126e 3bbe 0f37 dcbe 295a d3be
00000030: b1e2 ea3d 258f e3bc 8830 d9be 72b5 1fbe
00000040: 8af5 d1be 43d0 f2bd cad4 38be 56b1 c1bd
00000050: f2c6 1d3d efbe 96be 6daa 8ab9 36cd 593e
00000060: e74f 0bbe a528 cdbe 25e4 f6be 4c1b 3e3e
00000070: 8cde 3abd 0d8f c0be 8021 c33d 65f2 82be
-0.009931789 -0.09366988 0.07612068 -0.24004257 -0.18343829 -0.19864024 -0.060869902 -0.2108478
-0.26898465 -0.18303707 -0.43010756 -0.41279724 0.11469019 -0.027778218 -0.4241984 -0.1559656
-0.41007644 -0.11856129 -0.18049923 -0.09457652 0.038519807 -0.29442546 -0.00026448388 0.21269688
-0.13604699 -0.40070072 -0.48220935 0.185651 -0.045622393 -0.3760914 0.09527874 -0.25575557

xy_encoder.resizer.out.weight f4 [128, 32]
00000000: 0e3d bf3d f91c dbbe 7a9e 8abd 413f 113e
00000010: e02f 0dbf 1b8a 6fbe c10c e3be c21d cdbe
00000020: ad81 a8bd 2e88 86be 7445 dabd 2d27 9a3d
00000030: ac9a 5e3e a175 29be b4f5 db3c 482f 603e
00000040: d2b6 b7be 525c a33c 124e c1be b485 133e
00000050: f1e4 52be b8d0 bcbd d640 ffbe c09a 8cbe
00000060: ab6f 9e3e 1cc9 a3bd 0a0f e43c 6423 153e
00000070: bf24 be3d 5014 923e 427d 5ebe 6ca4 41be
00000080: 7e6e 6a3e 3ea5 a63d a9a8 b4be ac96 933e
00000090: 6b6d abbe 312c c63e bfb9 653e a2c3 dfbb
000000a0: d7a5 a03c 0bd6 273d 7c80 c0be ea5b cbbe
000000b0: 3621 3ebd 1410 1cbe 3e03 3d3e 324c 83be
000000c0: cbf0 c5be 108a 92be 5ebe 9bbe 4476 103e
000000d0: 427a 87be 657d 653e b699 ae3e e596 afbe
000000e0: 959c 7cbe d1bf 973e 1538 da3e 36cd 163e
000000f0: 1d91 b83e 6a4b a2be 75ba 413e d5b0 363e
00000100: 248d 1b3e 052d 68be 6aee abbe 179c 62be
00000110: f762 7fbb fd78 033e 13b3 c3bd 323c a63e
00000120: c99e 3b3e aeca 9fbd 6b00 ae3e 546a 9a3e
00000130: 9aae 42be 1cc3 8abe fc51 3ebe 4a1d 2abe
00000140: bbbb e2bd d078 8e3b 15d0 a53e 8b97 8dbe
00000150: 5303 00bf 0cb5 e3be a412 bfbe 0fbb 82be
00000160: df73 8ebe e79f e1be cbdf 0f3e f800 75be
00000170: 5515 03bf b169 c3be 5ff4 89be 6cbb 4a3e
00000180: ae79 c7be 9e2a b03d 3142 a1bd 5eb1 4abe
00000190: de44 4cbe 8924 acbe b8b3 01bd 0ebd 993e
000001a0: 1c3f 843d 761a fbbe 77a7 0c3e e8eb 73bd
000001b0: 2470 66bd 760c e2bd 32f7 fd3c 31bd d2be
000001c0: e3db bdbe 2b94 f0be 3d90 223e 4f3d 6abe
000001d0: 0ce1 d6bd b3e4 223e 798c a83c 99b6 793e
000001e0: c300 a63d d48c 89be 8bad ccbd 5796 3f3e
000001f0: 889c 4fbe 8898 c53e aef0 bfbe 463f f03d
00000200: 77d4 60be 85a7 0abf 76ab 82bc 0916 9ebd
00000210: 40d8 333e 3aa4 f9bc e9f7 b83e 6732 bb3d
00000220: a45b bd3e bad9 e9bd 9e28 c2be c00f 843c
00000230: b14a 91be e2df 4e3e 9ad9 28be 6584 9fbe
00000240: 7a3e 81be 6d9c 3f3e 5e2e aebe 012e 6bbb
00000250: b42c 193c 4d7f 66be 4824 12be c54d 2dbf
00000260: cbc8 eb3e 79b7 f8bd 0db1 3d3e 1b18 3bbe
00000270: 3e61 1ebf c1be 033e 6524 aebe bf6a d13e
00000280: 7214 a53e 31c4 103e 7832 3cbe 50dd 90be
00000290: 124a 8d3e 9f4a 193d 0c31 af3e 5e9b 0ebe
000002a0: b303 aabe 831e a53e 3784 4b3e 8cde 093f
000002b0: 1191 dcbe 89e6 8a3b fb35 ccbe 8401 983d
000002c0: 6858 8f3e 671b 2a3e 6ff8 59be e4dd adbe
000002d0: 8e4a e83d b597 7f3e 39ff 5ebe 58d5 98be
000002e0: 0ac5 393e 5494 df3d 90e3 80bd bf54 d1be
000002f0: e51e d6be 4564 d63e 57e5 9dbd 73a1 b03e
00000300: 24d3 1b3e 1bd8 59be bff6 30be 5f7a 85bf
00000310: f4c8 1f3e 8341 01bf 97d0 8e3e 8f1f c7bd
00000320: 1361 ccbe 3cd9 bcbe 14d4 073e c7a6 2bbe
00000330: 20e6 d23e ea97 d53a 7ce3 e9be c1d4 0abe
00000340: 55ba e13d de1a 9ebe dda3 b8be 7d14 0fbf
00000350: 6d34 e5be 3d75 2bbf e7cc 4b3c ecbe b5be
00000360: 8f5c 48be dd30 0dbf 3e27 9bbe 052c 51bf
00000370: 03e3 0dbf 62b8 04bf 18ea 493e d03b adbe
00000380: 343c 09be 978a dcbe d9f0 5b3e d680 a7be
00000390: bcaf 91be 4741 0cbe 5d2a f93c 79e9 49be
000003a0: 0f9e cebe e9fe 41be e2b9 b73e d415 dbbe
000003b0: a87f 0f3d ef27 91bd d0f9 243b 1fe1 d2be
000003c0: 7767 163d 3e0d ac3e 13af 4c3e f580 afba
000003d0: 5dd4 abbe 0d37 b33d f55e a13e 7e84 c33d
000003e0: 32a3 c13d babb 383c 7da2 b5be 9603 0abe
000003f0: 2d97 a63e c1a4 b7be 9a3a a9bd b20d 4e3e
0.09337817 -0.42795542 -0.06768508 0.14184286 -0.55151176 -0.23392527 -0.44345668 -0.40061766
-0.08227859 -0.26275772 -0.106577784 0.075270034 0.2173869 -0.16548778 0.026850559 0.21893036
-0.35881668 0.019941483 -0.37754875 0.14406472 -0.20595147 -0.092194974 -0.49854153 -0.27461815
0.3094457 -0.07997343 0.027839202 0.14564282 0.092843525 0.28531122 -0.2172747 -0.18910378
0.22893712 0.08136986 -0.35284927 0.2882589 -0.33481917 0.3870559 0.22434138 -0.006828741
0.019610329 0.04097561 -0.37598026 -0.39718562 -0.04641839 -0.15240508 0.18458268 -0.2564407
-0.38660273 -0.28620958 -0.30418676 0.14107615 -0.26460463 0.22411115 0.34101647 -0.3429481
-0.24669106 0.29638532 0.42620912 0.1472672 0.36048213 -0.3169816 0.18918784 0.17840894
0.1519056 -0.22673424 -0.33580333 -0.22129856 -0.00389689 0.12839122 -0.0955564 0.324678
0.1832229 -0.0780233 0.33984694 0.30159247 -0.19011918 -0.27101982 -0.18585962 -0.16612735
-0.11070963 0.004347898 0.32385316 -0.2765468 -0.5000507 -0.44474065 -0.3731891 -0.2553334
-0.27822778 -0.44067308 0.14050214 -0.23926151 -0.51204425 -0.38166574 -0.26944253 0.19798058
-0.38960022 0.086018786 -0.07873953 -0.19794223 -0.19948146 -0.33621624 -0.031665534 0.3002705
0.0645735 -0.49043626 0.13735758 -0.05955115 -0.05625929 -0.11037533 0.031001661 -0.41159967
-0.37081823 -0.46988043 0.15875335 -0.2287495 -0.10492143 0.15907554 0.020574795 0.24386062
0.08105614 -0.26865256 -0.09994038 0.18709694 -0.20274556 0.38592935 -0.37488312 0.117308185
-0.21956049 -0.54161865 -0.0159509 -0.077190466 0.17562962 -0.030473817 0.3612664 0.09140473
0.3698398 -0.11418481 -0.37921613 0.016120791 -0.28377298 0.20202592 -0.16489258 -0.31155697
-0.25242978 0.18712015 -0.3401975 -0.0035885575 0.009349037 -0.22509499 -0.14271653 -0.6769679
0.4605163 -0.1214437 0.18524571 -0.18270914 -0.6186713 0.12865736 -0.34012142 0.40901753
0.3224216 0.14137341 -0.18378627 -0.28293848 0.27595574 0.03742468 0.34217107 -0.13926455
-0.33205947 0.3224984 0.19874655 0.53855205 -0.43079427 0.0042389077 -0.39884934 0.07422164
0.27997136 0.16612016 -0.21286176 -0.33958352 0.11342345 0.24960215 -0.21777047 -0.29850268
0.1814157 0.10916963 -0.06293404 -0.4088497 -0.41820446 0.41873375 -0.07709759 0.34498176
0.15217263 -0.21273844 -0.17281626 -1.042797 0.15604001 -0.5049059 0.27893516 -0.09722816
-0.39917812 -0.36884487 0.13264495 -0.1676284 0.41191196 0.0016295884 -0.4568137 -0.13557722
0.11021868 -0.30879873 -0.36062518 -0.5589064 -0.4476656 -0.66975766 0.012438989 -0.35497224
-0.19566558 -0.55152684 -0.30303377 -0.81707793 -0.5542452 -0.51843846 0.19718206 -0.33834696
-0.13401872 -0.43074486 0.21478595 -0.32715482 -0.28454387 -0.13696776 0.030415708 -0.19717969
-0.40354964 -0.18944897 0.35884005 -0.4279009 0.03503385 -0.07087695 0.0025173314 -0.4118738
0.036719766 0.33603853 0.1998866 -0.0013389873 -0.33560458 0.087507345 0.3151776 0.09546755
0.09454955 0.011275226 -0.3547553 -0.1347793 0.32537213 -0.35867885 -0.082631305 0.20122412

xy_encoder.resizer.out.bias f4 [128]
00000000: 4c9e 2ebe 166e 27bb 3680 5dbe 0838 bbbd
00000010: 7d22 8cbe f9b1 90be 2e20 5d3d 5a51 89bc
00000020: ab62 893e 4154 eabe a219 183c c810 d2be
00000030: 3f2a 74be 64b3 f3bd a1af b7be d6ec 82bd
00000040: b852 b7bd 8ba1 7abe a8f5 233e ed10 433d
00000050: dbff 5dbe af5f ecbe 0735 3dbe ee83 fbbd
00000060: eb7e 17be aeca f3bd 6252 d5bd 3979 1f3d
00000070: bfda 46be 615b de3e 5a7a adbd 018c 99bd
00000080: 1490 fdbd f495 31be db33 adbe 40e5 28be
00000090: f7f3 ab3c 719a 52bd 04eb f4bd 20c8 103c
000000a0: 9c86 77be 6aa4 42bc 83c4 683e d649 f2bd
000000b0: e3c5 2f3b e5cb 77be e2ff 57be 559d a9bd
000000c0: 7025 cc3b 1ff8 32bd b5dd 9abd ee9a f93c
000000d0: 5317 35bc 7d59 e3be 9fe2 b4bd 2f4c 723e
000000e0: 0740 793e 00ad 74bd 7369 a0be 6b78 73be
000000f0: 0150 eebd c278 38be f303 1b3d b602 99bd
00000100: cc75 84bd 8f4e 80be 4f0e c5be 9859 4dbe
00000110: dea3 c4bd 639c 84be 1c20 13be 0000 0000
00000120: dcf1 873c 21fa 68be e4b2 8cbe f8d7 52be
00000130: 229d ecbe 2d54 c4be 6a36 ff3d ea3a 42bd
00000140: beff 5cbe 7d21 9fbd 3018 71be 8855 a2be
00000150: f3c4 afbd c6cd b5be 7ecf 14be 470f 8fbe
00000160: fc8f eebc b59f 37bd 1b80 92bd 3929 70be
00000170: fec4 35be cdc9 78be a1b3 16be cee7 57be
00000180: c80e 1cbe 5dc8 55be c23c bfbd 519d b2bb
00000190: ab35 ccbd 8e4b d43c 2c01 5fbe 3cd3 b0bd
000001a0: bf03 56bc d8aa 043e ce85 723c c3d2 88bc
000001b0: cc08 eebd 5c3f 86be 9687 e8be 67cb 9cbe
000001c0: f7c0 30be ba26 79be 0c56 1fbe bd60 c2be
000001d0: 0734 a2be 78ec b4bd 9040 4fbe 2305 1abe
000001e0: 1dc3 debd e04f ce3d 487d 9cbe 30d6 a6bc
000001f0: f236 cbbd 3c28 1bbe e6f8 0abe 503c febe
-0.17052573 -0.0025547794 -0.2163094 -0.091415465 -0.27370062 -0.28260782 0.053985767 -0.016762424
0.2683309 -0.45767406 0.009283455 -0.41028428 -0.2384424 -0.118994504 -0.35876182 -0.06392829
-0.08951324 -0.24475686 0.16011679 0.047623564 -0.21679632 -0.4616675 -0.1847726 -0.12281023
-0.14794509 -0.119038925 -0.10416104 0.038933966 -0.19419383 0.43429092 -0.08470602 -0.07497407
-0.12380996 -0.17342359 -0.33828625 -0.16493702 0.020990355 -0.051416818 -0.11958888 0.008836776
-0.24172443 -0.01188002 0.22731213 -0.11830489 0.002682083 -0.24198873 -0.21093705 -0.08281962
0.006230049 -0.043693658 -0.075618185 0.030469384 -0.011052924 -0.44404212 -0.08832287 0.23661874
0.2434083 -0.0597353 -0.3133045 -0.23776405 -0.11636353 -0.18014815 0.037845563 -0.0747122
-0.064677805 -0.25059935 -0.3848748 -0.20053709 -0.09601568 -0.25900564 -0.14367718 0.0
0.01659482 -0.22751667 -0.27480233 -0.20590198 -0.46213633 -0.3834547 0.124615505 -0.047419466
-0.21581933 -0.07770059 -0.23544383 -0.3170588 -0.08582487 -0.35508555 -0.14532277 -0.27941343
-0.029121391 -0.044830043 -0.071533404 -0.23453225 -0.17750928 -0.24295731 -0.1471696 -0.2108452
-0.15240014 -0.20877214 -0.093377605 -0.0054508825 -0.09971174 0.025914934 -0.21777791 -0.0863404
-0.013062417 0.12955797 0.014802409 -0.016702062 -0.116227716 -0.26220214 -0.45415944 -0.30623934
-0.1726111 -0.2433118 -0.15560168 -0.3796443 -0.3168032 -0.08834165 -0.20239472 -0.15041022
-0.10877059 0.10073829 -0.30564332 -0.020365804 -0.09922589 -0.15152067 -0.1357151 -0.4965539

xy_encoder.flat_module.to_hidden.weight f4 [128, 128]
00000000: b254 34bc 2caf ddbc 477c 15bd b65d 29bd
00000010: 274f 3ebb 626f 72bd 66b7 c0bd 3b0c 0fbd
00000020: e9d0 08bd abb8 bb3c 186c 89bd 2da2 7dbb
00000030: ed7c 01be 70eb 513c bdda 6bba ecff 8c3d
00000040: ec28 cfbd 6e2e 6abd 56e9 a6bd 5138 e2bd
00000050: 58b7 88bc 72ca b6bd dc3b 94bd adfe 0ebd
00000060: b271 fc3c ecdc 563d aa64 bd3c 8689 b53a
00000070: 6e9e a2bc 006f 073c 7397 e2bc 0945 f6bc
00000080: 9ca4 943c 4978 c5bd 57bb 733d a85d 563d
00000090: 6ca7 073d 031b 8bbd 3530 99bd 903c bcbd
000000a0: 204e 843c 9ffe cbbd 808b a7bc e6f1 723d
000000b0: 909d fb3c a595 c8bc 7292 86bd beeb 07be
000000c0: 9f60 0ebe 9364 9abd 38d8 7ebc 3d1a 1b3d
000000d0: 8635 77bd fd78 d3bc 6818 1ebd bbcd a2bd
000000e0: 2a85 47bc d9ac d1bd 4bc9 9bbc 7f22 a5bd
000000f0: e310 6e3d 803d 5d3d 3662 08bd 68d7 2d3c
00000100: 0726 1d3d 686b 303d 915a 703d 3d85 72bc
00000110: 248f dbbd 3260 113d 25c1 063d 12d7 363d
00000120: 99f2 00bd e2e1 35bd 20ee 93bd 753b babd
00000130: 9036 c9bd b784 693d 169d abbd ed19 a1bd
00000140: 62c5 393b f46b d9bd 2c82 193d 74f4 883b
00000150: 787f 263d 2490 98bd 6818 e93c 4f56 cbbd
00000160: b801 55bd 4562 acbd 806b 23bc 9b2a 893d
00000170: c18b be3c ad57 e4bd e607 d7bc 8945 89bc
00000180: 458f 843d 13a5 95bb e8eb 79ba 5544 24bd
00000190: 57de 623d 7f12 b8bb 4a46 cabd 7b6d 12bd
000001a0: c4bd a2bc c34d 23bd 2792 5abd 880d 2ebc
000001b0: e04f 9d3c a270 7f3d e1a9 cdbc 28fc 8abd
000001c0: a6a2 333d 7dda 22bd fa81 d13c 309a cdbd
000001d0: fe7e a5bd 2819 803c 2368 91bc c7a3 353c
000001e0: 01b8 4f3d 668f 173d 6bf7 573a d13e bcbd
000001f0: cac3 603d 85ee b4bd 9234 523c 95b1 eabd
00000200: a8a3 723c bddb 0ebd 0e46 763d 9e96 653d
00000210: 659f 9fbd d0b8 d43c f07b fd3c 049f 1fbd
00000220: 0c0f 82bc 25a0 973d dad0 543d a718 bcbd
00000230: 2023 e0bd bfd5 8d3d ce7f 4bbd 0041 a0bb
00000240: f3e2 b4bd 8a42 9dbd 00f0 6bb8 0293 7d3d
00000250: 201a 51bd 98b9 bf3c 2bc8 79bd 50f3 09bd
00000260: bc65 96bc 7aee ca3c aab3 0abd 1e1c 323d
00000270: 39c8 40bd 3dec 203c c66d 573d 2864 253d
00000280: 6573 a4bd 8bce 893c 18d8 fa3a fa06 103d
00000290: 12b0 043d b534 8d3d 30bb 833c 49dd d1bd
000002a0: f76d 4a3d 5e26 683a e84b 93bd 7b21 a53d
000002b0: 6ff4 ab3d 88c3 f83c cae7 95bd a875 893d
000002c0: 3c67 afbc 405b c1bd f772 bebd a03b cb3c
000002d0: ac67 8abc f155 aa3d 8a6e 42bd ab59 f3bd
000002e0: 9262 9fbc 63e1 193d aa08 a73c 7745 713c
000002f0: f6be 4e3d 376b a73d b623 803d f89d 333c
00000300: d0b3 ddbd 0e92 b9bd 32ab f6bc 8a40 6a3b
00000310: 7103 5cbd e13e 1fbc ca0f 183d 52eb 96bd
00000320: c8e4 8cbc 40a1 fb3c 3ae1 93bd 4ac0 3c3c
00000330: a794 f5bd 464b 773d 41c6 b2bd c89e 41bd
00000340: f2ca 573d c4ae 1bbd 7bda 61bc 370a 893d
00000350: 6803 ddbd 98d3 27bc 3e6a 6f3d 9893 84bd
00000360: 98af 1e3d 74c4 37bd 9e3d 263d 6899 95bc
00000370: 8a3c 3d3d b00b 76bd dd4b adbd d95b 91bd
00000380: 4b7a 203c 42f3 43bc e3ae 9d3d 7119 a1bd
00000390: 4848 a33c 0319 bbbd abe1 543d d854 a5bd
000003a0: 926f 46bd 5e98 563c 2827 a13d bac2 6a3d
000003b0: c454 96bc c893 ec3c 341d 393d f79d d03a
000003c0: acda 2d3d 4a03 54bd 4f5a a0bd 3912 dc3b
000003d0: 1d8b 7d3d 40ea dabb 8ada 4dbd f841 99bd
000003e0: eb0e 4ebd 84ef d5bd 150d fbbc 4680 62bd
000003f0: 3e8d 53bd 18a7 843c ab86 74bd c3a2 18bc
-0.011006521 -0.027061068 -0.036495473 -0.041349135 -0.0029038878 -0.059188254 -0.094099805 -0.034923773
-0.033402357 0.022915205 -0.0671007 -0.00387014 -0.12645312 0.01281248 -0.0008997133 0.06884751
-0.10115227 -0.057173185 -0.08149974 -0.11045898 -0.016688988 -0.08925332 -0.0723798 -0.034910847
0.030815933 0.05245678 0.02311929 0.0013850189 -0.019850936 0.008266211 -0.027660107 -0.030062215
0.018144898 -0.09642083 0.059504833 0.05233541 0.03311865 -0.067922615 -0.07479898 -0.09191239
0.016150534 -0.099606745 -0.020452261 0.059312724 0.03071478 -0.024485419 -0.06570901 -0.13273522
-0.13904046 -0.07538714 -0.01555448 0.03786682 -0.06035378 -0.025814528 -0.038597494 -0.07949396
-0.012177745 -0.10238046 -0.019016882 -0.0806322 0.058121573 0.05401373 -0.033296786 0.010610439
0.038366344 0.04307118 0.05868012 -0.014802274 -0.10720661 0.03549213 0.03289904 0.0446387
-0.03148136 -0.04440487 -0.07223153 -0.09093372 -0.0982486 0.057011332 -0.08379571 -0.07866273
0.002834641 -0.106162935 0.037477657 0.0041795317 0.040648907 -0.07449368 0.02845402 -0.099285714
-0.052003592 -0.08417181 -0.0099743605 0.066975795 0.02326 -0.11149535 -0.026248883 -0.01675679
0.06472639 -0.0045667975 -0.0009533749 -0.04010423 0.05538782 -0.0056174393 -0.09876688 -0.03574894
-0.019865878 -0.03986908 -0.053362038 -0.010623343 0.019203126 0.062363274 -0.025105419 -0.06786376
0.043856286 -0.039759148 0.025574673 -0.100391746 -0.080808625 0.015636995 -0.017749852 0.011086411
0.05071259 0.03700199 0.0008238467 -0.09191669 0.05487422 -0.088345565 0.012829917 -0.11459652
0.0148095265 -0.034877528 0.060125403 0.056051843 -0.07794074 0.025967032 0.030942887 -0.03897001
-0.015876316 0.07403592 0.05195699 -0.091843896 -0.109441996 0.069255345 -0.04968243 -0.004890561
-0.0883235 -0.07678707 -5.6251884e-05 0.061907776 -0.051050305 0.023403928 -0.06098191 -0.033679307
-0.018359058 0.024771918 -0.033862747 0.043483846 -0.047065947 0.009821949 0.052594922 0.04037872
-0.08029822 0.01682212 0.0019137887 0.035162903 0.032394476 0.06894819 0.016080469 -0.10247285
0.049421277 0.0008855815 -0.07192212 0.080630265 0.083962314 0.030366674 -0.07319601 0.06711894
-0.02141153 -0.09441233 -0.092992716 0.024808705 -0.016895138 0.08317173 -0.0474687 -0.11882337
-0.019456182 0.03756846 0.020389874 0.014726034 0.050475083 0.081747465 0.06256811 0.010962956
-0.10825312 -0.09061061 -0.03011093 0.0035744035 -0.05371422 -0.009719581 0.037124433 -0.073691025
-0.017198935 0.030716538 -0.07220693 0.011520455 -0.11991244 0.06037452 -0.0872922 -0.047270566
0.052683778 -0.038008466 -0.013785 0.066914015 -0.10791665 -0.010243319 0.05845093 -0.06473464
0.038741678 -0.044865087 0.040586106 -0.018261626 0.046200313 -0.06006974 -0.084617354 -0.07097597
0.009794782 -0.011959853 0.076993726 -0.07866181 0.019931927 -0.0913563 0.051973026 -0.08072823
-0.048446245 0.013097851 0.078687966 0.057314612 -0.018350966 0.028879061 0.045193866 0.0015916218
0.04244487 -0.05176095 -0.07829725 0.0067160395 0.061900247 -0.006680757 -0.050257243 -0.07483286
-0.050307196 -0.104460746 -0.030645886 -0.055298112 -0.05164837 0.016192958 -0.059698742 -0.009316149

xy_encoder.flat_module.to_hidden.bias f4 [128]
00000000: 6134 59bd d235 1cbd ec43 49be e338 36bd
00000010: e624 e7bc fcb2 03bd 20af 3a3b a0f7 cbbc
00000020: c136 18be cc72 3ebd 8e14 6cbd 7448 3bbd
00000030: 25ea 52bd c21d e4bc b309 74bd be1b 7abe
00000040: c11a ab3d fa97 56be 3f16 70bd b285 c4bd
00000050: ad9a 70bd 0941 d5bc 0443 113e e1cf 913d
00000060: 6f75 9d3d e901 ecbe 2c26 34be 9880 c6bb
00000070: d7d4 4dbd bdaf 05be 1496 3ebd 7cba 1abd
00000080: 8db6 103d de3d cebd 4ba9 d6be f1f4 0abe
00000090: 181c 68be 8d82 9dbe 9be2 b8be c35f 00be
000000a0: 6f62 65bd 097a cdbe d994 03be a0c7 72bd
000000b0: 2874 c63d 0d0a 3cbd 47b6 ebbd bd74 10bd
000000c0: 8555 6e3d 8010 4c3d 354e 0dbd 2e6e 563d
000000d0: fea5 87bd 4214 5bbe d9a7 51bd 6efd 8abe
000000e0: e3c7 56bd 5e7e a4bd 6693 38be e83b 253e
000000f0: 96f2 7bbe 0015 aa3d 19fe 4bbd 001b 0fbe
00000100: 2337 003d 39c7 023d e4e2 213e 74e3 793d
00000110: fc85 33bd 1b18 54bc 725e 35bd 7f14 123d
00000120: 872a 42be 967a 97be 28ba 4ebe df6c 6fbd
00000130: 38f3 f33c ad58 aabd 8e56 13bd 5cf5 d7bd
00000140: 90ec 55be b2cf 40bd af56 9bbe 7568 85bd
00000150: d580 20bb 49a1 59bd 3212 893c 7695 ef3c
00000160: 9e6b a53b 19ce 513d 436c e7bd b109 47bd
00000170: 502e 01bd 0d32 09be ba0c d1bc e6c8 76bd
00000180: 9b9b 98bd 8a2c 60bd ee72 61be a886 74be
00000190: cfa8 38be 3949 0e3d eb78 2bbe df90 65bd
000001a0: 0c76 26be 0e90 5fbe c8f9 313d 7c2d 4cbd
000001b0: c36c f3bd 444d 44bd b2a6 ddbd 754a 143d
000001c0: fceb 20bd 5860 95bc ba94 8ebd d636 95bd
000001d0: b945 38bc ea12 a2be 9a3f 4cbd 71e8 60be
000001e0: 4156 fabc bda8 d1be 5afb 56bd 3cf4 c4be
000001f0: 2641 53bd f1a2 d1bd 7f6f 853d 3f4c bf3c
-0.053028468 -0.038137265 -0.19654816 -0.044487845 -0.028215837 -0.032153115 0.002848573 -0.02489835
-0.14864637 -0.046496198 -0.05763679 -0.045723394 -0.05149283 -0.02784622 -0.059579562 -0.24424645
0.08354712 -0.20956412 -0.058614966 -0.09595813 -0.05874126 -0.026031988 0.1418572 0.07119728
0.07688414 -0.46095207 -0.17592686 -0.00605781 -0.050251808 -0.1305532 -0.046529844 -0.0377755
0.035330344 -0.10070394 -0.41926035 -0.1357 -0.22666967 -0.30763665 -0.36110386 -0.1253653
-0.056002077 -0.40132168 -0.1284975 -0.05927241 0.09690124 -0.045908023 -0.11509376 -0.03526758
0.058187027 0.049820423 -0.034498412 0.05235117 -0.06623457 -0.21394446 -0.051185463 -0.27146477
-0.05243672 -0.08031915 -0.18024978 0.16136134 -0.24604258 0.08304787 -0.049802873 -0.13975143
0.031302582 0.031928275 0.15809208 0.06100793 -0.04382895 -0.0129452 -0.044279523 0.035664078
-0.18961535 -0.29585713 -0.201882 -0.058453437 0.029779062 -0.08317695 -0.035971217 -0.105448455
-0.20891023 -0.047073074 -0.30339572 -0.06514064 -0.0024490852 -0.05313233 0.016732309 0.029246073
0.0050482294 0.05122194 -0.11299946 -0.048593227 -0.031538308 -0.13397999 -0.025518764 -0.060250185
-0.074515544 -0.054729976 -0.22016498 -0.23879492 -0.18033145 0.0347378 -0.16745345 -0.056046363
-0.16255969 -0.21832296 0.0434511 -0.049848065 -0.11885979 -0.04792525 -0.1082281 0.03620382
-0.039287552 -0.018234417 -0.06961961 -0.0728585 -0.011247092 -0.31655055 -0.049865343 -0.2196367
-0.030558707 -0.4094905 -0.0524858 -0.38467586 -0.051575802 -0.10236157 0.06515407 0.023351787

xy_encoder.flat_module.linears.0.weight f4 [128, 128]
00000000: bac3 b8bd 7e63 853d 8286 a6bd d73f 403c
00000010: 2827 9fbd 2d1a 71bd 1e3f debc 3a96 27bb
00000020: 2327 63bd 1b62 6b3d dc3e 963c 8341 693c
00000030: 48ca 96bd 0a23 17bd fa2c 1f3d 7058 61bd
00000040: b70f a13c e0e7 f6bc 0fc1 4fbd 4c67 e4bc
00000050: 07b4 953d 1bca 21bd f74e bfbd b105 44bd
00000060: 744d 3abc 5c49 2a3d 517c 17bd 1b27 f6bd
00000070: bea7 31bd 4dd1 7ebd ea92 0c3d 8d72 8bbd
00000080: d17b c7bd 56aa 63bc a19b afbc 80a9 8abd
00000090: 972c 77bd 925c 9abd b1f7 923d 026a 2f3c
000000a0: 34ac 773d 6223 403d 78a7 39bd d7db 763c
000000b0: 4a0f eebd a0df bebc eb04 b2bd ecec 58bd
000000c0: 65b0 1abe 1a51 873d 99f4 8ebd 7773 a4bc
000000d0: 7cf6 63bb eded 2fbd 3af6 5d3d a9c3 0abd
000000e0: d2a3 2bbd 4259 bdbd 0859 bd3c 9791 4c3d
000000f0: f214 8cbd 4d81 21bd e18b 4d3d afba cabc
00000100: b005 a53b a8f3 65bd c91f 5f3d c344 c5bd
00000110: edce 18bd ceba 21bc 7af9 7c3d 2c64 15bc
00000120: 1dcf 6dbc f6dd a33d 5599 803c 5dc1 b8bc
00000130: 6892 613c 9961 9b3d 94bc 9dbd 02eb e13c
00000140: 055f 103d 9e84 ab39 aeb5 1cbd 8a34 a9bd
00000150: ecf6 93bd be31 533d cf51 f93c 19d0 c53c
00000160: 6bdc 173d bfab 38bd 722f e6bd 60f6 60bd
00000170: 5690 533d 2ae0 e83c 5658 e4bc c14e 8ebd
00000180: 8d04 46bd 86bf 2abd e840 22bd 58ce a1bd
00000190: 3bc1 4dbc 5096 a7bc 5f93 6fbd 2424 e23c
000001a0: dde5 2fbc ae7b 8cbd afc3 afbc 15a0 e4bc
000001b0: 5a87 94bd ebca 13bc a143 4dbd fd5e 863d
000001c0: 7009 093d 9c07 78bd aac7 603c 137d aa3c
000001d0: ccf4 a23c a5ce 953d 04c8 c53c 8190 cbbd
000001e0: f845 443d 3229 aebd 3aac 99bd 7981 89bd
000001f0: a6f7 55bd 3025 283d 0bb6 4a3d c309 c3bd
00000200: a1c1 933c 27eb 83bd d97e 75bd 7c8a 1abd
00000210: 3df3 b63d 04e6 04bd ad5e cc3c be36 98be
00000220: fe30 a2bd 9099 f23c 28d1 9bbc b961 a9bd
00000230: ba22 dabb 3de6 79bd fcc8 e73c 7111 09be
00000240: 550d 283d 0308 e83b 4152 1bbd 1314 953d
00000250: 189c 2bbd 7a40 bcbd e33f 81bd 7254 b9be
00000260: a010 3c3e 52bd d53c c0a4 24be 264f f0bd
00000270: 2899 34bd 836d 09be ba6f 8ebd 5908 ebbc
00000280: 7378 c8bd 025f cdbc a4fe 7bbe f033 283d
00000290: a061 28bd 6e59 10be 60db 00be 0b04 d2bd
000002a0: 0c9b e43c 2f5a f2bd 4055 07be 03ed 6ebe
000002b0: e2b8 383c f0e3 8dbd 7e11 8ebe 0ffd 17bd
000002c0: fa3b 06bb 2a20 3fbe 6b43 1dbd c405 2f3c
000002d0: 76dd 1b3d 88fa 34bd dd4f 85bd 9afc 01bb
000002e0: e112 42bd e046 023c d3a6 04be ea9a 393e
000002f0: 6b78 9e3d 1b6e 8e3b 6bac fd3d a329 95be
00000300: 626e d83d 6f2b 3c3a 05dc a1bc 1e1c 1a3e
00000310: 1079 703c 9c5b 7dbd e714 aa3c 2a72 98bc
00000320: fd79 233c 727e 3b3e 6cb5 ae3c 1eb5 f7bd
00000330: 29e6 e63d c0c7 42be 1aa1 1bbc b2b2 74bd
00000340: 52d4 fd3d 0832 3cbd e17e debd 2853 66bd
00000350: 936c d3bc 5091 bfbd e522 a8be 2e57 2fbe
00000360: 5bf6 ea3b ade4 873e fe73 1f3e f0ce 39bd
00000370: 5bcd 523d 2e31 343d 2a99 34bd 4085 003d
00000380: d4bc debd 6947 f33c 013c d1bd b3c1 543d
00000390: 8231 84bd 9388 58be 0444 533c 0ed5 633d
000003a0: 844a 57bd c60a 8abe e3e2 7dbb 87ec 2ebe
000003b0: e0c4 edbd c1b9 4cbb 4bc4 043e fa3b 713c
000003c0: 9d13 393d 2748 3fbd 4adf c5be e286 aabd
000003d0: 51a7 88bd 696f 72be a99f 3fbd 6ea1 86be
000003e0: 37f5 bfbd 49b2 2bbe 5246 833d 3e9c 173d
000003f0: 2930 bebd 5624 47bd 8057 1ebd 0bd6 b6be
-0.09021707 0.06513117 -0.08131124 0.011733971 -0.0777114 -0.058862854 -0.027129706 -0.002557172
-0.055457246 0.057466608 0.01834052 0.014236811 -0.07362801 -0.03689865 0.038861252 -0.05501598
0.019660814 -0.030139863 -0.050721224 -0.027881287 0.07309728 -0.039499383 -0.09341233 -0.04785699
-0.011371005 0.041573867 -0.03698379 -0.120191775 -0.043372862 -0.062211324 0.034319796 -0.06808958
-0.09740413 -0.013895592 -0.021436514 -0.06770611 -0.06034526 -0.07537188 0.0717615 0.010706427
0.06046696 0.046908744 -0.045325726 0.015067062 -0.1162401 -0.023299992 -0.08692344 -0.05296032
-0.15106352 0.06607266 -0.06980247 -0.02007459 -0.0034784367 -0.042951513 0.054189898 -0.033878002
-0.041904278 -0.0924554 0.023113742 0.049943533 -0.068399325 -0.03942995 0.050182227 -0.02474722
0.0050360784 -0.05614057 0.054473672 -0.09632256 -0.037306715 -0.009871198 0.061761357 -0.009118121
-0.014514712 0.0800132 0.015698114 -0.02255314 0.013767816 0.07586975 -0.07701984 0.02757788
0.035246868 0.0003271447 -0.0382592 -0.08261974 -0.07224831 0.05156111 0.030434517 0.02414708
0.03707544 -0.045085665 -0.11239518 -0.05492246 0.05165132 0.028427202 -0.027874153 -0.06948615
-0.048344184 -0.041686557 -0.03961268 -0.07900685 -0.012558277 -0.020457417 -0.058490153 0.027605124
-0.010735956 -0.068595275 -0.021455614 -0.027908364 -0.07252379 -0.009020547 -0.050113324 0.06561086
0.033456266 -0.060554132 0.013719479 0.020811593 0.019892119 0.07314805 0.024143226 -0.09939671
0.04791829 -0.08503951 -0.07503553 -0.06714148 -0.05223813 0.04105109 0.049490016 -0.09523346
0.018036665 -0.06441336 -0.059935424 -0.037729725 0.08933113 -0.032445922 0.024947489 -0.29729265
-0.07919501 0.02961424 -0.019020632 -0.08270592 -0.0066569718 -0.061010588 0.028294079 -0.1338556
0.04102834 0.007081033 -0.03792024 0.072792195 -0.04189691 -0.091919854 -0.063110135 -0.3619724
0.18365717 0.026091252 -0.16078472 -0.11733846 -0.044091374 -0.13420682 -0.06954904 -0.028690504
-0.09788599 -0.025069717 -0.24608856 0.041065156 -0.041108727 -0.14096615 -0.12583685 -0.102546774
0.027905963 -0.118336074 -0.13216114 -0.233326 0.011274548 -0.06928241 -0.2774772 -0.03710657
-0.0020482526 -0.18664613 -0.038394373 0.010682527 0.038053 -0.044184238 -0.06509373 -0.00198344
-0.047381286 0.007951468 -0.12954263 0.18125501 0.07737812 0.0043466217 0.12386402 -0.2913333
0.10567929 0.0007178103 -0.019758234 0.15049788 0.014677301 -0.061854944 0.02076192 -0.018609125
0.009977815 0.18309954 0.021326743 -0.12095092 0.11274368 -0.19021511 -0.009498859 -0.05974073
0.123940125 -0.04594615 -0.10864044 -0.056231648 -0.025808608 -0.09353888 -0.32839122 -0.171231
0.007170481 0.26541653 0.15571591 -0.045363367 0.051465373 0.043992214 -0.04409138 0.031377077
-0.1087586 0.029697137 -0.10216523 0.05194254 -0.06454755 -0.21145849 0.012894634 0.055623107
-0.052561298 -0.26961344 -0.0038739971 -0.17082416 -0.116098166 -0.0031238648 0.12965505 0.014723772
0.04518472 -0.04669967 -0.3864692 -0.08326508 -0.06672538 -0.23675312 -0.046783123 -0.26295036
-0.09372943 -0.16767229 0.06409897 0.03701424 -0.092865296 -0.048618637 -0.038657665 -0.35710177

xy_encoder.flat_module.linears.0.bias f4 [128]
00000000: 2685 a2bd 31a4 9fbd 712f debd 72ea 6cbd
00000010: 4dab 75bd 7a8d f2bc 7bd7 a1bd 2948 15be
00000020: f346 a7bd d8b8 68bd 5067 94bd 4be7 93bd
00000030: 8da8 77be 0316 8ebd 91f0 75bd 502c 85bc
00000040: 1ed9 853a 05a7 b4bd e8e0 fbbc 1af7 78be
00000050: 3204 b2bd c499 503c fbb5 97bd 304b e4bc
00000060: f9ad 0bbe 9f72 18bd 1a5b 93bd 4cdf b8bd
00000070: 458a 94be b140 88be f336 bdbc 9db8 a2bd
00000080: 4e0f 8ebd 99ab 0ebd f66a a2bd e2d8 57be
00000090: a9ed d6bd 9074 6cbd 4f9d d4bd 77c4 b9bd
000000a0: 1106 8ebd a4cc a3bd b701 94be 7bb6 1cbd
000000b0: d740 bcbd cac4 52bd 8991 03be 3ba2 16be
000000c0: bf11 17be f443 3cbd a0b3 e7bd 954d d53c
000000d0: 6161 0bbe ee7a 2cbc d6e0 38be c689 ef37
000000e0: 505b 36be fa99 43be 2807 53bd b398 07bd
000000f0: f472 ddbe d045 efbc f7c8 3bbd 6201 cabd
00000100: 6bf4 1fbe b9b3 b9be a17a ddbd 7d1f 29be
00000110: 2e3d 3e3d 2a70 6ebe 980c 5abd ed5b 66bd
00000120: 4925 a1bd a268 1f3c 5283 83bd 0b7c 79bd
00000130: 42fb 223d e8a0 c5bd 9d73 68bd 042b 1fbe
00000140: 8dbe 01be 2dc2 0dbd d84b c2bd d5dd 46bd
00000150: 135c 64bd c5ec aabd 94a8 a9be a17e 26bd
00000160: 7741 59bd 0739 52bd 4840 85bd e9a7 c3bd
00000170: fa6f 41be d5f8 46be 6d72 3cbd 0a1f 5ebc
00000180: 2440 c8bd f616 bbbd 14a5 aabd 1dff bcbc
00000190: 71f0 19bd eff9 ecbd 946a 53be bef2 b0bd
000001a0: 2228 dfbd 0666 d4bd 258b 78bd c436 70bd
000001b0: 2d1f b83c 998f 36bd 147d 5fbd 8d10 e2bd
000001c0: 1ce7 18be 4d4f 5ebc 01a2 80be ee39 003d
000001d0: dc57 aabd 9cf1 b8bd 3351 b9bb 222f a3be
000001e0: 2b5a e9bd 52ce 83be 60f0 b6bd e277 e0bd
000001f0: 4bd7 e0bd e84a e2bd 35d0 b3bd 6e51 3bbd
-0.07935552 -0.07794989 -0.108488925 -0.057840772 -0.05997782 -0.029608477 -0.07902428 -0.14578308
-0.08167829 -0.056816906 -0.07246268 -0.0722185 -0.24185391 -0.06937792 -0.060043875 -0.016256481
0.0010211801 -0.08820919 -0.030746892 -0.24313012 -0.086922064 0.012731973 -0.07407757 -0.027867883
-0.13640584 -0.037218686 -0.071951106 -0.090269655 -0.2901174 -0.26611856 -0.02309749 -0.079453684
-0.06936513 -0.034831617 -0.079305574 -0.21078828 -0.10494549 -0.05772835 -0.10381567 -0.09070676
-0.06934751 -0.079980165 -0.28907558 -0.038259964 -0.09192055 -0.051457204 -0.12848486 -0.14710324
-0.14752863 -0.045963243 -0.113135576 0.02603797 -0.13611366 -0.010527356 -0.18054518 2.8555176e-05
-0.1780827 -0.19101706 -0.051520497 -0.03310461 -0.43251765 -0.029208094 -0.045845952 -0.09863545
-0.15620582 -0.3626993 -0.10814405 -0.16515918 0.046445064 -0.23284975 -0.053234667 -0.05624001
-0.0786844 0.009729536 -0.06421532 -0.060909312 0.0397904 -0.09649831 -0.056750882 -0.15543753
-0.12670346 -0.03460901 -0.09487122 -0.0485514 -0.05575187 -0.083459415 -0.33136427 -0.040648106
-0.053040948 -0.051323917 -0.06506401 -0.09553511 -0.18890372 -0.1943086 -0.046007562 -0.013557205
-0.09777859 -0.09135239 -0.083322674 -0.023070866 -0.03758282 -0.115711085 -0.20646125 -0.086400494
-0.108963266 -0.10371022 -0.060679574 -0.05864598 0.022475803 -0.04457054 -0.054562643 -0.11038313
-0.14931911 -0.0135687115 -0.251236 0.031305246 -0.08317539 -0.09030458 -0.0056554317 -0.31871897
-0.11394151 -0.25743347 -0.08932567 -0.10960366 -0.10978564 -0.110494435 -0.08779947 -0.045731954

xy_encoder.flat_module.out.weight f4 [128, 128]
00000000: fd1a 33be 1094 90be ec58 f73d 4fb7 76be
00000010: 5d2b 1ebd a1b3 89be f9c6 dbbb 32c9 e73d
00000020: 0703 bdbd 3196 1abd 9de2 c0bd 7eeb 1c3d
00000030: 53e5 0dbf 5427 f33d 51d5 3e3e ac15 b6be
00000040: 3a71 333d 5dac d0be 8ef3 81bd 36ac 76be
00000050: f64d cdbd a8ce 0e3e 6a49 d8bd dc37 57be
00000060: e7a2 e33b 4611 30be 021b 3fbe 8d7a 263e
00000070: ef05 0fbf 5291 3abe 7358 3b3c e849 03be
00000080: 16a9 203d 627b 023e a823 553e 7611 f43d
00000090: 6700 86be b648 893d e195 ce3d 8eb2 97bd
000000a0: 339f af3b a73e 133e bba7 92be 93a7 753e
000000b0: b07e 32be d862 483d 69fd 593d baca 013e
000000c0: 221d 92be 1e52 373e 486e 80be 33c2 63bd
000000d0: 96f8 793d 45b4 21be 9db7 9f3e a207 c2bc
000000e0: 1146 75be b053 f33d 3d91 e6bd 16e5 303e
000000f0: 6707 e4bd f864 403e 263a 4c3d d7cb 863d
00000100: f6bc 84be 063f 5bbe 2dc9 193e 3489 243d
00000110: 3262 b93b 5d75 f2bd a5de 19be a044 d73d
00000120: 1e80 acbd f920 0bbe 3712 dabc b09c 453d
00000130: 5b43 c83c 954b 90bd 872a ff3d a5ac 2dbe
00000140: 2dd4 4b3e f612 b63d 719f 87bc d110 90be
00000150: f766 edbd c38c 123b d4f1 b4be 09b0 43be
00000160: bb70 abbd 18d0 de3c 9791 293c 0dc1 533e
00000170: 79fe 6dbe 0bcb 07bd 41f2 8d3d 32a4 debc
00000180: 4d3a 053c 4636 69bc ddbc 66be a342 d7bd
00000190: 3c78 f23d ad71 2bbc 8252 063e d8b8 073e
000001a0: 718c 273e 8fd8 533d d8ed 4d3e ee8d c7bd
000001b0: 9ebf a83d eb37 ab3d b3bd d33d 38f6 03bd
000001c0: 2827 14bd d2ad 97bd 953b 813e 5c82 adbe
000001d0: 2a08 283e f642 e33a 06f3 463e 56a8 88bc
000001e0: 549f 083e ac42 29be 2d6a e6be 6f9a 063d
000001f0: c8d4 82be 9b0d 083e 37ca d83b 64d4 4fbe
00000200: dfe9 d9bd 2f21 95be 2c43 4c3e 3772 b1be
00000210: bbcb 53be 3e0d 6b3d 7550 0539 8f8b 403e
00000220: 6062 16be 0f91 46be 8ec8 2b3d 3921 1f3e
00000230: 878f 2e3d 1849 9d3e 4ce9 cdbe 9d65 d23e
00000240: c9ef d1bd 0dfe e7bd 7464 373d 1358 983d
00000250: 36cd 3cbd 1742 cdbd e564 4a3d f92c d4bd
00000260: 8407 2d3e 8621 4c3d 6f8f 743d d174 44be
00000270: 2ab5 ea3c 57a4 85bd 9599 0b3e 7a8f 14be
00000280: 3932 59be b651 acbe cbf5 b4bd 1923 54be
00000290: 0e25 34be 3135 37be da3e cdbd 9d86 353e
000002a0: 09e7 70bd fdc0 cc3c 137f ea3e 6194 b63c
000002b0: 138f a3bd a084 e6bd db83 c13e fdd2 9d3d
000002c0: 5cc2 bb3e b572 54be 867f 06be c947 933d
000002d0: 79d1 963e d481 22be d5b3 e3be 0d5f 8e3d
000002e0: 0314 2d3e d161 883e 4233 2dbe a000 253e
000002f0: 4aa1 a13e a1f0 a43d 02e0 92bc 2663 573a
00000300: 89d5 453e 2994 0f3e 2419 81bd b8bc ceb9
00000310: 335e 003e e1f9 ba3d 5efd 9cbd 8ae5 4dbd
00000320: 7b8a 1a3e 7638 72be 8eed dcbc 0f7a 593e
00000330: f320 9ebc 4222 e83d 7940 8cbe be98 b0bb
00000340: 322c 8fbd fb25 893d c5e7 65bd 151d debd
00000350: d6bb eb3d 3c56 1fbe 8690 c83c 015b 1c3d
00000360: b789 9ebb 756e 63bc 748f 1b3e 8876 39be
00000370: ab27 4dbe 8d73 223e fca6 0f3e a011 dd3c
00000380: ced6 933d 6cce ccbd 146a 4f3e 8cf8 04be
00000390: 320e 2c3d 6151 513e d041 5d3e a955 cfbd
000003a0: ec79 0a3e 5f3a d63d dc74 08bf 6ef4 6bbe
000003b0: d10f f53c 1011 02be 7c7c c5bd 6bc1 bfbe
000003c0: 0959 5bbd 1907 a7bb 9dea 7cbe 2d90 e8bc
000003d0: ea79 fabd 94f5 d13d 8d7a 3d3d 765d 2a3e
000003e0: 505d 1c3d d138 1a3e b926 533e ef4e 0ebe
000003f0: be28 2fbe dece 343d acbc 723a ff18 8c3a
-0.17490764 -0.28237963 0.120775074 -0.24093364 -0.038615573 -0.26894858 -0.006707069 0.11317672
-0.09229093 -0.03774089 -0.09418223 0.03831052 -0.55428046 0.118727356 0.18636061 -0.3556341
0.043809153 -0.40756503 -0.063452825 -0.24089131 -0.100246355 0.1394602 -0.105608776 -0.21017402
0.0069469097 -0.1719409 -0.18662646 0.16257687 -0.5586843 -0.18219498 0.011434662 -0.12821162
0.039223753 0.1274238 0.20814383 0.11917393 -0.26172182 0.06703322 0.10087181 -0.074071035
0.005359554 0.14379369 -0.28643593 0.23989706 -0.1743114 0.04892239 0.053220186 0.1267499
-0.28537852 0.17902419 -0.25084138 -0.055605125 0.061028086 -0.15791424 0.31194773 -0.02368528
-0.2395251 0.118811965 -0.11258171 0.1727489 -0.111342244 0.18788517 0.049860142 0.06581848
-0.25925416 -0.2141076 0.15018149 0.04016991 0.0056574577 -0.118387915 -0.15026338 0.10511136
-0.08422874 -0.13586797 -0.026620014 0.048245132 0.02444618 -0.07045666 0.12459283 -0.1696039
0.19905157 0.08890335 -0.01655552 -0.2813783 -0.115919046 0.0022361733 -0.3534075 -0.19110121
-0.08371111 0.027198836 0.010349653 0.20679112 -0.23241605 -0.03315262 0.06930972 -0.027177904
0.008131576 -0.014234131 -0.22532983 -0.10510757 0.11839339 -0.010464114 0.13117412 0.13254106
0.16362168 0.0517202 0.20110261 -0.09743868 0.08239673 0.08360275 0.10338917 -0.032217234
-0.036170155 -0.074062005 0.2524077 -0.3388852 0.16409364 0.0017338682 0.19428644 -0.016681831
0.13342029 -0.1652934 -0.4500288 0.032862123 -0.25552964 0.1328644 0.0066159028 -0.20295864
-0.106403105 -0.2912688 0.19947499 -0.34657452 -0.20683186 0.057385676 0.00012713841 0.18803237
-0.14685965 -0.19391273 0.04193931 0.15540017 0.042617347 0.3071983 -0.40217054 0.4109315
-0.102508135 -0.11327753 0.044773534 0.07438674 -0.046094142 -0.10022371 0.049412627 -0.1036014
0.16897398 0.049836658 0.0597071 -0.19185187 0.028650839 -0.06525486 0.13632806 -0.14507857
-0.21210565 -0.3365609 -0.08835944 -0.20716514 -0.1759226 -0.17891385 -0.100217536 0.17727132
-0.058814082 0.024994368 0.45800075 0.02228755 -0.079862736 -0.11255765 0.3779591 0.077062584
0.36671722 -0.20746882 -0.13134584 0.07191426 0.2945669 -0.15869838 -0.44473138 0.06951723
0.16902165 0.26637128 -0.16914085 0.1611352 0.31568366 0.08053709 -0.01792908 0.00082163734
0.19319738 0.14021362 -0.06303623 -0.00039431988 0.12535934 0.09129692 -0.076655135 -0.050267734
0.15091889 -0.2365435 -0.026968744 0.21237968 -0.01930282 0.11334659 -0.2739294 -0.005389302
-0.069908515 0.06696697 -0.056129236 -0.10845391 0.11510436 -0.1556024 0.024482977 0.038172726
-0.004838194 -0.0138813155 0.15191442 -0.18111622 -0.20034663 0.15864392 0.14028543 0.026985943
0.07218705 -0.10000309 0.2025531 -0.12985438 0.042005725 0.204412 0.21607137 -0.1012376
0.13523072 0.10460352 -0.53303313 -0.23042461 0.029914768 -0.12701821 -0.09642884 -0.37452254
-0.053551707 -0.0050972817 -0.24698873 -0.02838906 -0.122302845 0.102519184 0.04625945 0.16637215
0.038174927 0.15060736 0.2062024 -0.13897298 -0.17105386 0.044142596 0.00092596817 0.0010688602

xy_encoder.flat_module.out.bias f4 [128]
00000000: f8f4 623d 7b54 573d f9bb 86bc 1c64 003c
00000010: 0a28 123b cfa2 013c f455 76bd 701d 7d3b
00000020: bec6 3e3c 18d8 333d a5c2 2cbb e881 f03b
00000030: 2490 c23c 7ac0 58bd 0c4c 8bbc 255e d3bc
00000040: 69fc 0cbb 21a4 58bb f569 8d3d 0116 1abc
00000050: 83c6 2c3c 3a4c adbc 3bbc 0abd 4e71 fabc
00000060: 021a 1bbd 70ed d1bc 6e0c 00bd 9b91 85bc
00000070: 4662 eabb f8ac cf39 d076 803c 6a75 483c
00000080: f5e2 333c 703f 8abd ac75 9a3c 16b8 de3a
00000090: 2dac bebc 0203 0a3d 9c2a 29ba 0c14 f73c
000000a0: e3b3 85bc 097b 1bbd 03d0 b83b 4789 35bd
000000b0: 919b ed37 f186 c5bc 45f2 fcbb 5456 f6bc
000000c0: 3f55 0d3d e72c e4bc 49f4 9bbc 29b9 8a3c
000000d0: 68ed 2bbd 3237 e43c 2461 51bc aacf cbbc
000000e0: e389 633c 4862 2bbd 7835 5a3c b6f9 0e3d
000000f0: 4524 1cbc 9f43 b3bc b33a 9b3a b9e6 903b
00000100: 0100 1e3c 2a7a 7abc 574c 33bc 7dd4 9abc
00000110: ec08 a5bb 0361 483c 8091 923c febb cfbc
00000120: 4c0c 433b 47ac 153d 1f76 e1b8 2389 0ebd
00000130: 1923 323d 2a4f 45bb 4f55 003c acc7 01bd
00000140: 0461 11bd b811 6d3c 8ffc 913c 2c7d da3c
00000150: c141 b3bb ef2f 27bd 4330 aebb 967a 31bd
00000160: 0141 c4bb e8a1 b83d 7a90 453c d146 ebbc
00000170: 5840 a33c e2f9 f33c 64f7 183c 3525 11bd
00000180: 0930 673d 1f31 0abc 4a5c 1e3b a6b5 a0bd
00000190: 9d4e d93c 1754 33bd a64f 863c b4b1 ddbc
000001a0: 9844 323c f407 6a3b 272d 763a 006f e73b
000001b0: c4f1 07bd 3847 683c a94c 1dbd a36c 263c
000001c0: 0f9f 703c c6ee aebb 1ade a739 1a62 ee3c
000001d0: 2714 1d3c 5691 78bc 5539 dbbc 839b d93c
000001e0: 4b17 a73b 0c09 5cbc 5877 ce3c a940 5abb
000001f0: 369e 0abb 38bd 673b 0adc dc3c 25e2 38bd
0.0554094 0.0525708 -0.016447054 0.007836368 0.0022301697 0.007912352 -0.060140565 0.0038622282
0.0116440635 0.043907255 -0.0026361134 0.007339705 0.023750372 -0.052917935 -0.017004035 -0.025801728
-0.0021512753 -0.0033056813 0.06904975 -0.00940466 0.010545376 -0.021154512 -0.033870917 -0.030571606
-0.0378666 -0.025625914 -0.031261854 -0.016304782 -0.0071528284 0.00039610988 0.015681654 0.012235025
0.010979404 -0.06750381 0.018854938 0.0016992118 -0.02327546 0.033694275 -0.00064531877 0.030160926
-0.016321128 -0.037959132 0.0056400313 -0.04432037 2.8325043e-05 -0.024112197 -0.0077193105 -0.030070461
0.034505125 -0.027853442 -0.019037383 0.016933994 -0.041974455 0.02785835 -0.012779508 -0.024879295
0.013887855 -0.041841775 0.013318412 0.03490611 -0.009530132 -0.02188283 0.0011843055 0.0044220355
0.009643556 -0.015287915 -0.010943494 -0.01890015 -0.005036464 0.012230161 0.017891645 -0.025358196
0.0029761968 0.03654125 -0.00010750838 -0.034798753 0.043490503 -0.0030107 0.007832839 -0.031684563
-0.035492912 0.0144695565 0.017820625 0.026671015 -0.005470485 -0.040817197 -0.005315812 -0.043329798
-0.0059891944 0.09015256 0.012058372 -0.028720291 0.019928142 0.02978224 0.009336326 -0.035435874
0.056442294 -0.008434563 0.0024163895 -0.07847147 0.026526744 -0.043781366 0.016395401 -0.027062275
0.010880612 0.0035710307 0.00093908835 0.007062793 -0.03318955 0.014177136 -0.038403187 0.010157737
0.01468636 -0.0053385226 0.000320182 0.029099513 0.009587324 -0.01517137 -0.026760736 0.026563412
0.0050992123 -0.013429891 0.025203392 -0.00333027 -0.002115143 0.0035360586 0.026960392 -0.045137543
